logs/el_mini_test/exported/policies/policy_1.pt (torch, 817736 bytes, 8 tensors)

weight f4 [512, 66]
0	0x3e76b735	0.24093325
1	0xbda452e5	-0.080236234
2	0x3d4b0ae0	0.049570918
3	0x3d30fd63	0.0432104
4	0x3d50f2dc	0.05101286
5	0x3e29dd76	0.16588387
6	0x3e4a8699	0.19777907
7	0x3df32b25	0.118734635
8	0xbd769d3f	-0.060208555
9	0xbe7a76d0	-0.24459386
10	0x3ddf6b21	0.10909105
11	0xbe3e8fda	-0.18609563
12	0x3cf9395c	0.030422859
13	0x3da1ef95	0.07907025
14	0x3d2d4c27	0.042308953
15	0xbbf35192	-0.0074254954
16	0xbda08897	-0.078385524
17	0x3d77e95e	0.06052529
18	0x3dbb569d	0.091473795
19	0xbb0a2c43	-0.002108351
20	0x3d500d0e	0.0507937
21	0x3dee2215	0.116275944
22	0x3d9ca7cf	0.076491944
23	0xbc8e7625	-0.01739032
24	0x3e18ed45	0.14934261
25	0xbd070950	-0.032967865
26	0xbd952773	-0.07282915
27	0x3daa6243	0.08319523
28	0x3d12b61b	0.0358182
29	0x3c71baf3	0.014754045
30	0xbdc97c95	-0.09838215
31	0xbc3a17d3	-0.011358219
32	0xbc1c472e	-0.009538455
33	0x3d87ae8b	0.06625088
34	0xbdb6f21a	-0.08932896
35	0x3d87ed14	0.06637016
36	0xbce4d323	-0.02793271
37	0x3d9e63d8	0.077338874
38	0xbc65ee3a	-0.014033848
39	0xbd9aefc8	-0.07565266
40	0xbd1999d3	-0.037500214
41	0x3d02c1de	0.031923167
42	0x3d8fbcfe	0.07018469
43	0x3d166d22	0.03672517
44	0xbd2fa8b5	-0.0428855
45	0xbdb44e50	-0.088039994
46	0xbca8679f	-0.020557223
47	0xbca5663a	-0.020190347
48	0x3d3f2748	0.04666832
49	0x3cde0232	0.027100656
50	0x3c1fd08f	0.009754314
51	0xbd063450	-0.032764733
52	0x3d0e42db	0.034731727
53	0xbbb89e71	-0.005634122
54	0x3d75f2b0	0.060045898
55	0xbcd2d52a	-0.02573641
56	0x3d19133c	0.03737186
57	0xbb550f41	-0.0032510313
58	0x3d104982	0.035226353
59	0xbcafc8b0	-0.021458
60	0x3d8fe37e	0.070258126
61	0x3dab398f	0.08360588
62	0xbdc86e26	-0.09786634
63	0x3d957c63	0.072991155
64	0xbd806a03	-0.0627022
65	0x3d1198a0	0.035545945
66	0xbe30204a	-0.17199817
67	0xbe29640f	-0.16542076
68	0xbd71b597	-0.05901107
69	0x3ddc5c08	0.10759741
70	0xbe29312c	-0.16522664
71	0xbec16860	-0.37774944
72	0xbe102878	-0.14077938
73	0x3d6aed1e	0.05735504
74	0x3d053ee3	0.032530677
75	0x3cf79932	0.030224416
76	0x3e32b6f9	0.17452611
77	0x3f13c696	0.57724893
78	0x3cde46d0	0.027133375
79	0x3da2e18b	0.07953175
80	0x3d2f434d	0.042788792
81	0x3e11cfe5	0.14239462
82	0x3c5a74b7	0.013333491
83	0xb817fbde	-3.6235775e-05
84	0xbd0d679b	-0.034522634
85	0x3d0a0d4b	0.033704083
86	0x3b2f677d	0.0026764565
87	0x3d20b745	0.03923728
88	0xbc42a8ce	-0.0118810665
89	0x3d83c493	0.06433978
90	0xbd813ea1	-0.06310774
91	0xbd46e0b8	-0.048554152
92	0x3c67efd0	0.014156297
93	0x3da80a3c	0.08205077
94	0xbce84da1	-0.028357329
95	0xbc646187	-0.013939268
96	0x3d1868bd	0.03720926
97	0xbdfa924d	-0.12234936
98	0xbdbe09c7	-0.09279209
99	0x3c5e9cf0	0.0135872215
100	0x3d0955c5	0.03352906
101	0x3c8d83cb	0.017274758
102	0xbd4f717f	-0.050645348
103	0x3e07f4f1	0.13277031
104	0xbd934ec1	-0.071927555
105	0xbd149ecd	-0.036284257
106	0xbcc84d21	-0.02445084
107	0x3da8436b	0.08215984
108	0x3be829c9	0.0070850593
109	0x3d7ad640	0.06123948
110	0x3cd14612	0.025546107
111	0x3e6e88d6	0.23294386
112	0x3d72f38f	0.059314307
113	0xbd569ec7	-0.052397516
114	0x3dfb13f2	0.12259664
115	0xbd539795	-0.05165823
116	0xbd5ab3ae	-0.053394012
117	0x3c417cd7	0.011809549
118	0x3d192a0a	0.037393607
119	0x3cedfcfa	0.029051293
120	0xbc5f54f1	-0.013631091
121	0x3c90baed	0.017667258
122	0xbbea3cc1	-0.0071483557
123	0xbdd017b5	-0.10160772
124	0xbc128b07	-0.0089442795
125	0xbd908a16	-0.07057588
126	0x3ce6fb06	0.02819587
127	0x3c097428	0.00838951
128	0x3d3ce21b	0.04611407
129	0x3dbed5c1	0.09318114
130	0x3b60864d	0.0034259737
131	0x3b8cdcb7	0.004298772
132	0xbce75b78	-0.028241858
133	0x3d40b2a4	0.047045365
134	0xbe2dd2ff	-0.1697502
135	0xbca4b958	-0.02010791
136	0x3da589dd	0.08082936
137	0xbd0787db	-0.033088546
138	0xbca2539c	-0.019815259
139	0x3da6934b	0.08133563
140	0x3c2fc0d5	0.010727127
141	0x388326fe	6.2538296e-05
142	0x3cd683ff	0.026185988
143	0xbedab571	-0.42716554
144	0xbe0767ba	-0.13223162
145	0x3d9a3c5a	0.075310424
146	0xbb40a93d	-0.002939775
147	0xbe4c37b9	-0.19943132
148	0x3d2cde1c	0.042204008
149	0x3d35638b	0.044284385
150	0xbd03e193	-0.032197546
151	0xbd610f12	-0.054946013
152	0x3c68d6f1	0.014211402
153	0x3e803618	0.2504127
154	0x3dce5582	0.10074903
155	0xbbf2a97b	-0.0074054576
156	0x3e94a663	0.29033193
157	0x3c74340a	0.014904985
158	0x3d99517d	0.07486246
159	0x3dbbfbce	0.09178887
160	0x3ded4af2	0.1158656
161	0x3d9c1c2b	0.0762256
162	0x3d9986a0	0.07496381
163	0xbdd6622a	-0.10467942
164	0xbe53a1eb	-0.20667236
165	0x3d94120c	0.07230005
166	0xbe415f36	-0.18883976
167	0xbe07329a	-0.13202897
168	0x3de7ab71	0.11311997
169	0x3d9646c2	0.07337715
170	0xbe863375	-0.26211134
171	0x3e016e5a	0.12639752
172	0xbdd1c188	-0.10241991
173	0x3e0816b6	0.13289914
174	0x3d03174c	0.03200464
175	0x3d390e2c	0.04517953
176	0xbe12e7a2	-0.14346173
177	0xbcbca06b	-0.023025712
178	0xbd112048	-0.035431176
179	0xbd4770c7	-0.048691537
180	0xbd06db65	-0.032924075
181	0x3d366b6d	0.044536043
182	0xbbe7daf9	-0.007075664
183	0xbdfaa801	-0.122390755
184	0xbd708e4f	-0.058729466
185	0x3c53257f	0.012887358
186	0x3ca1eaab	0.019765219
187	0xbc123642	-0.008924069
188	0x3b9a8072	0.004715019
189	0x3e269eea	0.16271558
190	0x3d5f74bc	0.054554686
191	0x3b3fab86	0.0029246523
192	0x3e345610	0.17610955
193	0xbd5d3cea	-0.05401317
194	0x3c733e67	0.014846421
195	0xbdb3f697	-0.08787268
196	0x3c4088fd	0.011751411
197	0xbd091ddf	-0.033475753
198	0x3cdc0bb7	0.026861055
199	0x3c919d91	0.017775329
200	0x3d60194c	0.054711625
201	0xbd9aad68	-0.07552606
202	0x3e6db725	0.23214395
203	0x3e9ff489	0.31241253
204	0x3f0233cc	0.50860286
205	0x3dbf5ae8	0.09343511
206	0xbd681b3e	-0.056666605
207	0x3c81e799	0.015857505
208	0x3d6097e7	0.054832365
209	0xbeeb82b2	-0.4599815
210	0x3d19915e	0.03749215
211	0x3d653406	0.055957817
212	0x3c8c2175	0.017105797
213	0x3cac56ec	0.021037541
214	0x3d3d05f6	0.046148263
215	0x3c484d10	0.012225404
216	0xbe7c9811	-0.24667384
217	0xbd066549	-0.032811437
218	0x3bbbd218	0.0057318322
219	0xbda25fec	-0.07928452
220	0x3d9e6169	0.07733423
221	0x3c9f0352	0.019410763
222	0x3d182db9	0.03715298
223	0x3cefde9c	0.029280953
224	0xbdb13ab0	-0.08653772
225	0x3e11641c	0.14198345
226	0x3da9b1d4	0.08285871
227	0xbd2708e2	-0.040779956
228	0xbdfad081	-0.122468
229	0x3d6bf9e2	0.057611354
230	0x3d5c35b9	0.05376217
231	0x3d84ab0e	0.064779386
232	0x3ced334d	0.028955126
233	0xbd9fd882	-0.078049675
234	0x3e2db1c4	0.16962343
235	0x3dbe2d96	0.092860386
236	0x3e0edb89	0.13950934
237	0x3d238e0e	0.039930396
238	0x3d8647cb	0.06556662
239	0xbd59ae72	-0.05314488
240	0x3e422a7b	0.18961518
241	0x3c2eb895	0.010664125
242	0x3c22e119	0.009941363
243	0x3d23114d	0.03981142
244	0xbd4381eb	-0.04773132
245	0x3c6981e0	0.014252156
246	0xbd616f6b	-0.055037897
247	0xbbae5823	-0.0053205653
248	0x3d1b99e3	0.037988555
249	0x3d400677	0.046881165
250	0xbcf4fec9	-0.029906647
251	0xbc7f296d	-0.0155738415
252	0x3ceeb5dd	0.029139454
253	0xbcfd61c9	-0.030930417
254	0x3d224423	0.03961576
255	0x3d9b224f	0.07574903

bias f4 [512]
0	0xb96e77a2	-0.00022742015
1	0x3b1fe49b	0.0024397734
2	0x3ca71e8f	0.020400314
3	0x3c5c1d4d	0.01343472
4	0x3caee253	0.021348154
5	0xbb893b91	-0.004188009
6	0x3bcf4ada	0.0063260617
7	0xbaa598ec	-0.0012634075
8	0x3cb91916	0.02259497
9	0x3ce45db8	0.02787672
10	0x3d0f4cde	0.034985416
11	0x3c0af121	0.008480341
12	0x3b13db68	0.0022561196
13	0x3b3e1904	0.002900661
14	0x3c4c997e	0.012487767
15	0x3cb381f2	0.021912549
16	0x3cda5e81	0.026656391
17	0x3c34cceb	0.011035184
18	0xbc8c4953	-0.017124807
19	0xbbeee202	-0.007290126
20	0xbbf6e246	-0.007534298
21	0xbc1e092c	-0.009645741
22	0xbcc953c8	-0.024576083
23	0xbc516e32	-0.01278262
24	0x3cbf2e62	0.023337547
25	0xbc63c161	-0.013901086
26	0xbc549a46	-0.012976235
27	0x3b88293d	0.0041553066
28	0x3c2572e3	0.010098192
29	0x3cf15d76	0.029463511
30	0x3c8869d2	0.016652022
31	0xbca9483a	-0.020664323
32	0x3b446623	0.0029968105
33	0x3bd9b7c5	0.0066442215
34	0x3d0e8ca2	0.034802087
35	0xbca5887a	-0.020206679
36	0x3bbfcec6	0.0058535067
37	0xbb9e5cbd	-0.0048328326
38	0x3bc39671	0.0059688617
39	0x3cc940f6	0.024567109
40	0xbb8ee82c	-0.004361173
41	0x3cb54363	0.022126859
42	0x3ae9086b	0.0017778998
43	0x3b9b0ff3	0.004732126
44	0x3c898c83	0.016790634
45	0x3c3553a0	0.011067301
46	0xb9902df7	-0.00027500067
47	0xbcc82745	-0.024432788
48	0x3b077b07	0.0020672695
49	0xbc7c1b72	-0.015387403
50	0x3d46e0c2	0.04855419
51	0xbc940460	-0.018068492
52	0x3c2ea177	0.010658613
53	0xbae95556	-0.0017801921
54	0xbbe879f2	-0.007094615
55	0xbbcba7a7	-0.006215054
56	0x3cb85d38	0.022505388
57	0xbc593813	-0.013257998
58	0xbc582b0f	-0.01319386
59	0xbadcd6ab	-0.0016848644
60	0x3b0ea3d5	0.0021765132
61	0x3c2283ef	0.009919151
62	0xbb3a4b66	-0.0028426289
63	0x3c0665da	0.008202994
64	0xbbb65946	-0.0055648414
65	0x3cd321af	0.025772898
66	0xbb12f7f1	-0.0022425617
67	0x3bff3062	0.00778775
68	0xbd0dd73a	-0.034629084
69	0xbb337ff1	-0.0027389491
70	0x3c1ef228	0.009701289
71	0x3cee118d	0.029061103
72	0x3b14c1c9	0.0022698513
73	0x3d0da5b5	0.03458186
74	0x3bd3a78e	0.006459183
75	0xbbcb24fa	-0.0061994763
76	0xbcc354c7	-0.023844136
77	0xbcc218c3	-0.023693448
78	0x3bdcd06a	0.006738712
79	0xbc1e20b1	-0.009651349
80	0xbc781f38	-0.015144162
81	0xbc26a744	-0.010171715
82	0xbc107a3f	-0.008818208
83	0x3c3045a7	0.010758794
84	0x3c0e00d2	0.008667188
85	0x3ceae29c	0.028672509
86	0x3bb2cc14	0.005456457
87	0x3c62b05b	0.013835992
88	0xbc78a679	-0.015176409
89	0x3c455d84	0.012046222
90	0x3c510951	0.012758569
91	0x3c5b2769	0.013376095
92	0x3b3e7633	0.0029062151
93	0x3b933091	0.0044918736
94	0xbbfc7a6e	-0.0077050244
95	0x3be35212	0.006937274
96	0xbc21d0da	-0.009876454
97	0x3a993eee	0.0011691728
98	0xbc8bad3e	-0.017050382
99	0x3c9438a9	0.018093424
100	0x3c97ed99	0.018545913
101	0x3c056abd	0.008143124
102	0x3c2eb573	0.010663378
103	0x3aca79c0	0.0015447661
104	0x3c8a8711	0.016910108
105	0x3ce6b95f	0.028164564
106	0xbbe3ff0f	-0.0069578956
107	0xbb3edc91	-0.0029123167
108	0xbca7b47f	-0.02047181
109	0xbc5e5ba4	-0.0135716535
110	0xbc7577fe	-0.014982222
111	0x3bde9811	0.00679303
112	0xbc958630	-0.018252462
113	0xbc226770	-0.009912357
114	0x3caad1a3	0.020851916
115	0x3d4767c8	0.048682958
116	0xbbc4cc74	-0.006005818
117	0xbc0ce744	-0.00860006
118	0xbb0a053a	-0.0021060244
119	0x3c724618	0.014787219
120	0xbb1f687b	-0.002432375
121	0x3bcea92b	0.0063067875
122	0x3c998f24	0.018745013
123	0xbc899410	-0.016794235
124	0x3c68695e	0.014185278
125	0x3c126baf	0.008936807
126	0x3be60323	0.007019417
127	0x3c5f2920	0.013620645
128	0x3c0bf8c4	0.008543197
129	0xbbd46b8c	-0.006482547
130	0x3bba06da	0.0056770863
131	0x3c91d643	0.017802363
132	0x3c71dc8f	0.014762058
133	0x3b745fd9	0.0037288575
134	0x3c62ea4d	0.013849807
135	0xbcf573d5	-0.02996246
136	0xbb946497	-0.004528593
137	0xbbde6d47	-0.006787929
138	0x3c38fa21	0.011290104
139	0xbb9af7ec	-0.0047292616
140	0xbb614b21	-0.0034377056
141	0x3d145636	0.03621503
142	0xbc577882	-0.01315129
143	0x3ab277ad	0.0013615988
144	0x3c156b45	0.009119813
145	0x3ce301b6	0.027710777
146	0x3c24e6f1	0.010064826
147	0x3bb2e1c5	0.0054590427
148	0x3c096d27	0.00838784
149	0x3c2a393e	0.010389624
150	0x3cb09112	0.02155355
151	0x3bddd631	0.0067699184
152	0x3af828d9	0.0018933072
153	0xbca863a8	-0.020555332
154	0xbb615411	-0.0034382383
155	0x3cad22f4	0.021134831
156	0x3c2132fc	0.009838816
157	0x3b794e52	0.0038041067
158	0x3c5f76dc	0.013639178
159	0x00000000	0.0
160	0xbc8d226c	-0.017228328
161	0x3c04a7db	0.0080966605
162	0x3ae67420	0.0017582215
163	0x3ab6ee22	0.0013956467
164	0xba7dab8d	-0.0009676747
165	0xbc06f43d	-0.008236942
166	0xbc770f0f	-0.015079274
167	0x3c873ec0	0.016509414
168	0xbbea8ae7	-0.0071576717
169	0xbb68f9b1	-0.0035549218
170	0x3c8c48b2	0.017124508
171	0x3cc787ba	0.024356712
172	0xbc5486e5	-0.0129716145
173	0x3bc5bf3f	0.006034761
174	0x3ce6afec	0.028160058
175	0x3ca57a98	0.020200059
176	0x3bc71f17	0.0060767042
177	0x3c963e06	0.018340122
178	0x3c0bdbef	0.008536323
179	0xbc708769	-0.014680722
180	0x3c80604e	0.015670922
181	0x3ceae2e3	0.028672641
182	0xbbc6b267	-0.0060637477
183	0x39f9ae40	0.00047622807
184	0x3cebdc4a	0.028791565
185	0xbc3308a8	-0.010927357
186	0xbc7d2f1f	-0.015453129
187	0xbc9f1cc9	-0.019422906
188	0x3a7b8f22	0.00095962186
189	0xbbedccbc	-0.0072570723
190	0x3bed8ffd	0.0072498308
191	0x3c636a05	0.0138802575
192	0xbc8842b0	-0.016633362
193	0xbc7e8fd2	-0.015537219
194	0xbc8697f0	-0.016429871
195	0x3bfe737a	0.0077652307
196	0xbbeef377	-0.007292207
197	0x3bb0216b	0.0053750775
198	0xbbfaba4d	-0.0076516033
199	0x3c73bb5e	0.014876215
200	0xbc271d43	-0.010199848
201	0x3b1f45e6	0.0024303137
202	0x3ccfafc2	0.025352363
203	0x3c13e763	0.009027335
204	0x3c0b3b1f	0.008497982
205	0xbb54997f	-0.0032440124
206	0x3c8bb941	0.01705611
207	0x3bb82cc4	0.005620571
208	0x3b5c6eb1	0.0033635313
209	0x3b8ad412	0.0042367065
210	0xbccd0d8c	-0.025030874
211	0x39b56c18	0.00034603546
212	0xbaad63b1	-0.0013228563
213	0x3c8a24be	0.016863223
214	0x3c8806cb	0.016604802
215	0x3cbb0774	0.022830702
216	0x3c3c94fe	0.011510132
217	0xbbb955e6	-0.005655992
218	0x3b0d1655	0.0021528204
219	0xbcee2e36	-0.02907477
220	0xbc6d9b0c	-0.014502298
221	0x3cb119f1	0.021618815
222	0x3cdae891	0.026722224
223	0xbb5ffd5a	-0.003417811
224	0x3a46ee2b	0.00075885904
225	0xbbefef6f	-0.007322244
226	0xbc84d1c5	-0.016213307
227	0x3c1736a3	0.009229335
228	0xbc0faa7d	-0.008768675
229	0xbc7e6d33	-0.015528965
230	0x3c8eb898	0.017422006
231	0x3c81f844	0.015865453
232	0x3bbd2019	0.0057716486
233	0xbab4f4c4	-0.0013805856
234	0x3ca100cd	0.019653702
235	0x3c32e77f	0.010919451
236	0x3bf246a2	0.007393674
237	0xba83951a	-0.0010038943
238	0x3c1b0722	0.00946215
239	0x3cb860ca	0.02250709
240	0x3c83f70e	0.016109016
241	0x3c63f177	0.01391255
242	0x3b353adf	0.0027653498
243	0x3c30b83b	0.0107861115
244	0x3bd13726	0.006384748
245	0x3b9e3f0f	0.0048292945
246	0x3c218ba6	0.009859955
247	0xbbe68cbe	-0.0070358207
248	0x3bf201fb	0.00738549
249	0xbc4c7ee0	-0.012481421
250	0xbb8bd5df	-0.004267439
251	0xbc072140	-0.0082476735
252	0x3c840896	0.016117375
253	0xbc2256a1	-0.009908349
254	0x3915ef48	0.00014298887
255	0x00000000	0.0

weight f4 [256, 512]
0	0x3cb2c3c1	0.021821858
1	0xbd6735bb	-0.056447726
2	0x3d86d718	0.065839946
3	0xbc3e80e6	-0.0116274115
4	0xbcea0055	-0.028564611
5	0x3c847830	0.016170591
6	0xbdee4d71	-0.116358645
7	0xbd0b75bf	-0.03404784
8	0xbca448f8	-0.020054325
9	0x3d310656	0.043218933
10	0x3d35b9db	0.0443667
11	0x3ce4b0d8	0.027916357
12	0xbce1675b	-0.027515104
13	0x3c192a7b	0.009348507
14	0xbd170296	-0.0368677
15	0x3d648540	0.05579114
16	0xbc14b810	-0.009077087
17	0xbbdb0f6c	-0.006685188
18	0x3ad32358	0.0016108556
19	0xbce261fa	-0.02763461
20	0xbd163b4a	-0.036677636
21	0x3cd4bf37	0.025970085
22	0xbd86ec31	-0.06588019
23	0x3d4371c1	0.047715906
24	0xbcbdbc42	-0.023161057
25	0x3c9ed478	0.019388422
26	0xbca21a24	-0.019787855
27	0x3c4fc039	0.012680107
28	0x3d672061	0.056427363
29	0xbc5893c9	-0.0132188285
30	0xbcfc2f8b	-0.030784389
31	0x3d199112	0.037491865
32	0xbd330ce5	-0.04371347
33	0xbc95760d	-0.018244768
34	0xbc98a687	-0.018634094
35	0x3d96de95	0.07366673
36	0x3c2c06a8	0.010499634
37	0x3dd98b8d	0.1062232
38	0x3cabfdf6	0.020995121
39	0xbd5720a5	-0.052521367
40	0x3cbac6c8	0.022799864
41	0xbcc5b367	-0.024133397
42	0xbc903742	-0.017604474
43	0xbd8813c5	-0.06644396
44	0xbc75f997	-0.01501312
45	0xbd803f48	-0.0626207
46	0x3b88f5e6	0.004179704
47	0xbca5beb4	-0.020232536
48	0xbd14e458	-0.036350578
49	0x3d26b1bc	0.040696844
50	0xbd88f43c	-0.06687209
51	0xbdb3b8d8	-0.087754905
52	0x3d678a52	0.056528397
53	0x3bd8dfed	0.006618491
54	0x3c75ccfa	0.0150024835
55	0x3c8ff916	0.017574828
56	0x3cee1f30	0.029067606
57	0x3d8681af	0.06567704
58	0xbd36ef46	-0.044661783
59	0x3d2422e5	0.04007234
60	0x3c1e4040	0.009658873
61	0x3d5708f4	0.052498773
62	0xbc2b9462	-0.010472389
63	0x3d1a87e3	0.037727248
64	0x3d946b17	0.07246988
65	0x3c48179b	0.012212659
66	0xbb81ac79	-0.003957328
67	0xbd48e9b9	-0.04905102
68	0xbc738961	-0.014864297
69	0xbce977cc	-0.028499506
70	0xbde7abd4	-0.113120705
71	0xbd3d0a5d	-0.04615246
72	0xbcf6e12b	-0.030136665
73	0xbd8f81c3	-0.07007172
74	0xbd2151a1	-0.039384488
75	0x3cbf2f75	0.023338059
76	0x3b1d362b	0.0023988585
77	0x3d296281	0.041353706
78	0xbce42111	-0.027847799
79	0x3d36c9d7	0.044626083
80	0xbc2ca1fa	-0.010536665
81	0xbc8893b5	-0.016671995
82	0x3cfeff5b	0.031127622
83	0x3bd85747	0.006602201
84	0xbdbbd05b	-0.091706
85	0x3ce84ac7	0.02835597
86	0x3d250c76	0.040295087
87	0x3c52b5c8	0.012860723
88	0xbd86fe44	-0.06591466
89	0xbc95d84c	-0.018291615
90	0x3d195de4	0.037443057
91	0xbda491f8	-0.08035654
92	0x3d5f2519	0.05447874
93	0x3c700fee	0.014652235
94	0xbd9507f8	-0.072769105
95	0xbd3d66c6	-0.04624059
96	0xbd4d60d6	-0.050141178
97	0xbdb66342	-0.08905651
98	0x3d0e769e	0.03478109
99	0xbcfe18c4	-0.031017669
100	0xbdf96b0e	-0.12178622
101	0x3c0f98a5	0.008764421
102	0x3d8c99af	0.0686525
103	0xbd8a1e13	-0.067440175
104	0x3d924d09	0.071435995
105	0x3add79eb	0.0016897296
106	0x3d245b95	0.040126402
107	0xbba205d2	-0.0049445415
108	0xbca20dc2	-0.01978195
109	0xba15f1b9	-0.00057199184
110	0xbcf666b4	-0.03007827
111	0x3c8345a7	0.016024424
112	0x3c87adac	0.016562305
113	0xbdcd38d3	-0.10020604
114	0x3d4ebe0f	0.050474223
115	0xbc17dc8c	-0.009268891
116	0xbbdaeabd	-0.006680815
117	0x3d1ad807	0.037803676
118	0xbd410960	-0.04712808
119	0xb8e7e137	-0.00011056888
120	0xbcd3510f	-0.025795488
121	0x3a9a8cdf	0.001179125
122	0x3bf644bc	0.007515518
123	0x3d533983	0.05156852
124	0xbd106e80	-0.03526163
125	0xbd866191	-0.06561578
126	0x3d30639c	0.043063745
127	0x3cabb7ef	0.02096173
128	0x3b13e955	0.0022569497
129	0x3d069d26	0.032864712
130	0xbd749dd6	-0.059720837
131	0x3a09772b	0.00052438927
132	0x3d82c44a	0.063850954
133	0xbbce7d78	-0.006301578
134	0x3cea0e67	0.02857132
135	0x3aa4eb54	0.001258234
136	0xbd955754	-0.07292047
137	0x3d0667a0	0.03281367
138	0xbd2e9d25	-0.042630333
139	0xbcf9d508	-0.030497089
140	0xbce7bc58	-0.028288051
141	0x3d8f294e	0.069903
142	0x3c27cf33	0.010242271
143	0xbd5ba45e	-0.05362355
144	0xbd06320a	-0.032762565
145	0xbd6885c8	-0.05676821
146	0x3d0204ee	0.031742983
147	0xbd1b897d	-0.037972916
148	0x3d143416	0.036182486
149	0x3c0706a9	0.008241334
150	0x3d4a8be9	0.049449835
151	0x3df9f775	0.12205402
152	0xbd641214	-0.055681303
153	0x3cb7e2ae	0.022446956
154	0x3c954ed1	0.01822606
155	0x3cb0ed2f	0.021597473
156	0xbcd1c1a1	-0.025605025
157	0xbc8c1d55	-0.01710383
158	0xbd8652ad	-0.06558738
159	0x3cfef048	0.031120434
160	0xbc418f68	-0.011813976
161	0x3d4ccfd5	0.05000289
162	0xbcb0fd37	-0.021605117
163	0x3c173217	0.009228251
164	0xbda1387a	-0.078721
165	0xbd6a3089	-0.057175193
166	0x3d694965	0.05695476
167	0xb9f88efc	-0.00047408778
168	0x3d36841a	0.044559576
169	0x3cb3df73	0.021957135
170	0xbcac36de	-0.021022256
171	0xbd0dc84a	-0.03461484
172	0x3c3a8161	0.011383385
173	0x3b9155bf	0.0044352706
174	0xba7b9b15	-0.0009597999
175	0x3cdd9711	0.027049573
176	0x3bb41fb9	0.0054969457
177	0xbc6c185a	-0.014410103
178	0x3dc19cfa	0.09453769
179	0xbcfb1a52	-0.030652199
180	0xbc553f3f	-0.013015567
181	0xba08d4fc	-0.00052197254
182	0xbc3e2d9b	-0.011607553
183	0x3c93527e	0.017983671
184	0x3d8f63fe	0.07001494
185	0xbc0b9d5e	-0.008521406
186	0x3cbd640b	0.023118993
187	0xbaa42abc	-0.0012524943
188	0xbd759d75	-0.059964616
189	0x3dc81f9e	0.097716555
190	0xbd965968	-0.07341272
191	0xbc1e48c7	-0.009660906
192	0x3c59efd6	0.01330181
193	0xbd072f08	-0.033003837
194	0xbd70284c	-0.05863218
195	0x3d384146	0.044984125
196	0x3c80f66b	0.015742501
197	0x3d1bf9a8	0.038079888
198	0x3be01067	0.006837893
199	0xbd2d786d	-0.042351175
200	0xbd3817bc	-0.04494451
201	0xbdaffef9	-0.08593554
202	0x3ce1249a	0.027483273
203	0xbcb4b477	-0.022058709
204	0xbdc5ca78	-0.096577585
205	0xbd07bc8e	-0.033138804
206	0xbc90bada	-0.017667223
207	0xbc764b41	-0.01503259
208	0xbd48836f	-0.04895347
209	0xbd103b52	-0.035212822
210	0xbb38dae5	-0.0028206643
211	0xbd56ce00	-0.05244255
212	0x3bbbdf86	0.005733433
213	0xbd823277	-0.06357282
214	0xbc6d0e54	-0.014468748
215	0xbd11a3a0	-0.035556436
216	0xbd6ca429	-0.057773743
217	0xbd586fbb	-0.05284093
218	0xbd0a695c	-0.033791885
219	0xbcd10633	-0.025515651
220	0x3d643590	0.055715144
221	0x3cc21314	0.023690738
222	0xbd304822	-0.04303754
223	0x3d5bd758	0.053672165
224	0xbd246cc1	-0.04014278
225	0xbca9283c	-0.020649068
226	0xbdc48a5e	-0.09596704
227	0xbd99fe21	-0.07519174
228	0xbb7d1d07	-0.0038622038
229	0x3d4df242	0.050279863
230	0xbd0addea	-0.03390304
231	0xbca871d4	-0.02056209
232	0x3c5123f8	0.012764923
233	0xbd85961f	-0.06522774
234	0xbd219e41	-0.039457563
235	0x3deabee0	0.11462188
236	0xbd732c70	-0.05936855
237	0xbd1d0dbc	-0.038343176
238	0x3d8839b0	0.06651628
239	0x3d53e84d	0.05173521
240	0xbd471cdc	-0.048611507
241	0xbbba55dc	-0.0056865048
242	0xbb4911f6	-0.0030680872
243	0xbca0ea80	-0.019643068
244	0xbd847c5b	-0.064690314
245	0x3d604d51	0.054761235
246	0x3cbbe91d	0.022938306
247	0x3d6e95ea	0.058248438
248	0xbd606283	-0.054781448
249	0xbd1535f8	-0.03642842
250	0x3d0838f9	0.03325746
251	0x3bf8bce2	0.007590876
252	0xbd257101	-0.040390972
253	0xbbe6fd9a	-0.0070492746
254	0xbc296115	-0.010338088
255	0xbd9af6a1	-0.07566572

bias f4 [256]
0	0xbc4a975c	-0.012365188
1	0x3acd204b	0.0015649883
2	0xbc873647	-0.016505374
3	0x3c5c6bed	0.013453466
4	0xba0a368f	-0.0005272412
5	0xbc564646	-0.013078278
6	0x3b993ca5	0.004676419
7	0xbbc98e48	-0.0061509944
8	0xbc9359ce	-0.017987158
9	0xbb8bf7da	-0.0042714896
10	0xbc59d246	-0.013294762
11	0xbbed7645	-0.007246765
12	0xbb9b3784	-0.0047368426
13	0xbc73c291	-0.014877931
14	0x3c36fd85	0.011168842
15	0x3c7dafb0	0.015483782
16	0x3bd499b4	0.0064880494
17	0x3cdc0773	0.02685902
18	0xbc968e58	-0.018378422
19	0xbc2e99a7	-0.010656751
20	0x3cabbd31	0.020964237
21	0xbae3e28c	-0.0017386242
22	0x3cb33a8e	0.021878507
23	0x3c521311	0.012821929
24	0x3c95443e	0.018221017
25	0x3c8c3b50	0.017118126
26	0x3c7772d4	0.015103061
27	0xbc5eac2b	-0.013590853
28	0xbc119daf	-0.008887692
29	0xbbf38396	-0.0074314578
30	0x3cb364a2	0.021898571
31	0x3cc2f430	0.023798078
32	0x3cef06d3	0.029178059
33	0x3c4077f7	0.011747352
34	0x3c96180d	0.018322015
35	0x3cc26776	0.023730975
36	0xbbfeb5be	-0.00777313
37	0x3b9ebd68	0.0048443563
38	0x3c9e4b9a	0.019323159
39	0xbafba529	-0.0019199002
40	0xbc77984e	-0.015111996
41	0xbc6ae2a1	-0.014336259
42	0x3c443129	0.011974611
43	0xbceac5f2	-0.02865884
44	0xbc465246	-0.012104576
45	0x3b915c75	0.0044360706
46	0xbcafe349	-0.021470683
47	0x3ca98c69	0.020696836
48	0x3bc5bec6	0.006034705
49	0xbcaf94ff	-0.021433352
50	0x3c8435db	0.016138962
51	0xbc9c9a66	-0.019116592
52	0x3ba74fee	0.005105964
53	0x3c118d96	0.008883854
54	0x3b5bcf65	0.0033540365
55	0x3c83c6bb	0.016085973
56	0xbc40fcdd	-0.011779037
57	0x3c47183c	0.012151774
58	0x3c812c3f	0.015768168
59	0x3ca1fe13	0.019774472
60	0x3b702b52	0.0036646915
61	0xbcafbdd7	-0.021452827
62	0xbc867f7b	-0.01641821
63	0x3b403fea	0.002933497
64	0xbcc03f68	-0.023467734
65	0x3be653d5	0.0070290365
66	0x3c926a0d	0.017872835
67	0xbc56042c	-0.013062518
68	0x3b6c28c8	0.003603505
69	0x3b8c8508	0.0042883195
70	0xbcc4c19c	-0.024018101
71	0xba435747	-0.0007451665
72	0xbd100f12	-0.035170622
73	0xbd233a3d	-0.039850462
74	0x3bf68f4b	0.007524406
75	0xbb0b63eb	-0.0021269273
76	0x3bc8a519	0.006123197
77	0xba7c2c87	-0.0009619672
78	0x3cc84e15	0.024451295
79	0x3c3d4a4f	0.011553361
80	0xba288bf2	-0.0006429545
81	0x3bb9934c	0.005663311
82	0x3b5c61d9	0.0033627658
83	0xbc9f8217	-0.019471211
84	0xbc9f439f	-0.019441424
85	0x3d00a115	0.03140362
86	0xbb92ce6e	-0.0044801747
87	0xbbbf8abb	-0.0058453954
88	0x3b7bc943	0.0038419522
89	0x3c71dd41	0.014762224
90	0x3bcb6716	0.006207357
91	0xbb9cdd7b	-0.0047871447
92	0xbcb44e17	-0.022009892
93	0xbc8c038b	-0.017091533
94	0xbca85f79	-0.020553337
95	0x3a800910	0.0009768326
96	0xbceb51f3	-0.0287256
97	0x3b9f96d9	0.0048702774
98	0xbc852f4f	-0.01625791
99	0xbcc2d0f4	-0.023781277
100	0x3cb08228	0.021546438
101	0x3c90971d	0.017650181
102	0xbc2d08db	-0.010561193
103	0xbbef7e8a	-0.007308786
104	0xbd165647	-0.036703374
105	0x3b213475	0.0024597917
106	0x3c3e3087	0.0116082495
107	0xbc5ac25e	-0.013352005
108	0xbcae3ee5	-0.021270225
109	0xbcb46f7d	-0.022025818
110	0x3c5773de	0.0131501835
111	0x3c81947f	0.015817879
112	0x3b6fd3b6	0.0036594695
113	0xbc8aa6a2	-0.01692516
114	0x3c8c5189	0.017128723
115	0x3ab36dcf	0.0013689342
116	0x3ca6be5f	0.020354448
117	0x3c953743	0.018214827
118	0x3ca5b475	0.02022765
119	0x3a329a3e	0.0006813145
120	0x3b44e48c	0.003004345
121	0x3c3e6e5e	0.011622993
122	0x3c65480f	0.013994231
123	0x3c0c58fb	0.0085661365
124	0xbca9473f	-0.020663856
125	0x3c489739	0.012243086
126	0xbbf87ec7	-0.0075834724
127	0x3bb9f6d1	0.0056751748
128	0xbc6b2bff	-0.014353751
129	0xbcd9d621	-0.026591362
130	0x3bdc146a	0.0067163007
131	0xbc717746	-0.01473791
132	0xbc9ef1c2	-0.019402388
133	0xbcdf1176	-0.027230006
134	0x3c5029f5	0.012705316
135	0x3c31a657	0.010842881
136	0xbc125048	-0.008930273
137	0xbce61079	-0.028084027
138	0x3be422c5	0.0069621527
139	0xbc61ae40	-0.013774455
140	0x3c6464e5	0.013940071
141	0x3b658015	0.003501897
142	0xbbabd961	-0.0052444194
143	0xbc8deb4d	-0.017324114
144	0x3c8e2b95	0.017354766
145	0xbc817733	-0.015803909
146	0xbc498b14	-0.012301225
147	0xbc568b00	-0.013094664
148	0xbc433bff	-0.01191616
149	0x3c255503	0.010091069
150	0x3ca10856	0.019657295
151	0xbbe4d3fe	-0.0069832793
152	0x3c7fd18b	0.015613924
153	0x3c90f9d2	0.017697249
154	0xbc2637b6	-0.010145118
155	0xbb9aaed2	-0.0047205472
156	0x3cf796ab	0.030223211
157	0xbc02a2a5	-0.007973348
158	0x3c21191f	0.0098326495
159	0x3bfebb0b	0.007773762
160	0xbc1a7a34	-0.00942855
161	0xbc954fa1	-0.018226447
162	0x3cad358e	0.0211437
163	0xbb878d22	-0.0041366974
164	0x3a8ea195	0.0010881895
165	0xbae214f8	-0.0017248681
166	0x3c4db9d5	0.012556513
167	0xbc65cb45	-0.014025514
168	0xbc09f586	-0.008420354
169	0xbcf94af5	-0.03043125
170	0x3c5f2cae	0.013621492
171	0x3bd97084	0.0066357274
172	0xbc3eae62	-0.011638256
173	0xbc746c9a	-0.014918471
174	0xbb868185	-0.0041047954
175	0x3c1ef807	0.009702689
176	0x3bc5ee3d	0.006040363
177	0xbc8aa761	-0.016925516
178	0x3b0bb91e	0.0021320055
179	0x3cec470c	0.028842472
180	0xbc2cbb4a	-0.0105427
181	0xbc90fa5f	-0.017697511
182	0xbc172846	-0.0092259105
183	0xbc42f739	-0.011899763
184	0x3ba46186	0.0050165085
185	0x3c87ecdb	0.016592434
186	0x3cade6b2	0.021228168
187	0x3b1be9da	0.002379051
188	0xbca02bf4	-0.019552208
189	0x3bdc966f	0.0067318003
190	0x3bda59f5	0.0066635557
191	0x3c1c8fa7	0.009555734
192	0xbc4dd3a3	-0.012562665
193	0xbc6e5c07	-0.014548308
194	0xbc64081d	-0.01391795
195	0xbc6a123c	-0.014286574
196	0x3ca5455a	0.020174671
197	0xbcd23bbe	-0.025663253
198	0xbc68deb9	-0.0142132575
199	0x3ccb0f21	0.024787487
200	0x3c955cb0	0.018232673
201	0xbc24bd7e	-0.010054944
202	0xbbcef72c	-0.0063160863
203	0x3ca67ce0	0.020323217
204	0xbc805b81	-0.015668632
205	0xbc232a71	-0.009958849
206	0x3c97d46e	0.018533912
207	0x3c93f464	0.01806087
208	0x3c55b390	0.013043299
209	0xbc854a47	-0.01627077
210	0x3c063258	0.008190714
211	0xbc802d62	-0.01564664
212	0x3c196159	0.009361588
213	0x3bbd3f45	0.0057753646
214	0xbbe4e9dc	-0.006985886
215	0x3c93e99f	0.018055735
216	0x3c83af22	0.01607472
217	0x3cb13572	0.02163193
218	0xbad7513c	-0.0016427408
219	0xb94c8cae	-0.00019507363
220	0x3c30a751	0.010782079
221	0x3ca232a7	0.019799544
222	0xbc96bdcb	-0.018401047
223	0xbc8d0c09	-0.017217653
224	0x3c8d72ed	0.017266715
225	0x3c881372	0.016610835
226	0xbc9112ba	-0.017709125
227	0x3ad73cd9	0.0016421332
228	0xbc94aa57	-0.01814763
229	0x3c91539f	0.017740069
230	0x3bb81285	0.005617442
231	0x3c10ac9b	0.008830215
232	0x3cab1014	0.02088169
233	0x3c8158c4	0.015789397
234	0x3bb0f10f	0.00539983
235	0x3c24c235	0.010056068
236	0xbb02367a	-0.0019868896
237	0xbc99196d	-0.018688882
238	0x3c5e7445	0.0135775255
239	0x3c809bfe	0.015699383
240	0x3cb1c77d	0.021701569
241	0x3b9aa563	0.0047194227
242	0xbcaea7ce	-0.02132025
243	0x3b55c831	0.0032620544
244	0x3c7fff3c	0.015624817
245	0xbc30308d	-0.010753763
246	0xba09c5ed	-0.00052556285
247	0x3c1de6a1	0.009637506
248	0xbc4e9bf4	-0.012610424
249	0x3b6208c4	0.0034490088
250	0xbb14191b	-0.0022597972
251	0x3cba72c3	0.0227598
252	0x3c54e2cd	0.012993527
253	0x3bbf7232	0.0058424706
254	0x3b88a946	0.0041705696
255	0xbc74bebd	-0.014938054

weight f4 [128, 256]
0	0x3cb22908	0.02174808
1	0xbcdf8445	-0.02728475
2	0xbc62525e	-0.013813583
3	0xbd7b65c1	-0.061376337
4	0xbdba2ae0	-0.09090209
5	0x3b1c4dbc	0.0023850044
6	0xbe3bd05d	-0.18341203
7	0xbde88fa5	-0.11355523
8	0xbd6b927d	-0.05751275
9	0x3da7654e	0.08173619
10	0x3df8d33b	0.12149664
11	0xbd315476	-0.04329344
12	0x3dc44509	0.0958348
13	0xbae01671	-0.0017096532
14	0xbcccf5da	-0.025019575
15	0xbd40530d	-0.046954203
16	0xbc5e8ef5	-0.013583888
17	0x3d897967	0.06712609
18	0xbd19a0b4	-0.037506774
19	0x3d5ca653	0.053869557
20	0x3df0f8a9	0.11766178
21	0x3ddbc8c3	0.10731652
22	0xbd34d6f0	-0.044150293
23	0x3d6dbedc	0.058043346
24	0xbd4244ab	-0.047428768
25	0xbb5947a6	-0.0033154278
26	0xbd3a3d5a	-0.045468666
27	0xbcdb3d29	-0.026762562
28	0x3dad2697	0.08454626
29	0xbdcd780a	-0.10032661
30	0xbd4d948e	-0.0501905
31	0xbd01ed52	-0.031720467
32	0xbd207bcb	-0.03918056
33	0x3cc1bce7	0.023649646
34	0x3d839c56	0.06426303
35	0xbd9ecacf	-0.077535264
36	0xbdb4aa05	-0.08821491
37	0xbd079889	-0.033104453
38	0x3d7450f9	0.059647534
39	0xbdf92c66	-0.121666715
40	0xbd55c1fa	-0.052186944
41	0x3cb6387e	0.022243734
42	0xbd5fcd86	-0.05463936
43	0xbda8bbb8	-0.082389295
44	0x3d07bed3	0.03314097
45	0xbe1421b0	-0.14465976
46	0xbc563e1d	-0.013076332
47	0xbe3a2777	-0.18179117
48	0xbdbd428e	-0.0924121
49	0xbce8c8b4	-0.028416015
50	0xbcc98353	-0.024598753
51	0xbc76bfc4	-0.015060369
52	0xbdf47fc0	-0.11938429
53	0x3a9e6d05	0.0012086934
54	0xbe148d29	-0.14506973
55	0x3dcd7edf	0.10033964
56	0xbd1866bf	-0.03720736
57	0x3df717be	0.12065075
58	0x3dbecc0d	0.09316263
59	0xbe8b8eaf	-0.27257296
60	0xbd943f73	-0.072386645
61	0xbd23f12b	-0.040024918
62	0xbe0fe46e	-0.14051983
63	0xbdebef5d	-0.11520264
64	0x3d759363	0.059955012
65	0x3d3bcb12	0.04584796
66	0xbd9ee80b	-0.077591024
67	0x3dabbab5	0.08385221
68	0x3c109aa8	0.008825935
69	0x3cd8de9f	0.026473342
70	0x3cba394e	0.022732403
71	0xbd46ed04	-0.04856588
72	0x3dd41c4f	0.10356962
73	0x3d5abca7	0.05340257
74	0xbcca9652	-0.024729881
75	0x3d50e3e9	0.050998602
76	0xbe49f10c	-0.19720858
77	0x3c56b7f3	0.01310538
78	0xbdc88c50	-0.097923875
79	0xbd4eb350	-0.050463974
80	0x3db38438	0.08765453
81	0xbe1e3442	-0.15449622
82	0x3d5ec52a	0.05438725
83	0xbc8e1ba4	-0.017347164
84	0xbceaa33a	-0.028642286
85	0xbdae605f	-0.08514475
86	0x3d29659a	0.04135666
87	0xbd976c64	-0.07393721
88	0x3c755197	0.014973066
89	0xbd5c85ef	-0.053838667
90	0x3b77b319	0.003779596
91	0xbd1add1f	-0.037808534
92	0x3c81617f	0.01579356
93	0xbd2f5f0c	-0.042815253
94	0x3dd4966d	0.10380254
95	0xbb0ffaac	-0.002196948
96	0x3e0aca4a	0.1355373
97	0x3d5786a1	0.052618627
98	0xbe0f17d0	-0.13973927
99	0xbe04a1a7	-0.1295229
100	0xbda1878d	-0.078871824
101	0xbd171b44	-0.036891237
102	0x3cf3a3eb	0.029741248
103	0x3c8dec2b	0.017324528
104	0xbc77f5cc	-0.015134286
105	0xbe6f33dd	-0.23359628
106	0xbe1a4f7f	-0.15069388
107	0x3c7c73ee	0.015408499
108	0x3ce6e110	0.02818349
109	0xbd7ad09d	-0.061234105
110	0xbdc6f98c	-0.09715566
111	0xbd8e3dfe	-0.06945418
112	0xbd5ef017	-0.054428186
113	0xbbb757b9	-0.005595174
114	0x3dc552d0	0.09634936
115	0xbdb58171	-0.088625796
116	0x3d8883c9	0.06665761
117	0xbd32e783	-0.043677818
118	0xbe0faf7d	-0.14031787
119	0xbdd5ea19	-0.10445041
120	0x3d79e5e0	0.06101024
121	0x3d2d0789	0.042243514
122	0xbdaa7e9d	-0.08324931
123	0x3c54490b	0.012956868
124	0xbd7c7ff8	-0.061645478
125	0xbcc337e0	-0.023830354
126	0xbdd9d060	-0.106354475
127	0x3d8d1db7	0.06890433
128	0xbcb6342c	-0.022241674
129	0x3b9bd43c	0.004755525
130	0xbe3acd9b	-0.18242495
131	0x3d55b41a	0.05217371
132	0x3ca00cbf	0.019537328
133	0x3ddd81e0	0.10815787
134	0xbdaee2b0	-0.08539331
135	0x3c2bfbce	0.010497047
136	0xbd2e94cf	-0.042622384
137	0xbe0725bb	-0.13197987
138	0x3d80d78c	0.06291112
139	0x3d86fbd3	0.065910004
140	0x3d45cc4d	0.04829054
141	0x3cf1f968	0.029537871
142	0x3da20cdd	0.0791261
143	0x3cff7f33	0.031188583
144	0xbd1c623a	-0.038179614
145	0x3dabbdbd	0.08385799
146	0x3cb5ab89	0.02217652
147	0xbdd9cef2	-0.10635175
148	0xbcf0b320	-0.029382288
149	0xbe6d436f	-0.23170255
150	0xbbb53520	-0.0055300146
151	0xbab55642	-0.0013834911
152	0x3bfd65dc	0.00773309
153	0xbe0cac88	-0.1373769
154	0xbd11a0da	-0.03555379
155	0xbd89c1fa	-0.06726451
156	0xbdb6d5e5	-0.08927516
157	0x3b90dec9	0.0044210893
158	0xbca984b4	-0.02069316
159	0x3c4f94f1	0.012669788
160	0xbcf6e097	-0.03013639
161	0x3d1ac4a0	0.037785172
162	0x3dc995f1	0.09843052
163	0xbcbce742	-0.023059491
164	0xbd526b66	-0.051371954
165	0x3c6aea45	0.014338081
166	0xbdc7dfda	-0.09759493
167	0xbd90b704	-0.070661575
168	0x3d34b3f1	0.044116918
169	0xbd875376	-0.06607716
170	0x3e78eb38	0.24308479
171	0x3b0e1621	0.002168067
172	0xbd4e3331	-0.05034179
173	0xbd9ee1b6	-0.07757895
174	0x3d1e2327	0.038607743
175	0x3d3d2307	0.046175983
176	0x3d01e176	0.031709157
177	0xbdcebdcf	-0.10094797
178	0xbe077d85	-0.13231476
179	0xbc1d8b49	-0.009615728
180	0x3e015434	0.12629777
181	0x3cfbceac	0.030738197
182	0x3d8149b6	0.06312887
183	0x3d9b0bd5	0.07570616
184	0x3d1a3af5	0.037653882
185	0x3c5a7c5b	0.013335313
186	0xbcf7d582	-0.030253176
187	0xbe0518eb	-0.12997787
188	0x3da1b227	0.07895308
189	0x3d2c4b2e	0.042063884
190	0x3c281cdc	0.010260787
191	0xbda6e591	-0.08149255
192	0x3d305f12	0.043059416
193	0x3ca9ccc5	0.020727525
194	0x3c94198b	0.018078586
195	0xbdfdaef9	-0.12386889
196	0x3ccefc1b	0.025266698
197	0x3d9f8b7e	0.07790278
198	0xbd739600	-0.059469223
199	0xbd99d716	-0.075117275
200	0x3d53d4dd	0.051716674
201	0xbde0a999	-0.10969848
202	0xbc924f12	-0.01785997
203	0x3dc1ffa1	0.094725855
204	0xbc9ca4ba	-0.019121516
205	0x3daed274	0.085362345
206	0xbd9c3128	-0.07626563
207	0xbdcd863b	-0.10035368
208	0xbb7a338f	-0.0038177704
209	0x3cf549c7	0.029942406
210	0xbd6cbb6d	-0.05779593
211	0x3d46b166	0.048509024
212	0xbd0c3c05	-0.034236927
213	0xbd4091b8	-0.04701397
214	0xbd272bbf	-0.040813204
215	0xbd513fc8	-0.051086217
216	0xbdc008b3	-0.09376659
217	0xbcb7d4c4	-0.022440322
218	0x3dbdde8e	0.092709646
219	0xbdaae0a2	-0.083436266
220	0xbc8ab5f3	-0.016932463
221	0x3a598706	0.0008298013
222	0x3d0527e8	0.03250876
223	0xbd240067	-0.040039446
224	0xbd0fd469	-0.03511468
225	0xbd8b9e26	-0.06817274
226	0xbcbecaac	-0.02329
227	0x3ca42a27	0.020039631
228	0xbc8a7433	-0.016901111
229	0xbdef64f1	-0.11689175
230	0x3d09f6cf	0.03368264
231	0x3ca42b70	0.020040244
232	0xbe230b28	-0.15922225
233	0xbcd536f1	-0.026027175
234	0x3e09fa16	0.13474306
235	0xbd457193	-0.048204016
236	0xbd694c3d	-0.056957472
237	0xbcc0e18e	-0.023545053
238	0xbd1a7a3b	-0.037714224
239	0xbd915d51	-0.07097877
240	0xbe074d3c	-0.13213056
241	0x3dce3b0b	0.10069855
242	0xbd07c8f5	-0.033150632
243	0x3b48065c	0.0030521369
244	0xbd0d3571	-0.034474794
245	0xbd9263f2	-0.07147969
246	0x3d78b3f2	0.060718484
247	0x3db551da	0.088535026
248	0x3d830812	0.06398024
249	0xbd75896e	-0.059945516
250	0x3dafa0d6	0.08575599
251	0xbd3fc187	-0.04681542
252	0xbdde8da3	-0.10866859
253	0x3d505ac1	0.0508678
254	0x3dc0972a	0.09403832
255	0x3dc28ec7	0.09499889

bias f4 [128]
0	0xbce513cf	-0.027963547
1	0x3ce7cddd	0.028296405
2	0xbc749535	-0.014928152
3	0x3c1daf48	0.00962431
4	0x3cd7443e	0.026277658
5	0x3c0a496c	0.008440357
6	0xbc84d5f5	-0.016215304
7	0xbcc535d1	-0.024073513
8	0x3ca186f3	0.01971767
9	0xbcc661ba	-0.024216522
10	0x3cadf264	0.021233745
11	0xbce5e660	-0.028063953
12	0x3d065f89	0.032805953
13	0x3c2e2a4f	0.010630204
14	0x3d0a569d	0.033774007
15	0xba4a1026	-0.0007708095
16	0x3c8d95fc	0.017283432
17	0x3ba3c74f	0.0049981247
18	0x3d2698f6	0.04067322
19	0xbcf078aa	-0.029354412
20	0x3ce48a12	0.027897868
21	0x3c56b8f7	0.0131056225
22	0x39efbca8	0.00045726192
23	0xbccfa521	-0.025347294
24	0xbc222e5c	-0.009898748
25	0xbb01c113	-0.001979892
26	0x3ca2602d	0.01982125
27	0xbcdf41ad	-0.027252996
28	0x3cd8d762	0.02646989
29	0xbab9ed28	-0.0014185058
30	0xbc919a66	-0.017773818
31	0x38958b99	7.130876e-05
32	0xbcd1726b	-0.025567254
33	0x3c855f82	0.016280893
34	0xbcc94285	-0.024567852
35	0x3ca38419	0.01996045
36	0x3cc90916	0.024540465
37	0xbc3e338c	-0.011608969
38	0x3cd0ce95	0.025489131
39	0xbb6278a1	-0.0034556764
40	0x3c50ba40	0.012739718
41	0x3bdbc8a5	0.0067072683
42	0x3c437bf3	0.011931407
43	0x3bd9e751	0.0066498895
44	0x3c0251e6	0.007954096
45	0x3c7b7f07	0.01535011
46	0x3cc33ee7	0.023833705
47	0xbd02e963	-0.031960856
48	0x3c4d92c0	0.012547195
49	0x3c876a4e	0.016530182
50	0x3cdf0458	0.027223751
51	0xbcdb31a9	-0.026757078
52	0xbbaf29b5	-0.005345548
53	0x3c81d858	0.015850231
54	0x3c8ef4b5	0.01745067
55	0xbcaa9f3f	-0.020827888
56	0xbc403caf	-0.011733218
57	0xbca66d3e	-0.020315763
58	0xbbbb5210	-0.0057165697
59	0x3cc233d6	0.023706358
60	0x3b06417b	0.0020485807
61	0x3cc05e52	0.023482475
62	0x3ca71a98	0.020398423
63	0x3c83056d	0.015993798
64	0xbb58ed33	-0.0033100366
65	0x3cd8475e	0.026401218
66	0xbcd79317	-0.026315255
67	0x3a322b29	0.00067965925
68	0xbd13e788	-0.036109477
69	0xbc9842c0	-0.018586516
70	0x3c3ddfd1	0.0115890065
71	0x3c48ca71	0.012255297
72	0x3d043f06	0.032286666
73	0x3bd43c2e	0.0064769005
74	0xbbc201f8	-0.005920645
75	0xbbaeb104	-0.0053311605
76	0xbca79871	-0.020458432
77	0xbcbe2621	-0.02321154
78	0xbc7ae4a0	-0.0153132975
79	0x3ce21500	0.027597904
80	0xbca4ff52	-0.020141277
81	0xbccdbc6d	-0.025114262
82	0x3cd54a42	0.026036385
83	0xbb648f0a	-0.0034875297
84	0x3ca4c6df	0.02011436
85	0xbbe2a5a7	-0.00691672
86	0x3c0df41a	0.008664155
87	0x3c89e4aa	0.016832668
88	0xbc648275	-0.013947119
89	0x3c97f658	0.018550083
90	0xbca30a3a	-0.019902337
91	0xbbfb0db6	-0.0076615466
92	0x3d247d4c	0.040158555
93	0xbcda9e99	-0.026686953
94	0xbce132ae	-0.027489986
95	0x3c983fb2	0.01858506
96	0xbce5dc11	-0.028059037
97	0xbcab717f	-0.020928143
98	0xbc5d2a90	-0.013498917
99	0x39d859b4	0.00041265565
100	0xbca32333	-0.019914245
101	0xbbd890ec	-0.006609073
102	0xbbf96c8d	-0.007611817
103	0x3cf49e43	0.029860621
104	0xbb4a34b9	-0.003085418
105	0xbc7e9ae3	-0.015539858
106	0x3c06225b	0.008186902
107	0x3be12de4	0.0068719257
108	0xbb79d667	-0.0038122179
109	0x3cc640fa	0.024200905
110	0x3c5f258a	0.01361979
111	0x3b1816b1	0.0023206885
112	0x3c33c919	0.010973238
113	0xbcea3cc5	-0.02859343
114	0x3c883580	0.016627073
115	0xbc81ff72	-0.015868876
116	0x3a0ca1cd	0.00053646864
117	0x3bf6a5d7	0.007527094
118	0xbcd238a8	-0.025661781
119	0xbd344764	-0.044013396
120	0x3cb70424	0.022340842
121	0xbcc91fd3	-0.024551308
122	0xbc67e92b	-0.014154713
123	0xbc793a17	-0.015211604
124	0x3b0fe31c	0.0021955436
125	0x3cb866f2	0.022510026
126	0xbc671fd7	-0.014106712
127	0x3c579fbf	0.013160645

weight f4 [24, 128]
0	0xbd8587cd	-0.065200426
1	0xbe1c8971	-0.15286805
2	0x3d0103e4	0.03149785
3	0xbbf4ea76	-0.007474239
4	0x3df87608	0.12131888
5	0x3d5be938	0.05368921
6	0x3d4c1b2f	0.04983061
7	0xbd905444	-0.070473224
8	0x3cd3a1c1	0.025833966
9	0xbe250af4	-0.1611746
10	0x3d62cfd0	0.055373967
11	0x3ca6f86a	0.020382125
12	0x3dceab4b	0.10091265
13	0x3c939b1b	0.018018296
14	0x3dab0cbc	0.08352038
15	0x3d17a815	0.03702553
16	0xbe351f1c	-0.17687649
17	0xbe02f178	-0.12787426
18	0xbc783c8d	-0.015151155
19	0x3a8d33fc	0.0010772939
20	0xbd14c5d9	-0.036321495
21	0x3e023a6b	0.12717597
22	0x3d80be44	0.0628629
23	0xbccf69ea	-0.025319058
24	0xbd0170fc	-0.03160189
25	0x3d71f556	0.05907186
26	0x3d6748e1	0.056465987
27	0x3dfdf687	0.12400537
28	0x3c01fe26	0.007934129
29	0xbd40d640	-0.047079325
30	0xbd41ab55	-0.047282536
31	0x3d7437c9	0.059623513
32	0x3ddc7c43	0.107658885
33	0xbc34ec56	-0.011042675
34	0x3d0363d1	0.032077614
35	0xbd2c1d21	-0.042019967
36	0xbdbd3aca	-0.09239729
37	0x3d1b4c00	0.037914276
38	0x3d9420f3	0.07232847
39	0x3d9ee753	0.07758965
40	0x3dc0ddbf	0.09417295
41	0xbddccc58	-0.10781163
42	0xbcfcc167	-0.03085394
43	0xbdc92c06	-0.0982285
44	0xbdd8e9ce	-0.1059147
45	0x3daf8444	0.085701495
46	0x3e2de4fc	0.16981882
47	0xbdf02230	-0.11725271
48	0xbcd599ed	-0.026074374
49	0x3d9b7714	0.07591072
50	0xbd061c06	-0.03274157
51	0xbdae1f9c	-0.08502123
52	0xbda9ce43	-0.082912944
53	0x3cfd0370	0.030885428
54	0xbde3076e	-0.110854015
55	0xbdd17929	-0.102281876
56	0xbd4d876b	-0.050177973
57	0xbd21c1b8	-0.039491385
58	0x3d363a82	0.04448939
59	0xbe0425e4	-0.12905079
60	0xbd011e16	-0.031522833
61	0xbe17b105	-0.14813621
62	0x3dfbaa5e	0.12288354
63	0xbdf29009	-0.11843879
64	0x3cf5f231	0.030022712
65	0xbd8d88b9	-0.069108434
66	0xbe382463	-0.1798263
67	0x3d6fd601	0.0585537
68	0x3d04c9d4	0.03241904
69	0xbe05083d	-0.12991424
70	0x3e1b0252	0.15137604
71	0xbd858ad2	-0.065206185
72	0xbd5c95e3	-0.05385388
73	0x39270503	0.00015928228
74	0x3d2cf4e6	0.04222574
75	0xbd0b4be5	-0.034007926
76	0x3cae1ec8	0.021254912
77	0xbcd68d65	-0.026190469
78	0xbd7d8c8a	-0.061901607
79	0xbdaaee71	-0.0834626
80	0xbc1fc4cb	-0.009751509
81	0x3e89eb50	0.26937342
82	0x3d4e9928	0.05043903
83	0xbe20ad85	-0.15691192
84	0xbd93f4e2	-0.07224442
85	0x3d05a1e1	0.032625083
86	0xbd0e9103	-0.034806263
87	0x3d500a2c	0.05079095
88	0xbd00b5a1	-0.031423215
89	0x3bdf5d00	0.0068165064
90	0xbb506859	-0.0031800477
91	0xbd55a988	-0.05216363
92	0xbdf6069c	-0.120129794
93	0xbc626648	-0.013818331
94	0x3e0c5090	0.13702607
95	0xbe47e7e9	-0.1952206
96	0xbda4cd8e	-0.08047019
97	0x3a356a83	0.00069204735
98	0x3ba741f2	0.005104297
99	0x3db7d7f8	0.0897674
100	0x3d702627	0.058630135
101	0x3ccaca38	0.024754629
102	0xbe425338	-0.18977058
103	0x3e05ea90	0.1307776
104	0x3d20664a	0.03916005
105	0x3d999c62	0.07500531
106	0xbdb0bd9c	-0.08629915
107	0x3c26eb6a	0.010187963
108	0x3da3335a	0.07968779
109	0xbe22917e	-0.15875813
110	0xbdc06aa5	-0.09395341
111	0xbdefd8ce	-0.11711274
112	0x3d43f1c0	0.047837973
113	0xbd4fc92e	-0.05072897
114	0xbd18052b	-0.037114304
115	0x3c5f0b93	0.013613599
116	0x3caca2b5	0.021073679
117	0x3cdf38b9	0.027248727
118	0xbdb9b019	-0.09066791
119	0xbda115f7	-0.078655176
120	0xbc76297b	-0.015024538
121	0xbd53f1bd	-0.05174421
122	0xbe7e1e1d	-0.24816175
123	0xbdd65508	-0.10465437
124	0x3d4d164c	0.050070092
125	0xbca67faf	-0.020324556
126	0xbd8d9398	-0.06912917
127	0x3dcd9687	0.100384764
128	0xbd15c01d	-0.036560167
129	0xbccbc5af	-0.024874536
130	0xbd47d37f	-0.048785683
131	0xbda54c4c	-0.08071193
132	0x3d0ca752	0.034339257
133	0xbdac7592	-0.08420862
134	0xbc9fa894	-0.019489564
135	0x3e121071	0.14264084
136	0xbc14bf9e	-0.009078888
137	0xbd329e99	-0.04360828
138	0xbd870d62	-0.065943494
139	0xbce86999	-0.028370665
140	0x3ab0d31d	0.0013490651
141	0x3e0bf6b9	0.13668336
142	0xbd9a38ba	-0.07530351
143	0x3db2138d	0.08695135
144	0x3d7f8740	0.062384844
145	0xbcf888cb	-0.030338665
146	0x3dcaf0c8	0.09909207
147	0xbe5551d5	-0.20831998
148	0x3e08c07a	0.13354674
149	0xbcbf28e4	-0.023334928
150	0x3de461c4	0.1115146
151	0x3a2b0a03	0.0006524624
152	0x3b881e0b	0.004153972
153	0x3dfc9822	0.123337045
154	0xbcfa2df4	-0.03053949
155	0xbd04f96b	-0.032464426
156	0x3e077543	0.13228326
157	0x3daf99a1	0.08574224
158	0x3d13b174	0.036057904
159	0xbd74b94a	-0.059747018
160	0x3ca36387	0.01994492
161	0xbd5ad230	-0.053423107
162	0xbd945e69	-0.0724457
163	0xbd88c63a	-0.06678434
164	0xbcfb9dad	-0.030714834
165	0x3d7559d5	0.059900124
166	0xbe0bb420	-0.13642931
167	0x3d62deb1	0.055388156
168	0x3e495a85	0.19663437
169	0x3da278d4	0.079332024
170	0xbbccd5a3	-0.0062510534
171	0x3d8737fe	0.066024765
172	0x3db8898f	0.09010612
173	0xbd865f80	-0.06561184
174	0xbd4b1d39	-0.049588416
175	0x3c7499b1	0.014929221
176	0xbd9242d6	-0.07141654
177	0xbb658449	-0.0035021475
178	0xbe228250	-0.15870023
179	0x3e073149	0.13202395
180	0x3dde7c3f	0.10863542
181	0xbe5f83f1	-0.21827675
182	0x3d57d2e6	0.052691363
183	0xbdc76168	-0.09735376
184	0x3e58b116	0.21161303
185	0xbd7269d4	-0.059182957
186	0xbe00cb4a	-0.12577549
187	0x3ca0fcae	0.019651737
188	0xbd0241d7	-0.03180107
189	0x3c8e2bb9	0.017354833
190	0x3e4ad989	0.19809546
191	0x3d2ac6d4	0.041693524
192	0xbc7847a9	-0.015153804
193	0xbd5929a8	-0.053018242
194	0xbd6f2170	-0.058381498
195	0x3ca7e6ec	0.020495854
196	0xbe296236	-0.16541371
197	0x3d44768a	0.04796461
198	0x3e08aaa6	0.13346347
199	0xbc24b2d8	-0.010052405
200	0x3caddc72	0.02122328
201	0x3e2feb92	0.17179707
202	0xbcd69312	-0.026193175
203	0xbd75ad88	-0.059979945
204	0xbd67cd6b	-0.056592386
205	0xbccdce1d	-0.025122697
206	0xbd2f7f3e	-0.042845957
207	0x3deee668	0.1166504
208	0xbe066c02	-0.13127139
209	0x3cfe484c	0.031040333
210	0x3d7d9995	0.061914045
211	0xbdb645ef	-0.089000575
212	0x3c82b535	0.015955547
213	0x3ce6f018	0.028190657
214	0xbde5487c	-0.11195466
215	0xbd6236fa	-0.05522821
216	0xbd12dd86	-0.035855792
217	0x3d90c1a1	0.07068182
218	0x3d0c2314	0.03421314
219	0xbcbe9b50	-0.023267418
220	0xbe39ba77	-0.18137537
221	0xbdf3af6a	-0.11898692
222	0xbc2d041b	-0.010560061
223	0xbd2f9a95	-0.04287203
224	0xbd2a2705	-0.04154112
225	0xbd58c99a	-0.052926637
226	0x3b62bbfa	0.0034596906
227	0xbea57653	-0.32316837
228	0x3c73a593	0.014871019
229	0x3d37782f	0.04479235
230	0x3d9e940f	0.07743084
231	0xbd56266f	-0.052282747
232	0xbdc12f81	-0.09432889
233	0xbdeaddec	-0.114681095
234	0xbbc99cf1	-0.006152742
235	0x3d990184	0.07470992
236	0x3d1a68e2	0.03769768
237	0x3d6e0a88	0.058115512
238	0xbdc42719	-0.0957777
239	0x3d61f7f9	0.055168126
240	0x3e5059b4	0.20346719
241	0xbaeb081a	-0.0017931492
242	0x3de9509a	0.11392327
243	0x3e2c4bce	0.16825792
244	0xbd046c67	-0.032329943
245	0xbcb7cf3a	-0.02243768
246	0x3d07478c	0.033027217
247	0xbe90b63c	-0.28264034
248	0x3d493349	0.049121175
249	0x3e308891	0.17239596
250	0xbd5d2f4a	-0.054000176
251	0x3bc61a2f	0.006045602
252	0xbdfb1992	-0.122607365
253	0xbd228398	-0.03967628
254	0xbdda1082	-0.1064768
255	0xbd8e17c2	-0.06938125

bias f4 [24]
0	0xbc385bee	-0.0112523865
1	0x3bade6ac	0.0053070392
2	0x3b97f7ef	0.0046377103
3	0x3c7548ac	0.01497094
4	0xbcadd490	-0.021219522
5	0x3b8695f8	0.004107233
6	0x3c1671e8	0.009182431
7	0x3c8ea93b	0.01741468
8	0x3c9e01dd	0.019287998
9	0xbab25a72	-0.0013607277
10	0xbb7da114	-0.0038700746
11	0x3c91335a	0.017724682
12	0xbbb3b4d3	-0.0054842024
13	0x3cbfc5e1	0.023409786
14	0xbb94aa7f	-0.0045369263
15	0x3c9b2fda	0.018943716
16	0x3c47c0bc	0.012191948
17	0x3c984157	0.018585844
18	0xbccc602d	-0.024948204
19	0xbbb6e55e	-0.005581542
20	0x3c2e17bc	0.010625776
21	0xbca3563b	-0.019938579
22	0xbb9c131a	-0.0047630193
23	0x3af9130f	0.0019002872
