logs/el_mini_test/exported/policies/policy_1.pt (torch, 817736 bytes, 8 tensors)

weight f4 [512, 66]
0	0x3e3693ba	0.1782979
1	0xbd9ffeb4	-0.07812253
2	0x3dcdfe45	0.10058264
3	0x3dbc8673	0.09205332
4	0x3d55ff02	0.052245148
5	0xbe2f32c5	-0.17109211
6	0x3ed02c76	0.4065892
7	0x3dd8b5b7	0.10581534
8	0xbd65f8f7	-0.056145635
9	0xbe144b66	-0.14481887
10	0xbcc36895	-0.02385358
11	0xbbc363d6	-0.005962829
12	0x3d07cad1	0.033152405
13	0x3dcf35c7	0.10117679
14	0x3d0ed237	0.034868445
15	0x3d32e81c	0.043678388
16	0xbd9d811f	-0.076906435
17	0x3d3f6c22	0.046733983
18	0x3e117e9a	0.14208451
19	0xbbd2a3ea	-0.0064282315
20	0x3d522af3	0.05131049
21	0x3d13346d	0.03593867
22	0x3db8e4c7	0.09028011
23	0xbca337cc	-0.019924067
24	0x3d091072	0.03346295
25	0xbd087a28	-0.033319622
26	0xbd8e9d73	-0.06963625
27	0x3d532d59	0.05155692
28	0x3d1c2b86	0.038127445
29	0x3c199120	0.009372979
30	0xbd593ca5	-0.05303635
31	0x3d701bcb	0.058620255
32	0xbdacf29e	-0.08444713
33	0x3dc98334	0.09839478
34	0xbd4ee61e	-0.050512426
35	0x3da71020	0.081573725
36	0xbdfe5396	-0.124182865
37	0x3d9c906c	0.07644734
38	0x3cd5069a	0.026004124
39	0xbdcefe69	-0.10107119
40	0x3da4a388	0.080390036
41	0xbdbef8f3	-0.09324827
42	0x3e080338	0.13282478
43	0x3dd140a6	0.10217409
44	0x3c751baa	0.014960209
45	0x3e06a601	0.13149263
46	0x3dbb045b	0.0913169
47	0x3db5f503	0.08884623
48	0x3dcc64b4	0.09980145
49	0x3c854d53	0.016272223
50	0x3c9319a2	0.017956559
51	0x3c3dd318	0.011585973
52	0x3d0e04e1	0.03467262
53	0xbc09ab13	-0.008402604
54	0x3d2c47ec	0.042060778
55	0xbcc75161	-0.024330797
56	0x3d1fafe5	0.038986105
57	0x3d3d6726	0.04624095
58	0x3d3c8536	0.046025477
59	0xbbe7f5a4	-0.007078843
60	0x3d495a88	0.049158603
61	0x3db8094f	0.089861505
62	0xbdbd8b40	-0.092550755
63	0x3df0f976	0.11766331
64	0xbd7e45e0	-0.062078357
65	0x3d00b132	0.031418987
66	0xbd8ab2e5	-0.06772403
67	0xbd96e2ad	-0.07367454
68	0xbc28f808	-0.0103130415
69	0x3d2993b7	0.041400637
70	0xbceeb51d	-0.029139096
71	0xbd9c38e4	-0.076280385
72	0x3e7d5aba	0.2474164
73	0x3dad984c	0.08476314
74	0x3d3a5d9e	0.045499437
75	0x3e47995a	0.19492093
76	0x3e15e251	0.14637114
77	0xbe2fa383	-0.17152219
78	0xbe8287dc	-0.25494277
79	0x3db3f949	0.08787782
80	0xb9dd8fb9	-0.00042259487
81	0xbe0d1b3d	-0.13779922
82	0xbd1ce172	-0.03830094
83	0xbd2f777c	-0.04283856
84	0xbccb14ea	-0.024790246
85	0xbc96aa0d	-0.018391633
86	0x3c4f7840	0.012662947
87	0x3df379a9	0.11888439
88	0xbcf92224	-0.030411787
89	0x3cb2a465	0.021806905
90	0xbd49ec66	-0.049297713
91	0xbd89c878	-0.067276895
92	0xbcc52d07	-0.024069322
93	0x3d2ba327	0.04190364
94	0xbd982659	-0.07429189
95	0xbd40a617	-0.047033396
96	0xbd25263c	-0.040319666
97	0x3ad7bdd9	0.0016459777
98	0x3d3d1d56	0.046170555
99	0x3a8b6aa1	0.0010636636
100	0xbd3ace28	-0.045606762
101	0xbc942b8d	-0.018087173
102	0xbd6f0e58	-0.05836329
103	0x3d616e8c	0.055037066
104	0x3d1aa7ce	0.037757687
105	0xba061978	-0.00051154895
106	0x3be30343	0.006927879
107	0x3da47fa7	0.0803216
108	0xbe4d8329	-0.20069565
109	0xbd870680	-0.06593037
110	0x3d4fbef1	0.050719205
111	0x3c0d4da6	0.00862447
112	0x3d8681a2	0.06567694
113	0xbdc580a9	-0.096436806
114	0xbd154f79	-0.036452744
115	0xbd3336c6	-0.043753408
116	0xbd89773c	-0.06712195
117	0xbe4050d0	-0.18780828
118	0x3bd3b39c	0.00646062
119	0x3c2085ee	0.009797556
120	0x3e4e33c4	0.20136935
121	0xbc6ecc59	-0.014575087
122	0x3bfa5bae	0.0076403236
123	0x3d912168	0.0708645
124	0xbcc737a7	-0.02431853
125	0xbd9a4c33	-0.07534065
126	0x3db2838e	0.08716498
127	0x3bc82b4b	0.0061086765
128	0x3d2b1d9a	0.041776277
129	0x3c3056c4	0.010762874
130	0xbcecc70c	-0.028903507
131	0xbca4b72c	-0.020106874
132	0x3d81ae65	0.06332091
133	0x3bd12aff	0.0063832994
134	0xbd4eba64	-0.050470725
135	0xbe042a30	-0.12906718
136	0xbdbadecf	-0.091245286
137	0x3e619cb0	0.22032428
138	0xbdfa2c51	-0.12215484
139	0x3c80c931	0.015720936
140	0x3c46ee04	0.012141708
141	0x3c2aad22	0.010417255
142	0x3a998243	0.0011711795
143	0xbee425ba	-0.44560033
144	0x3cbf4723	0.02334935
145	0x3d809d67	0.06280022
146	0x3d0a0f68	0.0337061
147	0xbdea7098	-0.11447257
148	0x3d3f8c5f	0.046764728
149	0x3d6edaaf	0.05831402
150	0xbc6de719	-0.01452043
151	0xbd6a397a	-0.05718372
152	0x3c34dcb1	0.011038945
153	0x3de5c8cd	0.1121994
154	0x3d993ceb	0.07482322
155	0xbcc60f40	-0.024177194
156	0x3e753c9f	0.23948906
157	0xbca05079	-0.019569622
158	0x3d3d499b	0.046212774
159	0x3e017b58	0.12644708
160	0x3e011171	0.1260431
161	0x3da12e77	0.078701906
162	0xbccb54c0	-0.024820685
163	0x3d0b8e06	0.03407099
164	0xbda61d2b	-0.08111032
165	0x3b6f2259	0.0036488979
166	0xbdf88367	-0.12134438
167	0xbcef7097	-0.029228492
168	0xbdeb02f0	-0.1147517
169	0xbc87ecbf	-0.016592382
170	0xbd48e3aa	-0.049045242
171	0xbd8c9d2c	-0.06865916
172	0x3d0214f7	0.031758275
173	0x3dc89b5f	0.0979526
174	0xbdaa900f	-0.08328258
175	0x3d6f5711	0.058432642
176	0xbd0ada94	-0.03389986
177	0xbe2edecc	-0.17077178
178	0x3d59b0a2	0.053146966
179	0xbe0cb4bc	-0.1374082
180	0xbd8bc339	-0.06824345
181	0x3dad1ad3	0.08452382
182	0xbbe4286c	-0.0069628265
183	0xbdb4e874	-0.088333994
184	0xbd58abb0	-0.05289811
185	0x3d12c681	0.03583384
186	0x399d9a49	0.00030060325
187	0xbd03e46b	-0.03220026
188	0xbc36955e	-0.01114401
189	0x3dd3d05b	0.10342475
190	0x3d04bec4	0.03240849
191	0xbc9ec816	-0.019382518
192	0x3d3a54ea	0.045491137
193	0xbdaf0a28	-0.08546859
194	0xbb8e858f	-0.0043494175
195	0xbd612f14	-0.054976538
196	0x3d0ee714	0.034888342
197	0xbd02da74	-0.031946614
198	0xbc9ae9a6	-0.01891024
199	0x3cd3b755	0.025844255
200	0x3aeb4a3b	0.00179512
201	0xbdf4cd8f	-0.1195327
202	0x3d114815	0.035469133
203	0xbe82fc73	-0.25583228
204	0x3ee07a1a	0.43843156
205	0x3c1eaebf	0.009685217
206	0xbce88244	-0.028382428
207	0x3da552ae	0.080724105
208	0x3d8e8311	0.06958593
209	0xbd17e20e	-0.037080817
210	0x3d93b23d	0.07211731
211	0x3dcb9b2c	0.09941706
212	0x3ba258c7	0.0049544307
213	0x3e17bc56	0.14817938
214	0x3d3ec493	0.046574187
215	0x3cb9bd58	0.022673294
216	0xbdf9ad25	-0.12191228
217	0xbd20ed65	-0.039288897
218	0xbc4433ba	-0.011975223
219	0xbd295a74	-0.04134603
220	0x3ca6a0d1	0.020340355
221	0x3cbe6f19	0.023246335
222	0xbe08d9ed	-0.13364382
223	0x3c3792e4	0.011204455
224	0xbdadd6b0	-0.08488214
225	0x3c83f7de	0.016109403
226	0x3daaa1c0	0.083316326
227	0xbd14f0e0	-0.03636253
228	0xbe2194cc	-0.15779418
229	0x3daf4c47	0.085594706
230	0x3c224baa	0.009905735
231	0x3b272977	0.0025506893
232	0xbdafc4a8	-0.08582431
233	0xbe75f87d	-0.24020572
234	0x3e0ce458	0.13758981
235	0xbd07077a	-0.032966115
236	0x3e29d3c5	0.1658469
237	0x3e25bc38	0.16185081
238	0x3b2914f2	0.0025799838
239	0xbcc32b8a	-0.023824472
240	0x3e729bb3	0.23692207
241	0xbdde5ecb	-0.10857924
242	0x3b8e88b8	0.0043497942
243	0xbdf0d7c9	-0.11759908
244	0xbb02b8fa	-0.001994668
245	0x3d8f0198	0.06982726
246	0xbc40d3fe	-0.011769293
247	0x3c0bb85d	0.008527842
248	0x3d13991d	0.036034692
249	0x3d332865	0.043739695
250	0xbce0c505	-0.027437696
251	0xbc7cf61b	-0.0154395355
252	0xbb1e4e09	-0.00241554
253	0xbd377a10	-0.044794142
254	0x3cddc5ea	0.027071912
255	0x3d41c8f6	0.047310792

bias f4 [512]
0	0xbabf2f5c	-0.0014586258
1	0xbbfe7e61	-0.0077665304
2	0x3c6f087b	0.014589424
3	0xbb82b188	-0.0039884485
4	0x3aadc94d	0.0013258845
5	0xbb2dae3a	-0.0026501552
6	0x3c92468c	0.017855905
7	0xbc074760	-0.008256763
8	0xbcceec03	-0.025259024
9	0xbd0c9d5e	-0.034329765
10	0xbbfdf648	-0.0077503063
11	0xbcc029b2	-0.023457382
12	0x3c07c688	0.00828708
13	0x3c1ef7b1	0.009702609
14	0xbcdfe8a1	-0.027332606
15	0x3cc86a4e	0.024464753
16	0x3bf95077	0.007608469
17	0x3b55b41d	0.0032608577
18	0x3bd9a850	0.006642379
19	0xbc3c68af	-0.011499568
20	0x3bd6106d	0.00653272
21	0x3ba6e3ef	0.00509309
22	0xbc1c7864	-0.009550188
23	0x3c3a9e75	0.011390318
24	0xbcb3937a	-0.021920908
25	0x3c99f6fe	0.018794533
26	0x38d5e420	0.00010199123
27	0x3c56ec2b	0.01311783
28	0x3c5cb5c2	0.013471069
29	0x3d21599f	0.03939211
30	0x3d879813	0.06620803
31	0x3c19e2a7	0.009392417
32	0xbc4117b5	-0.011785437
33	0x3c6bf50d	0.014401686
34	0x3c25ab4b	0.01011164
35	0xbc8175ad	-0.015803182
36	0xbb8bb146	-0.004263076
37	0x3c895dfa	0.016768444
38	0x3c601a6a	0.013678173
39	0x3c173dbe	0.009231029
40	0x3cc7b18e	0.024376657
41	0x3c9a8829	0.018863754
42	0xbbbc0845	-0.0057382905
43	0xbc1f0a5e	-0.009707062
44	0x3b361b02	0.0027787094
45	0x3c18e1f5	0.009331216
46	0x3c82e6aa	0.01597913
47	0x3bb8f7ca	0.005644773
48	0x3c288caf	0.010287448
49	0xba2cb8ec	-0.0006588835
50	0x3d5181ff	0.051149365
51	0x3d51ee5e	0.051252715
52	0x3b889085	0.0041676187
53	0x3a16d9aa	0.00057544804
54	0x3c3314ac	0.0109302215
55	0x3d0b6ff9	0.034042332
56	0x3c39601d	0.011314419
57	0x3cd1d5f2	0.025614712
58	0x3d22e036	0.039764605
59	0x3b84aced	0.0040489347
60	0xbbad1654	-0.0052822027
61	0x3c7c021a	0.01538136
62	0xbb10501f	-0.0022020412
63	0x3c834731	0.016025158
64	0xbc01a271	-0.007912264
65	0x3c07d1d2	0.008289771
66	0xbbf0b872	-0.0073462063
67	0x3c4f1c93	0.01264109
68	0x3d1400ec	0.03613369
69	0x3be2faae	0.006926856
70	0x3b9e1340	0.004824072
71	0x3d8b9d7a	0.06817146
72	0xbc223e53	-0.009902555
73	0x3cea8ba3	0.028631037
74	0xbc3aafa2	-0.011394413
75	0x3a97950d	0.0011564806
76	0x3b143a4a	0.002261775
77	0x3bd6eb91	0.0065588434
78	0x3c6300eb	0.013855199
79	0x3c39c6dc	0.011338916
80	0xbc1437af	-0.009046479
81	0xbc5764f5	-0.013146629
82	0x3c11805e	0.008880703
83	0xbb7aa4a1	-0.00382451
84	0x3ba9eacd	0.005185461
85	0xbcb96473	-0.022630906
86	0x3c0167c9	0.0078982795
87	0x3bfa04f9	0.0076299873
88	0x3d1c11f0	0.038103044
89	0xbc9ab381	-0.018884422
90	0xbb82d3da	-0.00399254
91	0xbac1ed66	-0.0014795482
92	0x3b974169	0.004615952
93	0x3c935d34	0.017988779
94	0xbcde8b66	-0.02716608
95	0x3bbfa787	0.0058488282
96	0x3c34fb87	0.011046297
97	0x3ad571e1	0.0016284549
98	0xbcb3208e	-0.02186611
99	0x3ca2341a	0.019800235
100	0xbbe4a33a	-0.006977466
101	0xbba8a61e	-0.005146756
102	0x3ca89aca	0.020581622
103	0xbbee2304	-0.007267358
104	0x3caea86c	0.021320544
105	0x3c78c4ed	0.0151836695
106	0x3c4cc23d	0.012497482
107	0x3cee4c13	0.02908901
108	0x3bcf4286	0.006325069
109	0xbc4632f7	-0.012097112
110	0x3c0cc194	0.0085910745
111	0xbb816c3e	-0.003949671
112	0x3c493963	0.0122817485
113	0x39fb6405	0.0004794897
114	0x3ca45918	0.020062014
115	0x3d009829	0.03139511
116	0xbc073127	-0.008251465
117	0xbb90ec09	-0.004422669
118	0xbbcdb788	-0.006277982
119	0x3cb8dd3b	0.022566428
120	0xbbe8c4b2	-0.007103526
121	0xbca56381	-0.020189049
122	0xbc38fe27	-0.011291063
123	0x3c392395	0.011299987
124	0x3c0e58c4	0.008688156
125	0xbc5eaa37	-0.013590387
126	0x3c72c734	0.014818002
127	0x3cbd0baa	0.02307685
128	0x3c695c45	0.01424319
129	0xbc3bcbe4	-0.0114621855
130	0xbc809079	-0.01569389
131	0xbcbe8e31	-0.023261162
132	0x3c3373e2	0.010952922
133	0x3c41d2ef	0.011830076
134	0x3c6af676	0.014340987
135	0xbce257eb	-0.027629813
136	0x3b609e93	0.0034274205
137	0xbb41f534	-0.0029595615
138	0x3c2042ad	0.009781522
139	0x3b4ff404	0.0031731138
140	0xb9cea8bb	-0.00039417096
141	0xbbb47639	-0.0055072573
142	0xbcb4ce7c	-0.022071116
143	0x3cb44c4d	0.02200904
144	0x3b74ffc6	0.0037383898
145	0x3c4b892e	0.012422843
146	0x3cc4fb05	0.024045477
147	0xb9cf190c	-0.00039500778
148	0xbb7e2527	-0.0038779469
149	0x3ac569e8	0.001506147
150	0x393d8075	0.00018072299
151	0x3c6ae23a	0.014336163
152	0x3c98fbf0	0.01867482
153	0x3bd070bd	0.0063610957
154	0x3bbeed50	0.0058266297
155	0x3c3d410f	0.011551156
156	0x3c67182e	0.014104886
157	0x3c1ddcff	0.009635209
158	0x3c46e809	0.012140282
159	0x3c6c6d05	0.014430289
160	0x3c49aa42	0.012308659
161	0x3c41062b	0.011781256
162	0xbacab5d9	-0.0015465572
163	0xbd1b4bb5	-0.037913997
164	0xbba3e237	-0.005001332
165	0x3c737ed4	0.014861781
166	0x3c05a4a6	0.008156931
167	0x3bd61d45	0.006534251
168	0x3c366274	0.0111318715
169	0xb9fecbdb	-0.0004859854
170	0x3cb128f9	0.021625983
171	0x3c042bab	0.008067052
172	0xbbf11504	-0.0073572416
173	0x3c21ac0c	0.009867679
174	0x3d200d2b	0.039075058
175	0x3ce1d33a	0.027566541
176	0x3af3a8ba	0.0018589713
177	0x3c1979d1	0.009367422
178	0x38816c94	6.1714236e-05
179	0xbc021f58	-0.007942043
180	0x3cc74d88	0.024328962
181	0x3d669394	0.056293085
182	0x3c2cb37a	0.010540837
183	0x3d1940d6	0.037415348
184	0x3c033aea	0.008009652
185	0x3c0c7513	0.008572835
186	0xbb59e0fe	-0.0033245678
187	0x3ba25b89	0.0049547595
188	0x3c5c913f	0.013462364
189	0x3c01811e	0.007904319
190	0x3c8f8f4c	0.017524384
191	0x3b6db521	0.0036271291
192	0xbbdd419e	-0.006752207
193	0x3a6f704c	0.000913386
194	0xbc15cabd	-0.009142575
195	0x3c0057bf	0.00783342
196	0x3c58deb9	0.013236695
197	0xbc031374	-0.008000243
198	0x3aa0a739	0.0012256867
199	0x3ce60a1c	0.028080992
200	0xbc046cee	-0.0080826115
201	0xbb9058a1	-0.0044050966
202	0x3cce31d3	0.025170242
203	0xb94e4c5e	-0.0001967414
204	0x3bef9253	0.0073111444
205	0x3ad133a5	0.0015960826
206	0x3b84e49d	0.004055573
207	0x3c47e393	0.012200254
208	0x3c4de08a	0.012565741
209	0xbba6a2f8	-0.0050853454
210	0x3aba110e	0.0014195757
211	0xbc55f989	-0.013059982
212	0x3d7ed267	0.062212374
213	0xbb6b0338	-0.0035860073
214	0xb96947ea	-0.00022247402
215	0xbd16537f	-0.03670072
216	0xb9fcff59	-0.00048255434
217	0x3c60a336	0.0137107875
218	0xbc58c989	-0.0132316435
219	0x3c9eed6a	0.019400317
220	0x3cbf6987	0.023365749
221	0xb97ebf3d	-0.0002429457
222	0x3cc25941	0.0237242
223	0x3b93a705	0.0045059943
224	0xbb269f36	-0.0025424487
225	0xbb6b8877	-0.0035939494
226	0x3c13ebd6	0.009028396
227	0xbbe390ec	-0.0069447663
228	0x3b4f1bdb	0.0031602297
229	0x3c104689	0.008805879
230	0x3c4c1dd9	0.012458288
231	0x3c88694d	0.016651774
232	0xb9896794	-0.00026207848
233	0x3be26220	0.00690867
234	0xbb7663d5	-0.0037596126
235	0x3b569c73	0.003274706
236	0x3c393ea5	0.0113064395
237	0xbb5c2279	-0.0033589883
238	0x3c2e2390	0.010628596
239	0x3cccc05c	0.024994068
240	0x3c0a2ecd	0.00843401
241	0x3c76b3d4	0.015057523
242	0x3c3e24dc	0.011605468
243	0xbc93d002	-0.018043522
244	0x3c00a784	0.007852439
245	0x3c246fec	0.01003645
246	0x389989c4	7.3212694e-05
247	0x3b0e5955	0.0021720727
248	0x3b862c19	0.0040946123
249	0xbc414df7	-0.011798373
250	0xbad13823	-0.0015962165
251	0x3c69cc87	0.0142699545
252	0x3c0d1a18	0.008612178
253	0x3d44c9ed	0.048044134
254	0x3b935967	0.0044967416
255	0xbb8484dd	-0.004044159

weight f4 [256, 512]
0	0x3c28f464	0.0103121735
1	0x3c49cee0	0.012317389
2	0x3dc57d26	0.09643011
3	0x3d23ccee	0.039990358
4	0xbd378fe3	-0.044814955
5	0xbd65a6a0	-0.05606711
6	0xbe47f9fc	-0.19528955
7	0xbd6aa728	-0.05728832
8	0xbca85880	-0.020550013
9	0x3d94c73d	0.07264564
10	0x3ddc9aae	0.1077169
11	0x3cc858c3	0.024456387
12	0xbca6292a	-0.0202833
13	0x3d1e731a	0.03868399
14	0x3a242382	0.00062613946
15	0xbcd03c5c	-0.025419407
16	0x3c58b672	0.013227092
17	0xbd6249a2	-0.055246003
18	0xbddbf514	-0.10740104
19	0xbccfc6fd	-0.02536344
20	0x3d0e6435	0.034763534
21	0xbd2dcea1	-0.042433385
22	0xbd385754	-0.045005158
23	0x3da98dc3	0.08278992
24	0xbcb028ac	-0.021503769
25	0xbc90b704	-0.017665394
26	0x3d4a6cfd	0.049420346
27	0x3cc826b3	0.024432516
28	0x3e0b9b22	0.13633397
29	0x3c5cfcc2	0.0134879965
30	0xbd286409	-0.041111026
31	0x3d5747db	0.05255876
32	0xbe8b1337	-0.27163097
33	0x3d09b50c	0.033619925
34	0xbc73d2ca	-0.014881799
35	0xbda16920	-0.07881379
36	0xbd8fb5f3	-0.07017126
37	0xbd8a5669	-0.06754763
38	0x3da57e3c	0.08080718
39	0xbdfa6a18	-0.12227267
40	0x3c58f187	0.013241178
41	0xbd36ba23	-0.044611108
42	0x3ba30ce3	0.0049759015
43	0xbd83c722	-0.06434466
44	0x3bb527c3	0.0055284216
45	0xbd0849ab	-0.03327338
46	0xbbecd5fa	-0.0072276564
47	0xbc412ef8	-0.011790983
48	0x3d5e55d7	0.054281082
49	0x3d6cba59	0.057794902
50	0xbe4913df	-0.19636486
51	0xbe269599	-0.16268004
52	0x3d488c14	0.048961714
53	0x3bf8b70c	0.0075901803
54	0x3c952283	0.018204933
55	0xbd4b4d24	-0.049634114
56	0x3d2d3cb0	0.042294204
57	0x3de43859	0.1114356
58	0x3cd9fddf	0.026610313
59	0x3d72a932	0.05924339
60	0x3d12b14d	0.03581362
61	0xbe02ac69	-0.12761082
62	0x3c96981b	0.018383076
63	0x3c9aed91	0.018912109
64	0x3dbf5ee8	0.09344274
65	0x3ce52992	0.027973924
66	0xbc4df9e5	-0.0125717865
67	0x3bb3f2a1	0.00549157
68	0xbcea7e6d	-0.028624738
69	0xbdb612a9	-0.08890278
70	0xbdd2d11a	-0.10293789
71	0xbd4f8f69	-0.050673876
72	0xbdc64aef	-0.09682261
73	0x3d97d2bf	0.074132435
74	0xbd958cd5	-0.07302252
75	0xbc9f64f8	-0.019457325
76	0x3d0c5706	0.03426268
77	0xbbadebfa	-0.0053076716
78	0xbe030cc3	-0.12797837
79	0x3de65599	0.11246795
80	0x3dc1a4a9	0.094552346
81	0xbc8893b5	-0.016671995
82	0x3cfd39cb	0.030911347
83	0x3d8fbd6f	0.070185535
84	0xbd3d031d	-0.046145547
85	0x3d05cc4f	0.032665547
86	0x3d7f4fe2	0.06233204
87	0x3cb14c01	0.021642687
88	0xbe5f626b	-0.21814887
89	0xbb7fc1f1	-0.003902551
90	0x3d34cc5f	0.044140216
91	0xbcb87772	-0.022517893
92	0x3d4e86f6	0.050421678
93	0xbcb505e2	-0.022097532
94	0xbd87e01f	-0.066345446
95	0x3ca45eaf	0.02006468
96	0xbca34797	-0.019931598
97	0xbd31be45	-0.043394346
98	0xbcb34c7a	-0.021887053
99	0x3c292461	0.010323615
100	0xbde8500e	-0.11343394
101	0x3d1e03eb	0.038577955
102	0x3c8f306e	0.017479148
103	0xbd07dca6	-0.03316941
104	0x3dc5c959	0.09657545
105	0xbc23bfa8	-0.009994425
106	0xbd5cfaf5	-0.05395027
107	0xbe04cbc7	-0.1296836
108	0xbd064588	-0.032781154
109	0x3c944efc	0.018104069
110	0xbd329714	-0.04360111
111	0xbc303927	-0.010755814
112	0x3c1f676e	0.009729249
113	0xbe122b3f	-0.1427431
114	0x3ccdcf4f	0.025123267
115	0xbdb53d3d	-0.08849571
116	0x3b19f8f1	0.0023494328
117	0x3c3ef9c1	0.011656226
118	0x3bb15796	0.0054120524
119	0x3b8c236d	0.004276684
120	0xbd79934b	-0.060931485
121	0xb9d5688e	-0.00040704425
122	0x3d9ff99e	0.078112826
123	0x3d73248c	0.059361026
124	0xbd0f5829	-0.034996185
125	0xbd1e9cff	-0.038723942
126	0x3c6b5398	0.014363192
127	0x3d8ec596	0.0697128
128	0x3c6c3c62	0.014418693
129	0x3cb236ee	0.021754708
130	0xbd3dace0	-0.046307445
131	0xbddacda1	-0.10683752
132	0x3dbe88bd	0.093034245
133	0x3c938e22	0.01801211
134	0x3dc1e562	0.094675794
135	0x3c5fbf73	0.013656485
136	0xbe09dc61	-0.13462974
137	0x3d7735f7	0.0603542
138	0x3cefe31e	0.029283103
139	0xbcb5dd8e	-0.022200372
140	0xbdc6f36f	-0.097144
141	0x3e16b056	0.14715704
142	0xbc992aa9	-0.0186971
143	0xbde81ce8	-0.113336384
144	0xbd764f41	-0.060134176
145	0xbd5252e0	-0.051348567
146	0xbd5cabb5	-0.05387469
147	0xbdc7f8f3	-0.0976428
148	0xbc5bf206	-0.013424402
149	0xbcc26137	-0.023727996
150	0x3d356d48	0.04429367
151	0xbc15732f	-0.0091217
152	0xbd41551d	-0.04720031
153	0x3d32e33a	0.04367373
154	0x3d1f7c75	0.03893705
155	0xbd658ca7	-0.05604234
156	0x3c4c212f	0.012459083
157	0x3cb1c3a5	0.021699736
158	0xbd9f904a	-0.07791193
159	0xbcf2fbc7	-0.029661072
160	0x3d3ffe7e	0.046873562
161	0x3d64c5fe	0.055852883
162	0x3d537227	0.051622536
163	0x3d9848e1	0.074357755
164	0xbdf6752c	-0.120340675
165	0xbe2581ef	-0.16162847
166	0x3dbf61a3	0.093447946
167	0x3d2d4004	0.04229738
168	0xbe21a1c6	-0.15784368
169	0x3d2d6cca	0.042340077
170	0xbbeb5e76	-0.0071828915
171	0x3d1060aa	0.035248436
172	0x3d1864f3	0.037205648
173	0x3d3f82da	0.04675565
174	0xbb88d1ce	-0.0041754013
175	0x3d3012d7	0.042986717
176	0x3d6a4391	0.057193343
177	0xb99ec0e2	-0.00030279817
178	0x3e2c8d75	0.16850837
179	0xbd00383a	-0.03130362
180	0x3d7b913c	0.061417803
181	0xbdfba46e	-0.12287222
182	0x3cc3823a	0.023865808
183	0x3c93c9e1	0.0180406
184	0x3de8b5f3	0.11362829
185	0x3d56833d	0.052371252
186	0x3d2b1db4	0.041776374
187	0x3d42025b	0.047365528
188	0xbdb0b007	-0.086273246
189	0x3e053a8d	0.13010617
190	0xbd439238	-0.047746867
191	0x3c42ca12	0.011888998
192	0x3cec3ded	0.028838122
193	0xbda5b988	-0.08092028
194	0xbcb21e11	-0.021742852
195	0x3d5b5d00	0.05355549
196	0x3cdf14de	0.02723163
197	0x3ce40306	0.027833473
198	0x3bd0f9bc	0.006377427
199	0xbda1071f	-0.07862686
200	0x3c5ead17	0.0135910725
201	0xbd990825	-0.074722566
202	0x3da636e3	0.081159376
203	0x3d5fc8b8	0.05463478
204	0xbd071e4b	-0.032987874
205	0x3ba11a5d	0.004916473
206	0x3d5ff4fb	0.05467699
207	0xbba805ea	-0.005127658
208	0x3b836bde	0.0040106615
209	0xbd7d07b6	-0.06177493
210	0xbd9d54f8	-0.07682222
211	0xbcb32ec7	-0.021872891
212	0xbd8e9804	-0.069625884
213	0xbdf588d8	-0.119889915
214	0xbd68f968	-0.056878477
215	0xbc0eef5f	-0.008724063
216	0xbd559ecf	-0.052153405
217	0xbb97d9dd	-0.0046341256
218	0xbd2e873a	-0.04260943
219	0x3d968217	0.073490314
220	0xbc8cc6ca	-0.017184634
221	0xbdce2ea3	-0.10067489
222	0x3db4ef60	0.0883472
223	0x3da677e7	0.08128338
224	0x3bd8beff	0.0066145654
225	0xbc8577bb	-0.016292443
226	0xbe99cf1f	-0.30040833
227	0xbd657dae	-0.05602806
228	0x3c9d2835	0.019184211
229	0x3d979e27	0.07403212
230	0xbb8371de	-0.0040113768
231	0x3d24d0f1	0.040238325
232	0x3d847bde	0.06468938
233	0xbc8c047d	-0.017091984
234	0xbddb127f	-0.10696887
235	0x3e4b1520	0.19832277
236	0xbd8d2df5	-0.06893531
237	0xbd34e380	-0.044162273
238	0x3dd59530	0.10428846
239	0x3db9f37e	0.090796456
240	0x3c13b903	0.009016278
241	0x3d61d7fb	0.055137616
242	0x3c7a2241	0.015266956
243	0x3d43d44e	0.04780989
244	0xbdd23c97	-0.10265463
245	0xbd2af85e	-0.041740768
246	0xbca33df1	-0.019926997
247	0xbb615023	-0.003438004
248	0xbdf1c0f4	-0.11804381
249	0xbd67a371	-0.056552354
250	0x3d95cb62	0.07314183
251	0x3c0d6302	0.008629562
252	0xbdbfb8a0	-0.09361386
253	0xbd125441	-0.035724882
254	0xbde539ef	-0.111926906
255	0xbd9af6a1	-0.07566572

bias f4 [256]
0	0x3c0196c0	0.007909477
1	0x3c908f75	0.01764653
2	0xba15b1a4	-0.00057103694
3	0xbc86759d	-0.016413504
4	0x3bb9e7ad	0.00567337
5	0xbc915cb1	-0.017744394
6	0xbcb4c5b9	-0.022066938
7	0xbc7ec9ab	-0.015551011
8	0x00000000	0.0
9	0x3bc0b254	0.0058806334
10	0xbc898a2f	-0.016789524
11	0xbb45d5fb	-0.0030187357
12	0xbcb96221	-0.0226298
13	0xbc6d754c	-0.014493298
14	0x3cb6cc00	0.022314072
15	0xbcb53f1a	-0.022124816
16	0xbc845d4a	-0.016157765
17	0x3a2a57bb	0.0006498058
18	0xbc737d07	-0.014861352
19	0xbc35506d	-0.011066538
20	0xbcd3cb1e	-0.02585369
21	0xbc235495	-0.009968896
22	0x3c0fe8a3	0.008783492
23	0xbcbdf9fb	-0.023190489
24	0x3d0e97ac	0.034812614
25	0xbc878360	-0.016542137
26	0xbc48a2e8	-0.012245871
27	0xbc82c64d	-0.015963698
28	0xbd151ab4	-0.03640242
29	0x3c5ebb42	0.01359445
30	0xbba868f0	-0.0051394626
31	0x3c26c64a	0.010179112
32	0xbc256e85	-0.010097151
33	0xbb142757	-0.0022606456
34	0x3c06f97a	0.008238191
35	0xbc4b6859	-0.012415015
36	0xbc58c869	-0.013231375
37	0x3c875371	0.01651928
38	0x3c6d5e7a	0.014487857
39	0x3bae1cbb	0.0053134835
40	0xbca664f7	-0.020311816
41	0xbc7c1eeb	-0.015388231
42	0x3be26772	0.0069093043
43	0x3cc297b8	0.023753986
44	0x3c83744d	0.016046667
45	0xbc174fd9	-0.009235346
46	0xbc8c8a39	-0.017155753
47	0x3c835881	0.016033413
48	0x3bdd830c	0.006760007
49	0xbbdeefd7	-0.0068034935
50	0xbcd128f8	-0.02553223
51	0xbcf2ed12	-0.02965406
52	0xbc6e896c	-0.014559131
53	0x3d0b8c69	0.034069452
54	0x3cfe4d3c	0.031042688
55	0x3c418057	0.011810384
56	0x3c23dfb5	0.010002066
57	0x3cb5fb46	0.022214543
58	0xbc1fafaf	-0.009746476
59	0x3c3a2c84	0.011363152
60	0x3c8c5bc5	0.017133603
61	0x3cd00bd8	0.025396273
62	0xbc8ba17e	-0.017044779
63	0xbc462e71	-0.012096033
64	0x3bc6c23b	0.0060656345
65	0x3c4da334	0.012551118
66	0x3cc8818f	0.02447584
67	0x3c914379	0.017732369
68	0x3cb7bc90	0.02242878
69	0xbb79573b	-0.0038046378
70	0x3c56222f	0.013069673
71	0x3ca7a63c	0.020465009
72	0x3c8d6c2c	0.017263494
73	0x3c56ca51	0.013109759
74	0xbc584a7d	-0.013201353
75	0xbcc45395	-0.023965636
76	0xbc8edee6	-0.01744027
77	0xbc5fc76f	-0.0136583885
78	0xbc6e35bf	-0.014539181
79	0x3bb1acbf	0.0054222043
80	0xbc3caa50	-0.011515215
81	0x3b01c197	0.0019799226
82	0xbc5b7b21	-0.013396055
83	0xbc2e488e	-0.010637416
84	0xbba49809	-0.005023007
85	0xbc8e10a7	-0.017341925
86	0x3ce58d70	0.028021544
87	0x3c0bb6ff	0.008527516
88	0x3c17831d	0.009247568
89	0x3c444b4d	0.011980844
90	0x3c35178e	0.011052979
91	0xbbdacaf0	-0.006677024
92	0x3c44d83f	0.012014448
93	0xbc462f46	-0.012096232
94	0x3c81d267	0.015847398
95	0xbc7cdd26	-0.015433585
96	0x3c5e07c3	0.013551655
97	0xbb9e7656	-0.004835884
98	0xbc6c658a	-0.014428506
99	0xbca90620	-0.020632803
100	0x3bee8521	0.007279054
101	0x3cd72856	0.02626435
102	0x3b84f0c8	0.0040570237
103	0xbc0fdca9	-0.008780637
104	0xbc30a8d5	-0.01078244
105	0x3c2c93fc	0.010533329
106	0x3bd72c52	0.0065665627
107	0xbcb72092	-0.022354398
108	0x3cc23bbe	0.023710128
109	0x3c91a04f	0.017776636
110	0xba90f58f	-0.001105951
111	0x3ce783e4	0.028261133
112	0x3c121eb5	0.008918454
113	0x3a7db01f	0.0009677428
114	0x3c6066bb	0.013696368
115	0x3ce68f62	0.028144542
116	0xbb8fcafb	-0.004388211
117	0x3cbb3707	0.022853388
118	0x3c1bdc90	0.009513035
119	0xba8ea0dd	-0.0010881681
120	0x3b1504f6	0.0022738553
121	0x3c018a1c	0.007906463
122	0x3c89e92a	0.016834814
123	0x3ca9c386	0.020723116
124	0x3cf607dd	0.030033046
125	0xbc20a4d0	-0.009804919
126	0xbcbad736	-0.022807699
127	0x3c2ddda0	0.010611922
128	0x3cb0e589	0.021593826
129	0xbbef0a0f	-0.0072949002
130	0x3c0fd1e6	0.008778071
131	0x3bd31980	0.006442249
132	0xbd8cbfda	-0.0687253
133	0xbb3c2400	-0.002870798
134	0x3c1f9898	0.009740971
135	0xbad6e2f8	-0.0016394546
136	0xbc41efc3	-0.011836949
137	0xbc03c34c	-0.008042168
138	0x3b0e8c56	0.0021751127
139	0x3c5c0f40	0.01343137
140	0x3c1c7009	0.009548196
141	0xbc10823d	-0.008820114
142	0x3c565c81	0.013083578
143	0xbc5355cd	-0.0128988745
144	0x3bf1d6d8	0.0073803477
145	0x3bf97ea0	0.007613972
146	0x391db901	0.00015041606
147	0x3a4528ab	0.00075210136
148	0xbc28b97f	-0.010298132
149	0xbace6fff	-0.001574993
150	0x3cbda2db	0.023148945
151	0xbc78c015	-0.015182515
152	0xbb8acd8b	-0.0042359284
153	0xbae821b0	-0.0017710235
154	0xbc23eb41	-0.010004819
155	0xbaa5926c	-0.0012632138
156	0x3c2f7ffd	0.010711667
157	0xbbda0281	-0.0066531305
158	0x3cc5dbf0	0.024152726
159	0xbcd6a22a	-0.026200373
160	0xbba8cec7	-0.005151603
161	0x3cd382e8	0.025819257
162	0x3c25acf8	0.01011204
163	0xbc98e316	-0.01866297
164	0x3b87be64	0.0041425694
165	0x3c8957d4	0.016765513
166	0x3ac08104	0.0014686887
167	0xbc81a002	-0.015823368
168	0xbc7e1f81	-0.015510441
169	0x3ce9509a	0.028480817
170	0x3c78cf08	0.015186079
171	0x3c9e01c9	0.01928796
172	0xbba0a4a5	-0.0049024397
173	0xbcba9c51	-0.022779616
174	0xbc029ff4	-0.007972706
175	0x3b43b386	0.0029861643
176	0x3bc9db90	0.006160207
177	0xbc244833	-0.010026979
178	0xbc96f82c	-0.018428884
179	0xbbada551	-0.0052992483
180	0x3c08ddf1	0.008353696
181	0xbba150bd	-0.004922955
182	0xbc11fdb0	-0.0089105815
183	0x3cd532c7	0.02602519
184	0x3c2e4206	0.010635858
185	0x3c409cab	0.011756103
186	0x3c9e8353	0.01934973
187	0x3c144613	0.00904991
188	0xbaaa66e6	-0.0013000637
189	0x3a062e62	0.0005118606
190	0x3c11554b	0.008870433
191	0x3b938d71	0.004502945
192	0xbcaf4ae6	-0.021398019
193	0x3b98a32a	0.0046581225
194	0xbc03f415	-0.008053799
195	0xbc2a4ee6	-0.010394787
196	0x3ce372b3	0.027764654
197	0x3b33bf81	0.0027427378
198	0xbc78d029	-0.015186348
199	0xbc702e5a	-0.014659489
200	0xbbf3b5fc	-0.0074374657
201	0x3b6e86cb	0.003639626
202	0xbcd9e23a	-0.026597131
203	0xbc40e4b5	-0.011773278
204	0xbc58c02b	-0.01322941
205	0x3cb57495	0.022150317
206	0x3a25a745	0.00063191756
207	0x3a89c7d9	0.001051183
208	0xbc5e3b3c	-0.013563927
209	0xbc997691	-0.018733295
210	0xbcc525bf	-0.02406585
211	0xbc47bee6	-0.01219151
212	0xbca3e0df	-0.020004688
213	0x3c8c685e	0.01713961
214	0xbca329f8	-0.019917473
215	0x3cdca528	0.026934221
216	0xbba04f41	-0.0048922603
217	0x3c16d032	0.009204911
218	0xbcc2939d	-0.023752028
219	0x3c292b17	0.010325215
220	0xbc357775	-0.011075844
221	0x3c8fa4d0	0.017534643
222	0xbc6f292f	-0.014597221
223	0xbc2e411f	-0.010635643
224	0x3c021079	0.007938498
225	0xbc6aa014	-0.014320392
226	0x3ca6b012	0.020347629
227	0xbc4aebc9	-0.012385317
228	0x3c486976	0.012232175
229	0xbb3166f1	-0.0027069415
230	0xbc216917	-0.0098517155
231	0xbc979b6e	-0.018506732
232	0x3bedbb3d	0.0072549866
233	0x3cab2f2e	0.02089652
234	0x3c427449	0.011868545
235	0x3cbc8e2d	0.023017013
236	0x3d03800d	0.03210454
237	0x3c9cc55e	0.01913708
238	0x3c5aad97	0.013347051
239	0x3c4da86e	0.012552364
240	0xbc995983	-0.01871944
241	0x3c472f64	0.012157295
242	0xbc7253a5	-0.01479045
243	0xbc51d103	-0.01280618
244	0xbc4f0abd	-0.012636838
245	0x3c8904a5	0.016725847
246	0xbbd60abb	-0.006532041
247	0x3b389bab	0.0028168957
248	0x3bd99dda	0.006641132
249	0x3cad2ccf	0.02113953
250	0x3c806690	0.015673906
251	0x3cfdbbaa	0.030973274
252	0x3cd3594f	0.025799422
253	0xbd00b742	-0.03142477
254	0x3c7dce17	0.01549103
255	0xbc73b8ff	-0.0148756495

weight f4 [128, 256]
0	0xbd34b3a2	-0.044116624
1	0xbe49eaf0	-0.19718528
2	0x3d998a9a	0.07497139
3	0xbd438383	-0.04773284
4	0xbdca7940	-0.09886408
5	0x3b1c4dbc	0.0023850044
6	0x3bcfc7ab	0.006340941
7	0xbde4fbb6	-0.111808226
8	0xbd6b927d	-0.05751275
9	0x3dffbb34	0.12486878
10	0x3df8d33b	0.12149664
11	0xbd87f464	-0.06638411
12	0x3dc6046c	0.09668812
13	0xbc2c71d5	-0.010525187
14	0xbdc2e1a1	-0.095156915
15	0xbb9d7e8f	-0.0048063467
16	0xbce63c43	-0.028104907
17	0x3dd36cda	0.10323496
18	0xbd19a0b4	-0.037506774
19	0x3d7bf6b2	0.061514564
20	0x3e37203f	0.17883395
21	0x3e10272f	0.14077447
22	0x3d212bd3	0.039348435
23	0x3dbb7d7b	0.09154793
24	0x3da35bf7	0.07976525
25	0xbcba8c68	-0.022772029
26	0xbc1e3049	-0.009655067
27	0xbcdb3d29	-0.026762562
28	0xbd8deee4	-0.069303304
29	0xbd9adfb3	-0.075621985
30	0xba8416bb	-0.0010077575
31	0xbdc5c589	-0.096568175
32	0x3b82381b	0.0039739734
33	0x3d85358d	0.065043546
34	0xbc92021d	-0.017823273
35	0xbe4084a0	-0.18800592
36	0xbdc5effd	-0.09664915
37	0xbccfe73c	-0.025378816
38	0xbcb19504	-0.021677501
39	0x3d4503d8	0.04809937
40	0xbd55c1fa	-0.052186944
41	0xbc7a1655	-0.015264113
42	0xbe1f7e5e	-0.15575549
43	0xbdd87cf2	-0.105707064
44	0xbcaae7cb	-0.02086248
45	0x3bfb6755	0.0076722302
46	0x3d055ced	0.032559324
47	0xbd9e451a	-0.07728024
48	0xbd72575f	-0.059165355
49	0xbd12edfd	-0.035871495
50	0x3e42ae8a	0.19011894
51	0xbc244eb4	-0.01002853
52	0xb998b348	-0.00029125274
53	0x3dc837e6	0.09776287
54	0xbde1b201	-0.1102028
55	0x3c9b6c07	0.01897241
56	0xbdd3bcb5	-0.103387274
57	0x3e391684	0.18074995
58	0xbbffa3e8	-0.0078015216
59	0xbe81decb	-0.2536529
60	0xbddce1ef	-0.10785281
61	0x3c3232c8	0.010876365
62	0xbe02bf8b	-0.1276838
63	0xbce070fe	-0.027397629
64	0x3d834038	0.06408733
65	0xbd822f80	-0.06356716
66	0xbd3ba1e3	-0.045808684
67	0x3dfa3f62	0.122191206
68	0x3c1ca718	0.009561323
69	0xbdac743d	-0.08420608
70	0x3c6a0fc1	0.014285983
71	0xbc2df3c1	-0.0106171975
72	0x3dec440a	0.11536415
73	0x3d5b95fb	0.05360983
74	0x3c4dcf52	0.012561636
75	0x3d529f9d	0.05142175
76	0xbd9a3850	-0.07530272
77	0x3ccc8202	0.024964336
78	0xbe071b4e	-0.1319401
79	0xbda427ff	-0.08015441
80	0x3dc8070a	0.097669676
81	0xbdef2ec4	-0.11678842
82	0x3d9888bf	0.07447957
83	0xbb2b47ae	-0.0026135254
84	0x3c6cbd3b	0.014449413
85	0xbde9aa55	-0.114094414
86	0x3dc926f4	0.09821883
87	0xbd3db3f0	-0.04631418
88	0x3c9cd218	0.01914315
89	0xbd9883cd	-0.07447014
90	0xbc555f6f	-0.013023241
91	0xbcf1965f	-0.029490648
92	0x3d3dfb19	0.046382044
93	0xbd02989c	-0.03188382
94	0x3e164691	0.14675356
95	0x3ca18213	0.019715345
96	0x3c2e2b50	0.010630444
97	0x3e4726e0	0.19448423
98	0x3bc6a346	0.006061944
99	0xbe15cd29	-0.14629044
100	0xbbc59d5a	-0.0060307207
101	0xbd420440	-0.047367334
102	0x3d7b7f02	0.06140042
103	0x3d856c14	0.06514755
104	0x3bebf5d7	0.0072009373
105	0xbe3b4eee	-0.18291828
106	0x3c4657d2	0.012105899
107	0x3c7c73ee	0.015408499
108	0x3cf82f16	0.03029589
109	0xbcf90f8f	-0.030402927
110	0xbd207680	-0.03917551
111	0x3cd0c28d	0.025483394
112	0xbda3b69a	-0.07993813
113	0x3ce6b7ba	0.02816378
114	0x3dce0f08	0.10061461
115	0xbd8e2ee6	-0.06942539
116	0x3d480fc6	0.048843168
117	0x3d863732	0.065534964
118	0xbd960764	-0.073256284
119	0x3dceeefd	0.10104177
120	0x3d8d7ed1	0.06908954
121	0x3d532722	0.05155099
122	0xbe9aa437	-0.3020341
123	0xbe1404d7	-0.14454971
124	0xbc20b669	-0.009809115
125	0x3e02c0cb	0.12768857
126	0xbdbca6ca	-0.092115
127	0x3e0aeb2e	0.13566276
128	0xbdc42f4d	-0.095793344
129	0xbda2264d	-0.079174615
130	0x3c0e95db	0.0087027205
131	0xbd9fbca1	-0.0779965
132	0x3d291af5	0.041285474
133	0xbc843b1e	-0.01614147
134	0x3d220682	0.039556988
135	0xbe2aff88	-0.1669904
136	0x3cea780e	0.0286217
137	0xbdc359ea	-0.09538634
138	0x3dcafa8c	0.09911069
139	0x3dd3da9f	0.10344433
140	0xbd974d12	-0.07387747
141	0xb9ea7979	-0.00044722462
142	0x3d9e5ede	0.07732938
143	0x3d817f7c	0.06323144
144	0xbd51572b	-0.05110852
145	0xbd3c9ccf	-0.04604798
146	0x3baf1b48	0.0053438284
147	0xbdb8ad99	-0.09017486
148	0xbcf0b320	-0.029382288
149	0xbe4ed039	-0.20196618
150	0x3dda7631	0.106670745
151	0xbab55642	-0.0013834911
152	0x3ce478e3	0.027889675
153	0xbe03170f	-0.12801765
154	0xbd11a0da	-0.03555379
155	0xbd92bd63	-0.07165029
156	0xbde0fb77	-0.10985463
157	0x3c26f765	0.010190819
158	0xba0df02e	-0.00054145127
159	0x3c14d934	0.009084988
160	0xbcf6e097	-0.03013639
161	0x3d981164	0.07425192
162	0x3d984d48	0.07436615
163	0xbaca3208	-0.0015426287
164	0x3dd04916	0.1017019
165	0x3dd0ad34	0.10189286
166	0xbdc8ad80	-0.097987175
167	0xbdb28a71	-0.08717812
168	0x3d6867b0	0.05673951
169	0x3cf9a3b8	0.030473575
170	0x3e640db9	0.2227086
171	0xbc5bdc37	-0.0134192025
172	0xbd11a7fc	-0.035560593
173	0xbd9ee1b6	-0.07757895
174	0x3cf29581	0.029612305
175	0x3d169154	0.03675969
176	0xbd4f1e97	-0.050566282
177	0xba56f693	-0.00082001946
178	0xbd2c29e0	-0.042032123
179	0x3ccef8f0	0.025265187
180	0x3da28f72	0.07937516
181	0x3d978387	0.07398134
182	0x3d8149b6	0.06312887
183	0x3cd26e22	0.025687281
184	0x3e2efff0	0.1708982
185	0xbc03cea3	-0.0080448715
186	0x3d36965e	0.044576995
187	0xbe3e595a	-0.18588772
188	0x3d9bf75f	0.07615542
189	0xbc8163ee	-0.01579472
190	0x3d2bbc96	0.041927896
191	0xbdb4d27b	-0.088292085
192	0x3d3529db	0.04422937
193	0xbdc22c97	-0.09481161
194	0xbd2a84c8	-0.041630536
195	0xbe588547	-0.21144591
196	0x3d9ca2e2	0.07648255
197	0x3d602c87	0.054729965
198	0xbd91e781	-0.07124234
199	0x3da4461c	0.08021185
200	0xbd1f6fb3	-0.038924884
201	0x3db978a2	0.09056212
202	0xbc844145	-0.016144404
203	0x3db608fa	0.08888431
204	0xbcd06190	-0.025437146
205	0xbd92bac7	-0.07164531
206	0x3db5d727	0.08878928
207	0xbc135ff9	-0.00899505
208	0xbd085b17	-0.033289995
209	0x3cf549c7	0.029942406
210	0xbcf8f494	-0.030390061
211	0x3cb4cd32	0.022070501
212	0xbd015bb2	-0.031581588
213	0x3d83a394	0.064276844
214	0xbd86c8fb	-0.06581303
215	0xbe21cf9c	-0.15801853
216	0xbcdc8e68	-0.026923373
217	0xbd9f7be4	-0.07787302
218	0x3dd0d602	0.10197069
219	0x3ab86321	0.0014067629
220	0xbd5445c3	-0.051824342
221	0x3da144b0	0.07874429
222	0x3cdf7feb	0.027282676
223	0xbcf325db	-0.029681137
224	0x3d29a5a8	0.041417748
225	0x3b930aab	0.0044873557
226	0xbd54a21c	-0.051912412
227	0xbb453ccb	-0.003009605
228	0xbe18cdd1	-0.14922263
229	0x3d06ac09	0.03287891
230	0xbd5ba726	-0.053626202
231	0xbd081185	-0.033219833
232	0xbe4cfd07	-0.20018397
233	0xbd4629d4	-0.048379734
234	0x3de74218	0.11291903
235	0xbda144a5	-0.07874421
236	0x3d968796	0.0735008
237	0xbd94c3b4	-0.0726389
238	0x3d454316	0.04815968
239	0x3d8d2f8f	0.06893837
240	0xbe05d15b	-0.13068144
241	0x3e1e32db	0.15449087
242	0xbb89abce	-0.004201389
243	0x3da5e50e	0.08100329
244	0xbce49be7	-0.027906371
245	0xbe13204b	-0.14367788
246	0xbd2a0d08	-0.041516334
247	0x3cffe418	0.031236693
248	0xbd616704	-0.055029884
249	0x3c8a2f76	0.016868334
250	0x3c87f40e	0.016595867
251	0xbdc963b2	-0.098334685
252	0xbd827dbf	-0.063716404
253	0xbc8f1320	-0.017465174
254	0x3e26f007	0.163025
255	0x3db9ecad	0.090783454

bias f4 [128]
0	0x3c0aed5a	0.008479441
1	0x3c301eb6	0.01074951
2	0xbc8ce7e8	-0.017200425
3	0x3c4f5b43	0.012656036
4	0x3be7279b	0.007054282
5	0x3c645966	0.01393733
6	0x3d0d660c	0.034521148
7	0x3d02bdfb	0.03191946
8	0x3cddcbf0	0.027074784
9	0x3d1cda07	0.038293865
10	0x3ce269b3	0.027638292
11	0xbcd10063	-0.02551288
12	0x3cc4545c	0.023966007
13	0x3d258cb4	0.040417388
14	0xbc858bc2	-0.016301993
15	0xbcce6fea	-0.02519985
16	0xbcb9aec2	-0.022666339
17	0xbd209f51	-0.039214436
18	0xba8027a0	-0.0009777434
19	0x3ca125f9	0.019671427
20	0xbc369ed4	-0.011146266
21	0x3c955445	0.01822866
22	0xbccb74a2	-0.024835888
23	0x3d068bb6	0.032848082
24	0xbc3b5791	-0.011434452
25	0xbb26184e	-0.0025344077
26	0x3ca23b73	0.019803738
27	0xb8058bb9	-3.1839798e-05
28	0x3c5d07d1	0.013490633
29	0xbc8dc781	-0.017307045
30	0x3c6bbd4c	0.014388394
31	0xbd0c179e	-0.03420221
32	0xbca10f62	-0.019660655
33	0xbd3cdde5	-0.046110053
34	0xbce4d253	-0.027932322
35	0x3c4dd812	0.012563722
36	0x3cfce772	0.03087208
37	0xbcafaa45	-0.021443496
38	0xb940ea33	-0.00018397793
39	0x3c2dde49	0.010612079
40	0x3beeae81	0.007283986
41	0x3c9df58f	0.01928213
42	0x3d07d163	0.03315867
43	0x3b596c07	0.0033175962
44	0x3c999d4b	0.018751761
45	0x3be33562	0.006933854
46	0xbc813053	-0.015770113
47	0xbccb99af	-0.024853555
48	0x3b1059d8	0.0022026207
49	0xbd033c61	-0.032040004
50	0x3c0a9f32	0.008460807
51	0xbcc07a72	-0.023495886
52	0x3b9b5b9f	0.0047411467
53	0x3c9ebff8	0.019378647
54	0x3c80e222	0.015732829
55	0x3cf82433	0.030290699
56	0x3b821f1e	0.0039709946
57	0x3d08d8bb	0.033409815
58	0xbc8fc13b	-0.017548194
59	0x3d24cab8	0.04023239
60	0x3c5adb2a	0.013357917
61	0x3c5868ed	0.01320861
62	0x3cbaff05	0.02282668
63	0xbc4a5389	-0.012349018
64	0x3cce6acb	0.025197407
65	0xbcc97b1d	-0.024594838
66	0xbd036103	-0.03207494
67	0xbc559931	-0.013037012
68	0x3bb01eaa	0.005374749
69	0xbc187d9d	-0.009307292
70	0x3be39b0c	0.0069459733
71	0x3ce9917c	0.028511755
72	0xbc2e9f47	-0.010658092
73	0xbcdbb431	-0.02681932
74	0x3c1db21a	0.009624982
75	0xbbde59e2	-0.006785617
76	0xbc21abc3	-0.009867611
77	0xbc0a7a19	-0.008451962
78	0x3c20d2d8	0.009815894
79	0x3cb69390	0.02228716
80	0xbc4e1745	-0.01257879
81	0xbcde5154	-0.02713839
82	0x3c623386	0.013806229
83	0xbc21d82c	-0.0098782
84	0x3ce487f4	0.027896859
85	0xbc987b79	-0.018613564
86	0xbca998c3	-0.020702725
87	0x3cf5cb35	0.030004123
88	0x3d04d46b	0.03242914
89	0xbbe33d11	-0.00693477
90	0xbaaf48c8	-0.0013373131
91	0x3c60db43	0.013724151
92	0xba59493b	-0.0008288805
93	0x3c9c0a50	0.019047886
94	0x3c96784e	0.018367913
95	0x3d669a3e	0.05629944
96	0x3c3645d3	0.011125046
97	0x3cc203c2	0.023683432
98	0x3c185ea2	0.009299906
99	0x3c722bfd	0.014780995
100	0xbd050fbf	-0.03248572
101	0xbcdb1958	-0.026745483
102	0x3cbe5d36	0.023237806
103	0xbc940cfe	-0.018072601
104	0xbb7b2a5c	-0.0038324809
105	0x3c1722b7	0.009224585
106	0x3cfcdfaa	0.03086837
107	0xbc812de7	-0.015768958
108	0x3c1c2df0	0.009532437
109	0x3d0d3b30	0.034480274
110	0x3cbd9c86	0.023145925
111	0x3c31d4d7	0.010853968
112	0x3c192e61	0.0093494365
113	0xbcbf18c4	-0.023327239
114	0xbca1df07	-0.019759668
115	0x3ca4fb3a	0.020139325
116	0x3cba0058	0.022705242
117	0xbd1d235b	-0.038363796
118	0xbc823995	-0.015896598
119	0x3c925e97	0.01786737
120	0x3cb72bad	0.022359693
121	0x3cc1c478	0.023653254
122	0xbbae8bb2	-0.0053267116
123	0xbc02a403	-0.007973674
124	0xbc3cc361	-0.011521191
125	0x3ad5f113	0.0016322456
126	0x3c5ced07	0.013484246
127	0xbcbd28d7	-0.023090763

weight f4 [24, 128]
0	0x3e434366	0.19068679
1	0xbd48ed59	-0.049054477
2	0x3d08ef60	0.03343141
3	0x3e5c9fe5	0.2154537
4	0x3e0c7ea6	0.13720188
5	0x3da8ffd6	0.08251922
6	0x3c524ae6	0.01283524
7	0xbe2001c5	-0.15625675
8	0xbda66099	-0.08123893
9	0xbe3c6be8	-0.18400538
10	0x3e788830	0.24270701
11	0x3c2d6952	0.010584192
12	0x3ad20ba4	0.0016025198
13	0xbd13e4b9	-0.0361068
14	0x3dc5f57d	0.09665964
15	0x3d21be5f	0.039488193
16	0xbdf82a22	-0.12117411
17	0xbe33d8a5	-0.17563112
18	0x3e6eab54	0.23307544
19	0xbd07567f	-0.033041473
20	0xbd2247fc	-0.03961943
21	0x3e3aea99	0.18253554
22	0xbd1942cc	-0.037417218
23	0xbd8bb299	-0.06821174
24	0xbd8a4704	-0.067518264
25	0x3de6b594	0.11265102
26	0xbc7be5b3	-0.015374589
27	0x3e397dec	0.18114442
28	0x3d20a616	0.039220892
29	0xbcd87316	-0.026422065
30	0xbced1504	-0.028940685
31	0xbd00daa0	-0.031458497
32	0x3dd32f71	0.10311783
33	0xbd37f3c7	-0.04491022
34	0x3d902fc8	0.070403636
35	0xb9d2afee	-0.000401854
36	0xbe09e4ae	-0.1346614
37	0x3ccf76aa	0.025325138
38	0xbc1e1497	-0.009648464
39	0x3e04afa9	0.12957634
40	0x3d9787a2	0.07398917
41	0xbcbe8b77	-0.023259861
42	0x3c9e3701	0.019313337
43	0xbe65abd6	-0.22428831
44	0xbe402219	-0.18763007
45	0x3e03ab9a	0.1285843
46	0x3ea5b007	0.3236086
47	0x3d1a10ab	0.037613552
48	0xbd24d435	-0.04024144
49	0x3d7b73d5	0.061389763
50	0x3c59ebc1	0.013300837
51	0xbdee4407	-0.11634069
52	0x3cead5d2	0.02866641
53	0x3ce4d8c2	0.02793539
54	0xbe12acf3	-0.14323787
55	0xbd686d1c	-0.05674468
56	0xbbed2509	-0.007237081
57	0x3cc65a24	0.024212904
58	0xbd8b489b	-0.06800958
59	0xbdd2244c	-0.10260829
60	0xbd56b934	-0.052422717
61	0xbd60e95f	-0.05491006
62	0x3e22987b	0.15878479
63	0xbe2e07e6	-0.169952
64	0x3da8d0de	0.08242963
65	0xbdbcaf19	-0.09213085
66	0xbe6d173a	-0.23153391
67	0x3e08c24d	0.1335537
68	0x3d8132cd	0.063085176
69	0x3e00eed5	0.12591107
70	0x3e0cb5fe	0.137413
71	0xbdfe80c3	-0.12426903
72	0x3dc7558e	0.09733115
73	0x3d02b9c1	0.03191543
74	0x3db376a8	0.08762866
75	0x3c85cab5	0.01633201
76	0xbcd107c4	-0.025516398
77	0x3db2e763	0.0873554
78	0x3dabc731	0.08387602
79	0xbd89c762	-0.067274824
80	0xbd69ff39	-0.057128165
81	0x3e69a0ec	0.22815293
82	0x3c90a7b9	0.017658101
83	0xbdad30d8	-0.08456582
84	0xbb7b5901	-0.003835261
85	0x3d1f9e40	0.03896928
86	0xbc84f6ce	-0.016230967
87	0xbe183b20	-0.14866304
88	0xbd2f5f1e	-0.04281532
89	0x3d77db72	0.060512014
90	0xbd880049	-0.066406794
91	0xbdb3b11b	-0.087740146
92	0xbdcd9a5e	-0.10039209
93	0x3da6e40d	0.08148966
94	0x3e04ea74	0.12980062
95	0xbec2ccaf	-0.38046786
96	0xbdd7fe81	-0.1054659
97	0x3c50bcdf	0.012740343
98	0x3d7180f5	0.058960874
99	0xbdb88552	-0.09009804
100	0x3d333861	0.04375494
101	0x3d9865f6	0.074413225
102	0xbdf0a3da	-0.11750002
103	0x3dda4514	0.10657707
104	0x3d6a3296	0.05717715
105	0x3e1ec997	0.15506588
106	0xbe3b4e21	-0.18291523
107	0x3da342e8	0.07971746
108	0x3e051e8c	0.12999934
109	0xbe32b754	-0.17452747
110	0xbdddbb27	-0.10826712
111	0xbe07ccd8	-0.13261735
112	0x3d75f917	0.060052004
113	0xbde933cc	-0.113868326
114	0xbdd1bee3	-0.10241487
115	0x3ce60040	0.028076291
116	0xbd42a126	-0.047516964
117	0x3df9456d	0.12171445
118	0xbdb0033a	-0.085943654
119	0xbd494344	-0.049136415
120	0xbdef3eb2	-0.1168188
121	0xbdf07c12	-0.117424145
122	0xbeb49ca3	-0.35275754
123	0xbdf2cab6	-0.1185507
124	0x3dc157d9	0.09440584
125	0xbb3fb0ce	-0.002924967
126	0xbd5b2450	-0.053501427
127	0x3e038a43	0.12845711
128	0x3da2bce1	0.07946182
129	0xbd327aba	-0.043574072
130	0xbd81c307	-0.06336027
131	0x3bb14554	0.005409876
132	0x3b03e7b2	0.0020127115
133	0xbd663549	-0.05620316
134	0xbc4ecc45	-0.012621944
135	0x3d1d8e18	0.03846559
136	0x3ced2e63	0.028952783
137	0xbd7a2d49	-0.061078344
138	0xbd0c8c4c	-0.034313485
139	0xbd08864f	-0.03333121
140	0xbd828a2c	-0.063740104
141	0x3e252a4f	0.1612942
142	0xbd95b813	-0.073105
143	0x3de3fe1f	0.11132454
144	0x3dc83e85	0.0977755
145	0xbde494c0	-0.11161184
146	0x3db10518	0.0864355
147	0xbe8f85d4	-0.2803179
148	0x3e117c78	0.14207637
149	0x3bd1f4b0	0.006407343
150	0x3ddd3337	0.10800784
151	0xbb9b1d3a	-0.0047337087
152	0x3ca90223	0.020630902
153	0x3d556177	0.052094903
154	0xbd8a184f	-0.06742918
155	0xbc41bf3c	-0.011825379
156	0x3e20454f	0.15651439
157	0xbc0aedc4	-0.008479539
158	0x3d1f232b	0.0388519
159	0xbdc96ecb	-0.09835585
160	0xbd753a1b	-0.059869867
161	0xbdf832e8	-0.121190846
162	0xbdc6b60d	-0.09702692
163	0xbd752808	-0.05985263
164	0xbce68638	-0.028140172
165	0x3d91cb58	0.07118863
166	0xbdacce94	-0.08437839
167	0x3da6a26d	0.08136449
168	0x3deca481	0.11554814
169	0x3d2fedbb	0.042951327
170	0xbbdc2dca	-0.0067193257
171	0x3dbb4774	0.09144488
172	0x3d628713	0.055304598
173	0x3bbb9d7f	0.005725562
174	0x3b7081da	0.0036698491
175	0xbd93ee1b	-0.072231494
176	0xbda0e4a6	-0.07856111
177	0xbd006969	-0.031350527
178	0xbdc939bd	-0.09825466
179	0x3e088635	0.13332446
180	0x3db71581	0.089396484
181	0xbe434b9d	-0.19071813
182	0x3d797e65	0.060911555
183	0xbd8d520c	-0.06900415
184	0x3e776b3a	0.24161997
185	0xbd34d8c8	-0.04415205
186	0xbdc775a4	-0.09739235
187	0x3cc0097a	0.023442019
188	0x3d4bede4	0.049787417
189	0xbd0b3a3b	-0.03399108
190	0x3e352594	0.17690116
191	0x3e0d0494	0.13771278
192	0xbdadae6b	-0.08480533
193	0xbdbef04a	-0.09323175
194	0xbe46279c	-0.19351047
195	0x3d7437db	0.05962358
196	0xbc0b5eb5	-0.008506467
197	0x3dd2d328	0.10294181
198	0x3e1f96f2	0.15584925
199	0xbcc94cff	-0.024572847
200	0x3d86cf88	0.06582552
201	0x3dbde158	0.092714965
202	0x3d05ce42	0.032667406
203	0xbe3bd03e	-0.18341157
204	0xbd776d8b	-0.060407203
205	0xbd9b3908	-0.07579237
206	0x3caf8961	0.021427812
207	0x3db4682f	0.08808934
208	0xbdb993a5	-0.09061364
209	0xbd6b2b0a	-0.057414092
210	0x3d592da5	0.053022046
211	0xbd9b391b	-0.075792514
212	0xbddc2ac6	-0.10750346
213	0x3d9d1028	0.07669097
214	0xbc1b4f0d	-0.009479296
215	0xbe05d4fc	-0.13069528
216	0xbc82fba7	-0.015989138
217	0x3d941c2d	0.072319366
218	0x3d808d40	0.06276941
219	0xbe880160	-0.2656355
220	0xbe6771d0	-0.2260201
221	0xbc9d6ad3	-0.019215977
222	0x3c5e1d66	0.013556814
223	0x3cad1552	0.02112833
224	0x3d56ca7e	0.052439205
225	0xbd317ba7	-0.043330815
226	0x3c71ff93	0.014770406
227	0xbe9b9006	-0.3038332
228	0x3d27c77e	0.040961735
229	0x3dac6bde	0.084190115
230	0xba66faf1	-0.0008811197
231	0xbd9c0baf	-0.07619416
232	0xbe0531a4	-0.13007218
233	0xbdd6b9ad	-0.104846336
234	0xbcf49518	-0.02985625
235	0x3e0f6c6c	0.14006203
236	0x3e0bb1ce	0.13642046
237	0x3d1e737a	0.038684346
238	0xbe0cd246	-0.13752088
239	0x3d04b8e0	0.032402873
240	0x3e38de3c	0.18053526
241	0x3d7a0e61	0.06104887
242	0x3d8e8c3d	0.06960342
243	0x3dc1ea86	0.0946856
244	0xbda9af98	-0.08285445
245	0xbd88ee47	-0.06686073
246	0x3d5aa5bd	0.053380717
247	0xbe4b8e90	-0.19878602
248	0x3c8e644b	0.017381808
249	0x3ec9b4a3	0.39395627
250	0xbdb202f5	-0.0869197
251	0xbdaafeeb	-0.08349403
252	0xbdd49958	-0.103808105
253	0xbd767f19	-0.060179804
254	0xbd8eeaee	-0.06978403
255	0xbd7f34bc	-0.06230615

bias f4 [24]
0	0xbc284eaa	-0.010272661
1	0x3c4886ed	0.0122392
2	0x3c75db58	0.015005909
3	0xbbedfd80	-0.0072628856
4	0x3a06da60	0.0005144235
5	0xbc3d542b	-0.011555712
6	0xbc6c02af	-0.014404937
7	0xbb6929f8	-0.0035577994
8	0x3c2ace69	0.010425189
9	0x3c904789	0.017612236
10	0xbc80653b	-0.01567327
11	0xbcf8eed7	-0.030387325
12	0x3b103e55	0.002200981
13	0x3cdbac45	0.026815543
14	0xbb9b4d2e	-0.004739425
15	0x3c99b1d3	0.018761551
16	0x3c493d88	0.012282737
17	0x3bac0245	0.005249294
18	0xbc8365fc	-0.01603984
19	0x3c3293e4	0.010899518
20	0x3ba82e8f	0.0051325033
21	0x3bdec2a7	0.0067981067
22	0x3c714333	0.014725494
23	0x3cad93d0	0.021188647
