logs/el_mini_test/exported/policies/policy_1.pt (torch, 814664 bytes, 8 tensors)

weight f4 [512, 66]
0	0x3c8859fe	0.016644474
1	0x3cc0aa95	0.02351884
2	0xbd7396b6	-0.0594699
3	0x3dc10bbc	0.09426066
4	0x3e6e8dca	0.23296276
5	0xbd00ad5f	-0.03141534
6	0xbe80904c	-0.2511009
7	0xbed7c0ce	-0.42139286
8	0x3e0647ff	0.13113402
9	0xbdee5e47	-0.11639076
10	0x3e0dd293	0.13849859
11	0x3f0ba970	0.54555416
12	0x3e922f73	0.28551826
13	0x3ea121c7	0.31471083
14	0xbdaf6740	-0.08564615
15	0x3dd0a473	0.10187616
16	0xbbf5d416	-0.0075020893
17	0xbd4ff5da	-0.05077157
18	0xbdf551db	-0.11978503
19	0xbd7f1329	-0.062274132
20	0x3e74d0b2	0.23907736
21	0xbe4dde34	-0.20104295
22	0xbd7a6086	-0.06112721
23	0x3e1a8d66	0.15093002
24	0x3d924298	0.07141608
25	0x3e8da5f9	0.2766569
26	0xbda92f8e	-0.082610235
27	0x3df37b76	0.11888783
28	0x3d9655c1	0.07340575
29	0x3e008bf8	0.12553394
30	0xbcd535e6	-0.026026677
31	0xbd82b0bf	-0.06381368
32	0xbd544418	-0.05182275
33	0xbc5b8efb	-0.013400788
34	0xbdfc8640	-0.12330294
35	0x3b802e76	0.0039117886
36	0x3dc1a8f5	0.09456054
37	0x3ded15b5	0.11576406
38	0x3de9821e	0.11401771
39	0xbe4ddcee	-0.20103809
40	0xbd60a225	-0.054842133
41	0x3d596017	0.053070154
42	0xbe5cd423	-0.21565299
43	0x3bc4bd01	0.0060039763
44	0xbdc2d9fa	-0.09514232
45	0x3e32b25c	0.17450851
46	0x3cf9f153	0.03051058
47	0xbd8313ee	-0.06400286
48	0xbc06c80b	-0.008226405
49	0x3d92df9d	0.07171557
50	0x3c17a5cb	0.009255837
51	0xbe19c470	-0.15016341
52	0x3d8247a1	0.063613184
53	0xbdc01241	-0.09378482
54	0x3d9a84e0	0.07544875
55	0x3d0ec5c4	0.034856573
56	0x3dab09e1	0.083514936
57	0xbca0149c	-0.019541077
58	0xbd7f32eb	-0.06230442
59	0xbcc0032a	-0.023439009
60	0x3d83b78f	0.064314954
61	0x3c31d67e	0.010854362
62	0xbda90d94	-0.08254543
63	0xbc7d0590	-0.015443221
64	0xbdb5b556	-0.08872478
65	0x3cbc2f70	0.022971839
66	0xbdd850a9	-0.1056226
67	0xbdb15fde	-0.08660863
68	0x3cdfe30a	0.02732994
69	0x3df41431	0.11917914
70	0xbea6aafe	-0.32552332
71	0xbe72af8b	-0.23699777
72	0xbb3b8fd8	-0.0028619673
73	0x3e6a4ab6	0.22880062
74	0xbd83df4e	-0.06439076
75	0x3ded94a6	0.11600618
76	0xbdab680c	-0.08369455
77	0x3ea0be5a	0.31395227
78	0x3d337544	0.043813005
79	0xbedecadf	-0.43514153
80	0x3ef32f29	0.47496918
81	0x3d8d24ed	0.06891809
82	0xbdf82f00	-0.121183395
83	0xbcf3cfad	-0.029762113
84	0x3d9269fe	0.07149123
85	0x3dab727e	0.08371447
86	0x3ca8b309	0.020593183
87	0xbdc1fae3	-0.09471681
88	0xbc520d9b	-0.012820627
89	0xbe72a8db	-0.23697226
90	0xbe7d3d29	-0.24730362
91	0xbe5138bb	-0.20431797
92	0x3d8a4baf	0.06752717
93	0xbdac0dfc	-0.08401105
94	0xbd5ee094	-0.054413393
95	0xbc082dbf	-0.008311688
96	0x3cc3eb8a	0.023916025
97	0xbd620cf8	-0.05518815
98	0xbb8b7070	-0.004255347
99	0x3e3053d9	0.17219485
100	0x3a1c22ab	0.00059560937
101	0x3d9ad0c8	0.07559353
102	0xbc37b2dd	-0.011212078
103	0x3bd9766c	0.0066364314
104	0x3d3174e7	0.043324377
105	0xbe2092df	-0.15681027
106	0xbd8cb119	-0.06869716
107	0xbe77f93c	-0.24216169
108	0x3dbf547f	0.09342288
109	0x3c0e1c80	0.008673787
110	0x3e04a6b6	0.1295422
111	0xbc54806c	-0.012970071
112	0xbdbaa355	-0.09113184
113	0xbe4eb85b	-0.20187514
114	0xbd3cec4c	-0.046123788
115	0xbd3550c8	-0.044266492
116	0xbd49a4fc	-0.049229607
117	0xbd8e8290	-0.069584966
118	0x3c9e9366	0.019357394
119	0x3ccaa92a	0.024738867
120	0x3d06a781	0.032874588
121	0x3d770ba7	0.060313847
122	0x3db4700b	0.08810433
123	0x3c7338be	0.014845071
124	0xbe0330e7	-0.12811624
125	0x3d29ba0f	0.041437205
126	0x3d2f23f4	0.042758897
127	0x3d2bd4fc	0.041951165
128	0xbd80fc92	-0.06298174
129	0x3cff362e	0.031153765
130	0xbb29a558	-0.0025885906
131	0xbd737fee	-0.059448175
132	0x3ba95eea	0.0051687853
133	0xbb6eee7e	-0.003645807
134	0x3dcccf96	0.100005314
135	0xbe6d5e2e	-0.23180458
136	0x3edcbbd1	0.43112043
137	0x3d6b604a	0.057464875
138	0x3adf473d	0.001703478
139	0xbd312f5c	-0.043258056
140	0xbd1c032c	-0.038088962
141	0xbd585f9a	-0.052825548
142	0xbd781829	-0.060569916
143	0xbef7d490	-0.4840436
144	0xbdcfff65	-0.101561345
145	0xbea7e341	-0.32790568
146	0x3e740e70	0.23833632
147	0x3a29d7ed	0.0006479014
148	0xbda5bce9	-0.080926724
149	0x3ce40852	0.027835999
150	0xbdc08e2f	-0.09402119
151	0x3e2632d8	0.16230333
152	0xbe88526b	-0.2662538
153	0x3d884470	0.066536784
154	0xbda37109	-0.07980544
155	0xb911712e	-0.0001387044
156	0x3e85828e	0.26076168
157	0xbe8afb30	-0.27144766
158	0x3e352a87	0.17692004
159	0xbee5f3b4	-0.44912493
160	0xbb1bebf1	-0.0023791755
161	0xbe0540a8	-0.13012946
162	0xbd980995	-0.074237026
163	0x3e2371d9	0.15961398
164	0x3dcc85c7	0.099864535
165	0xbc583b79	-0.013197773
166	0xbe27dd83	-0.16393094
167	0x3c33c747	0.010972804
168	0x3c85be68	0.016326144
169	0xbbd4e732	-0.006497287
170	0x3bb7b9ba	0.005606857
171	0xbd7a9e63	-0.061186206
172	0x3ddb70b7	0.10714858
173	0x3ba8b59c	0.0051486026
174	0xbe857ce0	-0.26071835
175	0xbcafbb04	-0.02145148
176	0xbe12e92f	-0.14346765
177	0xbe26094b	-0.16214482
178	0xbd9150ac	-0.07095465
179	0xbe31df35	-0.17370303
180	0xbd7b6a8c	-0.061380908
181	0xbd32cb7d	-0.043651093
182	0xbd4ed69f	-0.050497647
183	0x3d7ad3c5	0.061237115
184	0x3a9cc6e1	0.0011961126
185	0xbd79e6b4	-0.06101103
186	0xbd4716c6	-0.048605703
187	0x3ce6670b	0.028125307
188	0xbd79f976	-0.06102892
189	0x3d6a646e	0.057224683
190	0x3b606bae	0.003424387
191	0xbe25459d	-0.16139837
192	0x3c59db58	0.0132969245
193	0x3d89264e	0.06696759
194	0x3c93d452	0.018045578
195	0x3be19b41	0.006884963
196	0xbd980880	-0.07423496
197	0x3d42cf3a	0.047560908
198	0x3b1cdd47	0.0023935603
199	0x3db4b2f7	0.08823197
200	0xbe5dcfc8	-0.21661294
201	0x3d7cf53a	0.061757304
202	0xbe9959f6	-0.29951447
203	0xbb9f99e4	-0.00487064
204	0xbe4cb9e2	-0.19992784
205	0x3e97af5a	0.2962597
206	0x3b620503	0.003448785
207	0xbe154ac4	-0.14579302
208	0x3cb9ffda	0.022705007
209	0x3cadd590	0.021219999
210	0x3ed82b31	0.42220452
211	0xbee15e8c	-0.44017446
212	0x3ea4cab8	0.32185912
213	0xbbdb45f8	-0.0066916905
214	0x3e0bafa7	0.13641225
215	0x3e47db66	0.19517288
216	0x3d6e704a	0.058212556
217	0x3e633bb4	0.22190744
218	0xbd987335	-0.07443849
219	0xbe25ac71	-0.16179062
220	0xbbbe9a77	-0.0058167535
221	0xbe257a29	-0.16159882
222	0x3ea88a71	0.32918122
223	0xbe20a279	-0.15686978
224	0xbc3403c5	-0.010987227
225	0x3cf21086	0.029548895
226	0x3d508073	0.05090375
227	0x3e18f3e3	0.14936785
228	0x3cff2829	0.03114708
229	0xbd802788	-0.0625754
230	0xbc4e119b	-0.01257744
231	0xbe0035cf	-0.12520526
232	0x3dcaf666	0.09910278
233	0x3cad9645	0.021189818
234	0xbda717ff	-0.08158874
235	0x3da4aa5a	0.080403045
236	0x3b943b91	0.0045237024
237	0x3e221b9e	0.15830848
238	0x3e1b693f	0.15176867
239	0x3cfb45fd	0.030673021
240	0x3db2a971	0.08723725
241	0xbe3afbdc	-0.18260139
242	0xbc75d388	-0.015004046
243	0xbe1b6e18	-0.15178716
244	0x3e1e1f8c	0.15441722
245	0xbd54e406	-0.051975273
246	0xbddf4f2f	-0.10903775
247	0x3c91662e	0.017748918
248	0xbd302411	-0.043003146
249	0x3d284280	0.041079044
250	0xbd4b0b18	-0.049571127
251	0xbd7c443d	-0.061588515
252	0x3da94526	0.08265142
253	0xbdb723cf	-0.08942377
254	0x3d9d672b	0.07685693
255	0xbc948dae	-0.018133964

bias f4 [512]
0	0xbe203e5b	-0.15648787
1	0xbdd83172	-0.10556306
2	0xbde6d803	-0.1127167
3	0xbd7c436b	-0.061587732
4	0xbd5e0fe4	-0.054214373
5	0xbdb09bd2	-0.0862347
6	0xbcb73b55	-0.022367159
7	0xbe68ccac	-0.22734326
8	0x3e428cbc	0.18998998
9	0x3d9bb113	0.076021336
10	0x3dbe6943	0.09297421
11	0xbcca4e69	-0.024695592
12	0xbb4a10fb	-0.0030832875
13	0xbdc7dce7	-0.09758931
14	0xbc519005	-0.012790685
15	0xbdae0e85	-0.08498863
16	0x3c175373	0.009236204
17	0x3d6ba437	0.057529654
18	0xbdcdeb25	-0.10054616
19	0xbb7e4e4d	-0.0038803995
20	0xbddabb89	-0.10680301
21	0xbd88f246	-0.06686835
22	0xbdc95050	-0.098297715
23	0xbdc65c7d	-0.096856095
24	0x3da644f6	0.08118622
25	0x3cd4bcbf	0.025968907
26	0x3dd483eb	0.10376724
27	0xbca390cf	-0.019966511
28	0x3daee6d9	0.085401244
29	0xbe1679bf	-0.1469488
30	0x3d9dd664	0.077069074
31	0xbe158fa1	-0.14605571
32	0x3d4b793a	0.049676158
33	0xbd0cbc30	-0.034359157
34	0x3d9f3c93	0.077752255
35	0xbd5a24ba	-0.05325768
36	0xbdce9c19	-0.10088367
37	0xbdba9477	-0.09110349
38	0xbd43eb35	-0.047831733
39	0xbdcfff7a	-0.1015615
40	0x3d7e4067	0.062073138
41	0x3cde32c9	0.027123826
42	0x3dbd74c0	0.09250784
43	0xbd9fe1e2	-0.078067556
44	0xbe042a68	-0.12906802
45	0xbc88517e	-0.016640421
46	0xbb935201	-0.0044958596
47	0xbccfef94	-0.025382794
48	0x3cbe27a4	0.023212261
49	0xbdafc1a9	-0.085818596
50	0xbe3b14cd	-0.18269654
51	0x3c8646a4	0.016391106
52	0x3e0cf5c1	0.13765623
53	0xbded41b0	-0.115847945
54	0x3d996607	0.07490163
55	0xbddc3e64	-0.107540876
56	0x3d985921	0.07438875
57	0xbcf9a7a2	-0.030475441
58	0x3c2127ae	0.0098361205
59	0xbcb4ff78	-0.022094473
60	0xbd68582e	-0.05672472
61	0x3d33befa	0.0438833
62	0xbdc0203a	-0.09381147
63	0xbd94adf7	-0.07259744
64	0xbde29d43	-0.110651515
65	0xbe048043	-0.12939553
66	0x3bd87f90	0.0066070035
67	0x3d05dd62	0.03268183
68	0xbd8e9871	-0.0696267
69	0xbc9f8d1d	-0.019476468
70	0x3d297cd4	0.04137881
71	0xbcb18739	-0.021670924
72	0x3d111904	0.035424247
73	0xbe1dfb0f	-0.15427803
74	0xbe04a648	-0.12954056
75	0x3d9fef0c	0.078092664
76	0xbd8be849	-0.06831414
77	0x3e0f34ff	0.1398506
78	0x3d353242	0.044237383
79	0xbdf7db9b	-0.12102433
80	0x3c9aadad	0.018881643
81	0xbd95bcc8	-0.07311398
82	0x3d7503e3	0.05981816
83	0xbe096217	-0.13416325
84	0x3e4773be	0.19477746
85	0x3d46cf4c	0.048537537
86	0xbd5b1022	-0.053482182
87	0xbd6dcf9c	-0.05805932
88	0x3d445096	0.047928415
89	0xba2dac21	-0.00066250755
90	0xbdd069b9	-0.10176415
91	0xbc439854	-0.011938173
92	0x3c47ec2f	0.012202307
93	0xbd9fb0b7	-0.077973776
94	0xbe058a89	-0.13041128
95	0xbd9efd55	-0.07763163
96	0xbd70e048	-0.05880764
97	0x3dbfc614	0.09363952
98	0x3d481e66	0.048857115
99	0xbdc82de1	-0.09774376
100	0xbe1f6b30	-0.15568233
101	0xbd8c3789	-0.0684653
102	0x3d917d59	0.07103986
103	0xbe0b7afe	-0.13621137
104	0xbd655342	-0.055987604
105	0x3e1cd1b2	0.15314367
106	0x3a826414	0.0009948038
107	0x3d9b2a0e	0.07576381
108	0xbdf923ef	-0.12165057
109	0xbd17d0e9	-0.037064467
110	0x3d862b7a	0.06551261
111	0xbce733aa	-0.028222878
112	0xbc6b007d	-0.014343378
113	0xbd46a112	-0.048493452
114	0x3c478916	0.01217868
115	0xbd73edc3	-0.05955292
116	0x3e26229d	0.16224141
117	0xbe2477db	-0.16061346
118	0xbbb10536	-0.0054022325
119	0x3ddc6fd1	0.10763515
120	0x3df260ad	0.11834846
121	0xbdf83dd1	-0.121211655
122	0xbd3a97d7	-0.045554962
123	0x3dbdd6b9	0.09269471
124	0xbde7f9b4	-0.11326924
125	0xbe164c43	-0.14677529
126	0x3dc9799e	0.0983765
127	0x3c60e015	0.0137253
128	0xbdde28ec	-0.10847649
129	0x3de49479	0.111611314
130	0xbdd8dc75	-0.10588924
131	0x3c6a72a2	0.014309557
132	0x3dc202a1	0.09473158
133	0x3da09c8b	0.07842358
134	0xbd0e14e9	-0.03468791
135	0x3cb09fd6	0.02156059
136	0xbd01c981	-0.03168631
137	0xbd94a2ac	-0.0725759
138	0xbcb6074b	-0.022220274
139	0xbd322908	-0.04349616
140	0xbde0da35	-0.1097912
141	0xbdde3e7f	-0.10851764
142	0x3d0d2d61	0.034467105
143	0xbcf80c90	-0.030279428
144	0xbda07946	-0.07835631
145	0xbd870a04	-0.06593707
146	0xbd42aa0f	-0.04752546
147	0x3c4adede	0.012382237
148	0x3cd08df8	0.025458321
149	0xbc29d97f	-0.0103667965
150	0xbdd72d7d	-0.10506723
151	0xbc25cbf8	-0.010119431
152	0xbdb64b2c	-0.08901057
153	0xbe24fb27	-0.16111432
154	0xbd916c2f	-0.071007125
155	0xbd7fc066	-0.062439345
156	0xbc53c077	-0.012924305
157	0xbd951f0b	-0.072813116
158	0xbde32dc8	-0.110927165
159	0x3d988e48	0.07449013
160	0xbd9423d5	-0.07233397
161	0xbe3c69e6	-0.18399772
162	0xbd8fce42	-0.070217624
163	0x3d8981bb	0.06714197
164	0x3e12bf30	0.14330745
165	0xbd505a8d	-0.050867606
166	0xbdb8d5c7	-0.0902515
167	0xbc0961c5	-0.0083851265
168	0xbb2c32bf	-0.0026275364
169	0xbd93acfe	-0.0721073
170	0xbcd7d7bf	-0.026347993
171	0xbe124d86	-0.14287385
172	0xbe1ea895	-0.15493996
173	0xbe0ff580	-0.14058495
174	0x3b25373f	0.0025209931
175	0x3d66dbaf	0.05636185
176	0xbd856cb1	-0.06514872
177	0x3da6bf3c	0.08141944
178	0xbbd73efc	-0.0065687876
179	0x3db07338	0.08615726
180	0x3dd2d024	0.10293606
181	0x3defa690	0.11701691
182	0x3d38cd82	0.045117863
183	0xbd2b1042	-0.04176355
184	0x3dff10c2	0.12454368
185	0xbc961b8a	-0.018323679
186	0x3c00ef82	0.007869603
187	0x3d5e6841	0.054298643
188	0x3b94ac17	0.0045371163
189	0xbdf239c8	-0.11827427
190	0xbdbdd0fa	-0.09268375
191	0xbe0a8911	-0.13528849
192	0xbd502d6d	-0.05082457
193	0xbd8e08cd	-0.06935272
194	0x3d6a3886	0.05718281
195	0xbe459299	-0.19294204
196	0xbc9c8d08	-0.019110218
197	0xbd661020	-0.05616772
198	0x3df5cfb7	0.12002509
199	0x3c8bbcb9	0.017057763
200	0x3d35c4f7	0.044377293
201	0xbd319e50	-0.04336387
202	0x3d00c957	0.031442013
203	0x3e031de9	0.12804379
204	0xbdb34b6e	-0.087546214
205	0xbbe0f65f	-0.006865307
206	0x3db3572b	0.0875686
207	0xbc9cea9b	-0.019154837
208	0x3e498653	0.19680147
209	0xbddab23d	-0.106785275
210	0xbc2a20f7	-0.010383836
211	0xbe251703	-0.1612206
212	0x3e0b8378	0.1362437
213	0xbdcd96d0	-0.10038531
214	0xbc024284	-0.007950429
215	0x3c0c94c4	0.00858039
216	0xbd80cfb7	-0.062896185
217	0xbd4d9b3c	-0.05019687
218	0x3db7f34f	0.08981954
219	0x3dc5162e	0.09623371
220	0xbdc86204	-0.0978432
221	0xbe095628	-0.13411772
222	0xbe2c2b0e	-0.16813299
223	0xbd97f82c	-0.07420382
224	0xbd986d87	-0.07442766
225	0x3d3eb9e4	0.046563998
226	0x3d88b03c	0.06674239
227	0x3e66b208	0.22528851
228	0x3d96e988	0.07368761
229	0x3c93bae2	0.018033449
230	0x3c4af67e	0.01238787
231	0xbbee1f36	-0.007266904
232	0x3d04fe86	0.032469295
233	0x3e179be9	0.14805569
234	0xbe3c3c2e	-0.18382332
235	0xbcff024a	-0.031129021
236	0xbd1901af	-0.03735512
237	0x3d14455a	0.03619895
238	0xbe030f5b	-0.12798826
239	0x3e02949c	0.12752002
240	0x3dd50fe3	0.10403421
241	0xbd191628	-0.037374645
242	0xbd2706a1	-0.040777806
243	0x3d398fd6	0.04530319
244	0xbd9370a8	-0.07199222
245	0x3c053b01	0.008131743
246	0x3d30e189	0.043183837
247	0xbd76e100	-0.06027317
248	0xbca6eec6	-0.020377528
249	0xbd37f11f	-0.044907685
250	0xbdea398c	-0.114367574
251	0x3d3655c1	0.044515375
252	0xbd3d0334	-0.046145633
253	0x3dff0537	0.124521665
254	0xbd31eddf	-0.043439742
255	0xbdd59e04	-0.1043053

weight f4 [256, 512]
0	0x3b6f3bc4	0.003650413
1	0xbc85ad72	-0.016318057
2	0x3cb048d0	0.021519095
3	0xbd97beb3	-0.0740942
4	0x3d93a772	0.07209672
5	0x3d268a6d	0.040659357
6	0xbddb1768	-0.10697824
7	0x3d4a4e58	0.04939112
8	0xbdd5eff8	-0.10446161
9	0xbd04fada	-0.032465793
10	0xbd69d5a9	-0.057088528
11	0xbcd735f4	-0.026270844
12	0xbbf95079	-0.00760847
13	0xbd15ad38	-0.036542147
14	0xb9c5a0c1	-0.0003769454
15	0xbdedab8e	-0.11604987
16	0xbe1d476c	-0.15359277
17	0xbd99ba2d	-0.07506213
18	0x3ba71bad	0.0050997348
19	0xbc2e45db	-0.010636772
20	0xbca3dd5c	-0.020003013
21	0xbdb394c6	-0.08768611
22	0x3deeb6ea	0.11655982
23	0x3d53226d	0.051546503
24	0x3ca33e67	0.019927217
25	0xbd6d7575	-0.057973344
26	0xbdc547cb	-0.09632834
27	0xbddd2145	-0.10797361
28	0xbd9e207b	-0.07721039
29	0x3b11902d	0.002221118
30	0x3c1b7b29	0.009489813
31	0x3ca1bec7	0.01974429
32	0xbdb902ef	-0.09033763
33	0x3d755657	0.059896793
34	0xbd955ed5	-0.072934784
35	0x3c8cb237	0.017174823
36	0x3c4896dc	0.012242999
37	0xbce26f49	-0.027640956
38	0x3d96f9c8	0.07371861
39	0xbd791a1c	-0.060815915
40	0x3d6f3ed2	0.05840952
41	0xbce2504b	-0.027626177
42	0xbcc8f2aa	-0.024529774
43	0xbba54034	-0.005043054
44	0xbca7404f	-0.020416407
45	0x3e0670de	0.13128993
46	0x3dc22638	0.09479946
47	0xbe11e65c	-0.14248031
48	0x3d90d681	0.070721634
49	0x3cb6bbc2	0.022306327
50	0xbd13d121	-0.036088113
51	0x3c96a105	0.018387327
52	0xbdd7fa47	-0.105457835
53	0x3c568e64	0.013095472
54	0xbc69e439	-0.014275604
55	0x3d7f51e9	0.062333975
56	0xbdfb86f7	-0.12281602
57	0xbd2ccb09	-0.042185817
58	0x3ca1bee1	0.019744338
59	0x3d615656	0.055013977
60	0x3d51f5fe	0.051259987
61	0xbaf5114b	-0.001869717
62	0xbc93ba36	-0.018033128
63	0x3dc17f67	0.09448128
64	0xbd47081f	-0.04859173
65	0x3dbe4e76	0.09292309
66	0x3d0aac5e	0.03385579
67	0x3ce5e8bb	0.028065076
68	0xbd108902	-0.03528691
69	0x3c59e0d2	0.01329823
70	0xbc803f27	-0.015655113
71	0xbd2334dd	-0.039845336
72	0xbc294884	-0.0103322305
73	0x3da741b5	0.081668295
74	0x3d5bb369	0.053637896
75	0xbd8d3ef2	-0.068967715
76	0x3b912a47	0.0044300887
77	0xbdc9b200	-0.09848404
78	0xbd868f46	-0.06570296
79	0x3de764ed	0.11298547
80	0xbdc217f4	-0.09477225
81	0x3d5dc6ed	0.05414479
82	0xbccaab8e	-0.024740007
83	0x3cc358c1	0.023846032
84	0xbc272843	-0.01020247
85	0x3db289cf	0.08717691
86	0x3dfc1c0b	0.12310036
87	0xbccff5e6	-0.025385808
88	0xbde0103c	-0.109405965
89	0xbd34670c	-0.044043586
90	0x3d84e998	0.06489867
91	0xbd10164a	-0.035177507
92	0xbc34910b	-0.011020909
93	0xbdd7a51a	-0.105295375
94	0x3d2519be	0.040307753
95	0xbb91e855	-0.004452745
96	0x3ced0cc2	0.028936747
97	0x3c1bbd59	0.009505593
98	0xbdb681f1	-0.08911503
99	0x3da4f012	0.08053602
100	0x3c1eab4a	0.009684393
101	0x3d4cf48b	0.0500379
102	0x3dedf64b	0.11619242
103	0xbc76f2ec	-0.0150725655
104	0xbd4306ba	-0.047613837
105	0xbe1e87ce	-0.15481493
106	0x3bcb580b	0.006205564
107	0x3da63b03	0.08116724
108	0xbb180788	-0.0023197848
109	0xbd4c0ef3	-0.049818944
110	0xbc3a3af3	-0.011366594
111	0x3d34d133	0.04414482
112	0xbcffa770	-0.03120777
113	0x3d9cb857	0.076523475
114	0xbd1e7c15	-0.038692553
115	0xbd325f09	-0.043547664
116	0x3c873b0c	0.016507648
117	0x3e041800	0.1289978
118	0x3d284523	0.04108156
119	0xbcebbde8	-0.028777078
120	0xbd93481a	-0.07191487
121	0x3c36702c	0.011135142
122	0xbd413369	-0.04716817
123	0xbda72a11	-0.081623204
124	0x3c3b2d76	0.011424413
125	0x3c625f57	0.013816676
126	0xbc88e5ff	-0.016711233
127	0xbd24ba75	-0.04021688
128	0x3da3576f	0.07975661
129	0xbd97e1af	-0.074160926
130	0xbbc55d9b	-0.0060231215
131	0x3d082321	0.033236627
132	0xbe26b4a4	-0.16279846
133	0xbd7f6313	-0.062350344
134	0xbd2d8bb7	-0.04236957
135	0xbd05ef83	-0.03269912
136	0x3d09f86e	0.033684187
137	0xbd888bb5	-0.06667272
138	0x3daaf36c	0.0834721
139	0x3d81cc3c	0.06337783
140	0x3d914301	0.07092858
141	0x3da77a80	0.08177662
142	0xbb9a2013	-0.0047035306
143	0xbc258c96	-0.010104319
144	0xbcff4829	-0.031162338
145	0x3c896788	0.016773
146	0x3d1ff20c	0.039049193
147	0x3ca0019c	0.019532017
148	0xbd66f2f8	-0.056384057
149	0x3dac272a	0.084059075
150	0x3dace15a	0.0844142
151	0xbc94ed76	-0.018179636
152	0xbcd603a0	-0.026124775
153	0x3d1ac964	0.037789717
154	0xbd2730e7	-0.04081812
155	0xbc5b1087	-0.01337064
156	0xbd0aa240	-0.03384614
157	0xbd8f941e	-0.07010673
158	0xba481df4	-0.0007633858
159	0xbd5fc290	-0.05462891
160	0xbd119a56	-0.035547577
161	0x3ccf9cdb	0.02534335
162	0xbcb00fb8	-0.02149187
163	0x3d657b0c	0.05602555
164	0xbd602673	-0.054724168
165	0x3ddd9180	0.108187675
166	0xbd23a0d0	-0.039948285
167	0xbb9a01a5	-0.004699903
168	0x3c3f6cb9	0.011683636
169	0x3d4271b2	0.04747171
170	0xbca1079a	-0.019656945
171	0x3d019e89	0.03164533
172	0x3d437b33	0.047724914
173	0x3dc594a0	0.096474886
174	0x3cc0f78a	0.023555536
175	0x3cc0317f	0.023461102
176	0x3c966dee	0.018362965
177	0xbd1ec641	-0.03876329
178	0xbdefea9e	-0.117146716
179	0x3d28d0e9	0.041214857
180	0x3d0afbac	0.03393142
181	0x3cfa9400	0.03058815
182	0x3cca6cf8	0.024710163
183	0x3c9663f4	0.018358208
184	0xbdb015b6	-0.08597891
185	0x3c776062	0.015098663
186	0x3d5bb88f	0.053642806
187	0x3c075e1a	0.008262182
188	0x3d5373aa	0.051623978
189	0x3d1df49c	0.038563356
190	0xbbbace5b	-0.005700869
191	0x3deb54d5	0.1149079
192	0x3c97438a	0.018464822
193	0x3c1f96a7	0.009740508
194	0x3d7bba82	0.061457165
195	0x3dc83351	0.09775413
196	0xbc8837da	-0.016628195
197	0x3d3e1726	0.046408795
198	0xbdfd62dd	-0.12372372
199	0x3bcf2bed	0.006322375
200	0xbd14057f	-0.036138054
201	0xbdac589a	-0.08415337
202	0xbd517941	-0.051141027
203	0xbe03ea7a	-0.12882414
204	0xbd190670	-0.037359655
205	0xbd3b2f22	-0.045699246
206	0xbd9014c2	-0.07035209
207	0xbd84b268	-0.06479341
208	0x3ca47793	0.020076549
209	0x3cbdbc5f	0.023161111
210	0x3d499979	0.04921863
211	0x3de5ce30	0.11220968
212	0xbde444e6	-0.11145954
213	0xbb02e824	-0.0019974792
214	0xbda2d055	-0.079498924
215	0xbcff6012	-0.03117374
216	0x3df21c71	0.11821831
217	0xbbdd80ff	-0.0067597623
218	0xbd4fefeb	-0.050765913
219	0x3d4f9d27	0.05068698
220	0x3d6dce63	0.058058154
221	0x3d336a9c	0.043802842
222	0x3d256c81	0.04038668
223	0x3cd1f8ff	0.025631426
224	0xbda35215	-0.0797464
225	0xbce58d70	-0.028021544
226	0xbcdb8756	-0.026797932
227	0xbd0aa405	-0.033847827
228	0xbd3d8f6d	-0.04627936
229	0xbc39380f	-0.011304869
230	0xbd5baa34	-0.053629115
231	0x3d247fcf	0.04016095
232	0x3d29739a	0.041370012
233	0xbd0f58fa	-0.034996964
234	0x3decd25d	0.11563561
235	0xbc321b5c	-0.010870781
236	0x3d36117c	0.04445027
237	0xbc3a245e	-0.01136121
238	0x3a2767d5	0.00063860166
239	0xbd875e9d	-0.06609843
240	0x3d221d5e	0.039578788
241	0x3e182ce9	0.14860882
242	0x3dcb77ef	0.09934985
243	0xbd2a5f5b	-0.041594844
244	0x3d61e5fa	0.055150963
245	0xbd937e9d	-0.07201884
246	0x3c7c4e79	0.015399569
247	0x3d4c2bb5	0.04984637
248	0x3d119a67	0.03554764
249	0xbce8b98e	-0.028408792
250	0x3d9ee74c	0.0775896
251	0xbb2758c5	-0.0025535088
252	0xbd3e8f81	-0.046523575
253	0xbc7ea3f8	-0.015542023
254	0x3d3d2efb	0.046187382
255	0x3dae5d9e	0.0851395

bias f4 [256]
0	0xbd6ca4a8	-0.057774216
1	0xbc59baf0	-0.013289198
2	0xbdf513f1	-0.11966694
3	0xbca21b22	-0.019788329
4	0xbd4c6fab	-0.049911182
5	0x3d2cd9b6	0.042199813
6	0xbd1eedb3	-0.038800906
7	0xbce03cf8	-0.027372822
8	0xbcda4058	-0.02664201
9	0xbc5b7b5a	-0.0133961085
10	0x3b4b7397	0.0031044239
11	0xbdc10e50	-0.09426558
12	0xbd8a1c8a	-0.06743725
13	0xbd9e991e	-0.077440485
14	0xbd3a056a	-0.04541532
15	0x3c7e780c	0.015531551
16	0xbc394612	-0.01130821
17	0xbc8bd7ca	-0.01707067
18	0xbdb307e4	-0.087417394
19	0xbbf701b2	-0.007538044
20	0xbd95e793	-0.0731956
21	0xbc8cb682	-0.01717687
22	0xbca8577c	-0.020549528
23	0xbd3586ce	-0.044318013
24	0xbd3a8d90	-0.04554516
25	0xbd625107	-0.055253055
26	0xbd02e044	-0.031952158
27	0xbd961328	-0.073278725
28	0xbce59c32	-0.028028581
29	0xbd138643	-0.036016714
30	0xbc930978	-0.017948851
31	0x3bfb3ca7	0.0076671424
32	0x3cd0b3d1	0.025476368
33	0xbd2240df	-0.039612647
34	0xbd69c9b9	-0.057077143
35	0xbd8df03a	-0.06930585
36	0xbcf510d8	-0.029915258
37	0xbdf450c7	-0.119294696
38	0xbc0891e8	-0.008335568
39	0xbd9e7da7	-0.0773881
40	0xbce1bde4	-0.027556367
41	0xbdcbcc9c	-0.099511355
42	0x3cd4394d	0.02590623
43	0xbda3e657	-0.08002918
44	0x3d2bd699	0.041952703
45	0x37e03237	2.6726264e-05
46	0xbd5ff004	-0.054672256
47	0x3cd52a81	0.026021244
48	0xbc016089	-0.007896551
49	0xbd5c5723	-0.053794038
50	0xbdb7e6c9	-0.08979566
51	0x3ca279ca	0.019833464
52	0xbd5bca9d	-0.053660024
53	0xbd4ef988	-0.05053094
54	0xbd6445df	-0.055730697
55	0xbc85d8ed	-0.01633879
56	0xbd86a998	-0.06575316
57	0xbd993c95	-0.07482258
58	0xbced615e	-0.028977092
59	0x3c884874	0.01663611
60	0xbd484911	-0.048897807
61	0xbd7f56fe	-0.06233882
62	0x3b7dca5a	0.0038725347
63	0xbd270b72	-0.0407824
64	0xbd077a50	-0.03307563
65	0xbd000aae	-0.031260185
66	0xbd1d6194	-0.038423136
67	0xbc1b5d9a	-0.009482766
68	0xbd1d902b	-0.038467567
69	0xbda4e293	-0.08051028
70	0xbc606df9	-0.0136980945
71	0xbdc500ea	-0.09619315
72	0xbd4f5700	-0.05062008
73	0xbc2dde38	-0.010612063
74	0x3c84abbd	0.016195172
75	0xbca11408	-0.019662872
76	0xbddebc40	-0.108757496
77	0xbd5cd25f	-0.053911563
78	0xbc9dcaaa	-0.019261677
79	0xbd6e009c	-0.05810605
80	0xbd30e857	-0.043190327
81	0xbd8860f4	-0.06659117
82	0xbd825ee0	-0.06365752
83	0xbcc83e54	-0.024443783
84	0xbd2ffa5c	-0.04296337
85	0xbc353de4	-0.011062119
86	0xbd3ac99f	-0.045602437
87	0xbd2b2ec0	-0.04179263
88	0xbd8ba956	-0.06819408
89	0xbd527180	-0.051377773
90	0xbe20707a	-0.15667906
91	0xbdddcbfa	-0.10829921
92	0x3bccfb9d	0.0062555806
93	0xbce263b8	-0.02763544
94	0xbdafa344	-0.08576062
95	0xbdd50d66	-0.10402946
96	0xbca70671	-0.020388814
97	0x3ce314ea	0.027719934
98	0xbc12ca54	-0.008959372
99	0xbc5fc728	-0.013658322
100	0xbd47754d	-0.04869585
101	0xbd502299	-0.050814245
102	0xbd356b3f	-0.04429173
103	0xbd09afb6	-0.033614837
104	0xbbdc02b2	-0.0067141885
105	0xbce9d002	-0.028541569
106	0x3d49bd95	0.049253065
107	0xbddba3e9	-0.10724623
108	0xbe066018	-0.13122594
109	0xbbb2c0f0	-0.005455129
110	0xbd841527	-0.06449347
111	0x3c3399d7	0.010961971
112	0xbc292c92	-0.010325568
113	0xbd21fdbc	-0.03954862
114	0xbc371cc4	-0.011176292
115	0xbc8d7ea4	-0.017272301
116	0xbbb353ee	-0.0054726517
117	0xbce25231	-0.027627083
118	0xbc97f298	-0.018548295
119	0xbcfca023	-0.030838078
120	0xbd71c9c0	-0.059030294
121	0xbca6f08b	-0.020378372
122	0xbb1130dd	-0.002215437
123	0xbc3439d6	-0.011000117
124	0xbd049261	-0.03236616
125	0xbce029aa	-0.027363617
126	0x3cc4fd10	0.02404645
127	0x3c6b5740	0.014364064
128	0xbdcc7318	-0.0998289
129	0xbc8d7032	-0.017265413
130	0xbc18ab28	-0.009318151
131	0xbc410784	-0.011781577
132	0xbdae3a87	-0.08507257
133	0x3c2cba72	0.010542499
134	0x3d917729	0.07102806
135	0xbd3a5fee	-0.045501642
136	0xbda141f8	-0.07873911
137	0xbde012a9	-0.10941059
138	0xbe04d14a	-0.12970462
139	0xbcd7ec52	-0.026357803
140	0x3d195168	0.03743115
141	0xbc131218	-0.008976482
142	0xbd866844	-0.06562856
143	0xbc49be9d	-0.012313512
144	0xbc69d827	-0.014272726
145	0xbd994fc1	-0.07485915
146	0xba9982d3	-0.0011711962
147	0xbd156cab	-0.036480587
148	0xbd7d7386	-0.06187775
149	0xbd9f945a	-0.07791968
150	0xbd866c94	-0.065636784
151	0xbc06ff2b	-0.008239548
152	0xbd0f6ad8	-0.035014004
153	0xbd5166be	-0.051123373
154	0x3c790bac	0.015200537
155	0xbd1b8d8c	-0.037976786
156	0x3ca43cf6	0.0200486
157	0xbd62b229	-0.055345688
158	0xbd78986f	-0.060692247
159	0x3aa17340	0.0012317672
160	0xbd07c630	-0.03314799
161	0xbde768ea	-0.11299308
162	0xbd770bc2	-0.060313947
163	0xbd8a7cf3	-0.067621134
164	0xbd60afbf	-0.054855105
165	0xbd262941	-0.040566687
166	0xbd1db156	-0.0384992
167	0x3cbebeef	0.023284404
168	0xbe4e1a7c	-0.2012729
169	0xbd10686a	-0.035255827
170	0xbd1ffa69	-0.03905717
171	0xbc4e107e	-0.012577174
172	0xbd055b6d	-0.032557894
173	0xbd9b06bb	-0.07569643
174	0xbdc92f11	-0.0982343
175	0x3c7120d6	0.014717301
176	0x3c93722a	0.017998774
177	0xbddfd7d7	-0.1092984
178	0x3d0ab850	0.03386718
179	0xbd182d98	-0.037152857
180	0xbd3632b9	-0.044481967
181	0x3ae97983	0.0017812703
182	0xbc74bf99	-0.014938259
183	0x3cf75481	0.030191662
184	0xbd5a15c7	-0.053243425
185	0x3ba11c53	0.0049167066
186	0xbd41f262	-0.047350295
187	0xbd2c74f5	-0.042103726
188	0x3c461033	0.012088823
189	0xbd7c57b9	-0.061607096
190	0xbc64770c	-0.013944399
191	0xbb2e2e28	-0.0026577804
192	0xbdcb1ed7	-0.099179916
193	0xbc5ffa63	-0.013670537
194	0xbcab61a5	-0.020920584
195	0xbca1abc3	-0.019735223
196	0xbe190b0f	-0.14945625
197	0xbd6eb0a3	-0.058273923
198	0xbbcd5118	-0.0062657706
199	0xbddeee97	-0.10885351
200	0x3ab488c7	0.0013773673
201	0x3ce3060e	0.027712848
202	0xbd3bc4ab	-0.045841854
203	0xbdc52857	-0.09626835
204	0x3d316fbd	0.043319453
205	0xbc8df878	-0.017330393
206	0xbdc23d3c	-0.09484336
207	0x3d29a6ad	0.04141872
208	0xbd3a1b3c	-0.04543613
209	0xbdb05bbf	-0.08611249
210	0xbc84c439	-0.016206848
211	0xbd8c6ca0	-0.06856656
212	0xbcc45c94	-0.023969926
213	0x3c42eec5	0.011897747
214	0xbd7f9bdb	-0.062404495
215	0xbca6a2cf	-0.020341305
216	0xbe1deea7	-0.1542307
217	0xbdce1477	-0.10062497
218	0xbcb6b0b7	-0.022301061
219	0xbd776404	-0.060398117
220	0xbd8122e8	-0.06305486
221	0xbcb336f4	-0.02187679
222	0xbd06a96b	-0.032876413
223	0x3ba02a9a	0.004887891
224	0x3c23bcc4	0.009993736
225	0xbce96894	-0.02849225
226	0xbdb6a68f	-0.08918487
227	0x3cc84165	0.024445245
228	0xbcc068fa	-0.023487557
229	0xbd95f18b	-0.07321461
230	0x3d0d0c51	0.034435574
231	0xbd935fff	-0.07196044
232	0xbde72b7c	-0.11287591
233	0xbe064cd2	-0.13115242
234	0xbd728655	-0.05921014
235	0xbda9534d	-0.082678415
236	0xbd127909	-0.03575996
237	0x3d7a7b6f	0.06115287
238	0xbdefe8b0	-0.117143035
239	0x3cd1632e	0.025559988
240	0xbc580e5a	-0.013187015
241	0xbdb3b027	-0.08773833
242	0x3d577651	0.05260307
243	0xbd42ea88	-0.047586948
244	0x3d5a6ac1	0.053324465
245	0xbb3f6e66	-0.002921009
246	0x3cec42a1	0.028840365
247	0xbd8adaee	-0.06780039
248	0xbde0a88f	-0.1096965
249	0xbc8810d1	-0.016609581
250	0xbd3ffbd3	-0.046871018
251	0xbdaa82ae	-0.083257064
252	0xbd7e8ac1	-0.062144045
253	0xbc000d07	-0.007815606
254	0xbd867b4f	-0.06566488
255	0xbd919bf6	-0.07109825

weight f4 [128, 256]
0	0xbd73ab07	-0.059489276
1	0xbd1fccf9	-0.039013837
2	0x3d34e262	0.044161208
3	0xbb88028e	-0.004150695
4	0x3d55b682	0.052176006
5	0x3c3af713	0.011411446
6	0x3d1377e7	0.03600302
7	0xbd4b4993	-0.049630713
8	0x3c8d38d1	0.017239006
9	0xbd57797b	-0.052606087
10	0x3d120599	0.03564987
11	0x3c98faa2	0.018674199
12	0xbd88191b	-0.066454135
13	0x3c8f03b7	0.017457826
14	0x3cd265fb	0.025683394
15	0x3d8c0396	0.068366215
16	0x3d513849	0.05107907
17	0xbb544e05	-0.0032395136
18	0x3ab17f1a	0.0013541908
19	0xbdf6572d	-0.12028346
20	0xbcd596e6	-0.02607293
21	0x3da40870	0.08009422
22	0xbc682fac	-0.014171522
23	0x3ce7bbc6	0.02828778
24	0x3d016a58	0.031595558
25	0xbabdc84f	-0.0014479252
26	0xbcd0c0b0	-0.025482506
27	0xbcb3076a	-0.021854121
28	0x3d423d3e	0.047421686
29	0xbcc821b5	-0.024430135
30	0x3dc4d726	0.09611349
31	0x3d4a3ace	0.049372487
32	0xbd965c75	-0.073418535
33	0x3d3d91cf	0.046281632
34	0xbd23bb78	-0.039973706
35	0x3bb9e1bb	0.005672661
36	0x3d932d27	0.071863465
37	0x3c1f03dd	0.009705511
38	0xbdbfc481	-0.09363652
39	0xbcf97fe8	-0.030456498
40	0x3d16f176	0.03685137
41	0xbc300e69	-0.010745623
42	0xbdc571cd	-0.096408464
43	0xbd387987	-0.045037773
44	0xbdae7c0b	-0.08519753
45	0xbc80c09d	-0.015716845
46	0x3aeca2b9	0.0018053866
47	0x3c67c505	0.014146094
48	0x3d00a9aa	0.031411804
49	0x3c572108	0.013130434
50	0xbb1b9e60	-0.0023745522
51	0xbd0c885c	-0.03430973
52	0xbcee08a2	-0.02905685
53	0x390bab5c	0.0001331991
54	0x3d4483c1	0.047977213
55	0x3d2f3009	0.04277042
56	0xbc4b46f6	-0.012407055
57	0xbc630b13	-0.013857621
58	0xbcecda11	-0.028912576
59	0x3cd0cb09	0.02548744
60	0xbc2c7eb6	-0.010528257
61	0xbd2ece0a	-0.042676963
62	0xbd1a8b99	-0.037730787
63	0x3c33ae75	0.010966887
64	0x3e159bee	0.14610264
65	0x3d047991	0.032342497
66	0xbd3dc328	-0.046328694
67	0xbdc25033	-0.09487953
68	0x3c73a066	0.014869785
69	0x3dddd9b6	0.10832541
70	0xbd5b9cbc	-0.05361627
71	0xbd0772e1	-0.03306854
72	0x3d47695c	0.048684463
73	0x3b80c432	0.0039296383
74	0xbd87e50e	-0.066354856
75	0xbd784165	-0.06060924
76	0xbdaa6c7d	-0.08321474
77	0xbd640b20	-0.055674672
78	0xbe25befc	-0.16186136
79	0xbc8edd38	-0.01743947
80	0x3d7ac5c2	0.061223753
81	0x3d8aec5a	0.06783362
82	0x3b6d6ef2	0.0036229459
83	0xbd233c17	-0.039852228
84	0x3d80513b	0.062654935
85	0xbd77734a	-0.060412683
86	0xbcd45418	-0.025919005
87	0xbbedec64	-0.007260846
88	0x3cc1050a	0.023561973
89	0x3d09b119	0.03361616
90	0xbdcc49c2	-0.09975006
91	0xbcf925bc	-0.030413501
92	0x3d640cd3	0.055676293
93	0xbc6ceec9	-0.014461228
94	0xbcbf7586	-0.02337147
95	0xbd8c5ab9	-0.068532415
96	0xbc8b9a88	-0.01704146
97	0xbd814224	-0.063114434
98	0xbc71bec3	-0.014754954
99	0xbb33197a	-0.0027328418
100	0x3d8dc503	0.06922343
101	0xbd954be9	-0.07289869
102	0xbd223d3d	-0.039609183
103	0xbd9d1624	-0.076702386
104	0xbc8e73b6	-0.01738916
105	0x3d5ee123	0.054413926
106	0x3d666b9e	0.056254975
107	0xbc67c2f2	-0.0141456
108	0x3c92c488	0.017915979
109	0xbd94ddd8	-0.07268876
110	0x3c4f5795	0.0126551585
111	0x3ce2337d	0.027612442
112	0x3d5dcfc5	0.054153223
113	0x3bb979ce	0.005660272
114	0xbd949a29	-0.07255966
115	0x3dafc4cc	0.08582458
116	0x3ca05d95	0.019575873
117	0xbd4f6064	-0.050629035
118	0xbde318cc	-0.11088714
119	0x3c996397	0.018724246
120	0xbdb58c07	-0.08864599
121	0x3c51858a	0.012788186
122	0xb9a10481	-0.0003071167
123	0x3c511870	0.012762174
124	0x3d035d9b	0.03207169
125	0xbdeaddab	-0.11468061
126	0x3db01cfe	0.0859928
127	0x3ce88681	0.028384449
128	0xbcacc67c	-0.021090738
129	0x3cca571d	0.024699742
130	0x3d072415	0.032993395
131	0x3d658f69	0.05604497
132	0xba16c38e	-0.0005751186
133	0xbd1dfd30	-0.038571537
134	0x3d4c311e	0.04985153
135	0xbd99c0c1	-0.07507468
136	0x3c4a274d	0.012338472
137	0xbc73acef	-0.014872774
138	0xbd91b065	-0.07113723
139	0xbd2bdcdd	-0.04195868
140	0x3de56d5d	0.112025
141	0xbd0d4add	-0.034495223
142	0x3b6e6dcf	0.003638137
143	0x3d82b0f0	0.063814044
144	0x3d8bc4c0	0.068246365
145	0xbdc77e02	-0.09740831
146	0x3db26860	0.08711314
147	0xbdb9052f	-0.09034192
148	0x3bf3132e	0.007418058
149	0xbcbf9b96	-0.023389619
150	0xbb6d8d88	-0.003624769
151	0xbdbb97b6	-0.09159796
152	0xbd628f0c	-0.0553122
153	0xbdff9ef7	-0.12481492
154	0xbcf1ed31	-0.029532047
155	0x3db86841	0.0900426
156	0xbd57ac2f	-0.05265444
157	0xbcca8b31	-0.024724575
158	0xbdbacf7e	-0.09121607
159	0x3d548db1	0.05189294
160	0xbdc99385	-0.0984259
161	0xbc8287b9	-0.015933858
162	0x3d500ced	0.050793577
163	0xbcdec3e3	-0.027193015
164	0x3be50c80	0.0069900155
165	0x3c084b5b	0.008318747
166	0xbdefb711	-0.11704839
167	0xbcfb67d4	-0.030689158
168	0xbd7eec9d	-0.06223737
169	0xbbe70f8e	-0.007051415
170	0xbdd08fb4	-0.10183659
171	0xbd81e391	-0.06342233
172	0xbd1db31d	-0.038500894
173	0x3d199170	0.037492216
174	0x3d56bf0c	0.05242829
175	0xbd8f1b2d	-0.06987605
176	0xbd892faf	-0.06698548
177	0xbc8527c9	-0.016254323
178	0xbba33320	-0.00498046
179	0xbd54b490	-0.05193001
180	0x3cb801be	0.022461768
181	0xbcbf8be9	-0.023382144
182	0x3de89a14	0.11357513
183	0x3b23d6b4	0.00249998
184	0x3cb17407	0.021661771
185	0xbda3362e	-0.07969318
186	0xbd6c9a54	-0.057764366
187	0xbc64f8e0	-0.013975352
188	0xbd45badb	-0.048273902
189	0xbdba1bc7	-0.09087329
190	0x3d33f78e	0.04393726
191	0x3d43810e	0.047730498
192	0xbd49694f	-0.049172696
193	0xbd8b2b92	-0.0679542
194	0xbd0a2035	-0.03372212
195	0xbc9c197d	-0.019055123
196	0xbc37b349	-0.0112121785
197	0xbdbeee60	-0.0932281
198	0xbe0f888d	-0.14016934
199	0xbca8bd3b	-0.020598045
200	0x3af8ea30	0.0018990692
201	0x3d0e15a3	0.034688603
202	0x3c9ef3f6	0.019403439
203	0xbd07ed6b	-0.033185404
204	0xbce7ad96	-0.028281014
205	0x3bb1e18c	0.0054284986
206	0x3cabe348	0.0209824
207	0x3d9bd24d	0.07608471
208	0x3b49c1ee	0.0030785757
209	0xbb381f11	-0.002809469
210	0x3d39ed1a	0.045392133
211	0xbcd6a4c5	-0.026201615
212	0xbdd24d2f	-0.10268628
213	0xbd4cf286	-0.050035976
214	0xbcc5853f	-0.024111388
215	0x3d4da71f	0.050208207
216	0xbc746ae6	-0.014918065
217	0x3d595402	0.05305863
218	0xbd8e507c	-0.06948945
219	0xbc4e9abb	-0.012610133
220	0x3d694bb2	0.056956954
221	0xbe1cec42	-0.153245
222	0xbd89337c	-0.06699273
223	0x3d125975	0.035729844
224	0xbd1f08bd	-0.038826693
225	0x3cb89504	0.022531994
226	0x3d95c883	0.07313635
227	0xbb993f34	-0.004676724
228	0x3dbeb383	0.09311583
229	0xbdd286d2	-0.10279621
230	0x3d824573	0.06360903
231	0xbd68eb91	-0.05686528
232	0x3d8c5023	0.06851222
233	0xbbf19978	-0.007373031
234	0xbde0dbba	-0.109794095
235	0xbd0d1cec	-0.03445141
236	0x3d9b2c10	0.07576764
237	0xbda3dc3d	-0.080009915
238	0xbc435315	-0.011921664
239	0x3dbbd37b	0.09171196
240	0xbdcafe3f	-0.09911775
241	0xbdda86a2	-0.106702104
242	0x3d346d73	0.04404969
243	0x3c67cbb1	0.014147685
244	0xbbcf71ea	-0.0063307183
245	0xbcba145e	-0.02271479
246	0x3db445c6	0.08802371
247	0x3d276901	0.040871624
248	0xbc7231ef	-0.014782413
249	0x3c883b96	0.016629975
250	0x3d9000db	0.07031413
251	0xbd19780a	-0.037467994
252	0x3afe350f	0.0019394475
253	0x3cff938f	0.031198291
254	0x3c34d1b7	0.011036328
255	0xbe08d491	-0.13362338

bias f4 [128]
0	0x3d49d784	0.049277797
1	0x3c8617a2	0.01636869
2	0xbc3870e8	-0.011257388
3	0xbd78901e	-0.060684316
4	0x3d223855	0.039604504
5	0xbe2623db	-0.16224615
6	0xbe030bfe	-0.12797543
7	0xbc0c6254	-0.008568365
8	0xbcb17a05	-0.021664629
9	0xbc2dc081	-0.010604979
10	0xbc3d62a7	-0.011559165
11	0x3cdeb0b8	0.027183875
12	0xbd48ceee	-0.04902547
13	0xbd3be07f	-0.045868393
14	0x3cc574a1	0.024103465
15	0xbcbb5743	-0.022868758
16	0xbd3a2aae	-0.04545086
17	0xbcec8426	-0.028871607
18	0xbdc122c1	-0.09430457
19	0x3c004307	0.007828481
20	0xbdef2634	-0.116772085
21	0xbd3998c2	-0.045311697
22	0xbd209951	-0.039208714
23	0xbd505070	-0.05085796
24	0xbd00e435	-0.031467635
25	0xbb71fe7b	-0.0036925364
26	0xbd3cbbc2	-0.046077497
27	0xbdd7e55f	-0.10541796
28	0xbe057bd6	-0.13035521
29	0xbd12530e	-0.03572374
30	0xbd9245d2	-0.071422234
31	0xbcdc5dcd	-0.026900196
32	0x3c8bff30	0.017089456
33	0x3cabf2c8	0.02098979
34	0x3d27910c	0.04090981
35	0x3d73aa68	0.059488684
36	0xbd2c10e1	-0.042008284
37	0xbde9edca	-0.11422308
38	0x3d999ff2	0.0750121
39	0xbe095906	-0.13412866
40	0xbc816082	-0.015793089
41	0xbd841716	-0.06449716
42	0x3d978935	0.07399217
43	0xbce778bc	-0.028255813
44	0xbd08ab6c	-0.033366606
45	0xbd9393bf	-0.07205915
46	0xbb43c9b7	-0.002987487
47	0x3c665c38	0.014060073
48	0xbc8bbe81	-0.017058613
49	0x3ce49dc7	0.027907265
50	0xbd401dbd	-0.04690336
51	0xbd3f1c98	-0.04665813
52	0xbd8ddf62	-0.069273725
53	0xbd6e67ba	-0.05820439
54	0xbd9aa8fa	-0.07551761
55	0x3bede4ee	0.0072599566
56	0xbc7e0a58	-0.015505396
57	0xbc259e77	-0.010108582
58	0xbd38fbcb	-0.045162003
59	0xbafd9948	-0.001934805
60	0xbdc9ddf3	-0.098567866
61	0x3d2c5aaf	0.04207867
62	0xbe022070	-0.12707686
63	0xbc1cdb3f	-0.009573757
64	0x3d9e2f97	0.07723921
65	0xbcb8d17d	-0.02256083
66	0xbc9b7ae1	-0.018979492
67	0xbdf9b0a6	-0.12191896
68	0xbda5b28c	-0.08090696
69	0xbb8235db	-0.003973705
70	0x3d960e71	0.07326973
71	0xbd8e3271	-0.06943215
72	0xbcf11738	-0.029430017
73	0x3cfd591d	0.030926282
74	0xbda6a2fa	-0.08136554
75	0xbd891ccf	-0.06694948
76	0xbd3e112c	-0.046403095
77	0xbcaa93a7	-0.02082236
78	0xbd89f7d6	-0.06736724
79	0xbd0af877	-0.03392836
80	0x3d8429ee	0.0645331
81	0x3d565097	0.05232295
82	0xbdda261c	-0.106518
83	0x3d04fd52	0.032468148
84	0xbd4396a6	-0.04775109
85	0xbe0c5a0a	-0.13706222
86	0xbdff4120	-0.124635935
87	0xbe460818	-0.19339025
88	0xbc99f3c6	-0.018792998
89	0x3d5ede45	0.05441119
90	0xbd657e50	-0.056028664
91	0xbcf9c642	-0.030490045
92	0x3ca18d3d	0.019720668
93	0xbdbe4ad9	-0.0929162
94	0x3b44cb89	0.0030028543
95	0x3d19ab95	0.03751715
96	0xbdd83525	-0.105570115
97	0xbd29df10	-0.041472495
98	0x3b4d0415	0.003128295
99	0x3c3fe7cc	0.0117129795
100	0xbd35956a	-0.044331945
101	0x3d2ca5d4	0.042150334
102	0xbd8c2a7b	-0.0684404
103	0x3d48a728	0.048987538
104	0x3da41dd9	0.080135055
105	0xbcf343c7	-0.029695405
106	0x3c6dd777	0.014516703
107	0x3d2e2aa7	0.042521145
108	0xbd7ead49	-0.062176976
109	0xbd33d6b5	-0.043905932
110	0xbd8c600b	-0.06854256
111	0x3ccb0cde	0.024786409
112	0xbdf12d9b	-0.11776277
113	0xbca0b61b	-0.019618085
114	0x3a1a1898	0.00058782985
115	0x3d3dfb4e	0.04638224
116	0x3c40f3ea	0.011776904
117	0xbc927604	-0.01787854
118	0xbc8cbfab	-0.017181238
119	0x3da64083	0.081177734
120	0xb97260af	-0.00023114936
121	0xbcdaa16e	-0.026688304
122	0x3c88518c	0.016640447
123	0xbd46cd41	-0.04853559
124	0xbcb29292	-0.021798406
125	0xbdd1e893	-0.10249438
126	0x3c03c8ae	0.008043451
127	0xbb92f3fa	-0.0044846507

weight f4 [18, 128]
0	0xbc99e121	-0.018784108
1	0x3c2768dd	0.010217872
2	0x3cfa4237	0.030549152
3	0x3cb8c0dd	0.022552902
4	0x392d0378	0.00016499858
5	0xbc8423d2	-0.016130362
6	0x3d122bce	0.035686307
7	0x3c00d6a7	0.007863677
8	0xbd8c4cfa	-0.068506196
9	0xbd4d29dd	-0.050088752
10	0x3db390a8	0.08767825
11	0xbbac16aa	-0.005251725
12	0x3cc07770	0.023494452
13	0xbd1d148c	-0.038349673
14	0xbbc7e3b8	-0.0061001442
15	0xbccf032d	-0.025270069
16	0x3b9418c1	0.0045195525
17	0xbd0115ab	-0.031514805
18	0x3cd19d8d	0.025587821
19	0xbc5cd42f	-0.013478323
20	0xbd41a414	-0.047275618
21	0x3bcbfa68	0.006224919
22	0x3da1dfec	0.07904038
23	0x3ccf4483	0.025301224
24	0x3ca973a2	0.02068502
25	0x3d0a66bb	0.033789378
26	0xbda4e1d5	-0.080508865
27	0x39b37d5d	0.00034234943
28	0xbda5b927	-0.08091956
29	0x3d05ecde	0.032696597
30	0x3d88e52d	0.06684337
31	0x3cc4f23c	0.024041288
32	0x3d1ff6ca	0.039053716
33	0x3d706dcf	0.05869847
34	0x3d666d0d	0.056256343
35	0xbcb254a0	-0.021768868
36	0xbc0bc4fc	-0.008530851
37	0xbc4b7952	-0.012419062
38	0xbd6de45b	-0.058079105
39	0xbd9967ff	-0.07490539
40	0xbcf1b927	-0.029507233
41	0x3c81f2f8	0.015862927
42	0x3d88bcdf	0.06676649
43	0xbd7bc49d	-0.061466802
44	0x3c735204	0.014851097
45	0xbad9e5a3	-0.0016624223
46	0x3cd8d836	0.026470285
47	0x3ca6e1e2	0.020371381
48	0x3c062442	0.0081873555
49	0xbd7c1987	-0.061547782
50	0x3e0c5494	0.13704139
51	0xbb998a3b	-0.004685668
52	0x3d30a403	0.043125164
53	0x3c8cba43	0.01717866
54	0x3d0acf23	0.033888947
55	0x3d6c96b7	0.05776092
56	0xbd191b1a	-0.03737936
57	0xbd81104b	-0.06301936
58	0x3d712428	0.058872372
59	0x3d59e069	0.05319253
60	0xbe3c911b	-0.18414728
61	0xbc06170d	-0.008184207
62	0xbd1cdc3e	-0.038295977
63	0xbdbc0214	-0.09180084
64	0x3d33d5b8	0.04390499
65	0x3d63184f	0.055443104
66	0xbc896d8f	-0.016775874
67	0xbcbc3984	-0.022976644
68	0xbd124089	-0.035706077
69	0x3b4bac37	0.003107799
70	0x3b01ddc0	0.0019816011
71	0x3db90c9e	0.0903561
72	0xbd302d84	-0.043012157
73	0x3d892368	0.06696206
74	0x3ceabbc0	0.02865398
75	0xbc47f874	-0.012205232
76	0x3ab20e3d	0.0013584566
77	0xbd0ddadd	-0.034632552
78	0x3d03c2ad	0.03216808
79	0xbdc5d636	-0.09659998
80	0x3cb65a04	0.02225972
81	0xbd668a3e	-0.05628418
82	0x3dd64e4a	0.10464151
83	0x3d6aea97	0.05735263
84	0xbd45028f	-0.048098143
85	0xbdcca6e9	-0.09992773
86	0xbbd4c199	-0.006492805
87	0x3cbfd80d	0.02341845
88	0x3bdcea12	0.0067417705
89	0x3ddc6f4b	0.10763415
90	0xbd283701	-0.04106808
91	0x3b977233	0.004621768
92	0x3b69b563	0.0035661093
93	0x3cd00350	0.025392205
94	0xbd020ddb	-0.031751495
95	0xbda8538b	-0.082190596
96	0x3c453b68	0.012038089
97	0x3d449f55	0.048003513
98	0x3d3ccec2	0.046095617
99	0x3c4fc410	0.012681022
100	0xbba86d76	-0.005140002
101	0x3d1b87a0	0.03797114
102	0x3c0de465	0.0086604105
103	0x3c68df93	0.0142134605
104	0x3ccac83f	0.024753688
105	0xbb458f7f	-0.0030145345
106	0x3db19fb2	0.086730376
107	0x3c232945	0.00995857
108	0xbd206acf	-0.03916436
109	0xbd3f9557	-0.04677328
110	0xbd5b84dd	-0.053593505
111	0x3e1367d4	0.14395076
112	0x3e09e5f1	0.13466622
113	0xbd5ac370	-0.05340904
114	0xbd37a364	-0.044833556
115	0x3d0990f9	0.033585522
116	0xbbd2d432	-0.006433987
117	0xbd5789ae	-0.052621536
118	0xbd68e2dc	-0.056856975
119	0x3c0e5393	0.008686918
120	0x3c349001	0.011020661
121	0xbd3fc493	-0.046818327
122	0xbc3501be	-0.011047779
123	0x3d157851	0.036491696
124	0xbdc6f44d	-0.097145654
125	0x3cd55bc8	0.026044741
126	0x3cafcd54	0.021460213
127	0xbbacc5cf	-0.005272604
128	0xbcde71c5	-0.027153859
129	0xbbc30af6	-0.0059522344
130	0xbc03d9e2	-0.008047553
131	0x3d18035b	0.037112575
132	0xbd64ea80	-0.0558877
133	0xbc19a84a	-0.009378502
134	0xbd0e9e38	-0.034818858
135	0xbc70e399	-0.014702701
136	0xbb8d5b2d	-0.0043138475
137	0xbc900c20	-0.017583907
138	0xbc886848	-0.016651288
139	0x3d7af2ac	0.061266586
140	0xbd0a7068	-0.033798605
141	0x3d5dfffc	0.054199204
142	0xbc9732e7	-0.01845689
143	0x3c747eb3	0.014922786
144	0xbcfc01c8	-0.030762568
145	0xbc192974	-0.009348262
146	0xba1a14e6	-0.0005877748
147	0xbc745929	-0.014913836
148	0x3c05ca40	0.008165896
149	0x3d449c01	0.04800034
150	0xbd09d865	-0.033653636
151	0x3d751ea9	0.059843693
152	0x3d03b3da	0.03215394
153	0xbc2321d5	-0.009956797
154	0x3bb4d5f2	0.0055186683
155	0x3ca66a94	0.020314492
156	0xbdfcd5e9	-0.123454876
157	0x3cd1582c	0.025554739
158	0xbd143a8b	-0.036188643
159	0xbd15ee0c	-0.036603972
160	0xbd1e3606	-0.03862574
161	0x3d41d5e8	0.047323138
162	0xbcd88bc2	-0.02643383
163	0x3d047488	0.032337695
164	0x3d29a683	0.041418564
165	0x3c4bec4d	0.012446475
166	0xbcd42f30	-0.025901407
167	0xbda8263a	-0.08210416
168	0xbd3f005e	-0.04663121
169	0x3c669e69	0.014075854
170	0xbc1d7344	-0.009610001
171	0xbceee248	-0.029160634
172	0x3cf9c11b	0.030487588
173	0xbb7ad7fd	-0.0038275712
174	0xbc94c20b	-0.018158933
175	0x3ca837fe	0.020534512
176	0x3c341da3	0.010993394
177	0x3ce0e7f8	0.027454361
178	0x3bdadebe	0.006679385
179	0x3ce0f4bd	0.02746045
180	0xbd5dc67b	-0.054144364
181	0x3d5ae0ae	0.053436927
182	0x3c03beda	0.008041108
183	0xbd1c35ce	-0.03813725
184	0x3c2dd198	0.010609053
185	0x3c96c875	0.018406132
186	0xbcc55bb0	-0.024091572
187	0x3caa5a19	0.020794915
188	0x3cfcd019	0.030860947
189	0xbbe5d6d0	-0.007014133
190	0x3c6c3e72	0.014419185
191	0x3d2577c5	0.040397424
192	0x3c58552d	0.013203901
193	0x3dcb3a36	0.09923212
194	0xbd565b13	-0.05233295
195	0xbcb8d86f	-0.022564141
196	0xbcc6e977	-0.024281247
197	0x3d544e9d	0.051832784
198	0x3ce45a1d	0.027875
199	0xbd0a3079	-0.033737633
200	0xbc90085c	-0.017582111
201	0xbd10c3e0	-0.03534305
202	0x3d484ccd	0.048901368
203	0xbd53628f	-0.051607665
204	0xbcaeaeaf	-0.02132353
205	0x3c42e382	0.011895062
206	0x3c69e9ae	0.014276905
207	0x394f40c5	0.00019765187
208	0xbd47ce92	-0.048780985
209	0x3cca5ba4	0.0247019
210	0xbd1420eb	-0.036164206
211	0x3be1e960	0.0068942755
212	0xbcef9c4c	-0.029249333
213	0xbdc78a8c	-0.097432226
214	0xbd40ca8b	-0.04706816
215	0xbd9d79a4	-0.07689217
216	0xbc05c867	-0.008165455
217	0x3d98357f	0.074320786
218	0xbd0b6b10	-0.03403765
219	0xbcb07fa4	-0.021545239
220	0x3d2f8466	0.042850874
221	0x3d0e8845	0.034797926
222	0xbd9cce64	-0.076565534
223	0x3d36dc89	0.044643912
224	0xbc5c0630	-0.01342921
225	0x3caecb7b	0.021337261
226	0x3c3eee14	0.011653442
227	0x3cba0a5f	0.022710023
228	0x3d7bb7b8	0.061454505
229	0x3d669e92	0.05630357
230	0xbd21cffd	-0.039504994
231	0xbbd47a0e	-0.0064842766
232	0x3d3fbdec	0.046811983
233	0xbc86530b	-0.01639702
234	0x3ba6d290	0.005091019
235	0xbc8b2bfe	-0.01698875
236	0x3d2ad657	0.041708317
237	0x3c995ffa	0.018722523
238	0xbd8f7303	-0.070043586
239	0x3cb6b4a7	0.022302939
240	0xbc4d5dc1	-0.01253456
241	0x3c8cdb13	0.017194306
242	0x3cc11376	0.02356885
243	0x3d5c3900	0.053765297
244	0x3c8f05a6	0.017458748
245	0x3d10a8a7	0.03531709
246	0xbb57d841	-0.0032935294
247	0xbb12e56b	-0.0022414576
248	0x3c5331fc	0.012890335
249	0x3b8a95bc	0.0042292755
250	0x3d78f522	0.060780652
251	0xbd4cd40e	-0.05000692
252	0x3cd94891	0.02652386
253	0xbca30b6f	-0.019902913
254	0x3c10bccc	0.008834075
255	0x3b379a4b	0.002801555

bias f4 [18]
0	0xbd221da4	-0.03957905
1	0x3e168082	0.1469746
2	0xbe302bdf	-0.17204235
3	0x3bb0a4f1	0.0053907563
4	0x3d28d3d0	0.041217625
5	0xbc48d36c	-0.012257438
6	0x3d8d8877	0.06910794
7	0x3da0874a	0.07838304
8	0xbe50f4c3	-0.20405869
9	0xbce3cf72	-0.027808879
10	0x3c8aeba8	0.016958073
11	0xbe3ed2d8	-0.18635118
12	0xbd5e666c	-0.054296896
13	0x3e390807	0.18069468
14	0xbe055136	-0.13019261
15	0x3d9055e1	0.0704763
16	0xbe2ca1f9	-0.16858663
17	0xbe4d5a34	-0.20053941
