logs/el_mini_test/exported/policies/policy_1.pt (torch, 817736 bytes, 8 tensors)

weight f4 [512, 66]
0	0x3d4b4436	0.049625598
1	0xbdba1d8a	-0.090876654
2	0x3e0c224a	0.13684955
3	0xbcff635a	-0.031175304
4	0xbe3e981b	-0.18612711
5	0x3cec0a91	0.028813632
6	0x3d576f72	0.052596517
7	0xbccac3f0	-0.024751633
8	0xbd21e627	-0.03952613
9	0xbdacb4a6	-0.084328935
10	0xbda35187	-0.079745345
11	0xbe04f37d	-0.12983508
12	0xbaa5277c	-0.0012600268
13	0x3d7b43bb	0.06134389
14	0x3d6d5674	0.057943776
15	0xbc8bc731	-0.017062755
16	0xbdabb4e4	-0.083841115
17	0x3daa1d8d	0.083064176
18	0xbd0a332d	-0.03374021
19	0xbc1a9b07	-0.009436375
20	0x3d7d9602	0.061910637
21	0x3d73cb1a	0.059519865
22	0x3d8595d0	0.06522715
23	0xbcba0071	-0.022705289
24	0x3dc4afef	0.09603869
25	0xbc65b727	-0.014020718
26	0xbda03bb1	-0.07823885
27	0xbc147f3e	-0.00906354
28	0x3c283639	0.010266834
29	0x3bf8b244	0.0075896103
30	0x3d71657d	0.058934677
31	0xbde7ed83	-0.11324599
32	0xbe1b0e85	-0.15142258
33	0x3afe0796	0.0019380923
34	0xbe0a18c3	-0.13486008
35	0x3cfc3933	0.030788993
36	0x3d108f79	0.035293076
37	0x3d209a29	0.03920952
38	0x3d7b17b4	0.061301902
39	0xbd7393de	-0.05946719
40	0x3d45d2f4	0.048296884
41	0x3d255708	0.040366203
42	0x3d4e8ee4	0.05042924
43	0x3d35ebe5	0.04441442
44	0x3d68ad6a	0.056806006
45	0x3e8cc75f	0.27495858
46	0xbd120b0b	-0.035655063
47	0x3dedc737	0.11610263
48	0x3d8eef1c	0.069792
49	0x3c81c9d5	0.015843311
50	0xbba6f3f5	-0.005095
51	0x3dce11a4	0.100619584
52	0x3cd21ddf	0.02564901
53	0x3c068878	0.008211248
54	0x3d4cf31c	0.050036535
55	0xbcb01515	-0.021494428
56	0x3d2bd3b5	0.041949946
57	0xbd9e2e4e	-0.07723676
58	0x3d373219	0.04472551
59	0xbcaad6ee	-0.02085444
60	0xbb943bfa	-0.0045237513
61	0x3db5c8cf	0.08876192
62	0xbdc103fe	-0.094245896
63	0x3db49b2a	0.08818658
64	0xbd923d68	-0.071406186
65	0x3bf92f2a	0.0076044993
66	0xbdd413b5	-0.10355321
67	0xbe320a1f	-0.17386673
68	0x3d885f47	0.06658798
69	0x3d2eb5d7	0.042653885
70	0x3e209110	0.15680337
71	0x3cba6de1	0.022757472
72	0x3de7c1cb	0.1131626
73	0x3dca842a	0.098884895
74	0x3cd8de36	0.026473146
75	0x3e1ddb60	0.15415716
76	0x3e5616d7	0.2090715
77	0x3e62687a	0.22110167
78	0x3c97bfe6	0.018524121
79	0x3dbc7468	0.0920189
80	0x3c6e5cbb	0.014548476
81	0x3d0fe35d	0.03512894
82	0x3ac0150a	0.0014654708
83	0xbcc62783	-0.024188763
84	0xbe8b132f	-0.27163073
85	0x3d6fb7fe	0.058525078
86	0x3bd6ba09	0.006552939
87	0xbde5ea04	-0.112262756
88	0x3cadb6fc	0.021205418
89	0x3d6324a0	0.05545485
90	0xbd9cc069	-0.07653887
91	0xbd62a6f4	-0.055335
92	0xbbe22e38	-0.0069024824
93	0x3d5bcaab	0.053660076
94	0xbcffc292	-0.031220708
95	0xbc6cc506	-0.014451271
96	0x3c7c45d1	0.015397505
97	0xbd2cb28f	-0.042162474
98	0x3d89d97b	0.06730934
99	0xbdf07eb3	-0.11742916
100	0x3db98de5	0.09060267
101	0x3d4716b4	0.048605636
102	0x3e1227bc	0.1427297
103	0x3e4fe40e	0.2030184
104	0x3dc14846	0.09437613
105	0x3e0b6b34	0.13615113
106	0x3dc4cbe7	0.09609204
107	0x3ccafa06	0.024777424
108	0x3e034f91	0.12823321
109	0x3e16c6ea	0.14724317
110	0x3c30db0b	0.010794411
111	0xbbdb9b57	-0.0067018676
112	0xbb5d6a67	-0.0033785345
113	0xbde858ba	-0.11345048
114	0xbd299c53	-0.041408848
115	0xbcae2554	-0.021258034
116	0xbd4a8210	-0.049440444
117	0xbd5a6f1c	-0.05332862
118	0x3d267acd	0.040644456
119	0x3d20bfd6	0.03924545
120	0xbdced74b	-0.100996576
121	0x3ca3182a	0.019908983
122	0xbc4d50c6	-0.012531465
123	0xbd54df0c	-0.051970527
124	0xbc6836f4	-0.014173258
125	0xbd71c5a4	-0.059026375
126	0xbba42fd3	-0.005010584
127	0x3b7f8f32	0.0038995263
128	0x3ce0bb63	0.027433103
129	0xbd012b8e	-0.031535678
130	0x3ce3704f	0.027763514
131	0x3c8cee2c	0.017203413
132	0x3c0f37b8	0.008741312
133	0x3c9fac3d	0.01949131
134	0xbdabcbd1	-0.08388484
135	0xbd53da68	-0.05172196
136	0xbd1c3702	-0.038138397
137	0x3dc8adf7	0.09798806
138	0xbda1e2af	-0.079045646
139	0x3d6e4315	0.058169443
140	0x3cd97e03	0.026549345
141	0x3d6c55da	0.057699062
142	0xbc95f23f	-0.018303989
143	0xbd0a58e8	-0.033776194
144	0xbd9422b3	-0.07233181
145	0x3d3602b0	0.044436157
146	0x3c3e050f	0.011597886
147	0xbd288093	-0.041138243
148	0xbc51268e	-0.01276554
149	0xbc1ed86e	-0.009695156
150	0x3c8067eb	0.015674552
151	0xbd44e48b	-0.048069518
152	0x3cfe1299	0.031014727
153	0x3cbe4505	0.02322627
154	0x3de1ef02	0.11031915
155	0xbc6d2402	-0.014473917
156	0x3d8c4355	0.0684878
157	0x3c276c57	0.010218701
158	0x3d68c802	0.056831367
159	0x3dc4ff7d	0.09619043
160	0x3da5336b	0.08066448
161	0x3b721817	0.0036940628
162	0x3df24917	0.11830347
163	0x3ce269cf	0.027638344
164	0xbdbb7cac	-0.09154639
165	0x3c95fe47	0.018309725
166	0xbe04d309	-0.12971129
167	0xbddbcdc9	-0.1073261
168	0xbdd7ae4b	-0.105312906
169	0x3c955f46	0.018233906
170	0xbd3d5101	-0.04621983
171	0xbdd0a897	-0.10188406
172	0x3daa0727	0.083021455
173	0x3c9c4601	0.01907635
174	0xbe0e65c5	-0.1390601
175	0x3daeaf9d	0.08529589
176	0xbc440503	-0.0119640855
177	0xbb978e20	-0.004625097
178	0xbcaed9fa	-0.021344174
179	0xbe1f6b50	-0.1556828
180	0x3a1c0582	0.00059517485
181	0x3cde81f1	0.02716157
182	0xbcc8cd78	-0.024512038
183	0xbd8b9f83	-0.06817534
184	0xbe11108a	-0.14166465
185	0xbcd744ad	-0.026277864
186	0xbdcc9921	-0.099901445
187	0xbcb4ec6b	-0.02208539
188	0x3cbdf884	0.02318979
189	0xbdb5bbd7	-0.08873718
190	0x3d6e443c	0.058170542
191	0xbc9d956d	-0.01923629
192	0xba3be27a	-0.00071672315
193	0xbd87b363	-0.06626012
194	0x3bc07018	0.0058727376
195	0x3c214943	0.009844127
196	0xbc4b86b7	-0.012422255
197	0xbdbc6d05	-0.09200481
198	0x3c9f3d3d	0.01943838
199	0xbe0ed7b7	-0.13949476
200	0x3cc4b880	0.024013758
201	0x3d876401	0.06610871
202	0x3e021e21	0.12706806
203	0x3b781227	0.0037852617
204	0x3eae2318	0.3401115
205	0x3e26591e	0.16244933
206	0xbd57bd62	-0.052670844
207	0x3e276e19	0.16350593
208	0xbcb9b40c	-0.02266886
209	0x3d4518e1	0.04811943
210	0xbe33ce32	-0.17559126
211	0x3dd2c395	0.102912106
212	0x3ca90005	0.020629892
213	0x3ba10ae3	0.004914628
214	0x3d8319dd	0.064014174
215	0x3bcc25b1	0.006230079
216	0xbdc080a3	-0.093995355
217	0xbd507b0f	-0.050898608
218	0xbd5632c4	-0.052294508
219	0xbca927ed	-0.02064892
220	0x3cdfb217	0.0273066
221	0x3c85c42c	0.016328894
222	0xbe6295eb	-0.22127502
223	0x3b36aa86	0.0027872636
224	0xbdde24c6	-0.10846858
225	0xbda374eb	-0.07981285
226	0x3e1512de	0.14557979
227	0xbd764326	-0.06012263
228	0x3a160f65	0.000572434
229	0x3d3d820a	0.046266593
230	0x3d930e17	0.07180422
231	0xbd34ce78	-0.044142216
232	0x3c6241ae	0.013809605
233	0xba0e2f8b	-0.00054239546
234	0xbce64fc0	-0.0281142
235	0x3e3a362f	0.18184732
236	0xbce5b4da	-0.028040338
237	0xbdafbc42	-0.08580829
238	0x3cecac8e	0.028890874
239	0x3d644fb2	0.055740066
240	0x3e40f151	0.18842055
241	0xbe60e141	-0.21960928
242	0x3e0f97aa	0.14022699
243	0xbd9fd9db	-0.078052245
244	0x3ce2d05c	0.027687244
245	0xbd818e5f	-0.06325983
246	0xbb94491c	-0.004525317
247	0xba5ce2fb	-0.0008426157
248	0x3cd6af37	0.026206596
249	0x3da7f38f	0.08200752
250	0xbc35f3f5	-0.011105527
251	0xbba996a3	-0.005175428
252	0x3d6b017c	0.057374462
253	0xbd09f93a	-0.033684947
254	0x3c9e9e83	0.019362694
255	0x3cbbfe3d	0.022948379

bias f4 [512]
0	0xbc675108	-0.01411844
1	0x3b7ce969	0.0038591272
2	0x39f34f5c	0.000464077
3	0x3c9ccb49	0.019139903
4	0x3c428293	0.011871952
5	0x3b6accd0	0.0035827644
6	0x3c8309a5	0.01599581
7	0xbccad2ef	-0.024758784
8	0xbb359907	-0.002770962
9	0x3c344683	0.011003139
10	0xbcbf3aaf	-0.023343412
11	0x3bfd1581	0.0077235107
12	0x3b09ce52	0.0021027518
13	0x3c757e5b	0.014983739
14	0xbc353f12	-0.0110624
15	0x3c96308c	0.018333696
16	0x3caee10d	0.021347547
17	0xbc1114b8	-0.008855037
18	0x3c970db6	0.018439155
19	0xbcb8c633	-0.022555446
20	0x3b8a2b86	0.004216614
21	0x3bad1e03	0.0052831187
22	0x3b367681	0.002784163
23	0x3c393040	0.011303008
24	0x3d0d7c6c	0.034542486
25	0x3cf298ab	0.029613813
26	0x3c012708	0.007882841
27	0x3c73c970	0.014879569
28	0x3c0ad611	0.008473889
29	0x3aedf706	0.0018155284
30	0x3c88b1d8	0.016686365
31	0x3c8819d6	0.016613882
32	0x3ca1e189	0.019760864
33	0x3c97bf36	0.018523794
34	0xbc84113d	-0.016121501
35	0x3c61f8c1	0.013792218
36	0x39463a61	0.000189045
37	0x3c293ba2	0.010329159
38	0x3be06e8a	0.006849115
39	0x3a91deb9	0.0011128999
40	0x3bb43321	0.005499259
41	0x3a388e5b	0.00070402556
42	0xbcb16af9	-0.021657454
43	0xbcb3ffb2	-0.021972511
44	0xbb93f351	-0.0045150896
45	0xbc0499ad	-0.00809328
46	0x3bdab4c3	0.0066743805
47	0x3c65c100	0.014023066
48	0x3c9e7b60	0.01934594
49	0x3c2a3a9b	0.010389949
50	0x3c21bfea	0.009872416
51	0xbd06262a	-0.03275124
52	0xb9bb9e79	-0.0003578549
53	0x3a3cf7f3	0.0007208578
54	0x3d1f6c59	0.038921688
55	0x3c5f51e7	0.013630367
56	0xbd3d6067	-0.046234515
57	0x3c09b19a	0.00840416
58	0x3c833990	0.016018659
59	0x3c8cf79c	0.017207913
60	0xbb24b3b4	-0.0025131525
61	0x3d080fb3	0.033218097
62	0x3c38dde1	0.011283369
63	0x3ceff5a3	0.029291933
64	0x3b4094ec	0.002938564
65	0x39ac8811	0.00032907774
66	0xbc736136	-0.01485472
67	0x3c5e2cb8	0.0135604665
68	0x3ca579d6	0.020199697
69	0xbc53f012	-0.012935655
70	0xbc28d895	-0.010305543
71	0xbb227ac9	-0.0024792424
72	0xbc0fd343	-0.008778396
73	0x3d031507	0.032002475
74	0xbaf129bb	-0.0018399277
75	0x3c9226d2	0.017840777
76	0xbc996e84	-0.018729456
77	0x3c6c6e79	0.014430636
78	0x3c81115a	0.015755344
79	0xbc01b920	-0.007917672
80	0x3c8ee79b	0.017444422
81	0xbcd15220	-0.025551856
82	0xbb9b15fb	-0.004732845
83	0xbc06e44a	-0.008233139
84	0xbc32901d	-0.010898617
85	0x3c601dcf	0.013678982
86	0xba9ce2b4	-0.0011969418
87	0x3c15925c	0.009129133
88	0xbce81420	-0.028329909
89	0xbbabb7b6	-0.005240406
90	0x3b0b9ebb	0.0021304328
91	0xba5fa904	-0.000853196
92	0x3c13a0e5	0.009010528
93	0x3c9a7eb8	0.018859252
94	0x3c1e8d8b	0.009677301
95	0x3cacf941	0.021114947
96	0x3b943c03	0.0045237555
97	0xbcd3dbe4	-0.025861688
98	0xbbd113ae	-0.00638052
99	0x3cf66c46	0.030080926
100	0x3cd87e86	0.026427519
101	0x3bc522fb	0.006016133
102	0x3c976835	0.018482307
103	0x3ccd32ee	0.0250487
104	0x3c1903ff	0.009339332
105	0xbd1397f7	-0.036033597
106	0xbc89fe6b	-0.016844949
107	0x3cc076bc	0.023494117
108	0x3cf97642	0.030451898
109	0xbcaccfbd	-0.021095151
110	0xbcaf2d86	-0.021384012
111	0x3c9ba7db	0.019000938
112	0x3d0fd8de	0.03511893
113	0xbcab4756	-0.020908039
114	0x3c991765	0.018687913
115	0x3bbf2e84	0.0058344025
116	0xbc1cf3a4	-0.009579573
117	0x3c35a321	0.011086256
118	0xbc95a938	-0.018269166
119	0x3c1d875b	0.009614791
120	0x38c3ef7a	9.3429306e-05
121	0x3c93fee4	0.018065877
122	0x3cc8227d	0.024430508
123	0x3c23fddc	0.010009255
124	0xbbc221ab	-0.0059244237
125	0xbc058ba3	-0.008150968
126	0x3d03ef8f	0.032210883
127	0x3c5355f6	0.012898913
128	0x3ccfdbb3	0.025373315
129	0xbb971bef	-0.0046114842
130	0x3be719aa	0.00705262
131	0x3c540535	0.012940695
132	0x3c94a793	0.018146312
133	0x3c6fb549	0.014630624
134	0x3d335b60	0.043788314
135	0x3ca678a5	0.0203212
136	0xb954500a	-0.00020247712
137	0xbc77dd39	-0.015128427
138	0x3cbb3078	0.02285026
139	0xbce829a7	-0.028340174
140	0x3bd379c7	0.006453726
141	0x3c9a7a8d	0.018857265
142	0x3c976e45	0.018485198
143	0xbc7adf52	-0.015312033
144	0x3cb7f0fd	0.02245378
145	0x3cd17611	0.025568994
146	0x3b96d83d	0.0046034143
147	0x3ca6dd8a	0.02036931
148	0xbcba2e8e	-0.022727277
149	0x3c50e7a2	0.012750538
150	0xbd0000d6	-0.031250797
151	0x3cc2f5db	0.023798874
152	0x3c714182	0.014725091
153	0x3d2bc071	0.041931573
154	0xbb844094	-0.0040360186
155	0x3b1f9803	0.002435208
156	0x3cdec486	0.027193319
157	0x3bb08260	0.0053866357
158	0x3b1be5ff	0.0023788211
159	0x3c63c974	0.013903011
160	0x3bee57ad	0.0072736354
161	0xbc4cde9e	-0.012504248
162	0x3b27783c	0.0025553843
163	0x3cd1c1af	0.02560505
164	0x3b080a2e	0.002075802
165	0x3ca1c5b4	0.019747593
166	0x3bf864d3	0.0075803786
167	0x3c2744a3	0.010209235
168	0x3b3e7571	0.00290617
169	0x3c153632	0.009107159
170	0x3c735ae6	0.014853215
171	0x3c4da682	0.012551906
172	0xbcec10a4	-0.028816529
173	0xbbc0e73d	-0.0058869408
174	0x3d2e29ae	0.042520218
175	0x3d16178d	0.036643554
176	0x3bcc79ff	0.006240129
177	0x3c8620e1	0.0163731
178	0x3be069cd	0.00684855
179	0xbc87fcae	-0.01659998
180	0x3c439d83	0.011939409
181	0x3cc5e36e	0.024156298
182	0x3a6b2754	0.0008970399
183	0x3bc7ca14	0.0060970876
184	0x3c88a12b	0.016678413
185	0xbcbcab53	-0.023030913
186	0x3d091895	0.03347071
187	0xba93a451	-0.001126418
188	0xbbc4f26d	-0.0060103447
189	0x3c1715a0	0.009221464
190	0xbba1c1aa	-0.0049364166
191	0x3c1ef6c0	0.0097023845
192	0xbc9bb1f8	-0.01900576
193	0xbd0285c0	-0.031865835
194	0xbaea172d	-0.001785969
195	0x3c8cb3b5	0.017175535
196	0x3b1abf6c	0.0023612631
197	0xbcda63a2	-0.026658837
198	0xbb9c9add	-0.0047792033
199	0x3cc9bab8	0.024625167
200	0x3c6e1ee7	0.014533735
201	0x3c9fe56d	0.019518578
202	0x3bc8e857	0.0061312127
203	0x3cc6e35b	0.024278333
204	0x3c3236e0	0.010877341
205	0x3b3ec730	0.0029110424
206	0x3b90e3ea	0.0044217007
207	0xbb7119aa	-0.0036788979
208	0x3c3fcbce	0.011706306
209	0xbc5eab15	-0.013590594
210	0xb786fdc9	-1.6092223e-05
211	0xbc02f697	-0.007993362
212	0x3d3de24d	0.046358395
213	0x3c8f1019	0.01746373
214	0x3c13c684	0.009019498
215	0x3c74216d	0.014900547
216	0xbc9f5a54	-0.019452251
217	0xbc0bf53f	-0.008542358
218	0xbc8fa4bb	-0.017534604
219	0x3a11f8fe	0.0005568414
220	0x3c2666a0	0.010156304
221	0x3c529da8	0.012854971
222	0xbb19963d	-0.0023435496
223	0x3c319598	0.010838889
224	0x3c584966	0.013201093
225	0xbc9c24c9	-0.01906051
226	0xbc54d9d6	-0.012991389
227	0xbbd00bcd	-0.006349063
228	0x3b329a3d	0.0027252578
229	0xbcfa49a8	-0.0305527
230	0x3caa01b8	0.020752773
231	0x3cb41600	0.021983147
232	0xbbb7c083	-0.005607666
233	0x3bea9402	0.007158757
234	0x3d06a276	0.03286978
235	0x3b5481fb	0.0032426107
236	0x394893fe	0.00019128618
237	0xbbf811e3	-0.0075704916
238	0xbabab35d	-0.0014244128
239	0x3c8bb888	0.017055765
240	0xbbaee8c4	-0.0053378064
241	0x3c904db1	0.017615171
242	0x3bed6656	0.0072448654
243	0xbbaa3eae	-0.0051954603
244	0xbc01f9ed	-0.007933122
245	0x3cb69fee	0.022293057
246	0x3c095b8c	0.008383643
247	0x3c884cf0	0.01663825
248	0xbc735d7a	-0.0148538295
249	0x3ba86fe5	0.005140292
250	0x3ad5e318	0.001631829
251	0x3ace8657	0.0015756589
252	0x3c8b4cd7	0.017004414
253	0xbd01f2e8	-0.031725794
254	0x3ca4a9b0	0.020100445
255	0xbc33d71f	-0.010976582

weight f4 [256, 512]
0	0x3cfacf9e	0.030616578
1	0xbdc6e2da	-0.09711237
2	0x3e22f965	0.15915449
3	0x3ce300f4	0.027710415
4	0xbc4b2659	-0.0123992795
5	0x3d88fa62	0.06688382
6	0xbe0197ea	-0.12655607
7	0xbd5d37aa	-0.054008164
8	0xbc8eaa48	-0.01741518
9	0x3d402891	0.046913687
10	0x3d82d643	0.063885234
11	0x3d419fb3	0.04727144
12	0xbe2afa4b	-0.16697042
13	0xb994eec4	-0.00028406654
14	0xbd134e80	-0.035963535
15	0x3d34f238	0.04417631
16	0x3cf56b27	0.02995832
17	0xbde22073	-0.110413454
18	0x3d7595ae	0.0599572
19	0xbab9cf30	-0.0014176127
20	0xbd5ee0b8	-0.054413527
21	0x3ca49dca	0.020094771
22	0xbd43b656	-0.04778131
23	0x3ce5e507	0.02806331
24	0xbdcd641e	-0.100288615
25	0xbcbea4bd	-0.023271913
26	0xbd248305	-0.040164012
27	0xbb7e4b65	-0.0038802263
28	0x3e109c2c	0.14122075
29	0xbc794cd6	-0.015216073
30	0xbd2c20a5	-0.04202332
31	0x3d6069c9	0.054788385
32	0xbdc8a359	-0.09796781
33	0x3cdc1310	0.026864558
34	0xbbb87c6e	-0.0056300675
35	0x3e0f24e4	0.13978916
36	0x3da69ff2	0.08135976
37	0x3ddb0404	0.10694125
38	0xbc2d6cbe	-0.010585008
39	0xbdcbb9e7	-0.099475674
40	0x3defc27f	0.11707019
41	0xbceac3a3	-0.02865774
42	0x3cd1c9a6	0.025608849
43	0xbd3fb976	-0.04680773
44	0xbb594ec5	-0.0033158523
45	0xbd3d99bb	-0.046289187
46	0x3d9e8b50	0.077414155
47	0xbd263848	-0.040581018
48	0xbcc87b9f	-0.02447301
49	0x3d9f7082	0.07785131
50	0xbd1c9a46	-0.038233064
51	0xbdf2cfdf	-0.118560545
52	0x3d4e69e0	0.05039394
53	0xbb9e32f0	-0.0048278496
54	0x3cd5ae51	0.026084097
55	0x3dfac9cf	0.12245523
56	0x3de932e4	0.1138666
57	0x3daf420d	0.0855752
58	0xbe7431ba	-0.23847094
59	0x3d44d6db	0.048056465
60	0x3d4dba69	0.050226603
61	0x3db51e53	0.088436745
62	0xbbf33c96	-0.007422994
63	0x3d65fd68	0.05614987
64	0x3ddd9d04	0.10820964
65	0x3dc50675	0.09620372
66	0x3cca88da	0.024723459
67	0xbc6c01a0	-0.014404684
68	0xbcbe2951	-0.02321306
69	0x3d78d98c	0.060754344
70	0xbe130b44	-0.14359766
71	0xbdfd74f9	-0.123758264
72	0xbdba1a0f	-0.090870015
73	0xbdcb8acc	-0.09938583
74	0xbce259b4	-0.027630664
75	0xbcd4b910	-0.02596715
76	0x3db12114	0.08648887
77	0xbcdb7275	-0.026787976
78	0xbd40d220	-0.04707539
79	0xbd55f5cd	-0.052236367
80	0x3cf4716f	0.029839246
81	0x3c320d1c	0.010867383
82	0x3cfd2f63	0.030906385
83	0x3d9f4647	0.07777076
84	0xbe3d94d6	-0.18513808
85	0x3dab560a	0.0836602
86	0x3d86a501	0.06574441
87	0x3d02d7ff	0.03194427
88	0xbd31b85b	-0.043388706
89	0xbc7ff661	-0.015622706
90	0x3d33fb7c	0.043941006
91	0xbdaf2830	-0.08552587
92	0x3d452de7	0.04813948
93	0xbc75e5fb	-0.015008445
94	0xbdfec7e6	-0.12440471
95	0xbdb76be8	-0.08956128
96	0xbc5b2ea6	-0.013377821
97	0xbda8a46e	-0.082344875
98	0x3cfc49c7	0.030796899
99	0xbd7de7d2	-0.06198866
100	0xbd1b8e3f	-0.037977453
101	0x3cfd4bf8	0.030920014
102	0x3e17d0e8	0.14825785
103	0xbdbb3620	-0.09141183
104	0x3e0929eb	0.13394897
105	0xbdd8055b	-0.105478965
106	0x3cf08351	0.029359492
107	0xbd864af2	-0.065572634
108	0x3d7ce049	0.061737332
109	0x3c43b4d0	0.0119449645
110	0xbe11f4b8	-0.14253509
111	0xbd433fe7	-0.047668364
112	0xbdb6c883	-0.08924963
113	0xbdab3751	-0.0836016
114	0x3d491dbb	0.04910062
115	0x3d1731d0	0.03691274
116	0xbcf6bbb7	-0.030118806
117	0x3d9d9d94	0.07696071
118	0xbc91fd16	-0.017820876
119	0xbd828fcf	-0.063750856
120	0x3c38821f	0.011261492
121	0xbc50b151	-0.012737588
122	0x3dabadf8	0.08382791
123	0x3d500034	0.050781444
124	0xbda6245f	-0.08112406
125	0xbd8a4db1	-0.067531
126	0xbd8765c1	-0.06611205
127	0xbb599e1d	-0.0033205815
128	0x3ca6ca7a	0.02036022
129	0x3d678303	0.056521427
130	0xbd4b6fb0	-0.04966706
131	0x3ba0900a	0.0048999833
132	0x3db7da53	0.08977189
133	0xbd6e4226	-0.058168553
134	0x3d6f29d2	0.058389492
135	0xbe0d224d	-0.13782616
136	0xbc7b7466	-0.015347576
137	0x3c188a87	0.009310371
138	0x3d4065c3	0.046972048
139	0xbd14dd49	-0.036343846
140	0xbd723804	-0.059135452
141	0x3d4bdca0	0.04977095
142	0x3c2fdfc6	0.010734504
143	0xbd270f3f	-0.040786024
144	0x3cb27dd6	0.021788519
145	0x3cdea085	0.027176151
146	0x3d069f26	0.03286662
147	0x3db56282	0.088566795
148	0x3bd58089	0.0065155667
149	0x3d2cbef6	0.042174302
150	0x3d417238	0.047228068
151	0x3e2a9f70	0.16662383
152	0xbde6c22f	-0.11267506
153	0x3dbb900b	0.091583334
154	0x3d50c35d	0.050967563
155	0x3d121c25	0.035671372
156	0xbda9b52a	-0.082865074
157	0xbc12785d	-0.00893983
158	0xbdb693ac	-0.08914885
159	0x3d9b4696	0.075818226
160	0xbd3db914	-0.046319082
161	0x3dafe8bb	0.08589312
162	0xbbbccb56	-0.005761544
163	0x3d55bfe8	0.05218497
164	0xbd5177cf	-0.05113965
165	0xbc4bdbfc	-0.012442585
166	0x3ce53585	0.027979622
167	0x3bb511a4	0.0055257846
168	0xbdec8951	-0.115496285
169	0x3d194d56	0.03742727
170	0x3d778629	0.06043068
171	0xbc4eea8d	-0.012629163
172	0x3d150763	0.036383998
173	0x3cd668de	0.026173051
174	0x3d52ba14	0.05144699
175	0x3d73baa8	0.05950418
176	0x3c386e9c	0.01125684
177	0xbbbad8ac	-0.005702099
178	0x3dea780a	0.11448677
179	0xbbdd2d82	-0.0067498097
180	0xbd905d9d	-0.07049105
181	0x3d92a619	0.07160587
182	0xbd358c84	-0.04432346
183	0xbce5e901	-0.028065206
184	0xbc951442	-0.018198136
185	0x3b5e3ad8	0.0033909585
186	0x3c5a01be	0.013306079
187	0x3c9028a0	0.017597497
188	0x3aa5b687	0.0012642898
189	0x3df2e0c7	0.11859279
190	0xbd9b3a9d	-0.07579539
191	0x3d17a7f7	0.037025418
192	0xbd084795	-0.03327139
193	0xbd351c5e	-0.044216506
194	0x3d2e008e	0.042480998
195	0x3d664077	0.056213822
196	0xbd5d2195	-0.053987104
197	0x3ce32803	0.02772904
198	0x3c9468fc	0.018116467
199	0x3bedd621	0.007258192
200	0xbb848809	-0.004044537
201	0xbd677749	-0.056510244
202	0x3dfd005d	0.12353585
203	0xbd602d40	-0.054730654
204	0xbdbd10bd	-0.09231708
205	0xba578ebe	-0.00082228694
206	0x3cd11e36	0.025527101
207	0xbd9360f5	-0.071962275
208	0xbd3c3a62	-0.045954116
209	0xbcf8d7d2	-0.030376349
210	0x3d0819c7	0.03322771
211	0xbcf87707	-0.030330194
212	0xbce341a2	-0.027741257
213	0xbd91ea40	-0.07124758
214	0x3d8f86ca	0.07008131
215	0x3caf5aee	0.021405663
216	0xbdd9ae51	-0.10628951
217	0xbdc21ddb	-0.09478351
218	0xbd01b259	-0.031664226
219	0xbd99516e	-0.074862346
220	0x3c9e2c5b	0.01930826
221	0x3d105ea5	0.03524651
222	0x3d1d53a7	0.038409855
223	0x3d7f6063	0.06234778
224	0xbd17c5ea	-0.03705398
225	0x3c78c46f	0.015183552
226	0xbdb39cea	-0.08770163
227	0xbda391b8	-0.07986778
228	0xbc9ff1bc	-0.019524448
229	0x3d41752a	0.047230877
230	0xbdac14fe	-0.084024414
231	0xbc9acefc	-0.018897526
232	0xbdb234a1	-0.087014444
233	0xbde8badb	-0.11363765
234	0x3b0e8a7f	0.002175003
235	0x3dde0425	0.10840634
236	0xbd1789c1	-0.036996607
237	0x3a1c950f	0.0005973139
238	0x3d05ac1f	0.03263485
239	0x3e032454	0.12806827
240	0xbdadbfe1	-0.084838636
241	0x3d3de3b9	0.04635975
242	0x3cb08525	0.021547863
243	0x3d020c43	0.031749975
244	0x3dcca58c	0.09992513
245	0x3da3254b	0.079660974
246	0x3d8b0723	0.067884706
247	0x3dac4560	0.0841167
248	0xbe055587	-0.13020907
249	0xbcd0c90f	-0.025486497
250	0x3d9bd457	0.0760886
251	0x3d967b17	0.07347696
252	0xbdc95c8e	-0.098321065
253	0xbc018a36	-0.007906487
254	0x3da22bb8	0.07918495
255	0xbd8b519f	-0.06802677

bias f4 [256]
0	0x3ce53fe4	0.027984567
1	0x3d2dbe7a	0.04241798
2	0x3a3c0059	0.00071716827
3	0x3ba15ec4	0.004924627
4	0x3bb93341	0.005651862
5	0xbca258c3	-0.019817716
6	0xbc5febea	-0.013667086
7	0xbca166cf	-0.019702343
8	0xbbf69c89	-0.0075259847
9	0xbc097e67	-0.008391953
10	0xbd1ca931	-0.03824729
11	0xbc926de7	-0.017874671
12	0x3c35aa84	0.011088017
13	0xbca26083	-0.019821411
14	0x3c9aece1	0.01891178
15	0xbc6adfdb	-0.014335598
16	0xbcd45b0d	-0.025922323
17	0x3cd8d53d	0.026468867
18	0xbc60541c	-0.013691928
19	0xbc40b48f	-0.0117617985
20	0xbc5d0fd9	-0.013492548
21	0xbbae49d2	-0.0053188587
22	0x3ca2a12a	0.01985224
23	0xbbb947f4	-0.0056543294
24	0x3cdefbe8	0.027219728
25	0xbc93eb0c	-0.018056415
26	0x3c130a7a	0.008974666
27	0xbca08343	-0.01959384
28	0x3be1bdfe	0.006889104
29	0xbb462d48	-0.0030239392
30	0xbbd0a8a9	-0.006367762
31	0x3c0df8c9	0.008665272
32	0xbbbdd456	-0.0057931347
33	0x3b97e7d2	0.0046357894
34	0xbb139060	-0.0022516474
35	0x3c410861	0.011781783
36	0xbc6082f5	-0.013703098
37	0x3bf1da2f	0.007380746
38	0x3caa7829	0.02080925
39	0xbc20261b	-0.00977471
40	0xbc256aee	-0.010096295
41	0xbc9ed0ec	-0.019386731
42	0xbcd167fe	-0.025562283
43	0x3ca4ae8d	0.020102764
44	0x3bb5aa1f	0.0055439617
45	0x3c5644ba	0.013077909
46	0xbd0856d3	-0.033285927
47	0xbad01595	-0.0015875573
48	0xbba8159f	-0.0051295306
49	0xbc94152d	-0.018076504
50	0xbc7a9849	-0.015295097
51	0x3c419b60	0.011816829
52	0xbc3fb449	-0.011700698
53	0x3d0525b7	0.03250667
54	0xbc29e708	-0.010370024
55	0x3c9acba2	0.018895928
56	0x3d47edff	0.048810955
57	0x3c99b05a	0.018760849
58	0xbc93102b	-0.017952045
59	0x3ccbd02c	0.024879538
60	0xbc98543f	-0.01859486
61	0x3cb0c586	0.021578562
62	0xbc48cc2d	-0.012255711
63	0xbc779e6a	-0.015113452
64	0xbc3cba1c	-0.011518981
65	0xbc813b02	-0.015775207
66	0x3d11d5c6	0.03560426
67	0xbb06dfa7	-0.0020580085
68	0x3c7f2620	0.015573055
69	0x3c048d9c	0.008090403
70	0x3cc74dad	0.02432903
71	0x3cea095d	0.028568918
72	0x3d0a05c2	0.033696897
73	0xbc69f292	-0.014279025
74	0xbb9311e4	-0.0044882167
75	0xbd0a14d1	-0.03371126
76	0xbc12c1c2	-0.008957328
77	0xbcb138b9	-0.021633493
78	0xbc9567e9	-0.018238025
79	0x3c879c5a	0.016554046
80	0xbcda4bcc	-0.02664747
81	0xb8548d29	-5.0676204e-05
82	0xbc86da2a	-0.01646145
83	0xbcd9add9	-0.026572155
84	0xbca31c26	-0.019910883
85	0xbd16fda3	-0.03686298
86	0x3d281fa7	0.04104581
87	0xbca8c3ff	-0.02060127
88	0xba9ea5cb	-0.0012103854
89	0x3b8d62fa	0.0043147774
90	0x3c486125	0.012230192
91	0x3c8678ff	0.016415117
92	0xbcc6a204	-0.024247177
93	0xbce48286	-0.02789427
94	0x3c07c193	0.008285898
95	0x3c0cc99f	0.008592992
96	0x3c886338	0.016648874
97	0x3b103608	0.0022004861
98	0xbca5bfbe	-0.020233031
99	0x3cb224af	0.021746008
100	0x3cc1b6bc	0.023646705
101	0x3c5bf985	0.013426189
102	0x3b9e2187	0.004825774
103	0x3cbe7352	0.023248348
104	0xbc6646c8	-0.0140549615
105	0xbb74c80a	-0.0037350678
106	0x3c817df7	0.015807135
107	0xbb465e90	-0.0030268766
108	0xbc8f1253	-0.017464792
109	0x39cb205f	0.00038743296
110	0x3d0e813f	0.034791227
111	0x3bbf7171	0.0058423807
112	0x3cd4709f	0.025932608
113	0xbcb2599f	-0.02177125
114	0x3a5bf5d3	0.00083908177
115	0xbc166108	-0.0091784075
116	0x3c0849be	0.008318363
117	0x3c69da8c	0.014273297
118	0x3c603244	0.013683859
119	0x3d1a21fc	0.037630066
120	0x3cf26db2	0.029593322
121	0x3c0762cd	0.008263302
122	0x3cc6f830	0.024288267
123	0x3be24a87	0.006905857
124	0x3c66e288	0.014092095
125	0x3cc1916c	0.023628913
126	0xbc24f6fa	-0.010068649
127	0x3cf6eaee	0.03014132
128	0x3c1ccaa4	0.009569798
129	0xbcb10ee2	-0.021613542
130	0x3c257aef	0.01010011
131	0x3c7ddda4	0.015494738
132	0x3c3fcb37	0.011706165
133	0xbc0619f0	-0.008184895
134	0x3ca03a4e	0.019559052
135	0x3c74225f	0.014900773
136	0x3c6132be	0.013745008
137	0xbc849185	-0.01618267
138	0xbbd0064e	-0.006348408
139	0x3d128108	0.035767585
140	0x3c23642c	0.009972613
141	0xbcae6c48	-0.021291867
142	0x3b966bd4	0.004590491
143	0xbc6fcea0	-0.014636666
144	0xbc4df3d5	-0.012570341
145	0x3ccc522b	0.024941524
146	0xbc8e18c7	-0.0173458
147	0x3c6a1867	0.014288045
148	0xbc85cf7e	-0.016334292
149	0x3ca867bc	0.020557277
150	0x3bb32243	0.005466731
151	0xbc0c3511	-0.008557574
152	0xbc6a62c5	-0.014305775
153	0xbb35ceae	-0.00277416
154	0xbc71d0c4	-0.014759246
155	0x3c7761ef	0.015099033
156	0x3c9b2cb3	0.018942213
157	0xbcc88cea	-0.024481256
158	0x3c02d74c	0.007985901
159	0x3b1659fd	0.002294182
160	0xbc3bca46	-0.0114618
161	0x3b785d05	0.003789724
162	0xbb005f1a	-0.0019587935
163	0xbd1566e0	-0.036475062
164	0x3d227b1f	0.0396682
165	0xbc535a9b	-0.01290002
166	0x3caf22a9	0.021378832
167	0xbc9469d6	-0.018116873
168	0x3c1426fd	0.009042499
169	0x3c90bba6	0.017667603
170	0xbaf52686	-0.0018703497
171	0x3c35b98c	0.011091601
172	0xbc8ac92f	-0.016941635
173	0x3bbd9479	0.0057855216
174	0xbbfe152a	-0.007753988
175	0x3cb13258	0.021630451
176	0xbc2e1ce8	-0.010627009
177	0xbcf5f553	-0.030024206
178	0x3c922840	0.017841458
179	0xbb8d66dd	-0.004315241
180	0xbbf0eccd	-0.0073524476
181	0x3ce05867	0.027385904
182	0xbc8251a3	-0.015908068
183	0xbad6e920	-0.0016396381
184	0xbbb67eb6	-0.0055693043
185	0x3c46dad3	0.012137133
186	0x3ca24886	0.019809972
187	0x3b92b827	0.004477519
188	0xbd4c7036	-0.0499117
189	0xbc8eb7d8	-0.017421648
190	0x3c8af493	0.016962325
191	0x3c1e59fa	0.009665007
192	0xbc87ddb7	-0.016585214
193	0x3cb2a17d	0.02180552
194	0x3a1aefd5	0.00059103715
195	0x3c1e07e3	0.009645435
196	0x3d0f88c1	0.035042528
197	0xbcbcd9af	-0.023053018
198	0xbbf4f844	-0.0074758846
199	0xbc7c30f2	-0.015392529
200	0x3cb1c059	0.021698164
201	0x3c513636	0.012769273
202	0x3c29837a	0.010346288
203	0x3c37fafc	0.011229273
204	0xbc6a8a79	-0.014315241
205	0x3c8f6eba	0.017508853
206	0xbc865621	-0.016398491
207	0xbc6a2670	-0.014291391
208	0x3cda9aae	0.026685085
209	0xbbfccde8	-0.0077149756
210	0x3d7580e0	0.059937358
211	0x3cbf4315	0.023347417
212	0xbc225ba5	-0.009909545
213	0x3c5e5c34	0.013571788
214	0xbc6c063f	-0.014405786
215	0xbc72c6ba	-0.014817888
216	0xbca67dbe	-0.02032363
217	0x3c642caa	0.013926664
218	0xbc8a4361	-0.016877832
219	0x3cada661	0.0211975
220	0xbc3b3914	-0.011427183
221	0x3c855532	0.016275976
222	0x3c68626b	0.014183621
223	0xbc2e5eb5	-0.010642697
224	0x3be7c251	0.007072725
225	0xbce996f4	-0.028514363
226	0x3c6d8f36	0.014499476
227	0xbcede1d0	-0.02903834
228	0x3b277c01	0.002555609
229	0x3c30eeb7	0.010799102
230	0xbcc3d5de	-0.02390569
231	0xbc255366	-0.0100906845
232	0x3d07ebd9	0.033183906
233	0x3c621e09	0.013801106
234	0x3c7f1c44	0.015570704
235	0x3c9f970f	0.01948121
236	0x3c5b6adb	0.013392176
237	0xbbe106b6	-0.006867255
238	0x3bef9680	0.007311642
239	0x3c428449	0.01187236
240	0xbc12b00b	-0.008953105
241	0x3c962792	0.018329415
242	0xbcbcc70f	-0.023044137
243	0xbc3f82fd	-0.011688945
244	0xbc262481	-0.010140539
245	0xbc8366ce	-0.016040232
246	0xbbca27ea	-0.006169309
247	0x3ca816de	0.020518716
248	0x3c9c69ea	0.019093473
249	0x3ca082be	0.019593593
250	0x3c9e7207	0.019341482
251	0x3c8ff72c	0.017573915
252	0x3c970b7f	0.018438099
253	0x3cac3cec	0.021025144
254	0x3b70ba70	0.003673222
255	0x3d48804c	0.04895048

weight f4 [128, 256]
0	0x3da12f84	0.07870391
1	0xbdee2fae	-0.11630188
2	0x3d35ae11	0.044355456
3	0xbd8bd645	-0.06827978
4	0xbd8c9e53	-0.068661354
5	0x3b1c4dbc	0.0023850044
6	0x3b465072	0.0030260351
7	0xbde4fbb6	-0.111808226
8	0xbd6b927d	-0.05751275
9	0x3dbedfba	0.09320016
10	0x3e5c71b9	0.21527757
11	0xbd16a37c	-0.036777005
12	0x3dda036b	0.10645183
13	0xbbd3b9aa	-0.006461342
14	0xbcc86e5d	-0.024466688
15	0xbb9d7e8f	-0.0048063467
16	0xbd40c200	-0.047060013
17	0x3da61696	0.08109777
18	0xbd19a0b4	-0.037506774
19	0x3d7bf6b2	0.061514564
20	0x3e259fdf	0.16174267
21	0x3de7bad6	0.11314933
22	0x3ce76d86	0.028250467
23	0xbd93ef13	-0.07223334
24	0x3d0a4233	0.03375454
25	0xbce1da2d	-0.027569855
26	0xbca489fc	-0.020085327
27	0xbcdb3d29	-0.026762562
28	0x3df1c2a2	0.118047014
29	0xbd3f455f	-0.046697017
30	0x3b520d61	0.0032051431
31	0xbe100e7a	-0.14068022
32	0xbdf3e54b	-0.119089685
33	0xbd994d9c	-0.07485506
34	0x3d77a44f	0.06045943
35	0xbd98e148	-0.07464844
36	0xbdb4aa05	-0.08821491
37	0xbd6c2cde	-0.057659976
38	0xbb9d691e	-0.0048037907
39	0xbe3304e8	-0.1748234
40	0xbd55c1fa	-0.052186944
41	0xbc7a1655	-0.015264113
42	0xbd9e9d7f	-0.07744884
43	0xbd89662b	-0.0670894
44	0xbd88b696	-0.066754505
45	0x3daf2720	0.085523844
46	0x3d055ced	0.032559324
47	0xbd17d31b	-0.03706656
48	0xbd6bf05a	-0.057602264
49	0xbc0cb060	-0.008586973
50	0xbd1c5f46	-0.038176797
51	0xbe30639e	-0.17225501
52	0xbc81de89	-0.015853183
53	0xbd860c01	-0.06545258
54	0xbdb64efd	-0.089017846
55	0x3d414f1c	0.047194585
56	0x3c3890f0	0.011265025
57	0x3dcf53c4	0.10123399
58	0xbbffa3e8	-0.0078015216
59	0xbe6890a1	-0.22711422
60	0x3bcdbb0f	0.0062784026
61	0xbda2425a	-0.07922812
62	0xbe02bf8b	-0.1276838
63	0xbd0d0fe3	-0.03443898
64	0x3d161cd5	0.03664859
65	0xbcb6cd4e	-0.022314694
66	0xbd8f97f9	-0.07011408
67	0x3cdbf876	0.026851874
68	0x3cb3fa88	0.021970049
69	0xbda0126b	-0.07816013
70	0x3e05cfdd	0.13067575
71	0xbd8361f1	-0.06415165
72	0x3db58ac5	0.08864359
73	0x3d8197d6	0.063277885
74	0x3c4dcf52	0.012561636
75	0x3c52e8de	0.012872903
76	0x3d105188	0.035234004
77	0x3d17f56a	0.03709928
78	0xbdc61b93	-0.09673228
79	0x3d36ec42	0.044658907
80	0x3e074501	0.13209917
81	0xbe0b0373	-0.13575535
82	0x3d9888bf	0.07447957
83	0x3b1ddbf7	0.0024087408
84	0xbc26b03d	-0.010173854
85	0xbe363473	-0.17793445
86	0xbc5d4aaf	-0.0135065755
87	0xbd976c64	-0.07393721
88	0xbe148587	-0.14504062
89	0xbda89eff	-0.08233451
90	0xbd75bb4c	-0.059993073
91	0xbccbe8db	-0.024891308
92	0xbc616c4f	-0.013758733
93	0xbd0cf28a	-0.03441099
94	0x3e08b0cb	0.13348691
95	0x3d7dcc71	0.06196255
96	0x3dd85f64	0.10565069
97	0x3e246a26	0.16056117
98	0xbd875c0a	-0.06609352
99	0xbddc50ff	-0.10757636
100	0xbdae61a0	-0.08514714
101	0xbd8a505b	-0.06753608
102	0x3dc4f95d	0.09617875
103	0x3b336f1e	0.0027379463
104	0xbc06ee62	-0.008235546
105	0xbded398a	-0.1158324
106	0xbdc9cce8	-0.09853536
107	0x3c67abca	0.014140079
108	0x3ce6e110	0.02818349
109	0xbd77632e	-0.06039732
110	0xbe33191d	-0.17490049
111	0x3cb688fd	0.022282118
112	0xbe24c596	-0.16090998
113	0xbc753759	-0.014966809
114	0x3d5f7fef	0.054565366
115	0xbdae37f7	-0.08506768
116	0x3d04ad26	0.03239169
117	0xbdd26865	-0.10273818
118	0xbdf1713d	-0.117891766
119	0xbc7b8bcd	-0.015353155
120	0x3e200f3b	0.1563081
121	0xbd2d717b	-0.04234455
122	0xbe76ec09	-0.24113478
123	0x3c3dfc55	0.011595805
124	0xbdf4522b	-0.11929735
125	0x3d1894a9	0.03725115
126	0xbddd6c2b	-0.10811647
127	0x3d097e19	0.03356752
128	0xbe32372d	-0.1740386
129	0x3d15a32c	0.036532566
130	0xbc543111	-0.0129511515
131	0x3cb24415	0.02176098
132	0x3e08b486	0.13350114
133	0x3de7e07f	0.11322116
134	0x3cbf5a36	0.023358446
135	0x3dcfc3c1	0.10144759
136	0x3d734526	0.059392117
137	0xbdb85be8	-0.09001905
138	0xbd21eac7	-0.03953054
139	0x3da282f6	0.07935135
140	0xbda3f384	-0.08005431
141	0xbd782fd5	-0.06059249
142	0x3e1a16db	0.15047781
143	0x3b52cd12	0.0032165688
144	0xbc58e2a9	-0.013237634
145	0xbcd0f86b	-0.02550908
146	0x3cb5ab89	0.02217652
147	0xbe90ab8c	-0.2825588
148	0xbcf0b320	-0.029382288
149	0xbd0de930	-0.034646213
150	0x3d2ac4a9	0.041691456
151	0xbab55642	-0.0013834911
152	0x3ce478e3	0.027889675
153	0xbe272a10	-0.1632464
154	0xbd11a0da	-0.03555379
155	0xbda023f1	-0.07819355
156	0xbd8d86d7	-0.06910484
157	0x3c2cce4e	0.010547234
158	0x3b8681f9	0.0041048494
159	0xbc9139cb	-0.017727753
160	0xbcf6e097	-0.03013639
161	0xbd179f3a	-0.037017085
162	0x3d825d63	0.06365468
163	0x3dbfd30b	0.09366425
164	0x3d84316a	0.064547375
165	0x3d428b82	0.047496326
166	0xbdb23d1a	-0.087030604
167	0xbda9443d	-0.082649685
168	0x3c7be3b3	0.015374112
169	0xbc0e0a3b	-0.008669431
170	0x3e2b785e	0.16745135
171	0xbd4c5dca	-0.04989413
172	0xbd2034ac	-0.03911273
173	0xbcaa77f1	-0.020809146
174	0x3d1a612c	0.037690327
175	0xbdf23fbf	-0.11828565
176	0xbd5c6606	-0.053808235
177	0xba56f693	-0.00082001946
178	0xbe398925	-0.18118723
179	0x3ccef8f0	0.025265187
180	0x3d59b90c	0.05315499
181	0x3d9a9d2d	0.0754951
182	0x3d8149b6	0.06312887
183	0x3d6ae885	0.057350654
184	0x3e705dba	0.23473254
185	0xbc234b80	-0.009966731
186	0xbd7c1c71	-0.06155056
187	0xbdadcb4e	-0.08486043
188	0x3e2f1415	0.17097504
189	0xbbea47ef	-0.0071496884
190	0xbdf3dbfd	-0.11907194
191	0xbe0d27d9	-0.13784732
192	0x3d3cd66d	0.04610293
193	0x3d853543	0.065042995
194	0xbd9797bf	-0.0740199
195	0xbb764dbb	-0.0037582952
196	0xbd6d2470	-0.057896078
197	0x3d418422	0.047245152
198	0xbe10adad	-0.14128752
199	0x3da4461c	0.08021185
200	0xbceadab6	-0.028668743
201	0xbe30ecfc	-0.17277902
202	0x3d3cb379	0.046069596
203	0x3dc3b26a	0.09555514
204	0xbce5426b	-0.027985772
205	0x3dd09394	0.10184398
206	0x3b0f62a6	0.0021878867
207	0xbc8addce	-0.016951468
208	0x3ca8f287	0.020623459
209	0x3cf549c7	0.029942406
210	0xbde3c413	-0.111213826
211	0x3c41be1c	0.011825111
212	0xbc9c13e8	-0.01905246
213	0x3de9e729	0.114210434
214	0xbd9d0e0a	-0.07668693
215	0x3d907c54	0.07054964
216	0xbc692a7c	-0.0142313205
217	0xbdd0ace6	-0.10189228
218	0x3dd0d602	0.10197069
219	0x3d217c28	0.039425045
220	0xbd2f99f4	-0.04287143
221	0xbdcf768a	-0.101300314
222	0xbdb4848a	-0.08814342
223	0xbc01384f	-0.00788696
224	0xbbaeb707	-0.005331877
225	0xbc952e39	-0.018210517
226	0x3d8e92bb	0.0696158
227	0xbb2df553	-0.002654393
228	0xbde47696	-0.11155431
229	0x3d7501b9	0.059816096
230	0x3c5c81ee	0.013458712
231	0xbd08ad36	-0.03336831
232	0xbe831363	-0.25600728
233	0x3dc42b35	0.095785536
234	0x3db0d05c	0.086334914
235	0xbdea286b	-0.1143349
236	0x3dc1394f	0.09434759
237	0xbcc0e18e	-0.023545053
238	0x3cb3c2dc	0.021943502
239	0x3cb3d913	0.021954095
240	0xbcd2c8b7	-0.025730474
241	0x3d76e6fa	0.06027887
242	0xb99a9f4a	-0.0002949185
243	0x3d98e5a3	0.07465675
244	0xbce497d5	-0.02790443
245	0xbd5c0548	-0.053715974
246	0xbcb49bf9	-0.02204703
247	0x3d3e2a58	0.0464271
248	0x3cee5066	0.029091071
249	0xbd89f14f	-0.06735479
250	0x3c7a709a	0.015285635
251	0xbe50360b	-0.20333116
252	0xbe607fa3	-0.2192369
253	0xbd937f21	-0.07201982
254	0xbd0e0a32	-0.03467769
255	0x3e00bd59	0.1257223

bias f4 [128]
0	0xbc95e8cc	-0.018299483
1	0x3d1bb788	0.038016826
2	0xbccbc412	-0.024873767
3	0x3c015398	0.007893465
4	0x3caf5a85	0.021405468
5	0x3c867435	0.016412834
6	0xbcb00cb6	-0.021490436
7	0x3d0981d1	0.03357107
8	0x3d1cf0c8	0.038315564
9	0x3d1fea31	0.0390417
10	0xbcb35278	-0.02188991
11	0x3d2bdf0b	0.041960757
12	0xbc4375a5	-0.011929904
13	0x3b830566	0.0039984463
14	0x3bf87e05	0.007583382
15	0xbcdcf4d1	-0.026972206
16	0x3d04d231	0.032427017
17	0xbd38b56f	-0.045094904
18	0xbcb4e814	-0.02208332
19	0x3c754c3a	0.014971787
20	0x3bd862b5	0.0066035637
21	0x3c045d3e	0.008078871
22	0x3cc349a2	0.023838822
23	0x3b9e2d7a	0.0048271986
24	0xbce6e4eb	-0.028185328
25	0x3c5dd0fd	0.013538596
26	0xbc86c717	-0.016452355
27	0x3c978ee7	0.018500758
28	0x3c93018d	0.017945075
29	0x3d64088a	0.055672206
30	0xbcf609be	-0.030033942
31	0xbcff404c	-0.031158589
32	0x3cccf78b	0.025020381
33	0x3af55af3	0.0018719122
34	0x3d4912aa	0.049090065
35	0x3ca77aee	0.02044436
36	0x3c34636f	0.011010035
37	0x3c9faa29	0.019490318
38	0x3ad8d967	0.0016544283
39	0x3cdeb476	0.02718566
40	0xbd35660e	-0.04428678
41	0x3d30d163	0.043168437
42	0x3ce1513c	0.027504556
43	0xbcbcea22	-0.023060862
44	0x3caf8888	0.021427408
45	0x3d0efd54	0.03490956
46	0xbc252ea0	-0.010081917
47	0x3c56dacf	0.0131136915
48	0x3ca53ce7	0.020170642
49	0x3cdaf80c	0.026729606
50	0x3d0eead3	0.034891915
51	0x3cc9eeab	0.024649939
52	0x3c83bcf7	0.016081316
53	0x3c58da39	0.013235622
54	0xbd2d715e	-0.042344444
55	0xbc9bdc54	-0.01902596
56	0x3b20ec6d	0.0024554983
57	0xbcdcf73c	-0.02697336
58	0xbaec647d	-0.0018035319
59	0x3cab5b01	0.020917417
60	0x3c51b73c	0.012800034
61	0xbbd29775	-0.0064267465
62	0x3ca1d082	0.019752745
63	0xbc8ebe2f	-0.017424671
64	0x3d0473fe	0.03233718
65	0xbd0701b5	-0.032960612
66	0xbaa3f552	-0.0012509024
67	0x3c94de87	0.018172516
68	0x3cda648e	0.026659276
69	0x39e205d9	0.00043110436
70	0x3c0d5989	0.008627304
71	0x3d146f8c	0.036239192
72	0x3cb0298b	0.021504184
73	0xbb5ee5bd	-0.0034011446
74	0x3c1b2007	0.009468085
75	0xbcb02fb8	-0.02150713
76	0xbccda43f	-0.025102733
77	0xbc90cb80	-0.017675161
78	0x3bfb6fcd	0.00767324
79	0x3d0874d9	0.03331456
80	0xbcd3e4c8	-0.025865927
81	0xbd002467	-0.031284716
82	0x3d5aa731	0.053382102
83	0x3cb12cd3	0.02162782
84	0x3d012c9e	0.03153669
85	0xbd1d0f7a	-0.038344838
86	0x3b8de28a	0.004329984
87	0x3c8ef609	0.017451303
88	0x3d1dc671	0.038519327
89	0xbc6da0cc	-0.014503669
90	0x3ad27f52	0.0016059673
91	0xbc67cb08	-0.0141475275
92	0xbb76bd22	-0.0037649353
93	0x3cd54862	0.026035491
94	0x3c8a72a7	0.016900374
95	0xbca1f358	-0.019769356
96	0x3d28a0c7	0.041168954
97	0x3cac10cd	0.021004105
98	0xbd0e9480	-0.03480959
99	0x3ca688d9	0.020328926
100	0x3bbf7009	0.005842213
101	0xbd2e3457	-0.042530384
102	0xbc50f648	-0.0127540305
103	0xbcee591a	-0.029095221
104	0xbd1e92e9	-0.038714323
105	0xbc36d615	-0.01115944
106	0x3d068c46	0.03284862
107	0x3d09e34d	0.033664037
108	0xbacc1845	-0.0015571198
109	0x3d04fd08	0.032467872
110	0x3caac6e1	0.020846786
111	0x3c8d8133	0.017273521
112	0x3d0580b7	0.032593455
113	0xbc7b55c9	-0.015340277
114	0xbb74d337	-0.003735734
115	0x3b224985	0.002476306
116	0x3d0174c4	0.031605497
117	0x3c9899e0	0.01862806
118	0x3c734ebc	0.014850315
119	0x3d1535c6	0.036428235
120	0xbc4b5e2f	-0.012412592
121	0xbc710342	-0.014710249
122	0xbcd8b74f	-0.026454596
123	0xbb08d453	-0.0020878508
124	0x3b82fc47	0.003997359
125	0x3bacf547	0.005278263
126	0x3ca50eeb	0.020148715
127	0x3cb4ceb8	0.022071227

weight f4 [24, 128]
0	0x3e1bb599	0.15205993
1	0xbe138821	-0.14407398
2	0x3d54f847	0.05199459
3	0x3e8e6b89	0.27816418
4	0x3e2d8a83	0.1694737
5	0x3d48d272	0.04902882
6	0x3d942134	0.072328955
7	0xbd9cc093	-0.07653918
8	0xbe2884a9	-0.16456856
9	0xbe5db503	-0.21651082
10	0x3de15728	0.11002952
11	0xbdf64498	-0.12024802
12	0x3e1d6683	0.15371136
13	0xbd8729d8	-0.06599778
14	0x3c0d7510	0.008633867
15	0xbd61094a	-0.0549405
16	0xbe07ce0f	-0.13262199
17	0xbe420827	-0.18948422
18	0x3d133add	0.03594481
19	0xbc73aeb9	-0.0148732
20	0x3de2d965	0.11076621
21	0x3dc4653f	0.09589624
22	0x3cca1d6b	0.02467223
23	0xbc0032dc	-0.007824626
24	0xbd87724c	-0.06613597
25	0x3e08faed	0.1337697
26	0x3d362f0b	0.044478457
27	0x3dd91c63	0.106011175
28	0x3c8fb329	0.017541485
29	0xbe868ee3	-0.2628089
30	0xbd2eb5f7	-0.042654004
31	0xbd175155	-0.0369428
32	0x3d9fbf84	0.078002006
33	0xbe07dd2e	-0.13267967
34	0xbca329b1	-0.019917341
35	0xbdae0209	-0.08496482
36	0xbd50a471	-0.050938074
37	0x3db649c9	0.08900792
38	0x3c745050	0.014911726
39	0x3d442336	0.047885142
40	0x3dbcc0cb	0.0921646
41	0xbdfb76f2	-0.122785464
42	0x3cf61a87	0.030041946
43	0xbdb3fad8	-0.08788079
44	0xbe46f31d	-0.19428678
45	0x3e097848	0.1342479
46	0x3ee4601f	0.44604585
47	0xbd207031	-0.039169494
48	0xbd82bfd3	-0.06384244
49	0x3dda0619	0.10645694
50	0xbd2a88a4	-0.041634217
51	0xbe037262	-0.12836602
52	0x3c6b41a1	0.014358909
53	0x3da0ca16	0.07851045
54	0xbdf84e0c	-0.12124261
55	0xbc27164d	-0.010198188
56	0xbd801d6e	-0.06255613
57	0x3ce0a5c7	0.027422799
58	0x3c909acd	0.01765194
59	0xbdde9935	-0.10869066
60	0xbde9b64e	-0.11411725
61	0xbe47cc19	-0.19511451
62	0x3e1e0493	0.15431432
63	0xbdb4ade3	-0.08822229
64	0x3e3efd05	0.18651207
65	0xbda8c215	-0.08240143
66	0xbe7fab17	-0.2496761
67	0x3dd1f137	0.10251086
68	0x3d85d6c7	0.06535106
69	0x3dafbf98	0.085814655
70	0x3e3d017e	0.184576
71	0xbe24e028	-0.16101134
72	0xbcb4cac8	-0.02206935
73	0x3e80eb59	0.25179556
74	0x3d6fc90c	0.058541343
75	0x3d1906cf	0.03736001
76	0xbc878526	-0.016542982
77	0xbb321f53	-0.0027179315
78	0xbd51cf91	-0.05122334
79	0xbd6fec73	-0.058575105
80	0xbd73b6b3	-0.059500407
81	0x3e7425cb	0.23842542
82	0x3c766ff8	0.015041344
83	0xbe1dd6b3	-0.15413933
84	0xbe2bccc7	-0.16777335
85	0x3cdfc456	0.0273153
86	0xbcb750f8	-0.022377476
87	0xbd6b949e	-0.05751478
88	0xbc510ac7	-0.012758917
89	0xbbada55c	-0.0052992534
90	0xbb7fe480	-0.0039046109
91	0xbbf03018	-0.007329952
92	0xbe6f6d05	-0.23381431
93	0xbd190fce	-0.03736859
94	0x3de4f24f	0.11179029
95	0xbe5a46d1	-0.21316077
96	0xbd391ed9	-0.045195434
97	0xbd5a1f17	-0.053252306
98	0xbd2c1760	-0.04201448
99	0xbd31328c	-0.043261096
100	0x3dd49508	0.10379988
101	0x3e03c909	0.12869658
102	0xbe30161f	-0.17195939
103	0x3d93a57e	0.072092995
104	0x3becee98	0.007230591
105	0x3e51517b	0.20441239
106	0xbe2abb4f	-0.16673015
107	0xbd64febf	-0.055907007
108	0x3e4aa406	0.19789132
109	0xbe151310	-0.14558053
110	0xbde5bd1c	-0.112177104
111	0xbe07b14c	-0.13251227
112	0x3d4461d9	0.047944877
113	0x3d3337fe	0.04375457
114	0xbd5341f4	-0.05157657
115	0x3e1d66e3	0.1537128
116	0xbbe74db5	-0.007058824
117	0x3d795612	0.0608731
118	0x3b64bc39	0.0034902229
119	0xbd81362d	-0.06309161
120	0xbb90a15c	-0.004413767
121	0xbd07cc35	-0.03315373
122	0xbe274186	-0.16333589
123	0x3d293c97	0.04131755
124	0x3d9eb534	0.077494055
125	0xbc8f64ca	-0.017504115
126	0xbd94559c	-0.07242891
127	0x3dcec235	0.10095636
128	0xbd155c0a	-0.03646473
129	0xbd8c9b92	-0.0686561
130	0xbceff972	-0.02929375
131	0x3d10a49d	0.035313237
132	0xbb5dafe6	-0.0033826767
133	0xbdc67ddd	-0.09691975
134	0xbbcbcf81	-0.0062198048
135	0x3e1160f7	0.14197145
136	0xbcb800bf	-0.022461293
137	0xbd90d67d	-0.070721604
138	0xbe04594b	-0.12924688
139	0x3d8717ff	0.06596374
140	0xbd9d7865	-0.07688979
141	0x3d24388d	0.040092994
142	0xbddfcb22	-0.109274164
143	0x3daa67c9	0.08320577
144	0x3e52c76d	0.20583887
145	0xbdc69927	-0.0969718
146	0x3d571cec	0.052517816
147	0xbe2c0bc2	-0.1680136
148	0x3ea0fd4c	0.3144325
149	0x3b792c60	0.0038020834
150	0x3cd78484	0.026308306
151	0xbd7a91dc	-0.06117426
152	0x3c7a71a6	0.015285885
153	0x3d9035a3	0.070414804
154	0xbd10779d	-0.035270322
155	0xbda2abce	-0.079429254
156	0x3de78cda	0.11306162
157	0xbcd875da	-0.026423384
158	0x3cfa4086	0.030548345
159	0x3d9acbaf	0.07558381
160	0xbba96c13	-0.005170354
161	0xbd9c92fc	-0.076452225
162	0xbd36c447	-0.04462078
163	0xbde6964d	-0.11259136
164	0x3d9d3508	0.076761305
165	0x3e41b0c8	0.18915093
166	0xbe3b787b	-0.18307678
167	0x3d2157b4	0.03939028
168	0x3d025422	0.031818517
169	0xbc8809c2	-0.016606215
170	0x3d136cb6	0.035992347
171	0x3c8e18b3	0.017345762
172	0x3d8d428c	0.068974584
173	0x3d1852e7	0.037188437
174	0x3d76883e	0.060188524
175	0xbd80060d	-0.06251154
176	0xbdb6d148	-0.08926636
177	0x3ccc825d	0.024964506
178	0xbdff4615	-0.12464539
179	0x3e3189c6	0.17337713
180	0x3dabad7b	0.08382698
181	0xbe27a7da	-0.16372624
182	0x3dfe19e8	0.12407285
183	0xbd7d4746	-0.06183555
184	0x3e61be22	0.22045186
185	0xbd453fdb	-0.0481566
186	0xbd1ad595	-0.037801344
187	0xbcaf17c9	-0.021373646
188	0xbc4cda76	-0.012503257
189	0xbe08fe72	-0.13378313
190	0x3e4d5741	0.20052816
191	0xbc1c1af2	-0.009527909
192	0xbd0dc42f	-0.034610923
193	0xbe03a2c3	-0.12855057
194	0xbd9af48d	-0.075661756
195	0x3d177932	0.036980815
196	0x39a465b0	0.0003135628
197	0x3dbc5eb2	0.09197749
198	0x3e46d02f	0.19415353
199	0xbdd7067d	-0.104992844
200	0x3dab97ae	0.0837854
201	0x3e1d9201	0.15387727
202	0xbd5948c4	-0.05304791
203	0xbd45f4f8	-0.048329324
204	0xbd55fe8f	-0.05224472
205	0xbd91575f	-0.07096743
206	0xbda7bb30	-0.0819
207	0x3db78db4	0.089625746
208	0xbdde8ef1	-0.10867108
209	0x3d3a4121	0.045472268
210	0x3d139b39	0.036036704
211	0xbdec96a7	-0.11552172
212	0xba214424	-0.00061518163
213	0x3db0ca65	0.08632354
214	0x3cc506dc	0.024051122
215	0x3caa7eee	0.020812478
216	0xbd2914e0	-0.041279674
217	0x3ccfdf4c	0.025375031
218	0x3cabe41e	0.020982798
219	0xbdb84b20	-0.08998704
220	0xbe19209c	-0.14953846
221	0xbd243a6d	-0.04009478
222	0xbc01d680	-0.007924676
223	0x3c0f4a86	0.008745795
224	0x3d602ef6	0.054732285
225	0xbcd503e4	-0.026002832
226	0xbc3d698e	-0.011560811
227	0xbe7aa749	-0.24477877
228	0xbc9f3dde	-0.01943868
229	0xbbd27dd7	-0.0064236927
230	0x3df62f94	0.120207936
231	0xbdaaa1f7	-0.083316736
232	0xbdeff078	-0.11715788
233	0xbce914ca	-0.028452296
234	0xbdb06dec	-0.08614716
235	0x3d8bc343	0.068243526
236	0x3d97ea3f	0.07417726
237	0xbcdc7a0f	-0.02691367
238	0xbde5b9d1	-0.11217082
239	0x3d3f8fde	0.04676806
240	0x3e462be7	0.19352685
241	0x3b608969	0.003426159
242	0x3d97c813	0.07411208
243	0x3e0997df	0.1343684
244	0xbd923db9	-0.07140679
245	0xbd5ce3e2	-0.053928263
246	0x3d21af53	0.039473843
247	0xbe413212	-0.18866757
248	0xbb996df0	-0.004682295
249	0x3e3f6399	0.18690337
250	0xbe2b0198	-0.16699827
251	0xbe0ac419	-0.13551368
252	0xbda68e9a	-0.08132668
253	0xbce50343	-0.027955657
254	0xbd663fcc	-0.056213185
255	0x3ce641af	0.028107492

bias f4 [24]
0	0xbcd8c4bf	-0.026461003
1	0x3b037b3c	0.0020062467
2	0xb7987bad	-1.8177403e-05
3	0x3c2c4b03	0.010515931
4	0xbbedc29a	-0.0072558643
5	0xbc2e2c85	-0.0106307315
6	0x3c74a3d2	0.014931636
7	0x3c302ec0	0.010753334
8	0x3c105f0f	0.008811726
9	0x3c8d3f2b	0.017242035
10	0xba6406c1	-0.0008698516
11	0xbc2c93d3	-0.010533291
12	0x3c632cff	0.013865708
13	0x3c83dcff	0.01609659
14	0xba32880a	-0.00068104325
15	0x3c21b60e	0.009870065
16	0xbc75c1cb	-0.014999817
17	0x3ca3f55f	0.020014463
18	0xbccc85c3	-0.024966126
19	0x3cc77eee	0.024352517
20	0x3cbebb3a	0.023282636
21	0x3b341e0b	0.0027483727
22	0x3c1c8b9b	0.009554769
23	0x3d2b4615	0.041814882
