logs/el_mini_test/exported/policies/policy_1.pt (torch, 814664 bytes, 8 tensors)

weight f4 [512, 66]
0	0xbd3a5314	-0.045489386
1	0x3d897752	0.06712212
2	0xbe3de227	-0.18543302
3	0x3d82084f	0.06349241
4	0x3eb39f4b	0.35082468
5	0xbda5e293	-0.08099856
6	0x3d612a57	0.05497202
7	0xbf0ec592	-0.5577022
8	0x3e3fc008	0.18725598
9	0xbd18895d	-0.037240375
10	0xbe337138	-0.17523658
11	0x3f4fdc35	0.81195384
12	0x3dd68380	0.104743004
13	0x3e89ca2e	0.26912063
14	0xbe3a5915	-0.18198045
15	0x3df15af7	0.11784928
16	0xbe007dba	-0.12547961
17	0x3c9172ce	0.017754938
18	0x3d0f77d9	0.035026405
19	0xbd262cc5	-0.04057004
20	0x3e0de0d7	0.13855301
21	0x3d49bf3c	0.04925464
22	0x3d891117	0.06692713
23	0x3b6d8ffa	0.0036249147
24	0xbda69766	-0.08134346
25	0x3db27d96	0.0871536
26	0xbd5600bd	-0.052246798
27	0xbbfd0f2c	-0.007722756
28	0xbe82d82d	-0.25555554
29	0x3ca094f5	0.019602278
30	0x3e2a4657	0.16628395
31	0x3d37c454	0.044864967
32	0x3d4d84c9	0.050175462
33	0xbda06f2b	-0.078337036
34	0xbda3007e	-0.07959078
35	0x3d4987bf	0.049201723
36	0x3d14a09c	0.03628598
37	0xbdbfc15a	-0.09363051
38	0x3d019370	0.031634748
39	0xbdc47640	-0.09592867
40	0xbcde9c83	-0.02717424
41	0x3d8da0b9	0.06915421
42	0xbe40a282	-0.18811992
43	0xbd92fadc	-0.07176754
44	0xbd9f6278	-0.07782453
45	0x3cb41a36	0.021985155
46	0x3b85b0c5	0.0040799105
47	0x3d19f3c5	0.037585992
48	0x3b0a4889	0.0021100363
49	0x3c7384e5	0.0148632275
50	0x3a8f2bc0	0.0010923073
51	0xbd2e6ad3	-0.042582344
52	0x3d8c1a05	0.068409
53	0xbda786f2	-0.08180036
54	0x3e11b7d0	0.14230275
55	0xbc5a554f	-0.013326003
56	0x3b8ac113	0.004234442
57	0xbc3cb7dc	-0.011518445
58	0xbd059a73	-0.032617997
59	0xbd0b23a1	-0.033969525
60	0x3cef4736	0.02920876
61	0x3d41a669	0.04727784
62	0xbdb594cd	-0.08866272
63	0x3c5e194a	0.013555834
64	0xbd90d210	-0.07071316
65	0x3db2f76d	0.08738599
66	0xbe352c6e	-0.1769273
67	0xbc6986b7	-0.01425331
68	0x3cffc7cc	0.0312232
69	0x3d8d27d4	0.06892362
70	0xbdd703d2	-0.104987755
71	0xbecd56e4	-0.40105355
72	0xbd9c2f7c	-0.076262444
73	0x3ea3ff0d	0.32030526
74	0xbd1da265	-0.03848495
75	0x3e359e98	0.1773628
76	0x3cc37f32	0.023864362
77	0x3e658ded	0.22417422
78	0xbdb8c842	-0.09022571
79	0xbe6d753e	-0.23189256
80	0x3e3b1b35	0.18272097
81	0x3d354aee	0.04426091
82	0x3e0d44e9	0.13795818
83	0x3e058f92	0.13043049
84	0x3dacc373	0.084357165
85	0x3ec47119	0.38367537
86	0x3daa07ef	0.083022945
87	0xbe542ff8	-0.20721424
88	0x3de9b877	0.11412137
89	0xbdd6ad05	-0.104822196
90	0x3c148f10	0.009067312
91	0xbedfa656	-0.43681592
92	0xbdf28810	-0.11842358
93	0xbe9b5e2e	-0.3034529
94	0xbe1b78cc	-0.15182799
95	0xbb898008	-0.0041961707
96	0xbdfbd1e9	-0.122958966
97	0xbd52905e	-0.05140721
98	0xbd69d9ee	-0.0570926
99	0x3e3b2120	0.18274355
100	0xbd68e3e4	-0.05685796
101	0xbcfa4f03	-0.030555254
102	0x3c7f49e3	0.015581581
103	0xbe0f7a14	-0.14011413
104	0x3d5e10e1	0.054215316
105	0xbe927d1b	-0.28611073
106	0x3b1f1c7a	0.0024278448
107	0xbc871658	-0.016490147
108	0xbdd596c7	-0.10429149
109	0x3d4404b1	0.047856037
110	0x3ddc19ca	0.107471064
111	0xbc9e00e6	-0.019287538
112	0xbd8fd214	-0.07022491
113	0xbdcfab62	-0.101401106
114	0xbd329e17	-0.043607797
115	0xbdb8cd21	-0.090235
116	0x3ce77c09	0.028257387
117	0xbdbf4438	-0.093391836
118	0x3c0b6bce	0.008509589
119	0xbc5831ba	-0.0131954495
120	0xbd3c8350	-0.046023667
121	0xbd48779b	-0.04894219
122	0x3ba0aa16	0.0049030883
123	0x3d24f40a	0.040271796
124	0xbd1937ee	-0.037406854
125	0x3dc7fe4b	0.097652994
126	0xbc02030b	-0.007935296
127	0x3cc67109	0.024223821
128	0xbde819b2	-0.11333026
129	0x3cdc77d4	0.026912607
130	0x3d4da538	0.050206393
131	0xbd55289a	-0.052040674
132	0xbb033dd1	-0.002002586
133	0x3e3ffd24	0.18748909
134	0xbc675c05	-0.01412106
135	0xbddf3a9c	-0.10899851
136	0x3e9075f4	0.2821499
137	0x3d9cca09	0.07655723
138	0x3e063e1b	0.13109629
139	0xbe8f4c22	-0.27987772
140	0xbc72ef3b	-0.014827545
141	0xbe059cda	-0.13048115
142	0xbbfea360	-0.0077709407
143	0xbeb6d8f5	-0.357124
144	0xbd4d1d83	-0.050076973
145	0xbed6b690	-0.4193616
146	0x3d63225e	0.055452697
147	0xbc99b13e	-0.018761273
148	0x3dd78d69	0.10525019
149	0x3d8c0eb6	0.068387434
150	0x3d9bf569	0.07615168
151	0x3ee1cb59	0.44100454
152	0xbe6f8e9e	-0.23394248
153	0xbca14e38	-0.019690618
154	0x3d4ed972	0.05050034
155	0x3d8fb8f7	0.07017701
156	0xbb773d88	-0.0037725884
157	0xbebf4b14	-0.37361968
158	0x3e6ae594	0.2293914
159	0xbe373572	-0.17891482
160	0xbe37222b	-0.17884128
161	0x3c5309f7	0.012880794
162	0xbe64b081	-0.22332956
163	0x3c4c8919	0.0124838585
164	0x3d94e364	0.07269934
165	0x3db760c7	0.08954006
166	0xbdc81649	-0.097698756
167	0x3d9bff1e	0.07617019
168	0xbdbe984d	-0.09306393
169	0xbdbbd3af	-0.09171235
170	0xbd6595a0	-0.056050897
171	0x3c46473c	0.012101945
172	0xbd806be6	-0.0627058
173	0xbdd549bc	-0.10414454
174	0xbe9a9cea	-0.3019784
175	0x3d3ee463	0.046604525
176	0x3cde40c6	0.027130496
177	0xbe04e75b	-0.1297888
178	0xbded364d	-0.11582623
179	0xbca1693a	-0.019703496
180	0x3cd22a3b	0.025654903
181	0xbd9d3b43	-0.07677319
182	0x3d94a360	0.07257724
183	0x3ca02711	0.019549878
184	0x3c5f7ef5	0.013641109
185	0xbd81afb0	-0.06332338
186	0x3c4bca07	0.012438304
187	0x3e0d5ea2	0.13805631
188	0xbd396e43	-0.04527117
189	0x3c8a98a4	0.016918488
190	0x3ca080f6	0.019592743
191	0xbd62fc83	-0.055416595
192	0xbb53ea91	-0.0032335857
193	0xbdbf2cf9	-0.0933475
194	0x3db602c6	0.08887248
195	0x3c89923b	0.016793361
196	0xbd13ed68	-0.03611508
197	0x3d0efb9f	0.034907933
198	0xbd9f008d	-0.07763777
199	0xbc6e46bd	-0.0145432325
200	0xbd210522	-0.039311536
201	0x3eb87a70	0.36030912
202	0xbebd13cb	-0.36929163
203	0x3d4d789f	0.05016386
204	0xbe6672ab	-0.2250468
205	0x3d8ae3a8	0.06781703
206	0xbad4c9cc	-0.0016234457
207	0xbd06af5c	-0.03288208
208	0x3d863a1f	0.065540545
209	0x3e29cb1d	0.16581388
210	0x3ea97407	0.33096334
211	0xbea73154	-0.32654822
212	0x3e96b667	0.29436037
213	0x3cf49275	0.029854992
214	0xbd20c70d	-0.03925233
215	0x3e024eb9	0.12725343
216	0x3db3e8a3	0.08784606
217	0x3e4cc345	0.19996364
218	0xbe00903c	-0.12555021
219	0xbee29034	-0.44250643
220	0xbd28f3d7	-0.04124817
221	0xbcabeb37	-0.020986183
222	0x3ead5889	0.3385661
223	0xbe3a4746	-0.18191251
224	0xbcfe1fca	-0.031021018
225	0x3e745c2d	0.23863287
226	0x3e2fd44b	0.17170827
227	0x3e63fc29	0.2226416
228	0xbe354bc4	-0.17704684
229	0xbc258339	-0.010102087
230	0x3e12a304	0.14319998
231	0xbde4f78a	-0.11180027
232	0xbd384df8	-0.04499623
233	0xbc3a8e76	-0.011386504
234	0xbe36a2a3	-0.17835478
235	0x3d18d983	0.03731681
236	0xbded90cf	-0.11599886
237	0xbd829a37	-0.063770704
238	0x3d735a29	0.059412155
239	0xbdf6b092	-0.12045397
240	0xbda1560b	-0.078777395
241	0xbe2884f9	-0.16456975
242	0x3e1dfc36	0.15428242
243	0xbe9b5078	-0.3033483
244	0x3d528a19	0.05140123
245	0xbd5123e8	-0.051059633
246	0xbc923ad9	-0.017850326
247	0x3c8711d2	0.01648799
248	0xbd2ee701	-0.04270077
249	0xbc41af11	-0.011821524
250	0xbda90089	-0.08252055
251	0xbd963feb	-0.0733641
252	0xbaefee82	-0.0018305334
253	0xbd85d7a2	-0.06535269
254	0x3cd634cd	0.026148224
255	0x3df60182	0.12012006

bias f4 [512]
0	0xbe5489a9	-0.20755638
1	0xbe1233c4	-0.1427756
2	0xbe1272f7	-0.14301668
3	0xbd80aca1	-0.06282926
4	0xbd29e38a	-0.041476764
5	0xbe14e55c	-0.14540619
6	0x3c8a86a7	0.01690991
7	0xbe22c1ea	-0.15894285
8	0x3e1ae7c0	0.15127468
9	0x3d89483f	0.06703233
10	0x3e0fbeba	0.140376
11	0x3d8aa104	0.067689925
12	0x3d2d9174	0.042375043
13	0xbd9708a8	-0.07374698
14	0x3c92a000	0.01789856
15	0xbd9e5131	-0.0773033
16	0xbd148eb6	-0.036268912
17	0x3c9b54a2	0.018961255
18	0xbe0d808d	-0.1381857
19	0xbc0dd261	-0.008656115
20	0xbda7aa8c	-0.08186826
21	0xbd1b7357	-0.037951794
22	0xbe0b7592	-0.13619068
23	0x3c0da7a1	0.008645923
24	0x3df30fcc	0.118682474
25	0x3d66c43f	0.0563395
26	0x3daec162	0.085329786
27	0xbc3f9997	-0.0116943335
28	0x3d042eef	0.032271322
29	0xbe1fb6c9	-0.15597071
30	0x3d38943d	0.045063246
31	0xbdf94857	-0.12172001
32	0x3d8ce830	0.06880224
33	0x3be7bb53	0.0070718913
34	0xbd11cc0a	-0.035594977
35	0xbdda7913	-0.10667624
36	0xbd72cc05	-0.0592766
37	0xbd604f47	-0.054763105
38	0xbd64bbbb	-0.055843096
39	0xbdc4e138	-0.096132696
40	0xbc0e55c5	-0.008687441
41	0xbd1c6ac7	-0.03818777
42	0x3e0f0985	0.13968475
43	0xbe2a69ec	-0.16641968
44	0xbd9a286c	-0.07527241
45	0xbcbc25ba	-0.022967208
46	0xbd284f5a	-0.0410913
47	0xbd040598	-0.032231897
48	0xbd8407f2	-0.06446828
49	0xbd649e26	-0.055814885
50	0xbe21af50	-0.15789533
51	0xbd7f7a28	-0.062372357
52	0x3dd04ef3	0.10171308
53	0xbe1b927a	-0.15192595
54	0x3e07abe9	0.13249172
55	0xbe0313ea	-0.12800565
56	0x3d26130f	0.04054552
57	0xbd577e4a	-0.052610673
58	0x3de42343	0.11139538
59	0xbd28b8da	-0.041191913
60	0xbe2df93f	-0.16989611
61	0xbceeb2b0	-0.02913794
62	0xbdd8f22d	-0.10593066
63	0xbd439815	-0.04775246
64	0xbe11da06	-0.14243326
65	0xbdac0eac	-0.08401236
66	0x3b7de8bf	0.0038743464
67	0x3c862ed6	0.016379755
68	0xbe187ad8	-0.14890611
69	0xbd106e17	-0.03526124
70	0x3d10c61d	0.035345186
71	0xbd21f947	-0.03954437
72	0x3d165655	0.036703426
73	0xbd786310	-0.06064135
74	0xbd5445b9	-0.051824305
75	0x3d2ea2dc	0.042635784
76	0xbd4fde30	-0.050749004
77	0x3dcf95c6	0.10135989
78	0x3bdfa499	0.0068250415
79	0xbd155479	-0.036457513
80	0x3d9efb83	0.07762816
81	0xbd4982af	-0.049196895
82	0xbc89fc77	-0.016844017
83	0xbe498b63	-0.19682078
84	0x3e2f4114	0.17114669
85	0x3dea8869	0.114517994
86	0xbd61c752	-0.055121727
87	0xbd913768	-0.07090646
88	0x3da532af	0.08066308
89	0x3d2acc0e	0.041698508
90	0xbdf72449	-0.12067468
91	0xbd055ea2	-0.032560952
92	0x3ba460a1	0.005016402
93	0xbdda3821	-0.10655237
94	0xbdc6654f	-0.09687292
95	0xbd82a1ec	-0.063785404
96	0xbd870376	-0.06592457
97	0x3dd7df5b	0.105406485
98	0x3d84922f	0.06473195
99	0xbd70837e	-0.05871915
100	0xbdf7c2ac	-0.120976776
101	0xbcf9a73b	-0.03047525
102	0x3c3efa8e	0.011656417
103	0xbdf02b75	-0.11727039
104	0xbd24bf9a	-0.040221788
105	0x3e351ac1	0.17685987
106	0x3ac5c330	0.0015088078
107	0xbd6bb1bc	-0.057542548
108	0xbdf2d153	-0.11856332
109	0xbd732630	-0.05936259
110	0xbd198e47	-0.037489202
111	0xbe1350ab	-0.14386241
112	0xbd02b073	-0.031906556
113	0xbdb17722	-0.08665301
114	0xbd295f4c	-0.041350648
115	0x3c3706b2	0.01117103
116	0x3d357d49	0.044308934
117	0xbe472d68	-0.19450915
118	0xbcb6ad62	-0.022299472
119	0x3da0aae5	0.078450955
120	0x3d4273d8	0.04747376
121	0xbca9f668	-0.020747378
122	0xbd95d629	-0.073162384
123	0x3df24bde	0.11830877
124	0xbda79e05	-0.08184437
125	0xbc259e86	-0.010108596
126	0x3ddcd6b8	0.10783142
127	0xbd7ad1da	-0.061235286
128	0xbccd9fe4	-0.025100656
129	0x3dcb39d7	0.099231414
130	0xbdc41234	-0.095737845
131	0x3d4d57bc	0.0501325
132	0x3c9a813a	0.018860448
133	0x3da6d5f6	0.081462786
134	0xbca6f876	-0.020382147
135	0x3d2d1af2	0.042262025
136	0xbd8ce1e5	-0.068790235
137	0xbd9c7ee4	-0.0764139
138	0xbdcc1be0	-0.09966254
139	0xbcdc39fc	-0.026883118
140	0xbd74b6d2	-0.059744664
141	0xbccba413	-0.02485851
142	0xbdee9b03	-0.1165066
143	0x3ce29cb2	0.027662609
144	0xbdef0712	-0.116712704
145	0xbe0bfeaf	-0.13671373
146	0xbd89a28c	-0.067204565
147	0xbd1da51e	-0.038487546
148	0x3d824eba	0.06362672
149	0x3bb45c35	0.005504156
150	0xbdd3266a	-0.10310061
151	0xbe01162f	-0.12606119
152	0xbd514f3e	-0.051100962
153	0xbe185fa5	-0.14880235
154	0xbd807767	-0.06272774
155	0xbdd4fdd3	-0.10399976
156	0xbd11092d	-0.03540914
157	0xbe02d829	-0.12777771
158	0xbe483dbf	-0.19554804
159	0x3d04faa0	0.032465577
160	0xbd60ef1f	-0.054915544
161	0xbe609b86	-0.21934327
162	0xbdb682d0	-0.08911669
163	0x3d674328	0.05646053
164	0x3db09819	0.0862276
165	0xbe05a698	-0.13051832
166	0xbd3a67f2	-0.045509286
167	0x3d51e5ab	0.05124442
168	0x3d91dcdc	0.07122204
169	0xbd6ec127	-0.058289673
170	0xbe17fe07	-0.14842997
171	0xbe1d22ef	-0.15345357
172	0xbe116c55	-0.14201482
173	0xbe0c5508	-0.13704312
174	0x3c43ea97	0.011957786
175	0x3c934ebb	0.017981878
176	0xbdaebe49	-0.08532388
177	0x3e081bb0	0.13291812
178	0xbe44dbd8	-0.19224489
179	0x3b0be69b	0.0021347168
180	0x3ba2b490	0.0049653724
181	0x3d941e13	0.07232299
182	0x3d2d80fe	0.042359345
183	0xbd54036d	-0.05176108
184	0x3e15fd85	0.14647491
185	0xbd455646	-0.04817798
186	0x3d4c920f	0.04994398
187	0x3e0cd6e2	0.13753846
188	0x3c9a6b74	0.018850066
189	0xbddb41b0	-0.10705888
190	0xbde09b38	-0.109671056
191	0xbe07050a	-0.13185516
192	0xbc951042	-0.018196229
193	0xbc6259e0	-0.013815373
194	0x3da0a50e	0.07843982
195	0xbe7189db	-0.23587744
196	0x3da8050e	0.08204089
197	0xbdba6f9c	-0.09103319
198	0x3d504118	0.05084333
199	0x3c8bded0	0.017074019
200	0x3daa3c3b	0.08312269
201	0x3d296b80	0.041362286
202	0x3c43c4a1	0.011948735
203	0x3e31e6ee	0.17373249
204	0xbdba7de1	-0.09106041
205	0x3d263fe9	0.040588293
206	0x3d70b61c	0.058767423
207	0x3b199e1c	0.0023440188
208	0x3e534b38	0.20634162
209	0xbdf44916	-0.119280025
210	0xbcc449d8	-0.023960993
211	0xbe3df51c	-0.18550533
212	0x3df7fdab	0.1210893
213	0xbe05249e	-0.1300225
214	0x3d51d53f	0.051228758
215	0x3e07ddf4	0.13268262
216	0xbcab2555	-0.020891825
217	0xbcc93f72	-0.024566386
218	0x3d4a1f44	0.049346223
219	0x3d9827bc	0.07429454
220	0xbe01eaf6	-0.12687287
221	0xbdeb396f	-0.11485564
222	0xbe4f732a	-0.20258775
223	0xbd0ef8d8	-0.034905285
224	0xbcd46785	-0.025928268
225	0x3d9c5a40	0.07634401
226	0xbb912b13	-0.0044301837
227	0x3d166bd5	0.03672393
228	0x3d737f4f	0.059447583
229	0xbd8eddff	-0.06975936
230	0xbd5e0653	-0.05420525
231	0xbd49c422	-0.049259312
232	0xbb86cbbb	-0.004113642
233	0x3e2f2e10	0.17107415
234	0xbe370900	-0.17874527
235	0x3cbadc04	0.02280999
236	0x3c8ee205	0.017441759
237	0x3d55618f	0.052094992
238	0xbdde688a	-0.10859783
239	0x3d8db4a9	0.06919224
240	0xbd3925e6	-0.04520216
241	0xbe12dbeb	-0.14341705
242	0xbd7d4165	-0.061829943
243	0x3ceaf22e	0.028679933
244	0xbdc20661	-0.09473873
245	0xbdd44747	-0.103651576
246	0x3d8e520f	0.06949245
247	0x3c110906	0.008852249
248	0x3cd8663f	0.026415942
249	0x3d028f51	0.03187496
250	0xbdf804a0	-0.12110257
251	0x3de07b14	0.10960975
252	0xbc449b95	-0.011999984
253	0xb983b694	-0.00025122298
254	0xbcf8ea99	-0.030385302
255	0xbdcc91a4	-0.09988716

weight f4 [256, 512]
0	0x3a1a85a1	0.0005894546
1	0xbd912d51	-0.070887215
2	0xbd83f509	-0.06443221
3	0xbdd9eb8a	-0.10640629
4	0xbd1acf63	-0.037795436
5	0xbc723eb9	-0.014785462
6	0xbda5b176	-0.080904886
7	0x3d88faf8	0.066884935
8	0xbde4d611	-0.111736424
9	0xbdd00881	-0.10157872
10	0xbd961e86	-0.07330041
11	0xbd24dc05	-0.04024889
12	0xbd196a34	-0.0374548
13	0xbcfd5347	-0.030923499
14	0xbcecd7e3	-0.028911537
15	0xbdb18995	-0.0866882
16	0x3c1a7d68	0.009429313
17	0x3d284a5b	0.041086536
18	0xbc696301	-0.014244796
19	0x3d8e9d27	0.06963568
20	0xbd1c1346	-0.038104318
21	0xbcea2c03	-0.02858544
22	0x3e1b4dab	0.15166347
23	0xbbdc29e8	-0.006718863
24	0x3dd4778c	0.10374364
25	0x3d2189ca	0.039438047
26	0x3c9a503b	0.018837085
27	0x3c9b4446	0.018953454
28	0xbd964199	-0.073367305
29	0x3dacb651	0.084332116
30	0xbcdb9b9f	-0.026807604
31	0xbdf8a4c7	-0.12140804
32	0xbd821e4d	-0.06353436
33	0x3d74d699	0.05977497
34	0xbd2694f2	-0.04066939
35	0xbd3b19af	-0.04567879
36	0xbd641e9c	-0.055693254
37	0x3c5032a6	0.012707388
38	0xbd34e9ef	-0.04416841
39	0xbe0506ee	-0.12990925
40	0x3d7a165f	0.06105649
41	0xbd75a4dd	-0.05997168
42	0xbcd158ee	-0.0255551
43	0xbd42bb6c	-0.04754202
44	0xbdc99e5d	-0.098446585
45	0x3d939128	0.07205421
46	0x3d718ddc	0.05897318
47	0xbd05299e	-0.032510392
48	0x3cd4c598	0.025973126
49	0xbcc8b106	-0.024498474
50	0xbd8ee1b8	-0.06976646
51	0xbd3e2561	-0.046422366
52	0xbdad980d	-0.08476267
53	0x3c658d0f	0.014010682
54	0xbcba24cb	-0.022722622
55	0x3d0e94e3	0.03480996
56	0xbc20ecb3	-0.0098220585
57	0xbc27ec70	-0.010249242
58	0xbd4977f3	-0.049186658
59	0x3d8d5039	0.06900067
60	0x3d914833	0.07093849
61	0xbc928378	-0.017884955
62	0x3b3e8dbc	0.002907618
63	0xbc248f30	-0.010043904
64	0xbb8845fb	-0.004158733
65	0x3c78a583	0.01517618
66	0x3d3e88c1	0.046517137
67	0xbc391f5e	-0.011298982
68	0xbe0195a7	-0.12654744
69	0xbcb7ad20	-0.02242142
70	0x3c5fcae7	0.0136592155
71	0x3d8b4dce	0.068019494
72	0x3c31fb67	0.010863162
73	0x3dc8a31a	0.09796734
74	0xbd8157e5	-0.06315593
75	0xbcc6bb41	-0.024259211
76	0x3d7085a4	0.0587212
77	0x3d0904da	0.033451892
78	0xbc8163e9	-0.015794711
79	0xbcb069bf	-0.021534799
80	0xbdd310be	-0.10305928
81	0x3cb87e65	0.022521207
82	0xbe042e1f	-0.12908219
83	0xbcfaf34b	-0.03063359
84	0xbd051e92	-0.032499857
85	0x3ce1c67d	0.027560467
86	0x3cba5406	0.022745144
87	0x3d31eba1	0.043437604
88	0x3d7ba61f	0.061437722
89	0xbe02620b	-0.12732713
90	0x3da09be2	0.07842232
91	0xbdbfead7	-0.09370964
92	0xbd4c18f4	-0.049828485
93	0xbc83f029	-0.016105728
94	0x3dedf65d	0.11619256
95	0xbd33411d	-0.04376327
96	0xbcbddcaf	-0.02317652
97	0x3d89feea	0.06738074
98	0xbd2eff82	-0.04272414
99	0x3cc907aa	0.024539787
100	0xbc9c07d5	-0.019046703
101	0xbd13b348	-0.036059648
102	0x3de11db9	0.10991997
103	0xbd91d9bd	-0.071216084
104	0xbd8806da	-0.06641932
105	0xbdc7bed3	-0.09753194
106	0xbd37aa9d	-0.044840444
107	0x3ccd7683	0.025080925
108	0xbd706faf	-0.05870026
109	0x3ade20b5	0.0016947003
110	0xbd0a9095	-0.03382929
111	0x3d288c8b	0.041149657
112	0xbd94a576	-0.07258122
113	0x3cd7db80	0.026349783
114	0xbc33338a	-0.010937581
115	0xbd8e8fc5	-0.069610156
116	0x380bc258	3.332118e-05
117	0x3df36be6	0.11885814
118	0xbd8e0559	-0.06934614
119	0xbb8dfe13	-0.0043332665
120	0xbc51b438	-0.012799315
121	0x3d83dff9	0.06439204
122	0xbd07640e	-0.033054404
123	0xbd6846c5	-0.056708116
124	0xbcabcf7a	-0.020972956
125	0x3df83c1c	0.1212084
126	0x3c901c00	0.017591476
127	0xbd530fbf	-0.05152869
128	0x3cd0d9aa	0.025494415
129	0xbbd743d8	-0.006569367
130	0xbdf14654	-0.11780992
131	0xbe0b15c9	-0.13582529
132	0xbe3cc331	-0.18433835
133	0xbd4512db	-0.048113685
134	0xbcea115f	-0.028572736
135	0x3d9c53ad	0.076331474
136	0xbdbd1157	-0.09231823
137	0xbd91c20a	-0.07117088
138	0x3e1e62f9	0.15467443
139	0xbc4a2892	-0.012338774
140	0x3c96f181	0.018425705
141	0x3e3c0ee6	0.18365058
142	0xbd80ba60	-0.06285548
143	0xbbfc61a0	-0.0077020675
144	0xbd52d5a3	-0.05147327
145	0x3db48958	0.08815259
146	0x3d587637	0.052847113
147	0x3d28e02f	0.041229423
148	0xbd1ad573	-0.037801217
149	0x3d88d5ff	0.066814415
150	0x3e136c1f	0.14396714
151	0x3debbac6	0.115102336
152	0x3d8feb83	0.07027342
153	0x3c027dba	0.007964546
154	0x3d967b7d	0.07347772
155	0x3d9bf8fa	0.07615848
156	0x3cb812a3	0.022469824
157	0x3bd1b041	0.006399185
158	0x3d4bf9fd	0.049798954
159	0xbdd34e1f	-0.10317635
160	0x3d8ff5ae	0.070292816
161	0xbd3a5590	-0.045491755
162	0x3d75d09f	0.06001341
163	0x3d2f7ce9	0.042843733
164	0xbc129e82	-0.008948924
165	0x3d112bde	0.035442226
166	0xbd06b293	-0.032885145
167	0x399d339a	0.0002998382
168	0xbd75996a	-0.05996076
169	0xbb29dc55	-0.0025918682
170	0xbd5343cc	-0.051578328
171	0xbb896c63	-0.004193829
172	0x3d45b0ff	0.0482645
173	0x3d2b674a	0.04184655
174	0xbc7f44b9	-0.01558035
175	0x3d2bc611	0.041936938
176	0xbd43f627	-0.04784217
177	0x3d036a64	0.032083884
178	0xbddc6bb8	-0.10762733
179	0x3dfaa33a	0.12238164
180	0x3d9fe159	0.078066535
181	0xbce049d4	-0.027378954
182	0x3d9a68b7	0.07539504
183	0x3c977437	0.018488033
184	0xbdc2283b	-0.094803296
185	0x3dce89dd	0.10084889
186	0x3caa8eff	0.020820139
187	0x3cf4284e	0.029804375
188	0x39311b95	0.0001689031
189	0xbd973976	-0.07384007
190	0x3de641f1	0.11243046
191	0x3dd22775	0.10261432
192	0x3d35dc01	0.044399265
193	0x3bf1311d	0.007360591
194	0x3d88f34e	0.06687032
195	0x3dcd86d6	0.100354835
196	0x3c47fc70	0.012206182
197	0x3d5cf5e7	0.05394545
198	0x3c4ce026	0.012504613
199	0xbccd24ab	-0.025041899
200	0x3c6f4cdb	0.014605726
201	0xbd6f0437	-0.05835363
202	0xbd7c229d	-0.061556447
203	0xbe06968e	-0.1314337
204	0x3d8faf14	0.070158154
205	0xbd90e452	-0.07074799
206	0xbc261b7f	-0.0101383915
207	0xbbaf1e66	-0.0053442
208	0xbd424a56	-0.047434174
209	0xbd2882ff	-0.041140553
210	0x3d0e50fc	0.0347452
211	0x3cf8b20e	0.03035834
212	0xbd54fef4	-0.052000955
213	0xbcff00c9	-0.031128304
214	0xbcefc27d	-0.029267544
215	0x39d15c5c	0.000399324
216	0x3d84ef0f	0.06490909
217	0xbd650c74	-0.05592008
218	0x3c6fd17a	0.014637345
219	0x3d68aec5	0.0568073
220	0x3dda2c94	0.10653034
221	0xbbd08295	-0.006363223
222	0x3e403e24	0.18773705
223	0xbd894070	-0.067017436
224	0x3d580027	0.05273452
225	0x3c3a08ee	0.011354668
226	0x3da59603	0.08085253
227	0x3dbdf36a	0.09274943
228	0xbd92c3ff	-0.071662895
229	0xbd0327b7	-0.032020297
230	0x3cd639f0	0.026150674
231	0x3daa349c	0.08310816
232	0x3cd27650	0.025691181
233	0xbbf9f7d9	-0.0076284227
234	0xbb88635a	-0.0041622343
235	0x3cd46af1	0.0259299
236	0xbbe5f778	-0.007018026
237	0xbd6afbfa	-0.05736921
238	0xbcaaabcb	-0.02083387
239	0xbcfb732d	-0.030694569
240	0x3de88bc1	0.11354781
241	0x3d4fa97b	0.05069874
242	0xbd2cd7ac	-0.04219787
243	0xbdf64973	-0.12025728
244	0x3e0c8c53	0.13725404
245	0xbda0c5e1	-0.078502424
246	0x3b62b4fb	0.0034592736
247	0xbd359057	-0.044327106
248	0xbd43970f	-0.047751483
249	0x3de37760	0.11106753
250	0x3d238c24	0.03992857
251	0xbc38e202	-0.011284353
252	0xbd2ed04b	-0.042679112
253	0xbcb0e7fd	-0.021594996
254	0x3e0d3846	0.13790998
255	0x3e2a7abf	0.16648386

bias f4 [256]
0	0xbcbce2f6	-0.023057442
1	0xbd0e318a	-0.034715213
2	0xbe13e969	-0.14444508
3	0xbc974fe3	-0.01847071
4	0xbe2880d3	-0.16455393
5	0xbdd7b71c	-0.10532972
6	0xbdca4fe2	-0.09878518
7	0xbd218dc4	-0.03944184
8	0xbcd94c1a	-0.026525546
9	0x3d26f7fe	0.040763848
10	0xbdb1f497	-0.0868923
11	0xbd84b501	-0.06479836
12	0xbd51613b	-0.051118117
13	0xbd5f47c6	-0.054511808
14	0xbe107743	-0.14107995
15	0x3ba205d4	0.0049445424
16	0x38bb24af	8.923688e-05
17	0xbda011f4	-0.07815924
18	0xbe4208e3	-0.18948703
19	0x3c75cebb	0.015002902
20	0xbd2c37d5	-0.042045433
21	0x3b4db35c	0.0031387424
22	0xbca9f111	-0.020744832
23	0xbd9f37c9	-0.07774312
24	0xbc929c4e	-0.017896798
25	0xbd5b45fa	-0.05353353
26	0xbd348a79	-0.04407737
27	0xbdc06a53	-0.0939528
28	0x3cdd3bf9	0.027006136
29	0xbd492f69	-0.04911748
30	0x3b6589ae	0.003502469
31	0xbd3e905e	-0.046524398
32	0xbd1d1592	-0.03835065
33	0xbd11ebc8	-0.03562525
34	0xbda8bd9f	-0.08239292
35	0xbd0e78c1	-0.03478313
36	0xbd958981	-0.073016174
37	0xbd84d158	-0.06485242
38	0xbcc20cf4	-0.023687817
39	0xbd9a7219	-0.07541294
40	0xbd0faa9f	-0.035074826
41	0xbd436749	-0.047705922
42	0xbce3857d	-0.027773613
43	0xbd6e918b	-0.05824427
44	0xbe2245dd	-0.15846963
45	0xbbd8db43	-0.006617935
46	0xbc8638d8	-0.016384527
47	0xbcc4d36a	-0.024026591
48	0x3d5e6b2b	0.054301422
49	0xbbcc12af	-0.006227813
50	0xbd7bd334	-0.061480716
51	0xbcb60808	-0.022220626
52	0xbcf55328	-0.029946879
53	0xbd47bc3f	-0.04876351
54	0xbd791911	-0.06081492
55	0xbce6c8ba	-0.028171886
56	0xbd56c90a	-0.05243782
57	0xbd7e2ad5	-0.062052567
58	0xbcdf26f7	-0.02724026
59	0x3c0613cd	0.008183432
60	0xbcfe0a8b	-0.031010887
61	0xbc9fedd8	-0.019522592
62	0x3c21f28d	0.009884489
63	0xbd1c3613	-0.038137507
64	0x3c1e0c42	0.009646477
65	0xbdaa5e7c	-0.08318803
66	0xbd09cafa	-0.03364084
67	0xbd1a21b8	-0.037629813
68	0xbcadfb52	-0.021238003
69	0xbdb912c3	-0.09036782
70	0x3d36c366	0.04461994
71	0xbe045908	-0.12924588
72	0xbd2546e6	-0.040350817
73	0xbcc7c042	-0.024383668
74	0x3c8ae204	0.016953476
75	0xbce26745	-0.027637133
76	0xbcc42bd1	-0.023946675
77	0xbde99409	-0.114051886
78	0x3ccbfc8e	0.0249007
79	0xbddd4b30	-0.108053565
80	0xbb79f6a8	-0.0038141403
81	0xbda4bbba	-0.080436185
82	0xbcfbacfe	-0.030722138
83	0xbd3c981c	-0.0460435
84	0xbe0668e6	-0.13125953
85	0xbcdf8651	-0.027285727
86	0xbe000c83	-0.12504773
87	0xbd920802	-0.071304336
88	0x3c70f183	0.014706018
89	0xbc8e3a62	-0.017361823
90	0xbe31ca06	-0.17362222
91	0xbdbc4de7	-0.09194546
92	0x3d0a1800	0.033714294
93	0x3d25c6e9	0.0404729
94	0xbd21f88f	-0.039543685
95	0xbd6fe70a	-0.058569945
96	0xbc758d1f	-0.014987259
97	0xbc173b3d	-0.009230432
98	0xbcfa6ed6	-0.030570429
99	0x3bde1690	0.006777592
100	0xbd6f857c	-0.05847691
101	0xbd648188	-0.055787593
102	0xbd16ed49	-0.036847387
103	0xbd6aa7a3	-0.057288777
104	0x3cd1629c	0.025559716
105	0x3a95d2e5	0.0011430649
106	0xbdbae7d2	-0.091262475
107	0xbd9321b3	-0.07184162
108	0xbdcdfa8c	-0.10057554
109	0xbdfaacbc	-0.12239978
110	0xbd7e9a28	-0.062158734
111	0x3bf49e2b	0.007465144
112	0xbcdb9a86	-0.026807081
113	0xbd1643fc	-0.03668593
114	0xbacee401	-0.0015784503
115	0xbd3f7aaa	-0.04674784
116	0xbc954e33	-0.018225765
117	0xbd250af9	-0.040293667
118	0x3c74ec0b	0.014948855
119	0xbc0322c1	-0.008003891
120	0xbaa92219	-0.0012903839
121	0x3d1272ae	0.0357539
122	0xbd185c72	-0.037197538
123	0xbd0c9dca	-0.034330167
124	0xbd2d864b	-0.0423644
125	0x3c38de7e	0.011283515
126	0xbc5e173e	-0.013555346
127	0xbcd0f6be	-0.02550828
128	0xbdb4cbe6	-0.08827953
129	0xbd7ca621	-0.06168187
130	0xbddcecc1	-0.10787345
131	0xbc03a2e2	-0.00803444
132	0xbd335463	-0.04378165
133	0xb97c84b0	-0.00024082023
134	0xbc9b4633	-0.018954372
135	0xbc8c7d82	-0.01714969
136	0xbdf99304	-0.12186244
137	0xbe05b74f	-0.13058208
138	0xbdeff31f	-0.117162935
139	0xbd60c16c	-0.05487196
140	0xbbecc676	-0.007225807
141	0xbd3319bb	-0.04372571
142	0xbe13e4c2	-0.14442733
143	0xbd837f7d	-0.06420801
144	0xbcef6031	-0.029220672
145	0xbde89c30	-0.113579154
146	0xbd7770fd	-0.06041049
147	0xbd814654	-0.06312242
148	0xbc011681	-0.0078789005
149	0xbcbac52a	-0.022799093
150	0xbdbf95d2	-0.09354748
151	0xbc5bd377	-0.013417116
152	0xbe0ee9c5	-0.13956363
153	0xbd0ff058	-0.03514132
154	0xbd8e3c68	-0.06945115
155	0x3cd06dc5	0.025442967
156	0xbc89b889	-0.016811626
157	0xbdd5f2b3	-0.10446682
158	0xbc93831b	-0.018006852
159	0xbcfac607	-0.030612005
160	0xbe5d67cd	-0.21621628
161	0xbd4c537d	-0.049884308
162	0xbda7c87a	-0.08192535
163	0xbd33ffad	-0.043945003
164	0xbcc09642	-0.023509149
165	0xbd7ae5c2	-0.06125427
166	0xbd8fcf19	-0.070219226
167	0x3cef74b8	0.02923046
168	0xbe433b9a	-0.19065705
169	0xbd412836	-0.04715749
170	0xbd8c8ae9	-0.068624325
171	0x3c4454bc	0.011983093
172	0xbd53051b	-0.05151854
173	0xbd548260	-0.051882148
174	0xbde9760c	-0.11399469
175	0xbda2aff7	-0.07943719
176	0x3cbb2d46	0.022848736
177	0xbdb71d3e	-0.089411244
178	0xbb16580b	-0.0022940661
179	0xbd74159a	-0.059590913
180	0xbd7914dd	-0.060810912
181	0xbbe7c006	-0.0070724515
182	0x3be32e45	0.006933006
183	0x3bebd657	0.007197182
184	0xbd45ad65	-0.048261065
185	0xbc8092a9	-0.015694933
186	0xbc88e56d	-0.016710961
187	0xbd51da85	-0.051233787
188	0x3a756fb4	0.00093626534
189	0xbd234f06	-0.039870284
190	0xbd33e7d1	-0.04392225
191	0x3d180f49	0.037123952
192	0xbd78fe45	-0.060789365
193	0xbc826af6	-0.015920144
194	0x3d363b4c	0.044490144
195	0x3d14ba13	0.036310267
196	0xbd5ea00d	-0.054351855
197	0xbda2c6ad	-0.07948051
198	0x3d1bfb2b	0.03808133
199	0xbde5b92b	-0.112169586
200	0xbc22c996	-0.009935757
201	0xbc77ee6a	-0.015132526
202	0xbd846653	-0.06464829
203	0xbda2835e	-0.079352126
204	0x3b12bb8b	0.0022389616
205	0xbd78d297	-0.06074771
206	0xbd4ced73	-0.050031137
207	0xbc5eca10	-0.01359798
208	0xbd20318c	-0.03910975
209	0xbddc52d6	-0.10757987
210	0x3c96af93	0.018394267
211	0xbdd9c3b3	-0.1063303
212	0xbc9c6e47	-0.019095553
213	0xbc4041e7	-0.011734462
214	0xbe053eb7	-0.13012205
215	0xbe16c647	-0.14724074
216	0xbdafefa7	-0.08590632
217	0xbdd122ef	-0.10211741
218	0x3a0c2f13	0.0005347591
219	0xbd6f2ba5	-0.058391232
220	0xbd857b48	-0.06517655
221	0x3b5028a2	0.00317625
222	0xbd1f61e5	-0.03891172
223	0x3c9b87c0	0.01898563
224	0x3d6b3b98	0.05742988
225	0xbd309dd0	-0.04311925
226	0xbdecdac1	-0.115651615
227	0x3c9233a2	0.017846886
228	0x3cd9297d	0.026509041
229	0xbcc959ca	-0.024578948
230	0xbce97ec2	-0.028502826
231	0xbd953812	-0.07286085
232	0xbe26aca5	-0.16276796
233	0xbd4ed7cf	-0.05049878
234	0xbda006ac	-0.078137726
235	0xbdbf87e1	-0.09352089
236	0xbdbd5f04	-0.092466384
237	0x3d4772a3	0.04869331
238	0xbd2f8d82	-0.04285956
239	0xbc5d8e9e	-0.013522772
240	0xbd61eb18	-0.055155843
241	0xbe2244d6	-0.15846571
242	0xbc94e86e	-0.018177237
243	0x3c2c107d	0.010501978
244	0xbba3cb73	-0.0049986183
245	0xbc8c0e60	-0.017096698
246	0x3d817ada	0.0632226
247	0x393e6c22	0.00018160095
248	0xbda4943b	-0.08036085
249	0xbc9369a0	-0.017994702
250	0xbcc8be06	-0.024504673
251	0xbd9fb730	-0.07798612
252	0xbd01cc1e	-0.031688802
253	0xbcf3a9aa	-0.029743988
254	0xbcacd641	-0.021098258
255	0xbd200423	-0.039066445

weight f4 [128, 256]
0	0x3d97210e	0.073793516
1	0xbd3e1abc	-0.046412215
2	0x3d1a0869	0.037605677
3	0xbc810f5d	-0.015754396
4	0x3d365abc	0.044520125
5	0x3c944372	0.018098567
6	0x3db1ca74	0.08681193
7	0xbd6a79c7	-0.057245042
8	0x3ca4a520	0.020098269
9	0xbd0b1693	-0.033957075
10	0x3d17cc6f	0.037060197
11	0x3d50c150	0.050965607
12	0xbba6768c	-0.00508005
13	0x3d41e76a	0.047339834
14	0xbbe6687b	-0.007031498
15	0x3d56c39a	0.052432634
16	0xbc0a895b	-0.0084556
17	0x3c8ed2b5	0.017434457
18	0xbd8291fc	-0.063755006
19	0xbca7be78	-0.020476565
20	0x3ca6e135	0.020371059
21	0x3bb51543	0.0055262162
22	0xbd79c08a	-0.060974635
23	0xbd5942b3	-0.053042125
24	0x3d51777d	0.051139344
25	0xbd2a223c	-0.041536555
26	0xbc3bfdf7	-0.011474124
27	0xbda08b93	-0.07839122
28	0xbcef80a0	-0.029236138
29	0xbd0ec7fa	-0.03485868
30	0xbcafd5a2	-0.021464173
31	0xbce8b3b1	-0.028405996
32	0x3cf62fb5	0.030052045
33	0xbe5a716c	-0.2133233
34	0x3a96bdae	0.0011500621
35	0x3c651c8e	0.013983859
36	0x3d00bd6a	0.03143064
37	0xbcc21d4b	-0.023695609
38	0xbd41bbea	-0.04729835
39	0x3db95d7a	0.09051032
40	0xbbba3e9c	-0.005683733
41	0x3c5d29de	0.013498751
42	0x3c1c967d	0.009557364
43	0x3c21421c	0.009842422
44	0xbcd0dcac	-0.02549585
45	0xbd4f9f88	-0.05068925
46	0xbc5b239d	-0.01337519
47	0x3d168b14	0.03675373
48	0xbc94a7b9	-0.018146383
49	0x3d9bfa5f	0.07616114
50	0x3d44aa0a	0.048013724
51	0xbd8fbb55	-0.070181526
52	0xbab05e88	-0.0013455907
53	0x3d618738	0.055060595
54	0x3d9239c5	0.07139925
55	0x3cabc319	0.020967053
56	0xbbbdc002	-0.0057907114
57	0xbe2ae055	-0.16687138
58	0x3d1da4d8	0.038487285
59	0xbc729158	-0.01480516
60	0xbd20d63b	-0.039266806
61	0xbd401e0a	-0.046903647
62	0xbd5ea865	-0.054359812
63	0xbca65507	-0.020304216
64	0x3a21c2ac	0.0006170671
65	0x3d67c987	0.056588676
66	0xbd81dc0c	-0.06340799
67	0x3c8f3e6e	0.017485823
68	0xbd5d328b	-0.05400328
69	0x3dcb0c74	0.099144846
70	0xbda240ef	-0.07922541
71	0x3b2aa55b	0.00260385
72	0x3c8b49f3	0.017003035
73	0xbd8cd600	-0.06876755
74	0xbd28e3fd	-0.04123305
75	0xbd016bd6	-0.03159698
76	0x3d2d83bc	0.04236196
77	0x3d369e8e	0.044584803
78	0xbd99248c	-0.07477674
79	0x3b1f3707	0.0024294273
80	0xbcc05592	-0.023478303
81	0xbdb69356	-0.08914821
82	0x3da2ca70	0.07948768
83	0xbd2e19c8	-0.042505056
84	0x3d293e99	0.041319463
85	0xbddba6fd	-0.1072521
86	0x3cff3876	0.031154852
87	0xbd2dbf71	-0.0424189
88	0x3cb2dc73	0.021833634
89	0x3ca2b517	0.019861741
90	0x3cf6462f	0.030062763
91	0xbd1e9e39	-0.03872511
92	0xbda34be8	-0.07973462
93	0xbda228e1	-0.07917953
94	0xbd029666	-0.031881712
95	0xba6a2a04	-0.00089326524
96	0xbd5c8786	-0.053840183
97	0xbdda7aeb	-0.10667976
98	0x3d6ea4de	0.0582627
99	0x3ceb6237	0.028733356
100	0x3d754df0	0.05988878
101	0xbda0590d	-0.07829485
102	0xbbc8da30	-0.0061295256
103	0x3c017a0b	0.0079026325
104	0xbda7c313	-0.08191504
105	0x3ca5cd3d	0.020239467
106	0x3c648df9	0.013949865
107	0xbe553bd4	-0.20823604
108	0xbc5e02e3	-0.013550493
109	0x3d15e20f	0.03659254
110	0x3d8f2f66	0.069914624
111	0x3d24c15d	0.040223468
112	0x3d802022	0.06256129
113	0xbd33d182	-0.043900974
114	0xbdbbaa03	-0.091632865
115	0x3d8cfcd4	0.06884161
116	0x3dc4f421	0.096168764
117	0xbd69ccb9	-0.057080004
118	0xbd856a74	-0.06514445
119	0x3cc25f98	0.023727223
120	0xbd769e4c	-0.060209557
121	0x3d61b81f	0.055107232
122	0xbde3ac5f	-0.111168616
123	0x3c854361	0.01626748
124	0x3c83addd	0.016074115
125	0xbbeff447	-0.0073228213
126	0x3e1d936c	0.15388268
127	0xbd66b19d	-0.05632173
128	0xbc27c36b	-0.010239462
129	0x3c4bb642	0.01243359
130	0x3d510f19	0.05103979
131	0xbd4b5c74	-0.049648717
132	0x3daa32e3	0.08310487
133	0x3c42f7d7	0.01189991
134	0x3d2c889a	0.04212246
135	0x3d63276c	0.055457518
136	0x3d6286af	0.055304226
137	0xbc22b237	-0.009930185
138	0xbdb01900	-0.08598518
139	0x3c06b59e	0.008222012
140	0x3b1188b9	0.0022206737
141	0x3d755fc5	0.059905786
142	0x3d597d2e	0.053097896
143	0x392a6be1	0.00016252651
144	0x3d641af5	0.05568977
145	0x3ca12cda	0.019674707
146	0x3d97fb82	0.07421018
147	0xbd9a0fd0	-0.07522547
148	0xbcff60e1	-0.031174125
149	0xbd88f201	-0.066867836
150	0xbd13400c	-0.03594975
151	0xbcbc2bc6	-0.022970092
152	0x3cd9b8fe	0.026577469
153	0xbe17257f	-0.14760397
154	0xbbb2ca54	-0.0054562483
155	0x3d688819	0.056770418
156	0xbd47d339	-0.048785422
157	0xbcc8e5fe	-0.024523731
158	0xbcb9b699	-0.022670077
159	0xbcada08f	-0.021194724
160	0xbcdab2c7	-0.026696576
161	0x3d318dff	0.04334831
162	0xbb94fe83	-0.0045469417
163	0x3cdc84f6	0.02691887
164	0x3d9746a6	0.07386522
165	0xbd2aeacc	-0.041727826
166	0x3b56f9ed	0.0032802776
167	0xbb6e6e0d	-0.0036381513
168	0xbe01d40a	-0.12678543
169	0x3d9a805f	0.07544016
170	0xbb1afcde	-0.0023649256
171	0xbe0a8d54	-0.13530475
172	0xbd722e52	-0.059126206
173	0x3d49cdc4	0.0492685
174	0xbd903421	-0.07041193
175	0x3cc9a8ac	0.024616562
176	0xbc9d37ab	-0.019191584
177	0x3b8495d2	0.0040461803
178	0xbd1d7920	-0.038445592
179	0xbcac51bd	-0.02103507
180	0xbcbd3e61	-0.023101034
181	0x3d18fb7f	0.03734922
182	0x3d1a496b	0.037667673
183	0xbc6eb36a	-0.014569143
184	0x3d5f4ad2	0.054514714
185	0xbd815dda	-0.06316729
186	0xbe1d5e2f	-0.1536796
187	0x3d313688	0.043264896
188	0xbd9ec263	-0.0775192
189	0xbdb0a512	-0.08625235
190	0x3db481b0	0.088137984
191	0x3cc92ddf	0.024558006
192	0x3d775fb9	0.060394023
193	0xbe29c314	-0.16578323
194	0x3c9bd823	0.01902396
195	0xbd8870f7	-0.06662171
196	0x3cc40d0f	0.023932008
197	0xbd10192b	-0.035180252
198	0xbd8df963	-0.06932332
199	0xbca3aaf9	-0.019978987
200	0x3d4f90fc	0.050675377
201	0xbc31e2fc	-0.01085734
202	0x3c800ba7	0.015630556
203	0xbd565cab	-0.05233447
204	0x3d1603cf	0.036624726
205	0x3d49e6a6	0.04929223
206	0x3d5e6d9e	0.054303758
207	0x3d9e333e	0.077246174
208	0x3d21e146	0.039521478
209	0x3e0a4979	0.1350459
210	0xbd1ee372	-0.038791128
211	0x3da236fe	0.07920645
212	0xbd238e1b	-0.039930444
213	0xbe01b755	-0.12667592
214	0x3c988e67	0.01862259
215	0x3d7f25d7	0.062291946
216	0x3d9d35ff	0.076763146
217	0x3d127c54	0.0357631
218	0xbc6ca1e9	-0.014442899
219	0x3d48ed24	0.04905428
220	0x3c147cd7	0.009062967
221	0x3c555a4a	0.013022015
222	0x3d8959e1	0.06706596
223	0xbc0be667	-0.008538819
224	0xbc99f935	-0.018795589
225	0x3d84e3a1	0.06488729
226	0xbd88fc13	-0.06688704
227	0xbc808db1	-0.015692564
228	0xbcebea08	-0.028798118
229	0xbd912a10	-0.07088101
230	0xbd6917b7	-0.05690738
231	0x3c9d2f03	0.019187456
232	0x3df593fb	0.11991116
233	0x3c593438	0.013257079
234	0x3cb9a6d7	0.022662563
235	0xbc01dde2	-0.007926436
236	0x3dc3369b	0.095318995
237	0xbdb26804	-0.08711246
238	0x3d6319d4	0.055444553
239	0x3dacb3df	0.08432745
240	0x3d97bba0	0.074088335
241	0x39d1bada	0.00040002802
242	0x3c4fef22	0.012691291
243	0xbcc6fbdd	-0.02429002
244	0x3cf6b20b	0.030114194
245	0xbd3003a1	-0.04297221
246	0xbdb18230	-0.086674094
247	0x3c3e0aea	0.011599282
248	0xbd415e47	-0.04720905
249	0xbcc672c8	-0.024224654
250	0xbdae9352	-0.08524193
251	0x3da2a334	0.07941285
252	0x3d171cd8	0.036892742
253	0xbcea585b	-0.028606584
254	0xbc5b1e8c	-0.013373982
255	0xbd8eaaca	-0.06966169

bias f4 [128]
0	0xbd6a1460	-0.057148337
1	0xbc76afe2	-0.015056582
2	0x3c3dcdc8	0.011584707
3	0xbcdd5e08	-0.027022377
4	0xbb98e6dc	-0.0046661925
5	0xbd270750	-0.040778458
6	0xbd95d32c	-0.073156685
7	0xbd168fe3	-0.036758315
8	0xbbfb86d2	-0.007675984
9	0xbd1ebcad	-0.038754154
10	0xbaef79ec	-0.0018270588
11	0xbc88f354	-0.01671759
12	0xbd1b2bdf	-0.037883636
13	0xbd1129fc	-0.03544043
14	0xbd2b0017	-0.041748133
15	0xbd24a8e4	-0.04020013
16	0xbc3ea7e2	-0.011636706
17	0x3b64cada	0.0034910948
18	0xbd819ab4	-0.063283354
19	0xbd11abb9	-0.035564158
20	0xbe1b5dd3	-0.1517251
21	0xbd61acd2	-0.055096455
22	0xbd09a1aa	-0.03360144
23	0x3c5851ea	0.013203124
24	0xbbb9f9be	-0.0056755235
25	0xbd7af334	-0.061267093
26	0xbd67b219	-0.05656633
27	0xbd98a22c	-0.07452807
28	0xbdb6159f	-0.08890843
29	0xbdab221f	-0.083561175
30	0xbd63c6d8	-0.055609554
31	0xbd4507f0	-0.048103273
32	0x3d8530a8	0.06503421
33	0xbc496dd8	-0.012294255
34	0x3d094813	0.033516
35	0xbd99b9bb	-0.075061284
36	0xbbedc539	-0.007256177
37	0xbc65b4b7	-0.014020137
38	0xbbda3965	-0.006659674
39	0xbd294b41	-0.041331533
40	0xbd2355e9	-0.039876852
41	0xbd983d3b	-0.07433554
42	0xbcbdf3b1	-0.02318749
43	0xbb380e5b	-0.0028084728
44	0xbd9aa72d	-0.075514175
45	0xbcfe9395	-0.031076232
46	0xbc857083	-0.016289001
47	0xbdd9facb	-0.10643538
48	0xbd74038e	-0.059573703
49	0x3c6ac25e	0.014328567
50	0xbc12d0bb	-0.008960898
51	0xbcb2c77e	-0.02182364
52	0xbe09f0f6	-0.13470826
53	0xbd478ba5	-0.04871716
54	0xbda150e3	-0.07876756
55	0xbd2f6da5	-0.042829175
56	0xbc597abe	-0.013273893
57	0xbd32422e	-0.043520145
58	0xbd6fd631	-0.05855388
59	0x3d202b32	0.039103694
60	0xbd0f09e4	-0.03492154
61	0xbcb1ed14	-0.021719493
62	0xbdb9ffce	-0.09081994
63	0xbd26f6e5	-0.0407628
64	0xbbfbdaed	-0.00768601
65	0xbd865e38	-0.065609396
66	0x3cc4a62a	0.024005014
67	0xbe288571	-0.16457154
68	0xbc946d94	-0.018118657
69	0x3c8a63bb	0.016893258
70	0x3dc1c2fb	0.09461018
71	0xbd821687	-0.06351953
72	0xbd7b2af3	-0.061320256
73	0xbc716a40	-0.014734805
74	0xbd4423fd	-0.047885884
75	0xbd221ffb	-0.03958128
76	0xbd3388c4	-0.0438316
77	0xbd976550	-0.07392371
78	0xbda556b3	-0.08073177
79	0xbc5227e2	-0.012826892
80	0x3ca4ca46	0.020115983
81	0x3cd967a1	0.026538672
82	0xbdadd3cd	-0.084876634
83	0x3dcb1d57	0.099177055
84	0xbdc8cefe	-0.098051056
85	0xbddf5738	-0.109053075
86	0xbd6b75ec	-0.057485506
87	0xbe26900c	-0.16265887
88	0xbd87cd43	-0.066309474
89	0x3d3713c4	0.044696584
90	0xbd7379ec	-0.059442446
91	0xbc23d2d1	-0.009998993
92	0xbb803c82	-0.003913463
93	0xbd1582d4	-0.03650172
94	0xbd2a5788	-0.041587383
95	0xbc2d27e6	-0.010568595
96	0xbd767a39	-0.060175154
97	0xbd8780ef	-0.06616389
98	0xbd40a0cc	-0.047028348
99	0xbe1a822c	-0.15088719
100	0xbd03a3aa	-0.032138504
101	0xbb2117ff	-0.0024580953
102	0xbb1deebd	-0.0024098598
103	0x3d83b8d3	0.06431737
104	0x3da8b0f9	0.0823688
105	0xbd3cb963	-0.046075236
106	0xbbb9a574	-0.0056654755
107	0xbc1d43ec	-0.009598713
108	0xbc567480	-0.013089299
109	0xbca2e176	-0.019882899
110	0xbc1f3588	-0.009717353
111	0xbbbc8179	-0.005752739
112	0xbda70549	-0.08155305
113	0xbd9d1177	-0.07669347
114	0xbdc0e78e	-0.094191656
115	0xbd3db93e	-0.04631924
116	0xbd578c63	-0.052624118
117	0xbd996952	-0.074907914
118	0x3c4ced70	0.012507781
119	0x3cb08ca7	0.021551443
120	0xbcf0e976	-0.029408198
121	0xbd627f52	-0.055297203
122	0xbced4e7a	-0.028968085
123	0xbc26096d	-0.010134083
124	0x3c0a47a4	0.008439932
125	0xbdb8aa05	-0.09016804
126	0x396d10ab	0.0002260829
127	0x3c3106c3	0.010804835

weight f4 [18, 128]
0	0x3d2885fe	0.04114341
1	0xbb9f4325	-0.004860299
2	0x3c32966e	0.010900123
3	0x3d407de8	0.046995074
4	0x3cbbea36	0.022938829
5	0xbd50d82a	-0.0509874
6	0x3d15c797	0.036567297
7	0x3ca2661b	0.019824078
8	0x3da354cc	0.07975158
9	0x3c13dfbd	0.009025511
10	0xbc641144	-0.013920132
11	0xbbbf5ea1	-0.005840138
12	0xb98b5f9a	-0.00026583375
13	0x3d546243	0.051851522
14	0xbc96d4cc	-0.018412016
15	0xbd87fe0f	-0.06640255
16	0xbd386917	-0.045022096
17	0x3d3474b9	0.044056628
18	0x3c277e5a	0.010222996
19	0xbd3a59f4	-0.045495942
20	0x3c094930	0.008379266
21	0x3c3fb402	0.011700632
22	0x3c58453e	0.013200102
23	0x3c358ab9	0.011080437
24	0x3cb52284	0.022111185
25	0x3d9262a3	0.0714772
26	0xbca591e8	-0.020211175
27	0x3c974942	0.01846755
28	0xbb55724f	-0.0032569354
29	0x3d4019ba	0.046899535
30	0xbc762600	-0.015023708
31	0xbbc3f3d2	-0.0059799934
32	0x3b994cf3	0.0046783625
33	0x3aa43eba	0.0012530901
34	0x3d5ff6c1	0.054678682
35	0xbd4848e2	-0.04889763
36	0xbd00a099	-0.031403158
37	0xbcc94542	-0.024569158
38	0xbd2a4da5	-0.041577954
39	0x3daed904	0.08537486
40	0x3ccae5cd	0.02476778
41	0xbc54fb69	-0.012999394
42	0x3ddff9b1	0.10936297
43	0xbd7b7160	-0.06138742
44	0x3cc76f44	0.024345048
45	0x3d86856c	0.06568417
46	0xbd0a573a	-0.033774592
47	0x3da9774a	0.08274706
48	0x3ce7ca58	0.028294727
49	0xbd8c1c43	-0.06841328
50	0xbc4f2808	-0.012643822
51	0x3d28d70c	0.04122071
52	0xbc13a675	-0.009011854
53	0x3d10b7c9	0.03533152
54	0x3d57fd6b	0.052731913
55	0x3ca8c6c9	0.0206026
56	0xbb7875c5	-0.0037911993
57	0x3bef42f2	0.0073016817
58	0xbc8d0f47	-0.017219199
59	0xbd6aa7b9	-0.05728886
60	0x3c89ac1c	0.016805701
61	0xbc1760af	-0.00923936
62	0xbd833ec8	-0.06408459
63	0xbde9ce67	-0.11416321
64	0x3cb86104	0.022507198
65	0x3c186f67	0.009303904
66	0xbc94f7a6	-0.018184494
67	0xbd75e507	-0.06003287
68	0x3b9d52d8	0.0048011355
69	0x3cfa13eb	0.030527076
70	0x3db8b691	0.09019197
71	0x3d38d504	0.045125023
72	0x3d59e86f	0.05320018
73	0xbd039d85	-0.032132644
74	0xbdda63af	-0.106635444
75	0x3b3c11ce	0.0028697136
76	0xbc814f62	-0.015784923
77	0x3d863f6c	0.065550655
78	0xbd8dc0ef	-0.06921565
79	0x3ce703a7	0.028199984
80	0xbd15abe7	-0.036540892
81	0xbdcc30b9	-0.099702306
82	0xbccf6b6f	-0.025319783
83	0xbb44e8f7	-0.0030046084
84	0xbd47fc0a	-0.048824348
85	0xbcfbb170	-0.030724257
86	0x3d2b0d13	0.041760515
87	0x3d72a0e7	0.05923548
88	0xbb64472f	-0.0034832468
89	0x3d54281c	0.051796064
90	0x3d13e088	0.0361028
91	0x3d4566b3	0.048193645
92	0x3c9ff2af	0.0195249
93	0x3c9fd141	0.01950896
94	0xbb9d8077	-0.004806574
95	0xbce6c34e	-0.0281693
96	0xbd5b58a8	-0.053551346
97	0x3d0bedbc	0.034162268
98	0x3d3d4303	0.046206485
99	0x3c5e892e	0.013582511
100	0xbcba206e	-0.022720542
101	0x3c5c3838	0.013441138
102	0xbc8da189	-0.01728894
103	0x3be5c2d1	0.0070117493
104	0xbc3786e2	-0.011201592
105	0x3c8fb02b	0.017540058
106	0xbd310966	-0.043221854
107	0x3daf456d	0.08558164
108	0xbe2c0354	-0.16798145
109	0x3bb8ad2c	0.005635878
110	0x3c51f07e	0.012813685
111	0x3cf7d252	0.030251656
112	0x3dded93e	0.108812794
113	0xbdb0c48c	-0.08631238
114	0x3d3bafe1	0.045822028
115	0xbc8bfbd1	-0.017087849
116	0x3d025c2d	0.031826187
117	0xbdf21202	-0.11819841
118	0xbd17ff08	-0.03710845
119	0x3dc35aa2	0.09538771
120	0x3c117ca3	0.008879813
121	0xbd47b821	-0.048759583
122	0x3c89a7fe	0.016803738
123	0x3d787a54	0.060663536
124	0x3b2effc4	0.002670274
125	0x3d7f314c	0.062302873
126	0xbcade443	-0.021227008
127	0xba0d7da3	-0.00053974445
128	0x3d7acf84	0.06123306
129	0xbd315824	-0.043296948
130	0xbb2359eb	-0.0024925421
131	0x3d519b3a	0.051173426
132	0x3dad63d0	0.08466303
133	0x3cb98cea	0.0226502
134	0xbdb82482	-0.08991338
135	0xbc5e695d	-0.013574925
136	0xbd03d576	-0.032185994
137	0x3d5cb444	0.053882852
138	0x3d5464ef	0.05185407
139	0xbc5da622	-0.013528379
140	0xbb06ebfb	-0.0020587433
141	0x3cd6f5a6	0.026240181
142	0x3d20b215	0.039232332
143	0x3cb8bed2	0.022551928
144	0xbcee328a	-0.029076833
145	0x3c1b2d9f	0.009471326
146	0xbbde123e	-0.006777077
147	0xbd24e644	-0.04025866
148	0x3cca448c	0.024690889
149	0x3dc6f907	0.09715467
150	0xbcb02caf	-0.021505682
151	0x3d0042a5	0.031313557
152	0x3d337fe7	0.04382315
153	0x3cf13755	0.02944533
154	0x3d8cf716	0.068830654
155	0x3b66d8ec	0.003522451
156	0xbd08ce18	-0.03339967
157	0xbbcca70f	-0.006245501
158	0x3c8bc0b0	0.017059654
159	0x3cc40219	0.023926781
160	0xbd058d1c	-0.032605276
161	0xbd9a2d7a	-0.07528205
162	0xbd2be939	-0.041970465
163	0x3dbf9c81	0.093560226
164	0x3d0f074b	0.034919064
165	0xbbf3eeb9	-0.0074442294
166	0xbdaa73c7	-0.08322864
167	0xbbfc8a3f	-0.00770691
168	0x3c046320	0.008080274
169	0x3c730301	0.014832259
170	0xbd344f82	-0.044021137
171	0xbba8bed2	-0.0051497007
172	0xbbf22d8e	-0.0073906844
173	0x3b1cf38b	0.0023948874
174	0x3d13eb80	0.036113262
175	0x3d422ac6	0.047404073
176	0x3d92965a	0.071575835
177	0xbbe54a8f	-0.0069974135
178	0x3ca3317a	0.019921053
179	0xbd197ee5	-0.03747453
180	0xbd28dde4	-0.041227236
181	0xbc91e174	-0.0178077
182	0xbce55435	-0.027994255
183	0xbd9f713d	-0.0778527
184	0x3c9c5dde	0.019087728
185	0x3ce62be0	0.028097093
186	0x3b8165db	0.0039489097
187	0xbc2a82fb	-0.010407205
188	0xbccff0df	-0.025383411
189	0x3d49b37d	0.04924344
190	0x3ca4e6a4	0.02012951
191	0x3d00e3db	0.0314673
192	0xbd82be0c	-0.06383905
193	0x3b82b8c2	0.00398931
194	0xbde2dda0	-0.11077428
195	0x3e148e2e	0.14507362
196	0xba9f3f55	-0.0012149612
197	0xbbe376e9	-0.0069416654
198	0x3c28372e	0.010267062
199	0x3d091924	0.03347124
200	0xbd0e32b9	-0.03471634
201	0xbcb96bed	-0.02263447
202	0xbca7a8ea	-0.020466287
203	0xbcf286ac	-0.029605232
204	0xbd5f9569	-0.054585848
205	0x3d261d36	0.0405552
206	0x3d1ad9fb	0.03780554
207	0x3d0dbb74	0.034602597
208	0x3b9bec6e	0.004758409
209	0xbd865401	-0.06558991
210	0x3bd97eee	0.0066374457
211	0xbd3c8f02	-0.04603482
212	0x3c6e354f	0.014539077
213	0xbcf72a2d	-0.030171478
214	0xbc92c686	-0.017916929
215	0xbcc4c377	-0.024018986
216	0x3cf2723b	0.029595485
217	0x3d5de201	0.054170612
218	0x3d45cdd0	0.04829198
219	0x3ceb10b3	0.028694486
220	0x3cb3f1bd	0.021965856
221	0x3d7df9e5	0.062005896
222	0xbd69f851	-0.05712158
223	0xbd393552	-0.045216866
224	0xbc6befc8	-0.01440043
225	0x3d0e6171	0.034760896
226	0xbd4026d3	-0.046912026
227	0x3cce5656	0.025187653
228	0xbcf78664	-0.03021545
229	0xbca00d93	-0.019537723
230	0xbd35662b	-0.044286888
231	0xbcb5cc2f	-0.022192089
232	0xbcd4dde4	-0.025984712
233	0x3bd1a1ce	0.0063974624
234	0xbcee4819	-0.029087113
235	0x3b744c38	0.0037276875
236	0x3d000d76	0.031262837
237	0xbd21faaf	-0.03954571
238	0xbd022775	-0.03177591
239	0x3d0beed7	0.034163322
240	0x3c7f1e7d	0.015571234
241	0xbd0856af	-0.033285793
242	0xbb36cf77	-0.0027894655
243	0xbca97277	-0.020684464
244	0xbd444d54	-0.04792531
245	0xbd391576	-0.045186482
246	0x3bca10b6	0.006166543
247	0xbd7b4a25	-0.061350007
248	0x3d5016f2	0.050803132
249	0x3c2d6d39	0.010585123
250	0x3d092416	0.03348168
251	0x3d6048ba	0.054756857
252	0xbc038aaf	-0.00802867
253	0xbd1fbcec	-0.03899853
254	0xbd22d558	-0.03975424
255	0xbd5b849a	-0.053593256

bias f4 [18]
0	0xbdc93ce0	-0.09826064
1	0x3bb31cfe	0.0054661026
2	0xbdccf38d	-0.10007391
3	0x3d90119f	0.07034611
4	0xbd2c88a6	-0.042122506
5	0xbd8f7fa5	-0.07006768
6	0x3e022730	0.12710261
7	0x3ddb8832	0.107193366
8	0xbe5d380c	-0.21603411
9	0x3d0a425d	0.033754695
10	0xbc976ffb	-0.018486014
11	0xbe03a9c8	-0.12857735
12	0xbd86dd5a	-0.06585188
13	0x3dc98fd7	0.098418884
14	0xbe40232a	-0.18763414
15	0x3db55ff6	0.08856194
16	0xbe049174	-0.12946111
17	0xbe6f31fe	-0.23358914
