logs/el_mini_test/exported/policies/policy_1.pt (torch, 817736 bytes, 8 tensors)

weight f4 [512, 66]
000000 9d 2a 74 3e 8f 36 63 be 67 cc 09 be 6a 13 d5 bc
       0.2384438 -0.22188781 -0.1345688 -0.026010234
000010 2f 0c 05 bd 8b 8c 8e bd f3 61 7a bd d2 c1 24 be
       -0.032482322 -0.069604 -0.061128568 -0.16089562
000020 8d 9c d2 3d db bf bc bd 25 b8 a5 bd a7 5a 4d 3e
       0.10283766 -0.09216281 -0.080917634 0.20054112
000030 e2 6a cb bc c3 b2 a0 3d b9 68 cd 3c 6b f4 c9 3d
       -0.02483124 0.07846596 0.02507435 0.09861072
000040 32 e9 2d bc 0d ac 2a 3e e8 f9 85 bc 07 1a 6e 3d
       -0.01061468 0.16667195 -0.016354516 0.05813029
000050 cf 24 3e be 02 7b 29 bd df 39 98 bd 93 8b cd 3d
       -0.18568729 -0.041377075 -0.07432913 0.10036387
000060 ef 53 6e 3d a4 ba c2 3d f2 30 27 3d 34 76 95 3d
       0.058185514 0.09508255 0.040818162 0.07297936
000070 64 2d bd bd 0f 0e ce 3d 62 dc de 3b f3 85 02 3d
       -0.09237173 0.10061275 0.006801174 0.031866025
000080 b2 4b fe 3d 8a 06 3c be ba 4d 35 bd 04 e9 53 3e
       0.124167815 -0.1836187 -0.04426358 0.20694357
000090 b9 3b 4a bd d2 b7 8c 3d cd 51 bd bd 5d ee 52 be
       -0.049373362 0.068709984 -0.09244118 -0.20598741
0000a0 72 88 6e bd a7 e7 9a bd 48 ef be 3d f7 1c 28 bc
       -0.058235593 -0.075637154 0.09322983 -0.010260812
0000b0 fe d4 e9 3d 36 67 b4 3d 8a f4 c6 3d 37 fe 22 3d
       0.11417578 0.088087484 0.09714611 0.03979322
0000c0 b7 e0 ae 3d ea 86 9a 3d e1 24 f7 bd b9 a4 48 3c
       0.08538955 0.07545264 -0.12067581 0.012246304
0000d0 f7 a2 4a bd 27 6b c0 3d df e0 14 be 16 f5 63 ba
       -0.04947182 0.09395438 -0.14538907 -0.00086958834
0000e0 d8 fd ec 3c 50 ec 33 bd 79 19 19 bd 6d c5 5e 3a
       0.028929636 -0.043926537 -0.03737781 0.00084980467
0000f0 bd c3 97 3d de b9 82 bd a2 0a fe bb 8b f1 0e 3d
       0.07410381 -0.063831076 -0.0077527324 0.034898322
000100 af aa 5a bc 62 2d 5f 3d 37 68 78 3d 02 91 fb 3b
       -0.013346358 0.05448664 0.060646262 0.0076771984
000110 7d 3b 45 bd b3 6c 04 bd 1f 0f f9 bc 1c 99 92 3d
       -0.048152436 -0.032330226 -0.030402718 0.071581095
000120 9e 1f 42 3d 68 c3 9a be fc 6d be bd ff 79 e4 bd
       0.047393434 -0.30227208 -0.092983216 -0.111560814
000130 4b 72 02 be d3 cc 98 3d f1 5b ce 3d 5d d9 02 3c
       -0.12738912 0.07460942 0.1007613 0.007986394
000140 58 02 9f 3d 74 08 29 be f3 03 15 3c 14 aa b3 3c
       0.07764119 -0.16507131 0.00909518 0.021931686
000150 9a 43 a0 bb 40 e6 26 3d c3 a9 ba 3c f8 5e ee bd
       -0.0048908712 0.040746927 0.022786027 -0.116392076
000160 b0 b5 b1 bd 4a 63 95 bd 18 8a 3c bc 99 97 ae 3d
       -0.08677232 -0.072943285 -0.0115075335 0.08525009
000170 75 bc 39 3d 04 a8 97 3e 2c 38 5f 3d a9 b9 7e bd
       0.045345742 0.29620373 0.05449693 -0.062188778
000180 94 ac 9f be c0 63 6d 3e e1 5a 86 bc e0 9f 0e be
       -0.31186354 0.23182583 -0.016400756 -0.13928175
000190 4e 6a 1d be cb 97 87 bd d5 48 cf bc 7c fa 67 be
       -0.15372583 -0.06620749 -0.025303284 -0.22654146
0001a0 5b 19 1c 3e 2e 1e 2a be f0 a4 8d 3e 68 54 c6 bd
       0.15244047 -0.16613075 0.276649 -0.09684068
0001b0 9a ab ee bd fc 87 52 3e ec 97 0e 3c 8d 4b e6 3d
       -0.11653824 0.20559686 0.008703213 0.11244879
0001c0 3c 22 ef bd 4a 35 b4 bd 8e 8f d3 3c 51 28 15 3c
       -0.116764516 -0.087992266 0.025825288 0.00910385
0001d0 18 8a 89 3d 56 00 ee bd 26 97 15 bd 87 74 31 3d
       0.067157924 -0.11621158 -0.0365211 0.04332402
0001e0 b3 82 da bd 71 e6 dc bd 71 5c 10 bd e5 c1 1d 3e
       -0.1066946 -0.10786141 -0.03524441 0.15405996
0001f0 15 0b 80 3d a5 26 d7 3d ff 2b 46 3c fc 4a b8 bd
       0.06252114 0.10505418 0.01209545 -0.08998677
000200 2b 65 1b 3d cc e9 f0 3c 16 8f 08 be 08 a5 5b bd
       0.03793828 0.029408358 -0.13335833 -0.053624183
000210 e0 10 53 3c 87 04 e9 3d 99 2b e4 bd bd 46 7f be
       0.012882441 0.11377817 -0.11141128 -0.24929328
000220 03 b3 e2 3c 37 ae 28 3e dd 53 1b 3e 1f a5 e6 bd
       0.02767325 0.16472708 0.1516871 -0.11261963
000230 74 f6 03 bd 93 f9 c5 3c 61 39 ea bd 69 f6 86 3d
       -0.032217458 0.024166858 -0.114367254 0.06589968
000240 b3 c5 17 3e 1f f3 3c be cf 52 23 3d 40 36 d0 3d
       0.1482151 -0.18452118 0.039873894 0.10166597
000250 a1 ff d8 bd ac 34 1c bd c0 50 bb 3d 2f 55 77 3c
       -0.10595632 -0.03813617 0.09146261 0.015095993
000260 ad cb a8 3d 5a 7e d4 bd d8 47 c6 bb 4f ae d8 3b
       0.08241973 -0.10375662 -0.006051045 0.006612576
000270 d4 27 05 be 6a 30 e2 bc 95 c8 6e bd 9d f2 fe bd
       -0.13003474 -0.027610976 -0.05829676 -0.124486186
000280 0a 45 cd bd 32 54 c4 3c f1 e7 84 3e c3 6a c4 3d
       -0.10022934 0.023965929 0.25958207 0.09590676
000290 de 63 a3 3c 32 8b e0 bd c8 5c 6c be 6f e3 a1 3b
       0.019945081 -0.109640494 -0.23082268 0.0049404423
0002a0 41 5c 30 3d df 5d 6d 3d 3f 9b 34 3c 1c 93 7e be
       0.04305673 0.05795085 0.011023342 -0.24860805
0002b0 75 d3 87 3d 95 14 06 3e c8 29 9c 3c 46 fc a9 3d
       0.06632129 0.13093789 0.019062892 0.083000705
0002c0 51 d0 c0 bd 40 77 49 3d 93 66 b1 3d 78 ad e9 3d
       -0.09414733 0.04918599 0.086621426 0.1141004
0002d0 cd 1a 01 3e 6e 79 b6 3c 68 c4 2f bd 0d 5f 28 3d
       0.1260788 0.022274699 -0.042911917 0.041106272
0002e0 9b 20 af bc fe fe 31 bc 77 c4 ed 3c 2f e1 b6 bd
       -0.021377852 -0.0108640175 0.029024346 -0.08929669
0002f0 7b 25 88 3d 52 37 10 be aa 57 8f 3d e0 fb 3b bd
       0.06647774 -0.14083603 0.069991425 -0.045894504
000300 6d 84 05 bd a0 2f f3 3d bb 6d 23 bd 28 10 cf 3d
       -0.032596994 0.11874318 -0.03989957 0.101105034
000310 95 65 c7 3c 6d 34 3b b9 a6 08 a9 bd 19 03 03 bd
       0.02434043 -0.0001785324 -0.08253603 -0.031985376
000320 be a2 90 3d 03 55 88 be 84 33 73 3e 04 a2 09 3e
       0.070622906 -0.2662736 0.2375012 0.1344071
000330 a9 e6 ad 3e b0 a1 00 3f ea 94 77 bd 4b e2 bd bd
       0.33965042 0.50246716 -0.06044475 -0.092716776
000340 2c 04 21 be a0 5b d8 3d 45 96 22 3d 9d 6b e2 bd
       -0.15724248 0.10564351 0.03969409 -0.11055682
000350 7b 7e 62 be a5 bc 33 be 2c a9 9e bc 53 26 3a bd
       -0.22118561 -0.17552431 -0.019367777 -0.045446705
000360 1b f2 f6 bb 7a b2 a5 bc e0 1d ca bc d7 1c 46 3e
       -0.0075361854 -0.020226706 -0.024672449 0.19346939
000370 06 29 f9 bd 52 73 09 3d ff 53 59 be 4c 39 c6 3d
       -0.12166028 0.033557244 -0.21223448 0.09678897
000380 2b 09 85 bd f5 df 36 3d 98 df 84 3c 7d 9a 49 3d
       -0.06495889 0.044647176 0.016219899 0.049219597
000390 87 08 e1 3d ee 80 b7 bd 64 3b 72 3e 1c 37 af 3e
       0.109879546 -0.08960138 0.23655468 0.34221733
0003a0 a6 fe 14 be d8 00 e1 bd 96 ef 50 3e e3 a1 f9 3e
       -0.14550266 -0.10986489 0.20403895 0.48756322
0003b0 27 95 87 bc c7 56 ac 3e 23 fc 0d bd 9e ef 5f be
       -0.016550614 0.33659956 -0.034664284 -0.2186875
0003c0 bb 89 f6 bc 36 45 69 be f9 91 b7 bd 59 6a e2 3d
       -0.030094972 -0.22780308 -0.08963389 0.110554405
0003d0 1f bc 23 be aa 32 16 be 6e b5 d1 bc 43 52 46 bd
       -0.15989731 -0.14667764 -0.025599208 -0.048418295
0003e0 45 c9 80 3c 1d 7d 40 bc 54 4b 7a 3d f6 86 dd bd
       0.015720973 -0.011748579 0.061106995 -0.108167574
0003f0 21 36 68 bd ee 68 39 bd c7 a0 00 bd 45 f2 0c 3e
       -0.056692246 -0.045266084 -0.03140333 0.13764293

bias f4 [512]
000000 41 44 68 bc be 57 c3 3c 5f 15 ab 3c 83 99 0a 3d
       -0.014176429 0.02384555 0.020884214 0.033837806
000010 6c be 07 3d 7b c3 2c 3d 7f 7e a4 3b 09 7e 97 bc
       0.033140585 0.042178612 0.0050199623 -0.018492715
000020 e2 30 16 3d 75 df 88 3d fe f4 ad bc 10 c3 41 3d
       0.036667712 0.06683246 -0.021234985 0.047305167
000030 66 1c 16 bd 19 c1 2d bd 33 24 35 3d b6 69 6e ba
       -0.036648177 -0.04242048 0.044223975 -0.00090947316
000040 51 f7 7d 3c 7f 8c 66 3c 5c 3a ce 3c 3e 5e 69 bc
       0.015500859 0.014071583 0.025174312 -0.0142436605
000050 b0 d7 16 bd 03 14 97 3c c7 27 59 bd 2d 4b bb bc
       -0.03682679 0.01844216 -0.05301645 -0.022862995
000060 e8 97 ae 3c 14 6b 33 bd 3e da 09 3d 64 92 4e 3d
       0.021312669 -0.04380329 0.033655398 0.050432578
000070 15 9a a9 3c 04 7a 1a bd ef 77 37 3c e9 16 de bc
       0.020703355 -0.03771402 0.011198028 -0.027110534
000080 ab 83 7a bb bf 96 8a 3d a3 92 56 3d d9 e1 fe 3b
       -0.0038225453 0.06767034 0.052385937 0.007778388
000090 fc 68 23 bd e7 2b 79 bc 18 34 ef 3b 21 d9 44 3d
       -0.039895043 -0.015208221 0.007299911 0.048058633
0000a0 9c 17 3b bc b3 7d e2 3b 4c ab 3c 3d b9 f7 3f bd
       -0.011419203 0.006911957 0.0460618 -0.046867106
0000b0 5b ef 0d bd 51 b3 82 3d c9 f5 5c 3d 42 f2 2c 39
       -0.034652095 0.06381858 0.053945336 0.00016493446
0000c0 8f 8c c1 bc 31 51 1c bd ad 6e 50 bc 6f 9f 15 3c
       -0.023626594 -0.038163368 -0.0127217 0.00913225
0000d0 3d 79 f5 bc d4 a1 05 3c 1c 92 e3 bc ad 26 d5 bc
       -0.029965037 0.008156259 -0.027779631 -0.026019419
0000e0 11 f7 3e 3a 36 5a ff bc 3c d1 36 3d e9 ac f5 3c
       0.00072847406 -0.031170946 0.044633135 0.029989677
0000f0 f2 68 b3 3b f9 32 68 bc e0 98 66 bc 26 2e 79 bd
       0.005475157 -0.014172309 -0.014074534 -0.060835026
000100 00 34 8d 3b 44 20 0f 3d ed 1c 0a bd cd 72 9c bc
       0.0043091774 0.03494288 -0.033718992 -0.01909771
000110 16 d4 ae 3b 59 ed a6 bc a3 8f 48 bd 47 19 c5 3b
       0.005335341 -0.020376848 -0.048965108 0.006014976
000120 51 3d 3d 3d 0b e9 45 3c 72 09 62 3d 56 3f 57 3d
       0.046201054 0.012079488 0.05518479 0.052550636
000130 d4 02 91 3d dd a2 e3 3c 2d 3f 99 3b 51 fc f5 3c
       0.070806175 0.02778762 0.0046767206 0.03002754
000140 ab c9 34 3d 14 35 35 bd 4e 58 0b bd 82 d6 52 3c
       0.044137638 -0.044240072 -0.03401976 0.012868525
000150 a5 6d 10 bd 16 e0 65 3d ab b2 ab bb be f3 da 3b
       -0.035260815 0.056121908 -0.0052398047 0.0066818884
000160 50 5b 42 3d f0 b7 61 3c cb 07 b2 bc 85 7a fc bc
       0.047450364 0.013776764 -0.021732232 -0.03082014
000170 ed 3c 3c bc 33 48 f0 3b 10 44 55 bd 75 22 29 3d
       -0.011489135 0.0073328256 -0.052066863 0.041292626
000180 c8 9d 3e 3d 6c bf 85 3d c4 ef 70 3d 91 84 d1 3c
       0.04653719 0.065306515 0.05882241 0.025575908
000190 fe 94 c3 3b bf f8 50 bd d9 31 2f 3d 1b b8 8b bc
       0.005968689 -0.051018473 0.042772148 -0.017055562
0001a0 d1 dd 6a ba 60 7d e4 3c 06 60 4f 3c b2 0e ae bc
       -0.0008959445 0.027891815 0.012657171 -0.021247242
0001b0 d5 bb 6b bd c7 05 0d 3c fe d6 a6 bc c8 93 27 bd
       -0.057552177 0.008607334 -0.020366188 -0.04091242
0001c0 81 57 ad 3c 3e f1 46 3d e9 90 75 bb 0c fe a7 bb
       0.02115989 0.04856991 -0.0037470406 -0.0051267203
0001d0 ff a9 34 bd 3a 85 07 bd 3a bb 42 3b db 7f 34 bd
       -0.044107433 -0.03308604 0.0029713647 -0.044067245
0001e0 f7 94 ce 3b f7 23 9c 3c 53 32 38 bb e2 39 0b 3b
       0.006304379 0.019060118 -0.0028106167 0.0021244218
0001f0 0d 4a d4 3c ef b6 bb bb 96 eb f7 bc 19 e2 a1 bc
       0.025914216 -0.0057285945 -0.030263703 -0.019761132
000200 0c 77 3f bd df c9 25 bd 91 32 49 bc b0 68 f9 3c
       -0.04674439 -0.040475722 -0.012280122 0.030445427
000210 95 20 ca bc 98 e2 97 bc 06 60 00 bd d8 b4 cf 3b
       -0.02467374 -0.018540666 -0.031341575 0.006338697
000220 2c 94 29 bd 15 69 c4 3b f2 50 3a 3c 79 75 b0 3c
       -0.041401073 0.005993972 0.011371838 0.02154039
000230 9b aa 83 3c c3 be 89 bc ec db 6f bd 58 13 2b 3c
       0.016072562 -0.016814595 -0.058559343 0.010441624
000240 04 d4 8f bc 24 dd 48 bc e8 63 36 bd fe 08 f5 bc
       -0.017557152 -0.012259755 -0.04452887 -0.029911514
000250 09 37 b2 3c d5 49 53 bc e0 86 d2 bb 10 af b6 3a
       0.021754758 -0.012896021 -0.0064247698 0.0013937671
000260 29 2a a6 bc a8 eb 4d 3c 35 d9 10 bd 49 83 51 bd
       -0.020283775 0.012568392 -0.035363395 -0.051150594
000270 48 7a 7c 3d 9b f0 59 3d 9a 5b a3 bc 67 ba 65 bc
       0.061640054 0.053207975 -0.01994114 -0.014021493
000280 bb 45 c2 3c a0 af 04 bd d0 f1 10 3c 59 03 6d 3c
       0.02371489 -0.03239405 0.008846715 0.01446613
000290 5f 07 31 bc 74 05 06 3d 13 f4 5f bc af 04 30 bd
       -0.01080498 0.032720044 -0.013669032 -0.042973217
0002a0 22 18 bf 3c 64 bd 94 3b 24 00 bf bc 94 5b 82 bb
       0.023326937 0.0045391787 -0.023315497 -0.003978202
0002b0 61 a8 0b bc d5 e7 15 bd 19 63 00 3c ff 1a 69 3d
       -0.008524031 -0.036598045 0.007836127 0.05691051
0002c0 5d 6a 1d 3c f1 f4 a5 3c 35 58 66 bc a4 fb 73 bb
       0.0096078785 0.020258399 -0.014059116 -0.0037228847
0002d0 b1 7d 23 3d fd b6 88 3c df f5 ab bb 4d 7f b0 bc
       0.03991479 0.016688818 -0.005247816 -0.021545077
0002e0 0d 2a c0 3c 0a c8 ff 3b 47 f9 f9 bc 7e 00 f6 ba
       0.023457551 0.007805829 -0.030514373 -0.0018768457
0002f0 67 5b a2 3c ac 48 75 3c 7e b8 ea 3c 88 37 74 bc
       0.019818975 0.01497094 0.028652426 -0.014905818
000300 ae 24 07 bc b8 7c 95 bd 1d 7e 35 bd 56 3e 8a bb
       -0.008248491 -0.07299179 -0.044309724 -0.004218857
000310 79 13 a2 b9 10 95 2d bd 29 b5 4c 3d 9b 12 f8 3c
       -0.00030913556 -0.042378485 0.049977455 0.03028231
000320 52 3b fd 3a 57 ab 39 bc 3c 41 89 bc 05 52 10 bd
       0.0019320047 -0.0113323545 -0.016754739 -0.03523447
000330 57 d2 f1 3b e9 23 43 3d d4 dd 04 3d 5a 6f 19 3d
       0.007379811 0.04764167 0.032438114 0.03745971
000340 1c 40 f0 3c b0 10 e4 3c 94 5b 1e 3c 32 bb b0 bc
       0.029327445 0.027839988 0.009665389 -0.021573637
000350 78 b2 53 3d db 07 e6 bb 9b 2f a6 3c 6d 72 70 bb
       0.051683873 -0.0070199794 0.020286372 -0.0036689297
000360 cb 00 4d 3d 28 1a c2 39 ea 1a 78 bd c6 bc 92 3c
       0.050049584 0.0003702205 -0.060572542 0.01791228
000370 c1 29 e9 3a 28 de bf bc b9 1a 5b bd d7 a8 d3 bc
       0.0017788933 -0.023421362 -0.05349228 -0.025837345
000380 c4 3f 0b bd 7b d1 e6 bc d2 08 b7 3c e6 79 cb 3c
       -0.03399636 -0.02817606 0.022343073 0.0248384
000390 b0 b9 a4 3b 20 a8 76 3c ee d8 99 3c 2e 0a 0d 3b
       0.0050270185 0.015054733 0.018780198 0.002152096
0003a0 46 0d 3b 3d 1e 35 8c 3d a9 30 39 bc bd f5 ca 37
       0.045666955 0.06846069 -0.011303105 2.4194707e-05
0003b0 f1 d7 00 3b 7f 80 a4 bc 91 9c ed bc eb 16 60 3d
       0.001965996 -0.020080803 -0.02900532 0.054709356
0003c0 35 13 65 3c 4a 73 0a 3d 89 03 2d 3b 68 84 48 3b
       0.01398163 0.033801354 0.0026399812 0.0030596498
0003d0 69 36 3b 3d a1 69 1b 3c f0 27 94 3c 27 41 1f bc
       0.045706186 0.009485633 0.01808545 -0.009720123
0003e0 9b bf e0 bc c6 43 81 3c f2 f2 2e bd 5f 86 a0 bb
       -0.027435115 0.015779387 -0.04271216 -0.004898831
0003f0 ad 4d f3 3a 91 5c 24 bd bb 46 8a bc ec 3f 6d 3c
       0.0018562578 -0.04012734 -0.01687943 0.014480572

weight f4 [256, 512]
000000 b0 f7 11 be 57 4b c0 3d 06 62 a7 3d e9 e3 80 3e
       -0.14254642 0.0938937 0.08172993 0.25173882
000010 50 c7 be 3c 11 c1 c7 3b 04 ae 05 bd 35 ca e6 bd
       0.023288399 0.0060960134 -0.032636657 -0.11269037
000020 21 2b 57 3d 67 b5 69 bd 02 53 0f bd eb 24 06 bc
       0.052531365 -0.057057764 -0.03499127 -0.008187513
000030 7b d5 6a bb 7d 91 12 3d 37 8a f3 bb af ef 84 3d
       -0.003583281 0.03578328 -0.007432248 0.064910285
000040 7a 8c 99 3d 6a 66 10 bd 14 10 11 3e 3c 2e f9 bc
       0.07497497 -0.03525392 0.1416629 -0.030417554
000050 06 a6 6d 3d 28 cf c0 3d bc a3 c3 bc 10 84 e2 bd
       0.05801966 0.09414512 -0.023881786 -0.11060345
000060 6f e5 e4 3d bf 1b 0e be fb 7b 1a 3e 18 89 a6 3c
       0.111765735 -0.13877772 0.15086357 0.020329043
000070 8e c9 9e 3d 27 8a 17 3d 82 51 86 3d 42 7c d0 3d
       0.07753287 0.036996987 0.06558515 0.1017995
000080 58 50 b9 bd 51 32 0c 3e 30 80 22 3d d0 80 15 be
       -0.090485275 0.13691069 0.03967303 -0.1459992
000090 4b d8 44 bb 14 09 71 3e 93 3f aa 3d a7 9d f8 3c
       -0.0030036147 0.2353862 0.08312907 0.030348612
0000a0 bb 45 d3 bc c4 14 b6 bd 7a 55 9f bd c4 d0 31 bd
       -0.025790086 -0.088906795 -0.07779975 -0.043411985
0000b0 87 2f 56 be 37 4c d6 3d 6d 94 5c bd bc 3c 2d bd
       -0.20916568 0.104637556 -0.053852487 -0.04229425
0000c0 3b a3 11 3d 1e be 15 be 98 fc 24 3d ea 89 56 3c
       0.03555606 -0.14623305 0.040279955 0.013094405
0000d0 0a 6c 66 3d bc 95 19 be 1a 91 0f bc 7b 5d d9 ba
       0.056255378 -0.14998525 -0.008762622 -0.0016583645
0000e0 95 e9 0d be c8 9b 48 3e 3f 80 d3 3d 10 19 c8 bd
       -0.13858636 0.19590676 0.103271954 -0.09770405
0000f0 18 27 ff bc 87 5c 59 be 2f 24 5a be b0 b8 16 3d
       -0.031146571 -0.21226703 -0.21302865 0.036797225
000100 0d a0 01 bd c9 23 b2 bc 55 c9 ed bd 18 7d b8 38
       -0.031646777 -0.02174558 -0.11610667 8.797104e-05
000110 02 4e 90 bd 5d 1b 3e 3d a9 51 51 bd 16 59 9c bd
       -0.07046129 0.046412814 -0.051103268 -0.07634179
000120 00 f2 f6 3d 88 67 a7 bd a4 98 17 3e 2b f1 e9 bc
       0.120578766 -0.08174044 0.14804322 -0.02855738
000130 8c ce 3f 3e 48 3f 77 bd 51 39 94 bd a9 49 91 bd
       0.18731135 -0.060363084 -0.07237495 -0.07094128
000140 37 e5 2d 3c 78 88 66 3c d3 fe 68 be fb 21 99 bd
       0.010613731 0.014070623 -0.22753458 -0.074771844
000150 98 af 8b 3e de a5 94 bd 0b bd d8 bd a7 24 c7 3d
       0.27282405 -0.07258199 -0.10582932 0.09723788
000160 7a 58 ca bb 3f af f8 3b 3c 86 e1 3d ba b9 26 be
       -0.006175098 0.0075892503 0.11011931 -0.16281787
000170 46 c6 98 bd c9 94 19 bc 38 8e 9a 3d 01 15 18 3e
       -0.07459693 -0.009373852 0.07546657 0.14851762
000180 69 b7 f3 bc 7a c6 54 3d 29 ee 12 3d 1b a6 fd 3c
       -0.029750543 0.051947095 0.03587166 0.030962994
000190 fc d8 a2 bd c8 f4 d3 bc 94 8b e0 3d 39 20 78 3d
       -0.07951543 -0.025873557 0.109641224 0.060577605
0001a0 f3 8b 51 3b 68 a5 b9 bc 15 4e 9a 3d 72 e4 45 be
       0.0031974285 -0.02266188 0.07534424 -0.19325426
0001b0 9e f7 d8 3d 01 1e 27 3e 19 c1 26 3e 49 75 8b bc
       0.10594104 0.1632004 0.16284598 -0.0170237
0001c0 2c 7b 6c 3e e5 80 39 be 84 11 d2 bd 09 f8 d5 bd
       0.23093861 -0.18115576 -0.10257247 -0.104476996
0001d0 93 46 12 3d 4f 1a be 3d 25 d9 bf be 1e cd 50 3c
       0.035711836 0.09282362 -0.37470356 0.012744216
0001e0 8d 4f 1b 3e 1b a3 5e 3d 93 65 96 bd aa 85 58 3c
       0.15167065 0.05435477 -0.073435925 0.013215462
0001f0 a2 e0 d2 bd c4 8b 58 bd cd f4 38 be 04 fe 90 bc
       -0.102967516 -0.052867666 -0.18062134 -0.01769925
000200 7b 8f 3a be 7a 33 51 be e8 75 40 be 04 4a f0 bd
       -0.18218796 -0.20429793 -0.18794978 -0.11732867
000210 a1 31 09 3e dc 11 84 3d 90 38 84 3d 0d eb 0d 3e
       0.13397838 0.06448719 0.06456101 0.13859196
000220 3f c6 10 3e 07 ae 0f 3e fb 45 f7 bc c9 c4 9e bd
       0.14138125 0.1403123 -0.030184736 -0.077523775
000230 2b 5b 8f be 7d af 9e 3c e5 6e b5 bc 71 87 86 bd
       -0.27999243 0.019370789 -0.022147605 -0.06568802
000240 36 e6 3e bd 61 59 fb bd fe 3b ee bd af d3 50 bc
       -0.046606265 -0.12272907 -0.11632536 -0.012745782
000250 8d 75 b6 3c cb 61 24 3d 7a f0 9e bb 62 7f 6d 3c
       0.02227285 0.040132325 -0.0048504444 0.014495702
000260 59 2f ac bb a0 56 a5 3d 72 74 17 3e 9e 93 f8 ba
       -0.0052546677 0.08073163 0.14790514 -0.0018964892
000270 f2 b8 a5 3d 4c 44 a6 bd e2 43 c0 bd 1e e8 7f bc
       0.08091916 -0.08118495 -0.093879476 -0.015619306
000280 8f c8 14 3e 00 db d8 bc 08 9c 2f 3e 12 b4 c1 bd
       0.14529632 -0.026471615 0.17149365 -0.09458174
000290 a2 9a 84 bd 34 d6 3f 3d 34 c8 e5 bc 78 fc b6 3d
       -0.06474806 0.04683514 -0.028049566 0.08934873
0002a0 1f 1b c6 3d 2b d8 5c be 0a 6d bb 3b 79 14 22 be
       0.09673142 -0.21566837 0.0057197856 -0.15828122
0002b0 be e7 32 3e ba f5 a0 bd 93 85 a4 be 22 79 22 bd
       0.17471215 -0.078593686 -0.3213316 -0.039666303
0002c0 f1 7c c9 bc c1 59 51 3d 16 9c c0 3d 3e 03 f2 bd
       -0.02459571 0.051110987 0.09404771 -0.11817025
0002d0 e9 84 0d 3e f0 b2 c2 bd 73 22 8c 3d dd 9b 7d bc
       0.13820232 -0.09506786 0.06842508 -0.015479055
0002e0 33 aa 3c ba 38 42 97 bd 58 85 d4 3d 83 96 79 bd
       -0.00071969925 -0.07385677 0.10376996 -0.060934555
0002f0 f9 cd 0a bd 03 9c 63 3d 0f d8 11 3d 7e 94 49 3d
       -0.033887837 0.055568706 0.03560644 0.04921388
000300 8e 5c 9b 3d 81 93 ff 3c dc 20 b7 bc 68 7d 27 bd
       0.07586013 0.031198265 -0.022354536 -0.04089108
000310 f0 ec 31 be cb bc 82 bc 29 36 99 3d 0c f1 f3 3b
       -0.1737554 -0.015959164 0.07481033 0.0074445065
000320 a3 42 24 3d 23 72 fe bd 39 08 93 3d ad 24 de 3d
       0.040102612 -0.124241136 0.07179303 0.10846839
000330 89 30 a1 bc ca 6c 25 bb 82 7f b9 3d 26 2c a2 3d
       -0.019676464 -0.0025241845 0.09057523 0.07918577
000340 89 2b e9 3b c5 cc 3a bc f4 5e 85 be 08 16 f9 bd
       0.0071157855 -0.01140136 -0.26049006 -0.12162405
000350 e3 b8 28 bd f1 f0 0d be 3a fe ea bd c3 21 ab 3c
       -0.041191947 -0.13861443 -0.11474271 0.020890122
000360 34 49 da bd 10 d7 8c 3d 71 d1 06 bd cd a0 ff 3c
       -0.10658494 0.068769574 -0.032914583 0.031204605
000370 76 ce 63 be 11 39 91 be a6 ce 36 3d 4f 5a a0 3d
       -0.22246727 -0.2836385 0.04463067 0.07829725
000380 47 f7 28 bd bb d4 b0 bd 12 70 c2 bc a6 84 a1 3c
       -0.041251447 -0.08634325 -0.02373508 0.019716572
000390 65 07 2d bc 37 1e c4 bd db de 98 bb b6 8b c6 bd
       -0.010560845 -0.095760755 -0.0046652383 -0.096946165
0003a0 1f 41 ac 3c 48 7c c3 3d 84 3c 95 3d c8 7b 28 3e
       0.021027146 0.09545189 0.07286933 0.16453469
0003b0 1f 88 10 3d 67 10 2e bd 01 91 bf bc 16 c1 9b 3b
       0.035286065 -0.04249611 -0.023384573 0.0047532422
0003c0 cf b3 12 be 27 bb d5 3d 70 36 24 be 0f e1 cd bc
       -0.14326404 0.10436087 -0.16036391 -0.02513173
0003d0 c4 41 c0 bd 62 d1 8d bc 39 5e 2e 3d 05 2e 86 3c
       -0.09387544 -0.017311756 0.042570326 0.016379366
0003e0 4f 04 67 3c a6 4a 88 3e da 55 03 bd 27 07 c7 bd
       0.014100148 0.26619452 -0.032064296 -0.09718161
0003f0 cc 8c 99 3d 68 0e c6 bd 31 24 2b be f8 ea 9c be
       0.07497558 -0.096707165 -0.16713025 -0.30648017

bias f4 [256]
000000 c3 df 9d bc 62 ef 62 bd 30 63 89 bd 8a c0 98 bc
       -0.019271737 -0.055404074 -0.06708372 -0.018646497
000010 8c 1a ca bc 80 fb b1 bd 6b 66 c0 bc 32 fc 8d bd
       -0.024670862 -0.08690548 -0.023486337 -0.06932868
000020 3f ea d8 3c 0d 21 c5 3c 21 e0 81 bd 91 c8 d2 bc
       0.026478885 0.024063611 -0.06341577 -0.025730403
000030 4f ef 48 bd 5c 75 83 bc 40 a8 5d bd 8a 61 1c bd
       -0.049056347 -0.016047172 -0.054115534 -0.038178958
000040 c8 5e fd bb 90 6e 2f bd 73 53 ec 3a e3 ee 88 bc
       -0.007732246 -0.04283005 0.0018030241 -0.016715473
000050 e3 6d aa bc de 53 98 3c c1 b9 1f bc 37 72 9d bd
       -0.020804351 0.018594678 -0.009748877 -0.076878004
000060 39 6a 41 bd ae a8 a5 bc fd 5a 9c bc 1c c1 01 bd
       -0.047220442 -0.020222034 -0.019086355 -0.031678304
000070 02 13 a6 3c 9c 3c f6 3c 9c 65 71 bd eb be 7e bc
       0.020272736 0.030058198 -0.058934793 -0.015548448
000080 71 5b 6f bd 53 05 4f 3d 1d 88 63 3b 35 14 c7 bb
       -0.058436815 0.050542187 0.003471858 -0.006075407
000090 98 23 47 bd a0 ec 8e bd 01 8a 03 bd c5 97 d9 bd
       -0.04861793 -0.069787264 -0.032114033 -0.10624651
0000a0 76 47 5d bd 58 a7 6b 3b 9d 67 ba bc 50 db 6b 3c
       -0.05402323 0.00359579 -0.022754485 0.01439555
0000b0 21 81 44 bd 4f ef d7 3c 19 f8 80 3b 06 0d 5d bd
       -0.04797471 0.026359228 0.0039358255 -0.0539675
0000c0 8d 3e 7f 3c cc d8 b4 3b 6b 32 87 bc ce 8c ee 3b
       0.015578878 0.0055190083 -0.016503533 0.007279969
0000d0 d3 cd 82 3c ba 9b 5f bd 10 1c 56 bc 3a ff b6 bb
       0.015967285 -0.05459187 -0.013068214 -0.0055846246
0000e0 fb 6a 96 bc 16 1c 12 3b 08 94 82 bd 45 15 92 bc
       -0.01836156 0.0022294573 -0.06375891 -0.017832408
0000f0 eb af d1 bc e6 eb 05 bd 11 e0 79 bd fc 67 6f bc
       -0.02559658 -0.032695673 -0.061004702 -0.014612194
000100 6d e9 31 bd 1f c4 4e 3c 97 c1 77 bd 8f 69 a8 3b
       -0.043435503 0.012620001 -0.060487356 0.0051395367
000110 48 a9 92 bc 9e 9d 4e bd e6 68 fd bc 69 fd 03 bd
       -0.017902985 -0.050443284 -0.030933809 -0.032224093
000120 3a a0 93 bd 82 79 bb bb db 32 e4 bb a4 30 2b bd
       -0.07208295 -0.005721272 -0.0069640703 -0.041794434
000130 9f 3b b4 bc 3b bb a3 bd 8e d9 c4 38 48 52 98 bc
       -0.022001086 -0.07994696 9.386531e-05 -0.018593922
000140 02 b0 d7 3c 0e 55 b4 bc e0 e2 fa bc 41 6c b0 bd
       0.026329044 -0.022013213 -0.03062576 -0.08614398
000150 97 2b 11 bc 44 d3 17 bd dd 57 9c bd 67 de 9f bc
       -0.00886049 -0.037066713 -0.07633946 -0.01951523
000160 5b d0 b5 3c b1 85 1b bd 00 31 a3 bc 03 86 79 bd
       0.022194078 -0.037969295 -0.019920826 -0.06091882
000170 ce a7 5a 3c a3 d9 df bc a3 1d d3 ba 4d 06 80 bc
       0.013345672 -0.027325457 -0.0016106855 -0.015628004
000180 7b 07 07 bd 50 61 d9 bc 32 67 eb bc c9 5c 83 bd
       -0.03296612 -0.02653566 -0.02873573 -0.06414182
000190 2a df 35 bd 9d 99 15 bd 7a ff df 3b 25 c0 08 3d
       -0.04440228 -0.03652345 0.006835875 0.03338637
0001a0 00 a8 78 bc ff dc e1 bc 3e f5 94 bc 94 a1 1c bd
       -0.015176773 -0.0275712 -0.018183347 -0.03824003
0001b0 ae bc 81 bc 44 bd 0a 3c 54 7b 3b bd 3d fc f8 3c
       -0.01583704 0.008467976 -0.04577191 0.030393714
0001c0 82 9b fe bc cd f1 c9 ba 7f cd 2d 3c 7b f9 c9 bc
       -0.031080011 -0.0015407145 0.010608076 -0.024655094
0001d0 a3 62 b9 bd ce 42 a1 bb a9 85 99 bd ad c1 1f bd
       -0.090520166 -0.004921294 -0.07496197 -0.039003063
0001e0 86 8e 2d bc 6a ee b9 bc f2 7c 1a 3c 2f f7 4f 3b
       -0.010593062 -0.022696692 0.009429203 0.0031733026
0001f0 ed b2 19 bd 16 3b 82 bd 08 20 f6 bc 7e 48 21 bd
       -0.037524153 -0.06358926 -0.03004457 -0.039375775
000200 2b 50 8d 3c ca b3 8f bc 1f bb 90 bc c4 51 1b bb
       0.017250141 -0.017541785 -0.017667351 -0.002369986
000210 5f 2b 9d bd 0c e1 21 3d 4a c0 d8 3b ac 4e e2 bb
       -0.07674288 0.039521262 0.0066147195 -0.006906351
000220 e3 06 46 3c cd 53 fc ba 9c bd b6 bb e7 62 e4 bb
       0.012086603 -0.0019251049 -0.0055768024 -0.006969798
000230 55 db 89 bd 4b fa 82 3c ed 8e 83 b9 42 ab 3a bc
       -0.067312874 0.01598849 -0.00025092755 -0.01139337
000240 d2 f9 ac 3c 20 3a e3 39 16 6e dd 3b 00 6a 45 bd
       0.021115217 0.0004334012 0.006757508 -0.048196793
000250 c8 26 e0 3b ca 87 6a bd 81 89 75 bc b4 a7 92 bc
       0.0068405606 -0.057258405 -0.014986397 -0.017902233
000260 30 3c c2 bc f9 9f 88 bc b7 be 16 bd be 75 ec bb
       -0.02371034 -0.016677843 -0.036802974 -0.0072161844
000270 dc ce ef bc 63 3f e4 bc c3 6e b2 bc 79 99 85 bd
       -0.029273443 -0.027862256 -0.02178133 -0.06523413
000280 70 3b 17 3b ef 05 01 bc 9e fa cc 3c d1 ba 42 bd
       0.00230762 -0.00787495 0.025021847 -0.047541443
000290 0f 6b 30 ba 8d a3 2f bd 8b 88 86 bd a4 45 93 bc
       -0.000672982 -0.042880584 -0.06569012 -0.017977543
0002a0 0b 73 96 3c 35 6c 52 bd c3 ca e6 bb ff fd 92 bd
       0.018365404 -0.051372726 -0.007043214 -0.07177352
0002b0 dd 61 55 bd e9 6c 9c 3c 49 92 81 bc 79 17 06 ba
       -0.052095283 0.019094901 -0.015816825 -0.0005115192
0002c0 9a 9d b1 3c 70 a1 58 bd a3 af 3f bd 18 a0 18 bd
       0.021681596 -0.052888334 -0.04679836 -0.037262052
0002d0 fb 93 65 bd 20 28 a1 39 9a 5c ae 3c 80 fa 0c bd
       -0.05604933 0.00030738208 0.02128439 -0.034418583
0002e0 74 c0 cb bc 4a bb a8 ba e8 e4 be bd 1c 38 bc bc
       -0.024872042 -0.0012873199 -0.09321004 -0.022975974
0002f0 c8 fd db 3c 5e a3 f4 bc 28 4c 0f bc e1 6c ff bc
       0.02685441 -0.029863056 -0.008746184 -0.031179847
000300 d3 46 f2 bc 98 65 e1 bc d7 72 1b 3b 27 45 ac ba
       -0.029574787 -0.027514264 0.0023719573 -0.0013143168
000310 a9 fc 72 bd f7 b8 bf bc b1 e8 41 bd c7 8b 16 3d
       -0.059322987 -0.023403628 -0.047341052 0.036754396
000320 3a aa f8 bc 58 d0 d1 bd de 6a c6 bc 2b 43 16 bd
       -0.030354608 -0.102448165 -0.02422088 -0.03668515
000330 12 52 b4 bc b3 84 0a bd e6 90 8d bb b3 06 84 bc
       -0.02201179 -0.033817958 -0.0043202518 -0.016116476
000340 d3 e5 1d bd 05 c2 ad 3b a0 25 a5 3b 7c e1 9e bd
       -0.038549256 0.00530267 0.0050398856 -0.077578515
000350 59 af d3 bc ad f3 7c bd ae 08 12 bd 5a 02 5c bd
       -0.025840448 -0.061755825 -0.03565281 -0.05371318
000360 54 33 e2 bb 2d 2c 74 3d 5c d4 b8 bc 1e 77 95 bc
       -0.0069030914 0.05961244 -0.022562198 -0.018245276
000370 3c 15 85 3a 0c ed e3 bc 27 bf e8 bc 36 ef 85 3d
       0.0010153423 -0.027822994 -0.028411461 0.065397665
000380 66 ce 5d bd a6 9b 15 3c 92 72 f3 bc b8 67 98 bc
       -0.054151915 0.009131348 -0.029717717 -0.018604144
000390 58 91 44 bb 9d 35 68 ba 66 f5 a6 bc 95 2f 5b bb
       -0.0029993858 -0.00088580867 -0.020380687 -0.003344511
0003a0 a9 8e 3b 3c 1a 85 4e bd e0 40 62 bb ae fb 81 bc
       0.011447587 -0.050419904 -0.0034523532 -0.01586708
0003b0 1c 68 67 bd 19 e5 95 bd 8e d2 b0 3c d0 1d 84 3a
       -0.05649577 -0.073190875 0.021584775 0.0010079686
0003c0 9b 77 5d bd d9 74 73 bd fa 45 cc bb 6c 14 fc bc
       -0.054069143 -0.059437606 -0.006233928 -0.030771457
0003d0 63 da 7a bd 1f a2 1e bc d8 d1 63 bc 59 2b 13 bd
       -0.061243426 -0.009682207 -0.013905011 -0.03593001
0003e0 53 2c 62 3c b9 80 81 bd 94 b4 f8 3c 7d 8e 13 bd
       0.013804513 -0.0632338 0.030359544 -0.03602456
0003f0 d0 a8 7a 3c 0c 7c f5 bc 62 f0 16 bd 19 c9 e3 bc
       0.015299037 -0.029966377 -0.03685034 -0.027805852

weight f4 [128, 256]
000000 06 c3 57 bd fd 6e 1c bd fb ed 3c bd da 25 07 be
       -0.052676223 -0.038191784 -0.046125393 -0.13198033
000010 01 d0 a3 bd c7 50 bb bb 2c ba 7e bc 9a 0e cf bc
       -0.07998658 -0.0057164165 -0.0155473165 -0.025275517
000020 0c d6 79 3d b9 4c 2b be ed 39 4b 3e 6a 40 8b bd
       0.060995147 -0.16728486 0.19846316 -0.067993954
000030 f6 e3 ed 3d f6 e6 35 be c3 80 36 3e 07 2e df bb
       0.11615746 -0.17763886 0.17822556 -0.006810907
000040 cd 11 45 3d 73 8f 63 3e e8 fd 5f 3e af 4c 07 bd
       0.04811268 0.2222269 0.21874201 -0.033032116
000050 f2 d6 c8 3c 5b b8 79 3e 61 0c 89 be 2f 76 35 3d
       0.024516556 0.24386732 -0.26767257 0.04430216
000060 ef 01 fd bd fc 40 e6 3d 03 7a 80 3d ba 56 2a 3e
       -0.123538844 0.112428635 0.06273272 0.16634646
000070 95 4e ac bd e6 5a 23 bd 05 93 07 be e6 bf d0 bc
       -0.08413426 -0.03988161 -0.13239677 -0.02548213
000080 5e 59 0e 3d 20 6d ec 3d 7b 1a 08 3e ae 53 fd bd
       0.034753196 0.115442514 0.13291351 -0.12369476
000090 3a 5f 37 be 88 87 86 bd 6d 3c 2e be 9c b3 e8 3d
       -0.1790742 -0.06568819 -0.17015238 0.11362383
0000a0 eb ae 3f 3e 12 13 3b 3d ea 57 d9 bd 48 84 8b bb
       0.1871907 0.045672484 -0.106124714 -0.0042577125
0000b0 70 c9 5c 3d 21 6c db bd 51 2f 60 be 54 96 4b 3d
       0.053903043 -0.10713983 -0.2189305 0.04970391
0000c0 50 33 fe bd b1 51 fa 3c 91 a3 7c ba 69 01 b3 3d
       -0.12412131 0.030556532 -0.00096374104 0.08740503
0000d0 f1 e7 48 3c 26 b3 f2 b9 cc fb f7 ba 98 e3 40 3e
       0.01226233 -0.00046291313 -0.0018919646 0.1883682
0000e0 bf d1 71 be e7 55 07 3e 85 96 e3 bd 58 4e 18 3e
       -0.23615168 0.13216363 -0.11112694 0.14873636
0000f0 6c 4d 07 3e 67 51 3e bc 8c c8 ca bd 17 7e 61 bd
       0.13213128 -0.0116160875 -0.099015325 -0.05505189
000100 0c 93 84 3e 9d c6 02 be be d1 e8 bc 35 d9 2c be
       0.25893438 -0.12771077 -0.028420325 -0.16879733
000110 87 e4 07 3d 11 95 42 3e 27 f4 7e 3c 25 d4 30 be
       0.033176925 0.19002177 0.01556114 -0.17268427
000120 26 00 8d bd 1d 26 68 3d 49 72 44 bc 58 21 96 bd
       -0.06884794 0.056676973 -0.011990138 -0.073305786
000130 e7 e3 a7 3d 3a 18 5d 3d 90 da ea bd 73 0e ea bd
       0.08197766 0.053978182 -0.11467469 -0.11428537
000140 5e d3 ae 3c 81 76 89 3d f4 f1 02 bd 7a d4 8e 3d
       0.021341022 0.06712056 -0.031969026 0.069741204
000150 b3 18 d8 3d 9d b9 02 3e 15 a1 0f 3d b4 b2 9a bd
       0.10551586 0.12766118 0.03506573 -0.07553616
000160 6b cb 8b 3d 85 cc 33 3d 5b 47 bf bd 69 ba 07 bd
       0.06825908 0.043896217 -0.09339782 -0.03313676
000170 b5 d2 73 bd b6 65 ff bc a7 2f d4 bd 36 0f 47 be
       -0.059527118 -0.03117643 -0.103606515 -0.19439396
000180 07 c2 47 3e 76 7d 15 3e 10 ef 2f bd 8e f6 12 be
       0.1950761 0.14598641 -0.042952597 -0.14351866
000190 b0 61 ac 3c 57 72 58 3c dd 84 fa bd 35 75 fc 3c
       0.021042675 0.0132108545 -0.12232373 0.030817607
0001a0 78 3b 20 3d 16 c8 db 3d e2 f4 d0 3d 1b bd bd 3d
       0.039119214 0.10731523 0.10202958 0.09264585
0001b0 e9 7b ce 3d 0e 7f 58 3e 82 54 9b 3d bf 53 0a be
       0.10082228 0.21142218 0.07584478 -0.13508509
0001c0 01 21 60 be 6e c9 ef bd 5d e0 a9 3b 6f 19 e7 3d
       -0.2188759 -0.117083415 0.005184217 0.11284148
0001d0 1d 65 da bd d3 df cc 3d 3c 08 9e bd 18 82 67 bd
       -0.10663817 0.100036286 -0.07716414 -0.05652055
0001e0 df 39 1c 3d 7c 4f 0a 3e ad 1f 18 bb ae db 29 be
       0.038141128 0.13506883 -0.002321224 -0.16587707
0001f0 db 8b be bd 3f 4f 20 be eb 7e 80 3d 58 91 92 bd
       -0.09304019 -0.1565523 0.06274208 -0.07156628
000200 67 04 b1 bd 27 e0 a4 be ca 9a 9c bc 0b fd 17 be
       -0.08643418 -0.32202265 -0.019116778 -0.14842622
000210 6d fe c7 bc 18 75 70 be e5 03 c7 bc cd d7 e4 bd
       -0.024413312 -0.23482168 -0.02429385 -0.11173973
000220 11 0e 95 3e c1 a5 bd bd 20 ef 52 3b 1a ac 4e 3e
       0.29112294 -0.09260131 0.0032185987 0.20182839
000230 2a b3 53 be da 5a 1d be 90 31 02 bd 52 38 ef 3d
       -0.20673814 -0.15366688 -0.031785548 0.11680664
000240 00 e0 75 bc f2 53 a5 3d 6c 06 22 bc ba 4c b9 bd
       -0.015007019 0.08072652 -0.009889226 -0.090478376
000250 4e fa 09 be 90 54 51 be f2 8f a8 3d b7 c5 09 bd
       -0.1347439 -0.20442414 0.082305804 -0.03363582
000260 2a 0b 7a 3e cd 78 0c 3c 2c dc 9e bd ca 23 92 bd
       0.24418321 0.008573723 -0.07756838 -0.071357325
000270 9b cd 23 be 87 57 c1 bd 1b 6c 04 3e cd be a2 bc
       -0.15996401 -0.09440523 0.12931864 -0.019866372
000280 a0 04 37 3e eb da 9e 3d c2 e3 a2 3c e2 35 0c 3e
       0.17872858 0.07756599 0.019883994 0.1369243
000290 17 3c 63 be 6e d5 12 3e 0b 4f 2c 3c 5e 7d aa 3d
       -0.22190891 0.1433923 0.010516892 0.08324693
0002a0 56 1d 6e bd 2b bb 1d 3d de 97 0e 3d 90 ae a0 3d
       -0.058133446 0.038508575 0.0348128 0.07845795
0002b0 46 a7 00 be 3b 61 71 3d a7 de 2e be 33 4b 77 bd
       -0.1256381 0.058930617 -0.17077123 -0.06037445
0002c0 58 aa d2 bc 7b 44 d1 3d ae 0f 1d be 68 ae da 3d
       -0.025715992 0.1021814 -0.15338013 0.106777966
0002d0 3d d5 9e 3d cf ea 96 bd 35 d1 1f 3c b2 22 95 bd
       0.07755516 -0.07369005 0.009754469 -0.07282008
0002e0 1a b6 69 be 5d fd 2c be fb 84 f5 3d af 8a b4 be
       -0.22823372 -0.16893525 0.11988255 -0.35262057
0002f0 ca cd 6a 3d 99 a5 30 be da 63 7b bc fe 13 42 3e
       0.057325162 -0.1725067 -0.015343631 0.18952939
000300 5f 35 cd 3c a5 f0 74 3c a0 37 34 be 77 c4 ec 3d
       0.025049863 0.014949952 -0.17599344 0.1156091
000310 eb 19 0f bd 7a 68 65 bd 3d 2e 9a 3d bd 77 2f 3d
       -0.034936827 -0.05600784 0.075283505 0.0428388
000320 73 70 bd bd 1b 7c bf bd fc 82 4f bd 8e 02 e1 bc
       -0.092499636 -0.09349843 -0.050662026 -0.027467038
000330 72 c9 46 3d 57 b8 2e 3e cb 5d 30 be 50 dc f3 3c
       0.048531957 0.17062508 -0.17223279 0.02976814
000340 1a e5 ad 3d a0 14 1f 3d 61 c7 32 be 68 b0 d8 3d
       0.08490963 0.03883803 -0.1745887 0.10580522
000350 2e 2f d1 3d 16 80 a9 3d fa 33 8b 3d 19 b9 9a bd
       0.10214077 0.082763836 0.06797023 -0.07554836
000360 a3 3d 48 be 57 96 22 3d 2d 42 1f be ea b7 34 3c
       -0.19554763 0.039694156 -0.15552588 0.011030177
000370 6e af 45 3d 60 87 dd bc 37 24 03 3d b2 d5 73 39
       0.048263006 -0.02704209 0.03201696 0.00023253894
000380 ba 18 04 3e 6b a0 2b be 74 fe c0 bd 91 0f 1e 3e
       0.12900057 -0.16760413 -0.09423533 0.15435626
000390 6d f3 7c bd 72 cd 4d bd 3d 62 e7 bd 9e a0 34 be
       -0.061755586 -0.050244756 -0.11298034 -0.17639396
0003a0 42 d5 14 be 56 87 52 bc 88 f3 54 3d 06 a4 29 3e
       -0.14534476 -0.012849649 0.051990062 0.16566476
0003b0 2d 59 9e bd e8 4e cd bd 46 cd 6c be 57 f8 3b bd
       -0.07731853 -0.10024816 -0.2312518 -0.045891132
0003c0 b6 50 b5 3c 8e e0 4b 3a 25 a0 f1 bd 9d 01 cd bc
       0.022133213 0.00077772967 -0.11798123 -0.025025183
0003d0 16 94 57 3d 2c b6 b0 bd 76 99 25 bd 69 2c 70 3d
       0.05263146 -0.086284965 -0.040429555 0.058636103
0003e0 db 8b 3f be 51 c2 3d bd 3e 46 48 3c 15 fc 66 be
       -0.18705694 -0.046327893 0.012223778 -0.22557099
0003f0 4d cf 11 3d 9e 7f 85 3e eb 89 1c 3d b3 04 bd bd
       0.035598088 0.26073927 0.038217466 -0.09229412

bias f4 [128]
000000 2f 7b 26 bc 6a c1 18 bd 9e af 32 bd 99 39 07 bd
       -0.010161205 -0.03729383 -0.043624513 -0.033013914
000010 a6 3a 33 bd 6d d2 56 bd b5 a7 85 b9 f6 1c bc 3b
       -0.043757103 -0.05244677 -0.00025492688 0.005740757
000020 c2 cc 43 bc d8 01 39 3c 6e 2a 43 3b a9 bb c0 bc
       -0.011950674 0.0112919435 0.0029779929 -0.023526983
000030 c8 ac a4 3c 0a 85 88 bd 53 45 f5 bc 40 43 fe bc
       0.02010192 -0.06666 -0.029940283 -0.031037927
000040 a6 7c 8a bc 4f 71 37 bd 08 d4 ed bc 54 c3 48 3c
       -0.01690514 -0.044785794 -0.029031768 0.012253601
000050 67 75 ec bc 05 f6 09 3c ca 5b 0e bb 88 ad 8f 3d
       -0.028864576 0.008420472 -0.002172219 0.0701552
000060 7b 5e 74 bd 41 5e bf bb e2 a8 81 bd c3 c6 64 bc
       -0.059660416 -0.0058400934 -0.0633104 -0.013963404
000070 bf e6 a0 bd 5e 82 58 bc 92 68 b7 3c 51 ab db bb
       -0.07856511 -0.013214676 0.02238873 -0.006703772
000080 f3 27 f3 bc 1d 2b 18 bd bb 46 a6 bd bb 19 7f bd
       -0.029682135 -0.03715049 -0.081189595 -0.062280398
000090 6b ea 90 ba bb 3c a7 bc 32 a0 97 bc 40 8a c4 bc
       -0.001105619 -0.0204147 -0.018509004 -0.023991704
0000a0 4f e1 95 bc 24 93 00 be 56 4c 2f bd 39 4f 05 bc
       -0.018295912 -0.1255613 -0.04279741 -0.008136564
0000b0 40 84 dc bd c0 57 90 bd b6 e0 71 bd 1a e9 91 bd
       -0.10767412 -0.07047987 -0.05905219 -0.07124539
0000c0 05 dc 28 bd 77 81 78 3c e0 c5 94 bc 74 cd 05 bd
       -0.041225452 0.015167586 -0.01816076 -0.03266664
0000d0 a8 02 9d bc c0 43 85 bc 3b c2 1d bd f7 90 89 bd
       -0.019166306 -0.016267657 -0.03851531 -0.06717103
0000e0 f6 d3 b6 3b fd bb ba 3c 62 7f 50 3c 1d d5 5c bd
       0.005579467 0.022794718 0.012725683 -0.05391418
0000f0 55 72 3c b9 44 0b d6 bd 4b e6 02 3d af b5 06 3d
       -0.00017971669 -0.104513675 0.031957906 0.03288811
000100 1c cf 56 3d 8a 9d 71 3d e2 ae dd 39 5d 43 1c 3c
       0.05244361 0.05898813 0.00042282703 0.009537545
000110 c9 bc 47 3d 17 15 5a bd ba ff 59 3d 21 99 83 bc
       0.048764024 -0.05324277 0.053222395 -0.016064228
000120 eb fb c5 bc 43 8f 27 bc 68 9e f8 3c 41 07 a6 bd
       -0.024167975 -0.010227027 0.030348971 -0.08106852
000130 e2 c5 4f bb 40 03 87 bc c8 95 8d bd bd 03 bb 3c
       -0.003170364 -0.016481042 -0.06913334 0.022828931
000140 aa 03 23 bc 45 84 3b bd 4e c5 ff 3c c2 62 2f 3d
       -0.009949604 -0.04578044 0.031222012 0.042818792
000150 43 ba f6 bc 19 d6 61 3c 89 0a 46 3a 46 6d 80 3c
       -0.030118113 0.013783955 0.00075546704 0.015677106
000160 dc 24 de bc aa 89 a9 bc b2 c5 a4 bc a4 c7 eb 3b
       -0.027117185 -0.020695526 -0.0201138 0.00719543
000170 06 10 65 3c 8c 47 48 3d 0c 85 fe 3c c1 ea 13 3b
       0.013980871 0.048896357 0.031069301 0.0022570344
000180 b1 3c 8e 3d 11 b8 56 bc 5c 37 9b 3c 4e 1e 03 be
       0.0694517 -0.013105408 0.018947296 -0.12804529
000190 1c 04 96 bc 3a 17 5a 3c 51 9a f4 bc 32 46 20 bd
       -0.018312506 0.013311202 -0.02985874 -0.039129443
0001a0 25 3e 98 3c d6 e6 f4 3c cd c5 e6 bc e1 c3 44 bd
       0.01858432 0.029895227 -0.02817049 -0.048038367
0001b0 3c 5d 57 3d 87 0a 3a bd 05 d6 72 3c 32 8e 5d bc
       0.05257915 -0.045420196 0.014821534 -0.013522672
0001c0 a6 07 57 bc c4 ae 05 3d 84 3d 81 bd 46 ec ba bd
       -0.013124382 0.032637373 -0.06310561 -0.09127097
0001d0 ac da 91 bd 3a 38 d1 3b da 4d 85 3d d4 4b 18 bc
       -0.071217865 0.0063848766 0.0650899 -0.009295423
0001e0 be ba 32 3c ae a9 86 bd bc 9c be bc e3 fb fa 3c
       0.010908781 -0.065753326 -0.023268096 0.030637687
0001f0 c1 c4 20 bd f3 be fb 3c de 06 39 bc c7 e6 66 bc
       -0.03925014 0.0307307 -0.011293141 -0.014093108

weight f4 [24, 128]
000000 f4 1f 91 3b 79 87 96 3d 0f 9b ec 3d 36 83 35 3e
       0.004428858 0.07350058 0.115530126 0.17725834
000010 f8 a6 16 bd 9f e4 15 3e 24 53 62 3d 64 f1 30 bd
       -0.036780328 0.14637993 0.05525507 -0.043198958
000020 b2 01 11 3e ca 97 ca 3d cf de 44 3d d5 ad 41 3d
       0.14160803 0.09892233 0.04806405 0.04728492
000030 67 2f c0 bc a6 2b 04 3e 3f 24 26 bd e0 7b 43 bd
       -0.023460103 0.12907276 -0.04056191 -0.04772556
000040 e5 2d 28 bc 91 b3 f0 3c 64 18 17 3e fa 85 95 bd
       -0.010264848 0.029382499 0.14755398 -0.073009446
000050 28 05 4a be 1c 13 0e 3e b4 0d cb bd 44 1c c1 3d
       -0.1972853 0.13874477 -0.09914723 0.09429219
000060 0d 05 de 3c 09 1c 99 3c 8a d4 94 bd 86 1d 84 bd
       0.027102018 0.018690126 -0.07267101 -0.06450944
000070 9d 4f e1 3d 85 c1 a8 3c 9f df 7e 3c f9 67 b7 bd
       0.11001513 0.02060009 0.015556245 -0.08955378
000080 48 dc 17 3e a8 c5 76 3d 9f 0b 9c 3c df 01 3d 3e
       0.14830124 0.060247093 0.01904851 0.18457745
000090 46 ca 89 3d cc 6e ef bd 17 ab 5e be 2f cf 69 3c
       0.06728034 -0.11691055 -0.21744953 0.014270588
0000a0 b7 0a e9 3d 68 95 c7 3d be 2b 2c be b0 55 91 3c
       0.11378997 0.09745294 -0.16813561 0.017741054
0000b0 cb f5 01 3e 56 16 11 3e b8 40 a8 3d 69 19 0e 3e
       0.12691419 0.14168677 0.08215469 0.1387688
0000c0 ed f1 a6 bd 48 29 75 be e6 c9 66 3e fa 1c 23 bd
       -0.081516124 -0.23941529 0.22537956 -0.039822556
0000d0 9e 6b 76 bd 8b 21 ae bd f0 5b 84 3d 49 bb 34 be
       -0.060161225 -0.085024916 0.06462848 -0.17649569
0000e0 74 24 cf bd 31 f4 43 3e 69 7f 9f be ca 95 59 3d
       -0.10114375 0.1913612 -0.31151894 0.053121366
0000f0 37 b7 8c 3d 85 d7 7d 3d d2 23 42 3d d0 83 aa 3d
       0.06870883 0.061973114 0.047397442 0.083259225
000100 7c 25 29 bd 07 a4 9f bd 9e 6e b5 bd 89 a1 3d 3e
       -0.041295514 -0.077949576 -0.08858989 0.18518652
000110 2a e3 04 bd 11 8c a3 3d dd e3 e4 bc 00 36 2a be
       -0.032443203 0.079857 -0.027940685 -0.16622162
000120 9e 07 65 be ae ab 49 bd e9 b0 18 3e a8 a1 6f bd
       -0.22366187 -0.049235992 0.14911236 -0.058503777
000130 6f 56 5d 3d 58 7c fa 3a 6d c8 2b be 45 e4 d9 3d
       0.054037508 0.0019110544 -0.16775675 0.10639242
000140 8d ec 1f bd e6 20 6a 3c bc d2 35 be 81 9b 91 bd
       -0.03904395 0.01429007 -0.1775617 -0.07109738
000150 c2 18 d3 ba eb df 72 bd 90 98 6d 3d 5e 95 e5 bd
       -0.0016105401 -0.059295576 0.058006823 -0.1121013
000160 3f 8a d3 bd f8 2a 43 3a c2 22 3f 3e 42 b9 71 be
       -0.10329103 0.00074450625 0.18665603 -0.23605826
000170 a4 13 6f 3d 13 ae b6 ba 42 79 cb 3d 75 31 96 bd
       0.05836834 -0.0013937376 0.099352375 -0.07333652
000180 09 77 94 bd a4 50 ab 3d dd 8c bf 3d cd 57 a7 bd
       -0.07249267 0.0836499 0.093530394 -0.081710435
000190 b7 64 01 3d 74 b7 13 be c7 47 cc bd 50 52 de bd
       0.03159019 -0.1442545 -0.09974628 -0.108555436
0001a0 57 ed 3e bc e9 b8 84 bc a9 d3 46 bc e6 67 24 3e
       -0.011653266 -0.016201453 -0.012135425 0.16055259
0001b0 10 88 a9 3d cc e3 19 bd 04 0e 58 be d4 cc 85 3d
       0.08277905 -0.03757076 -0.21099097 0.065332085
0001c0 60 20 70 3e 9a 31 ce bc c7 44 cc bc 3c c6 f8 3d
       0.2344985 -0.025170136 -0.02493514 0.12147185
0001d0 19 5d 14 3d cd 3c 27 3e d0 6f 85 bd 53 8e 1a 3e
       0.036221597 0.16331787 -0.06515467 0.15093355
0001e0 34 55 9e 3d ab 66 60 bd e7 53 d1 bd 59 87 a7 3b
       0.07731095 -0.05478541 -0.10221081 0.0051125702
0001f0 83 26 83 be 8f ea 38 3e 37 d0 50 3e 75 1d 2c be
       -0.2561532 0.18058227 0.20391928 -0.16808112
000200 2e 77 75 3d af c6 df bc 0c 19 53 be a2 ee f7 3d
       0.05992811 -0.02731642 -0.20615023 0.121060625
000210 74 db 04 3e 86 ed 47 3d 1a ed bc 3c 6e 37 45 3d
       0.1297434 0.048810504 0.023062278 0.048148565
000220 8e 40 31 3e 76 e3 5a 3d 76 e5 df 3d 6d fa 52 bd
       0.17309782 0.05343958 0.10932438 -0.051508356
000230 04 90 b5 bc a6 74 1b bd 74 63 68 3d 84 74 7f bc
       -0.022163399 -0.03795304 0.05673547 -0.015591744
000240 75 38 bd 3d 48 f9 92 3d 98 b0 34 be 9a 36 f3 bd
       0.09239284 0.07176453 -0.1764549 -0.11875649
000250 5a 61 bc 3d a7 5c 31 bb 22 47 10 3d 34 4a 22 3d
       0.09198256 -0.0027063282 0.035224088 0.039621547
000260 dd 0b 6c 3d ef 41 9f bd 95 34 32 bd 04 f1 42 bd
       0.0576285 -0.07776248 -0.043507177 -0.04759313
000270 b9 63 66 be 1a cc d9 3d cf 7c 29 3c a6 9f a4 bd
       -0.22498979 0.106346324 0.010344698 -0.08038263
000280 a0 3a de 3d 8d 44 cc 3c ef 62 0b be cf 09 ee bd
       0.108510256 0.024935031 -0.13611959 -0.116229646
000290 e6 53 e3 bd 1b 39 45 bd b3 c2 02 3d 75 3d 19 3c
       -0.11099987 -0.048150163 0.03192396 0.009353031
0002a0 03 46 1c 3d bf cc 2a bd 84 be 51 3a 01 87 4e 3d
       0.038152706 -0.041699167 0.00080011063 0.05042172
0002b0 0d ce 16 3e 11 e8 05 3d e0 da b1 bc c6 33 86 bd
       0.1472704 0.03269202 -0.021710813 -0.06552844
0002c0 9a ec fb ba d7 30 48 3e d5 49 61 bd f0 79 1b 3e
       -0.0019220293 0.19549881 -0.055002052 0.15183234
0002d0 73 dd 38 3e 08 35 35 bd ce 25 67 bd f5 4e 77 3c
       0.18053226 -0.044240028 -0.056432538 0.015094508
0002e0 f8 2c 12 be ab 37 f2 bd 10 41 af bd 95 93 08 be
       -0.14274967 -0.11827024 -0.085573316 -0.13337548
0002f0 a5 99 f5 3c a8 da 14 3d 91 35 21 3c 65 6a a0 bc
       0.02998049 0.03634134 0.009839431 -0.019581983
000300 37 df a6 3d de 85 1e bc 4f 68 f8 3d 77 ca b2 bd
       0.081480436 -0.009675471 0.1212927 -0.08730023
000310 83 98 e9 3d 85 ec 7c be c8 2a da bc 86 f2 1e 3e
       0.114060424 -0.246996 -0.026631728 0.15522203
000320 75 77 d7 bd 05 64 d6 3d 26 13 02 bb 7d 65 25 3d
       -0.105208315 0.10468296 -0.001984784 0.04037999
000330 89 af 6e be 81 07 bb bd 4f 9c b5 bd 0a 0d 7e 3d
       -0.23309149 -0.09132291 -0.08867704 0.062024154
000340 7d e2 cf bc 6d a1 44 be 6d 0a 53 3d 40 f4 3c bd
       -0.025376553 -0.19202204 0.051523615 -0.046131372
000350 c8 28 9a bd ca 1d 35 3d 55 e2 c5 3c a7 df 5c bd
       -0.0752731 0.044217862 0.024155775 -0.05392423
000360 28 6e 37 be a1 24 b7 3d 12 80 85 3b fb a4 07 3d
       -0.17913115 0.08942533 0.004074105 0.033116322
000370 49 97 21 bd ee 94 30 be 6d a4 9e 3d aa cc d5 bc
       -0.039450917 -0.17244312 0.077462055 -0.026098568
000380 24 fe c9 3d 3b 37 cf bd 7d 95 da 3d 71 85 7d bd
       0.098629266 -0.10117956 0.10673044 -0.061894838
000390 46 dc 23 be 86 e9 1c 3d ea b3 88 bd 86 8f 24 3d
       -0.16001996 0.038308643 -0.06674941 0.040175937
0003a0 91 b3 e2 3d 78 63 a6 bc 84 4d e5 bc 21 87 90 be
       0.11069406 -0.020311102 -0.027991064 -0.28228095
0003b0 dd 62 28 3e c8 39 64 3d ae 05 9e bd c4 ff a2 bd
       0.16443963 0.055719167 -0.07715927 -0.0795894
0003c0 53 a7 9f 3d 1f 34 98 bd d4 4e bc 3d 61 44 c7 bd
       0.077955864 -0.07431816 0.09194723 -0.09729839
0003d0 61 37 3c 3d 60 7e 01 3e 20 e6 3f 3d d9 5a a0 3d
       0.04595125 0.12645864 0.046850324 0.07829828
0003e0 e8 ed f6 3d 02 82 3e bd 0e ff 22 be 7a 68 bc 3c
       0.12057096 -0.046510704 -0.15917608 0.022999037
0003f0 5b 39 01 be a2 73 4d 3d 6d 15 a8 3d 02 72 63 3c
       -0.12619536 0.050159104 0.08207212 0.013882162

bias f4 [24]
000000 d2 e3 99 bd 60 39 b3 3d 86 16 10 3d 09 ae 50 bc
       -0.075141564 0.08751178 0.03517773 -0.012736806
000010 bf 3a a9 3d f5 0f fe bc be ff 71 bc 66 10 38 3c
       0.08263158 -0.031013468 -0.014770446 0.011234378
000020 9a 30 a7 bd 0b 4a 2d 3a 9d c6 c9 3c 79 67 3e bd
       -0.08163567 0.00066104595 0.024630839 -0.046485398
000030 95 33 c5 3d 25 3a 63 3c 6d be 16 bd 84 19 c7 3c
       0.09628979 0.013868843 -0.036802698 0.024304159
000040 b8 9f 2b 3c 87 70 e7 bc 1f 77 00 bd 9e 7e 97 bc
       0.010475092 -0.0282519 -0.031363603 -0.018492993
000050 86 5b 70 3d 08 18 48 bd 2b 47 0d 3d 20 a0 e1 3c
       0.058681034 -0.048851043 0.0344917 0.027542174
