logs/test/exported/policies/policy_1.pt (torch, 817736 bytes, 8 tensors)

weight f4 [512, 66]
000000 29 de e5 3d 73 0c 64 bc bc 8a 77 bd db 1c 05 3d
       0.11224014 -0.013918984 -0.06043504 0.03249822
000010 8c 17 1a 3c bd 2f 3e bd bc 67 83 3c 6f bb aa bd
       0.009405028 -0.046432246 0.016040675 -0.08336531
000020 e1 35 8e 3d ac 87 93 bb 27 ba 39 3b bb 8d c5 3c
       0.0694387 -0.0045022573 0.0028339715 0.024115434
000030 78 39 8c 3d ce b8 3b 3d a6 7e 8a bd bf 31 ea 3d
       0.06846899 0.04583054 -0.067624375 0.114352696
000040 33 69 70 bb 82 88 e5 3d 82 aa dd bd 8d 36 46 3d
       -0.0036683797 0.112076774 -0.108235374 0.048391867
000050 f0 aa 4b be c0 1a 44 bd e5 2a 25 3c e7 56 65 bd
       -0.19889426 -0.047877073 0.010081028 -0.05599108
000060 7b 7d 3f bd ae aa 95 3d 60 0c 92 3d 3a fd 50 3d
       -0.046750527 0.07307945 0.071312666 0.051022746
000070 2f b8 5c bd b6 c4 8a 3d 32 d3 3e b9 20 ec df bc
       -0.05388659 0.06775801 -0.00018198488 -0.027334273
000080 d3 4b ef bc d7 bf f1 3b e2 5d 96 3d 84 c9 c9 3c
       -0.02921096 0.0073776054 0.073421255 0.024632223
000090 eb a5 c2 bd 0b 92 ee bd cc 2a 3d be e8 ca 05 be
       -0.095043026 -0.11648949 -0.18473357 -0.13065684
0000a0 4a f1 4b bd 93 2d 1c bd a3 27 8c 3d 0e c2 3b be
       -0.049790658 -0.0381294 0.068434976 -0.18335745
0000b0 62 60 a7 3d a2 cd 93 3d 0c 10 cf 3c 5a ee 82 bd
       0.081726804 0.07216956 0.025276206 -0.06393118
0000c0 a5 ab 35 3e ba 11 9f 3d 34 c2 0f be 99 d1 b2 3d
       0.17741258 0.07767053 -0.14038926 0.08731384
0000d0 2d c8 1f bc 19 bb ad 3d eb 95 13 bd 6f 9f b6 bc
       -0.0097523155 0.08482952 -0.036031645 -0.02229282
0000e0 9e b1 2d 3d 7a 03 df bd 18 96 1c bd 64 1e 50 3b
       0.042405717 -0.10889335 -0.038229078 0.0031756395
0000f0 f6 c1 08 bd f6 32 3c bd df cb d2 3c 61 ff d3 3d
       -0.0333881 -0.045947038 0.025731979 0.10351444
000100 57 f5 ae 3b d0 f7 ae 3d 8d aa 05 3c b9 c3 84 bd
       0.0053393054 0.0854336 0.008158338 -0.06482644
000110 cf 84 68 bd 56 b0 88 bc 61 59 84 bc d3 37 83 3d
       -0.05676728 -0.016685646 -0.0161559 0.06407132
000120 1f ed 26 bb bf 91 63 3c c3 d0 9e bd 69 b1 ae bb
       -0.0025470925 0.013889729 -0.07754662 -0.0053312075
000130 e7 d6 0d bc 26 37 82 bd 6d c6 a8 bc bc ff a8 3c
       -0.008657194 -0.06358175 -0.02060243 0.020629756
000140 23 17 9d 3c 6e e0 b4 bd 78 bb f2 3c e9 27 83 3d
       0.019176072 -0.08831869 0.029630408 0.06404097
000150 b5 ba 88 bd a8 19 32 bd a2 46 c1 3c da 2b 1e bd
       -0.066762365 -0.0434815 0.02359325 -0.03861604
000160 eb b5 30 be ff 45 2c 3d 8a af 06 3d 5d ae d6 3c
       -0.17256896 0.04205894 0.03288225 0.02620619
000170 0c 6b 7f 3c ca e8 49 3d c9 9f 8e 3d c4 89 11 bd
       0.015589487 0.04929427 0.0696407 -0.035531774
000180 0c 5d 9c bd 8b a5 8c 3d c9 36 43 bd 19 d2 eb bd
       -0.07634935 0.06867512 -0.04765967 -0.11514682
000190 2c 80 9c bc f7 af ba 3c 62 ed 0a 3e 5b 02 25 3c
       -0.019104086 0.022788985 0.13567117 0.010071362
0001a0 a5 0a 04 3e 9a e9 13 3e d1 3b 0e 3c 95 9d b7 bd
       0.12894686 0.1444458 0.0086812535 -0.08965603
0001b0 6a 30 f7 3d d7 e4 10 3e 1c 45 fe bc 34 dd 79 3b
       0.12069781 0.14149795 -0.031038813 0.0038126232
0001c0 bf 9f 5c 3d 8e f1 e8 bb 46 21 03 3c 00 ad f2 3c
       0.053863283 -0.0071088737 0.0080035385 0.029623508
0001d0 58 91 c1 3c 6e 38 d9 bd fd 7b b6 3b 7e 9b a3 3d
       0.023628876 -0.10606466 0.00556898 0.07988642
0001e0 33 96 ad bc 91 54 88 bd 6f 96 b1 bc ae 5d a3 3d
       -0.021189785 -0.06656755 -0.021678178 0.07976852
0001f0 0d da 11 3b 87 82 ae 3d 95 0f 1d 3c c7 87 f8 bd
       0.0022255213 0.0852099 0.009586235 -0.121352725
000200 ee 1f ff 3c 4b 5d d4 3d 77 e5 84 bd 6f 2c 81 bc
       0.031143155 0.10369357 -0.064890794 -0.015768258
000210 e5 cb ee 3b a4 21 6c 3d 64 bc 43 bd 23 f8 46 3c
       0.0072874897 0.05764927 -0.047787085 0.012144121
000220 a2 df 19 3d 75 bb f7 3c c4 62 95 3d 49 61 9a bc
       0.03756679 0.030240754 0.07294229 -0.018845217
000230 5b c9 98 bc b9 bc 91 bc 4a 77 8b bc 3e 1c b2 bc
       -0.018650701 -0.017790185 -0.017024655 -0.021741983
000240 5a 73 c3 3d 22 1f b3 bd d5 fd 9e bd 93 61 a2 3d
       0.09543486 -0.087461725 -0.07763258 0.07928767
000250 16 2c 05 bd 3f a9 d2 bc c4 8c 3c 3d 3e b1 09 3d
       -0.032512747 -0.025715468 0.046032682 0.033616297
000260 b3 21 8d 3d 28 80 75 bc ff fb 43 3d b8 97 47 bd
       0.06891193 -0.014984168 0.047847744 -0.048728675
000270 bb cd fa bc 77 aa 94 bc f7 ee 23 bb ef e3 2f bd
       -0.030615678 -0.01814769 -0.002501426 -0.042941984
000280 99 eb 9c bc 60 3d 98 bc 59 5d 3c bd fb e5 42 bc
       -0.01915531 -0.018583953 -0.04598746 -0.011895652
000290 4a 19 6e bd d5 92 95 bd 5a f5 a3 3c 38 2f 87 bb
       -0.058129586 -0.073033966 0.020014454 -0.004125502
0002a0 05 a9 20 be 78 cd 07 be 9b 92 33 be c8 5d 72 be
       -0.15689476 -0.13261974 -0.17536394 -0.23668587
0002b0 7e 35 7a bd 79 33 1f 3e 23 92 c6 bd ac 44 d7 bc
       -0.06108617 0.15546979 -0.09695842 -0.026277862
0002c0 38 b3 28 3b ad 6f c5 bc a9 ba ab bb 44 2d db bd
       0.0025741588 -0.024101103 -0.0052407575 -0.10701993
0002d0 15 5e c9 bd e8 70 54 3d 3a 0d ff bc 98 64 6f bd
       -0.09832398 0.05186549 -0.031134237 -0.058445543
0002e0 2a 33 d4 3c 02 d6 14 bc f4 14 56 3d 3d 74 7d bd
       0.025903303 -0.009084227 0.052266076 -0.06187843
0002f0 27 5e 88 3d 7c db 87 bd d5 56 a4 3d 66 b4 6c 3c
       0.06658583 -0.0663366 0.080243744 0.014447307
000300 98 a3 6b bd 55 29 13 3e ee 99 d9 bb 40 c8 0c 3c
       -0.057529062 0.14371236 -0.0066406643 0.008592665
000310 9c 50 b3 3c 43 30 bc bb f5 30 2a bd d9 9b 0b bd
       0.021889023 -0.005743058 -0.041550595 -0.034084175
000320 f3 d2 35 bd 95 7d fb bd 60 3d d5 bc 82 0a c9 bb
       -0.04439063 -0.12279812 -0.026030242 -0.006135286
000330 09 e5 2a bc 5e 95 30 3d ff c5 3b bd c3 f9 e2 bc
       -0.010430583 0.043111198 -0.04584312 -0.027706986
000340 2e b7 c5 bc 4b 15 9e 3d 6a 16 03 3c 39 31 26 bd
       -0.024135198 0.07718905 0.008000949 -0.040574286
000350 69 d3 19 bd 8e 14 41 bd a2 5d ce 3c e1 4e ff bb
       -0.037555132 -0.047138743 0.025191132 -0.0077913855
000360 71 ee 03 3d 98 b3 50 3b 41 5c e9 3c 7c 69 e8 3d
       0.032209817 0.0031845327 0.028486373 0.113482445
000370 19 09 9b bd 79 a5 b6 3c 44 ea 49 3b e9 c6 4d 3d
       -0.075700946 0.0222957 0.00308098 0.050238524
000380 b2 97 c9 bc 63 22 4e bc e9 26 3a 3d 1a 6f 94 3d
       -0.024608467 -0.012581441 0.045447264 0.072477534
000390 11 50 3e bd 93 c2 ee bd 9c 41 88 3d 15 b9 ce b9
       -0.046463076 -0.11658206 0.06653139 -0.0003942928
0003a0 f9 21 bc bd 82 50 53 bc 08 de dd 3d 74 cd 1b 3d
       -0.09186167 -0.0128976125 0.10833365 0.038037732
0003b0 bd 8e 97 3c f1 ca 01 3e 1b 94 57 bd 28 4f 4d be
       0.01850068 0.12675072 -0.05263148 -0.20049727
0003c0 3f 18 19 3d 91 3e 09 bc 17 c4 06 3d a6 00 a2 bc
       0.03737664 -0.008376733 0.03290185 -0.0197757
0003d0 56 fb 13 be 13 19 a5 bb db bb ca bc c0 56 87 bc
       -0.14451346 -0.0050383895 -0.02474778 -0.016520858
0003e0 81 98 30 3d c5 f1 25 bd 60 07 8a 3d 81 85 a8 bd
       0.04311419 -0.040513773 0.06739688 -0.08228589
0003f0 2f eb 3c bd 29 3e 67 bd 5c fc ca bc bd 7e 0f 3d
       -0.046122726 -0.056455765 -0.024778537 0.035032976

bias f4 [512]
000000 a7 68 85 3c 89 f3 7f 3c c7 20 ce 3b 41 9b 17 3c
       0.016285254 0.015622028 0.0062905285 0.009253324
000010 2e 25 84 3c 2d e9 e9 3b 53 ce 8f 3c 52 df 6f 3c
       0.01613101 0.0071383924 0.017554438 0.014640646
000020 d4 64 21 3d d8 f3 ad 3c 25 0e 42 3c 1e f6 b2 3c
       0.039402798 0.021234438 0.011844193 0.021845873
000030 74 5c 8b 3c 7b f3 f2 3b ce cc 69 3c a3 8d 56 3c
       0.017011859 0.007414279 0.014270021 0.013095292
000040 89 8c e0 3b 3b 0c 34 3c 3e be a4 3c 4a 6b 21 3c
       0.0068526906 0.010989244 0.020110246 0.00985224
000050 a9 b1 43 3c b0 39 b3 3c cd c1 57 3c 7b 15 f1 3b
       0.011944213 0.021878093 0.013168764 0.007357297
000060 3b 0e 19 3c 83 c8 51 3b a9 5a 04 3c d5 0f e2 3b
       0.009341772 0.0032010383 0.008078256 0.00689886
000070 2d 17 83 3c bc c6 0c bb 4c 8d 72 3a 72 1f 03 3c
       0.016002262 -0.002148076 0.0009252622 0.008003103
000080 4d 1c 7b 3a f8 d6 78 39 4e 1f 67 3c 5e 41 0c bb
       0.0009579107 0.00023731205 0.014106585 -0.0021401267
000090 eb 72 f6 3b 17 f6 9f 3c 2e fe 7d 3b db ac 3e 3c
       0.0075210235 0.019526524 0.003875624 0.011637892
0000a0 20 b4 a2 3a 1d 66 05 bc 01 b0 25 3b 65 8f 19 3b
       0.00124133 -0.0081420215 0.0025281908 0.0023431417
0000b0 75 50 15 3c 54 3e d6 3b 90 37 0d 3c 8f ba 28 3c
       0.009113421 0.006538192 0.008619204 0.010298385
0000c0 a5 0e 90 3b 5b e1 01 3c 4d 10 1d bc 3c 9a 43 3c
       0.004396277 0.007927264 -0.009586406 0.011938628
0000d0 c8 e1 9f 37 38 bd 5c 3c 91 ac a8 39 03 04 c2 3c
       1.9059415e-05 0.013472848 0.0003217203 0.023683554
0000e0 dd 3c c7 3c ef 0b 36 3c d9 e6 38 3c 85 e6 8d 3b
       0.024321014 0.011111244 0.011285507 0.0043304586
0000f0 61 57 d2 3b 81 ef c2 b8 a5 d7 ac 3b 4c 0b 41 bb
       0.006419108 -9.295252e-05 0.0052747303 -0.0029456196
000100 6f 90 d5 39 49 9d 78 bb 1e 54 3c 3c d2 16 c1 3b
       0.00040734137 -0.0037935546 0.0114946645 0.005892613
000110 d5 f4 0d 3d 7e 5c 08 3c 13 80 da 3b bd 8a 75 bb
       0.03465732 0.008322833 0.0066680997 -0.0037466728
000120 b9 df 81 3a fe 3b a2 3b f9 9f 85 3a 3c bf 7c 3b
       0.0009908593 0.0049509993 0.001019477 0.0038566133
000130 71 69 6c bc 8a fc 14 3c 1d ab 76 3c 15 b7 3a 3c
       -0.014429436 0.009093413 0.015055445 0.011396189
000140 38 3b 48 3c 27 9c 10 3c 66 88 4f 3c 55 e6 82 3c
       0.01222115 0.008826292 0.012666797 0.015978971
000150 02 2a 00 3a 0f 98 2c 3a dd cf 81 3b 40 05 8f 3c
       0.0004889072 0.0006583938 0.003961547 0.017458558
000160 c0 4c 3a bb 97 e2 90 bb 30 e7 97 3b cd 91 ab 3c
       -0.0028427094 -0.004421543 0.004635714 0.020943547
000170 99 33 bf 3b 02 bf 3a bc dc 67 53 3c e2 13 24 3c
       0.0058350083 -0.011398079 0.01290318 0.010014506
000180 e3 08 8b 3b f8 b8 ab bc f4 41 e9 bb 3e d8 7f bb
       0.0042430027 -0.020962223 -0.007118458 -0.0039038802
000190 e5 fb db 3b 5d a9 18 3c 07 5d ce 3b 9e 19 99 3c
       0.006713378 0.009317723 0.006297711 0.018688973
0001a0 01 38 25 3b f5 1f 0e 3c ee 3b 97 3c 1d e5 fc 3b
       0.0025210383 0.008674611 0.018461194 0.007717742
0001b0 8b ef 4a 3c 00 23 81 3c 31 4c 72 3c 31 ac 85 b9
       0.012386213 0.01576376 0.014788673 -0.0002549603
0001c0 63 50 cd 3b 8a 20 f0 3c 43 d8 e2 3b ca 20 ff 3c
       0.0062656864 0.02931239 0.006922753 0.031143565
0001d0 a7 4f 33 bc 45 db b5 3b 1f dc 64 bb cb a1 a2 3b
       -0.010944284 0.0055498206 -0.0034921241 0.004963135
0001e0 4d 15 a5 3b 4f f4 6c 3c e9 ed 30 3c 52 b5 c1 3a
       0.0050379396 0.014462545 0.01079891 0.0014778769
0001f0 26 ce ca 3b 07 87 31 3c 1d 56 02 3c 7d e7 99 3c
       0.0061891256 0.010835416 0.007955101 0.01878714
000200 24 05 bb 3b de b6 45 3b c2 6c 7f 3b 17 9f 35 3c
       0.0057074 0.0030168812 0.0038974737 0.011085293
000210 bb 81 5d 3b 9c 3e 2d bb f8 53 bb 3c 35 58 cd 3b
       0.003379925 -0.0026435023 0.022867188 0.0062666186
000220 6a 47 d9 3c a2 36 01 3d 4d d5 96 3c 7d 67 e6 3c
       0.02652331 0.031546243 0.018412257 0.028125519
000230 29 42 13 3c 19 f2 9e 3c c3 38 06 b9 3e 39 14 3c
       0.008987942 0.01940255 -0.00012800381 0.009046851
000240 50 1c 84 3c 4b d3 ab 3b c6 93 43 3c d0 c7 e7 3b
       0.016126782 0.005243694 0.011937087 0.00707338
000250 33 2d df 3a 29 23 77 ba c9 0c 0a 3b 87 64 07 3c
       0.001702702 -0.00094275415 0.002106475 0.008263714
000260 42 76 83 3c 58 0c 7e 3c d8 0d f0 3b fd 40 3f 3b
       0.0160476 0.015505873 0.007325869 0.0029183023
000270 07 04 aa 3c ca 54 d8 3b 92 16 d3 3b e1 bd 1f 3c
       0.020753874 0.0066019045 0.0064418996 0.0097498605
000280 ac 41 89 3c a9 44 8b 3c 12 4c b6 3b ef 0e 94 bb
       0.016754948 0.017000513 0.0055632675 -0.004518382
000290 74 31 08 3c ce 53 d0 3c 80 80 a0 3c 8d 0b a8 3c
       0.008312572 0.025430586 0.019592524 0.02051332
0002a0 0a 26 8b 3b 63 95 e2 3b 4d 9e 5b 3a ff f4 98 3c
       0.004246478 0.006914781 0.00083777757 0.01867151
0002b0 97 93 7f 3c 47 eb 16 3c 4e de 93 3c 2e ca 8c 3c
       0.015599153 0.009211368 0.01805034 0.01718625
0002c0 bb 41 f8 ba d5 bd 4e 3c 2c 18 24 3c c6 38 c7 3b
       -0.0018940488 0.012618502 0.010015529 0.006079766
0002d0 6d 08 05 ba b2 b9 83 bb da 18 3f 3c ab c5 bd 3a
       -0.0005074803 -0.0040199393 0.01166364 0.0014478465
0002e0 fd fd 98 3b d0 ca 57 3b 33 74 21 3b a0 d2 d6 bb
       0.0046689496 0.0032927282 0.002463591 -0.00655587
0002f0 fe 17 f4 3b b2 95 0e 3c 2f ff a7 3c ec 2c 54 3c
       0.007449149 0.008702682 0.020507423 0.012950163
000300 7a 11 f6 3b ea f6 9b 3b 98 69 ed 3a ab 22 78 3b
       0.0075094076 0.004759659 0.0018113134 0.003786246
000310 fa a8 ae 3b c5 10 ab 3b ee c9 81 3c a0 12 3f 3c
       0.005330202 0.005220505 0.015843358 0.011662155
000320 36 93 b5 bb 26 48 bc 3c da 01 e0 3c 97 25 0f 3b
       -0.0055412306 0.022983622 0.027344633 0.0021842474
000330 01 cc 2c 3c d9 4b 5e 3c f1 07 80 bb a3 4b 34 3c
       0.010546685 0.013567888 -0.0039071967 0.011004361
000340 ac 66 50 bb dd 9a 45 3c 41 7b 52 3c fe 2d 05 3b
       -0.0031799478 0.012060848 0.012846769 0.0020321603
000350 d3 aa b0 3b 23 88 51 3c 37 eb df 3c 80 9f 0d bc
       0.0053914576 0.012788805 0.027333839 -0.008643985
000360 87 15 07 3c a9 2b 4b 3c bd c5 38 3c 8b 99 6f 3c
       0.008244879 0.012400546 0.011277613 0.01462401
000370 0a be 98 3c fc e5 6b 3c c2 49 5a 3b 31 54 3e 3c
       0.018645305 0.014398094 0.0033308123 0.0116167525
000380 03 6a f7 ba 9c 5f 2c 3c 0b 5e 61 3c 70 9d ff bb
       -0.0018876198 0.010520842 0.013755332 -0.0078007504
000390 5e db ab 3c a3 76 c6 3b 06 56 1e 3c 8b 5a d0 3b
       0.020978626 0.006056623 0.009664064 0.00635845
0003a0 25 f0 99 3c 75 04 61 bb c5 43 80 3b f4 16 87 3c
       0.018791268 -0.0034334932 0.0039143288 0.016490437
0003b0 60 ce 77 3b e0 8a a0 3c e5 b4 e1 3b cb 43 8b 3b
       0.0037812218 0.01959747 0.0068880194 0.004250025
0003c0 76 bb 3b 3b 69 de cf 3c 43 57 6d 3c 84 ab 25 ba
       0.002864567 0.025374608 0.014486137 -0.00063198083
0003d0 03 8d 56 3c e5 49 ea 3b 06 e1 18 bc c4 9c 76 ba
       0.013095143 0.007149922 -0.0093309935 -0.0009407515
0003e0 fe 77 8a 3c 31 f4 17 3c 6e 9b 99 3c 25 35 8d bb
       0.01690292 0.009274528 0.018750872 -0.004309314
0003f0 39 99 45 3c 01 68 97 3b 1a ad 0a b8 cf 10 51 3c
       0.012060457 0.0046205525 -3.3062977e-05 0.012760355

weight f4 [256, 512]
000000 7d fc 16 bd fc 67 9b bd cd 73 b9 3d 1a 7e e9 3d
       -0.036861885 -0.07588193 0.0905529 0.11401005
000010 fa 68 96 3d 25 d6 90 3d 22 20 90 3d f8 75 e0 bc
       0.073442414 0.07072095 0.07037379 -0.027400002
000020 da fb 52 bd 28 df 90 bd df 67 b7 bc f0 8d 8a bd
       -0.051509716 -0.07073814 -0.022388397 -0.06765354
000030 4f 2e 75 bc 0c 1a b4 3d 2b 8e 44 bd 74 8a 02 3d
       -0.014964654 0.087940305 -0.047987144 0.03187032
000040 8a e2 8e be 17 95 c7 bc aa ec a8 bb 68 4f 23 3c
       -0.2790721 -0.024363084 -0.0051551657 0.009967662
000050 7c a1 26 3d cf d5 fa bd 1e 57 1d bd 1f 86 99 3c
       0.040681347 -0.12247812 -0.03841316 0.018740712
000060 b7 e4 41 3d a0 89 a6 3c 04 09 af bd 34 50 c3 bd
       0.04733726 0.020329297 -0.085466415 -0.09536782
000070 2c a2 2b 3c 19 22 0b 3c d1 3e 8b bc 10 a3 85 3d
       0.0104756765 0.008492016 -0.016997727 0.06525242
000080 7a 14 77 bd 35 49 bf bd 55 66 b1 bc c9 08 1a 3b
       -0.060322262 -0.09340135 -0.021655241 0.0023503772
000090 61 61 45 3d 2a ba 1d 3b 36 ab b5 3c 28 99 8b bb
       0.04818857 0.0024067261 0.022176366 -0.004260201
0000a0 78 c7 bd 3c 29 d0 f2 3c a8 b9 b2 bd 36 a0 2f bb
       0.023166403 0.029640274 -0.08726817 -0.0026798374
0000b0 4d 14 9d 3d f8 09 9a bb ce dd 68 bc a4 21 b6 bc
       0.07669888 -0.0047008954 -0.014213039 -0.022232838
0000c0 b8 c5 be 3d 9a d5 0c bd f9 85 12 bd 8b 51 4d bb
       0.093150556 -0.034383394 -0.035772298 -0.003132912
0000d0 bb 58 63 3c 85 cb ca bb e3 74 62 bb c0 b8 13 be
       0.013876135 -0.006188812 -0.0034554533 -0.14425945
0000e0 8f 97 c0 bd 32 a0 9e 3d ac 4f 86 bd 11 a3 84 3b
       -0.094039075 0.077453986 -0.06558165 0.0040477593
0000f0 37 2e f1 3c d1 1c 4e 3d f2 3d b5 bc 4b 36 8d 3a
       0.029440982 0.05032045 -0.022124264 0.0010773627
000100 85 24 33 3a b9 59 02 3c 62 15 fd bd 09 69 0b 3d
       0.000683375 0.007955962 -0.12357594 0.034035716
000110 fd 33 af bd 06 3a 37 3c 9b fd bb bc 57 7b a0 3d
       -0.08554838 0.011183267 -0.022948077 0.07836025
000120 93 d7 c8 3b d9 28 c1 39 41 31 2b 3d 01 4f 33 3d
       0.006129214 0.00036842262 0.04179502 0.043776516
000130 22 a6 a3 bb eb 64 86 bd 52 07 97 be ee ce 94 bc
       -0.00499417 -0.06562217 -0.29497772 -0.018165078
000140 eb 7d 50 bd 71 d5 eb bc 18 48 cb bd fa fc 68 3c
       -0.050901335 -0.0287883 -0.0992586 0.014220471
000150 ca 88 c0 3c 8c 40 4b bd 3a a3 b7 bc f1 47 be bd
       0.023502726 -0.049622104 -0.0224167 -0.092910655
000160 69 b3 04 bd 69 a3 dd 3d 87 98 1e 3d ae 2e 43 3d
       -0.03239766 0.10822184 0.03871968 0.04765194
000170 8e aa 30 ba 24 3b 14 3d 97 e3 c1 3d 29 ea d9 3d
       -0.0006739282 0.036189213 0.094672374 0.10640366
000180 42 46 48 3a 38 2f 93 3d 08 eb 4f bd e7 51 a4 3c
       0.0007639864 0.07186741 -0.050761253 0.020058585
000190 3d 08 c0 bc 55 63 da 3b 05 04 a3 bd b3 8f 35 bc
       -0.023441428 0.0066646733 -0.07959751 -0.011081624
0001a0 8d 8f 95 3c 55 d9 96 bc 63 ff d0 3c 66 b2 18 bd
       0.018256927 -0.018414179 0.025512403 -0.03727951
0001b0 46 0c 48 3b 97 4e fc 3c 76 07 40 3d 8c c5 2d bc
       0.0030524894 0.030799193 0.046882115 -0.010606181
0001c0 03 30 7a 3c 8f b0 c6 bc d5 81 02 3d 7e 37 2f be
       0.015270236 -0.024254112 0.0318621 -0.17111012
0001d0 24 1a 5c 3d 74 58 85 bc 3b 70 06 bd 77 20 bd bd
       0.053735867 -0.01627753 -0.032821875 -0.09234708
0001e0 81 c0 6b 3d c1 2c 93 3b b9 47 08 bd 23 ac 90 3d
       0.057556633 0.004491419 -0.033271525 0.070640825
0001f0 09 5b e6 bc 59 bd 08 bd 13 9e ec bd 38 3c 57 3d
       -0.02811958 -0.0333837 -0.11553588 0.052547663
000200 6c b6 74 bd a2 4a 12 3d 1e 1e 4e bd e7 ab f4 bb
       -0.059744284 0.035715707 -0.05032169 -0.0074667814
000210 27 43 12 3d fd 84 4c 3d d6 08 86 bd e8 e0 ba 3c
       0.035708573 0.049931515 -0.06544654 0.022812322
000220 e0 ba ed bc c1 ad 2d be 4a 14 44 3c c9 46 2e 3d
       -0.029019773 -0.16960813 0.011967728 0.042547975
000230 47 d1 89 bd c1 dc a8 bd a5 4c d0 3c bd 76 ce 3d
       -0.067293696 -0.082452305 0.025427172 0.10081241
000240 dd 84 0f bd b1 ef 02 bb 6a d2 ee bd f2 41 ba 3d
       -0.035038818 -0.0019979293 -0.11661227 0.09094609
000250 9d 35 b8 3d 5a 32 6d bd 44 a7 9f 3d 5f 0a 11 be
       0.08994601 -0.057909347 0.07795575 -0.14164113
000260 a9 4c af 3c 10 ae 31 3d 1a 20 7d 3d a3 c9 ae 3d
       0.02139886 0.04337889 0.061798193 0.08534553
000270 16 5b 77 3c 20 c2 34 3d 78 8d 06 bd 9a b3 13 3d
       0.0150974 0.044130445 -0.03284976 0.036059953
000280 a5 6a 4e 3d 40 e3 ee bc 6f ef fe 3d d9 e9 92 3c
       0.050394673 -0.029161096 0.12448012 0.017933773
000290 65 cb de bb 2b 68 0a 3c 59 7c 53 bd 7c ea f1 bc
       -0.006799149 0.008447687 -0.05163226 -0.029530756
0002a0 7f 92 93 3c e4 eb 7b 3b 14 f0 50 3d 47 92 cb bd
       0.01801419 0.0038440162 0.051010206 -0.099400096
0002b0 16 e6 49 3d 84 87 6a bd d9 ea 66 bd 48 91 9a bd
       0.049291693 -0.057258144 -0.056376312 -0.075472414
0002c0 be 3c 7d bc c9 d2 f6 bc b0 9c 97 3d fe 9a 8c bc
       -0.015456377 -0.030129807 0.07402933 -0.01716375
0002d0 1a ce 9a 3d 5e e0 af bd ce 0d 18 bd d0 da ad bd
       0.07558842 -0.085877165 -0.03712254 -0.08489001
0002e0 e3 1b 6e 3d 13 a1 2a bd e5 89 eb 3c a7 fa 37 bd
       0.058132064 -0.04165752 0.028752277 -0.044916775
0002f0 88 fb 0e 3d 27 3f c7 3d 9d a7 57 bd 31 24 0a bd
       0.034907848 0.09728842 -0.052650083 -0.03372592
000300 a1 16 8c bd 2f c4 30 3d 6a c9 69 3d ac d8 b9 bc
       -0.068402536 0.043155845 0.05707685 -0.022686325
000310 fc 1f 97 bd ae 1b b4 3d b7 5d 17 bc dd 61 1c bd
       -0.073791474 0.08794342 -0.009238652 -0.038179267
000320 bf 6a f4 3c 66 eb 26 be 59 37 9c bd 1f 5a c1 3c
       0.029836057 -0.16300735 -0.07627744 0.023602543
000330 56 fd d1 bc b2 4c 44 3d f4 79 6c 3d d8 2b ca bc
       -0.025633495 0.047924705 0.05773349 -0.02467911
000340 fe 38 eb bb 9f 54 00 bd c7 5b 87 3b 3c 52 b8 3d
       -0.007178425 -0.0313307 0.0041308138 0.0900006
000350 2e d5 d7 3c e8 7c 43 bd a8 10 6f bd da b0 44 3c
       0.02634677 -0.04772654 -0.058365494 0.012005055
000360 26 95 4f bd 3c d6 20 bd c3 c9 e6 3c db f2 01 bd
       -0.05067935 -0.03926681 0.02817238 -0.031725746
000370 24 fb 8d bb 02 e3 ec bd a8 e9 88 3c 55 a8 5a bd
       -0.004332917 -0.11566736 0.016712978 -0.05338319
000380 78 71 8d 3b 1b 42 d1 bc 0c 56 53 3d 43 a5 82 bd
       0.004316505 -0.025544217 0.051595733 -0.063791774
000390 c2 f4 12 bd ec 3f f6 bb 65 73 ab 3d ec d8 21 3d
       -0.03587795 -0.0075149443 0.08371619 0.039513513
0003a0 9d 61 20 3d 5c e2 f2 3c ee dd 0c 3d 43 7c b4 bd
       0.03915559 0.029648952 0.034391336 -0.088127635
0003b0 a9 79 db 3c 98 5e a1 be cd e4 b6 bb 9f 6b e0 bd
       0.02679141 -0.31517482 -0.0055814744 -0.10958027
0003c0 42 e9 b7 bd 0c 5d 00 be f4 dc 45 3d a6 b4 c6 bb
       -0.08980037 -0.12535495 0.04830642 -0.0060640154
0003d0 3a 27 90 bd 81 63 e1 3c ff 1c dc 3c 29 31 59 3c
       -0.07038732 0.027513267 0.026869295 0.01325635
0003e0 45 67 d4 bb 84 88 b3 3d 20 09 00 3a c0 fc a1 bd
       -0.0064820372 0.08766273 0.0004884172 -0.07909536
0003f0 c9 d0 d1 bc 28 0d 50 bc 24 85 f8 bc 13 28 b2 bd
       -0.025612252 -0.012698449 -0.030336924 -0.0869905

bias f4 [256]
000000 30 8b 39 3b 97 f7 53 3c c8 77 b7 bb 81 84 03 bc
       0.0028311722 0.012937448 -0.005598996 -0.008027197
000010 50 55 63 3b da 36 9e 3b a2 ce a6 3b ef d1 b9 3b
       0.0034688301 0.004828316 0.0050905505 0.005670778
000020 4d 7c 9c 3b c3 ec 91 3a 93 cb 4b 3c ec f9 83 ba
       0.00477556 0.0011133183 0.012438673 -0.0010068989
000030 8c c8 12 3a f9 1a a2 3b 1b 2e d2 bb 8d 07 6c 3c
       0.0005599342 0.004947063 -0.0064141876 0.014406097
000040 3c ca 44 3c e4 c1 73 bb 4a 74 a0 bb 9a 37 94 3b
       0.012011107 -0.0037194425 -0.0048966752 0.00452323
000050 37 e4 69 3c 4f 67 f3 3b a7 f0 bc 3b 5c f8 ac bb
       0.014275602 0.007428087 0.0057659927 -0.00527863
000060 12 bc 65 3b bf bf 8d 3b 8d 6e 5f bb 21 be 39 3c
       0.0035054726 0.0043258364 -0.0034092993 0.011336834
000070 74 2c 58 3c 0d 29 eb 3b fd 5e 60 3c 8e a1 41 3b
       0.013194192 0.0071765245 0.013694522 0.0029545757
000080 e8 77 cd 3b e6 fc b8 3b 97 e0 78 3c 2d e3 e1 3b
       0.0062703975 0.005645382 0.015190265 0.0068935365
000090 c1 37 0c 3c c1 55 73 3c e3 7f c6 3b 3d 82 03 3c
       0.008558215 0.014851988 0.0060577258 0.008026657
0000a0 23 5f 13 3c d6 82 60 3c 7a a1 80 bc fe dc 76 bb
       0.00899485 0.013703069 -0.015701998 -0.0037668343
0000b0 12 84 0a bb 6a 59 9a 3b d0 cc ed 39 5f 09 9d bb
       -0.002113585 0.004710366 0.0004535676 -0.004792377
0000c0 b4 4c 4f 3b fc 7a 2c 3c e1 84 86 3c 7b ae 51 3b
       0.0031631412 0.010527369 0.016420783 0.0031994868
0000d0 22 40 0b 3c d3 cb 64 ba c9 67 9d 3c 6c 77 5d 3c
       0.008499177 -0.0008727882 0.019214528 0.013517242
0000e0 5b b0 93 bb ea b9 02 bc df df 11 3c 97 66 33 3c
       -0.004507107 -0.007978896 0.008903473 0.010949752
0000f0 40 3d ad 3a 27 d8 d8 3b cc 8f 32 3b 1a a7 84 bb
       0.0013217106 0.0066175642 0.0027246354 -0.0040482404
000100 e5 67 e2 39 36 bb c4 3a 58 15 be 3c 94 97 01 3c
       0.00043183487 0.0015009406 0.023203537 0.007909674
000110 30 56 ae bb ff 58 be 3b 36 1d 4a 3c e0 5f 79 3b
       -0.005320333 0.005808949 0.012336066 0.003805153
000120 ed 50 c2 3b 42 2c e1 3a 1f 76 28 3b 22 51 0f bb
       0.0059300573 0.0017179328 0.0025705171 -0.0021868427
000130 45 d7 aa bb d2 29 37 bc 8f 68 af 3a 98 13 51 3b
       -0.0052136504 -0.011179404 0.0013382601 0.0031902548
000140 9f 99 70 39 8d f3 27 bb 8c 9e e9 ba af 50 09 bb
       0.00022945412 -0.0025627345 -0.001782374 -0.0020952632
000150 67 cc 70 bb 8a d2 26 3c 83 1e 5d 3c a7 0c 6b 3c
       -0.0036742927 0.010182032 0.013496044 0.014346278
000160 5a 45 5a 3c 9d b0 a2 3c 95 7a 0f 3c 44 b6 5c 3c
       0.013322199 0.019859606 0.008757253 0.01347119
000170 70 2f 27 3c 1d b1 be 39 7d 5a ef ba 3d 5e c4 3b
       0.010204181 0.00036371584 -0.001826122 0.0059926794
000180 0c 04 1d 3c db 01 30 3c 89 20 01 ba 56 f9 a5 3b
       0.009583484 0.01074263 -0.00049258076 0.0050651236
000190 2a 6c e1 ba bf f3 26 3b 69 e3 56 3b b1 ad 0b 3c
       -0.0017198373 0.0025474874 0.0032789356 0.008525298
0001a0 36 b8 98 3b f0 b7 9b bb 0e 8f db 3b 3d 5b c9 b9
       0.0046606315 -0.0047521517 0.006700403 -0.00038405685
0001b0 ea 11 2f 3c c5 e0 d5 3b b8 48 9f 3b 5f b1 ea 3b
       0.010685423 0.0065270388 0.0048609637 0.0071622576
0001c0 96 3a 18 3b 5d 2c 5b ba 71 05 f1 3b e6 f4 f6 3b
       0.002322828 -0.00083607977 0.007355385 0.0075365184
0001d0 9a 15 08 3c cb 7c 77 3c 82 0f b3 bb f5 3b 89 3b
       0.008305931 0.015105437 -0.005464495 0.0041880556
0001e0 09 82 23 3c 87 fb 00 bc 9c 53 f8 3b 02 d6 08 3c
       0.009979733 -0.007872469 0.0075783264 0.008351805
0001f0 90 0c 49 3c e7 d3 00 3c 40 2d c7 3b 82 cf 0d 3c
       0.012271062 0.007863021 0.0060783923 0.008655431
000200 b0 10 f9 3a b0 d6 4b 3a 12 81 ce 3a e4 63 7a 3c
       0.0019002166 0.00077758264 0.0015755019 0.015282605
000210 7e 0e f4 39 b5 32 ff bb 2c c7 fb bb 3d 01 10 3c
       0.00046550104 -0.007788027 -0.0076836552 0.008789358
000220 da f3 b6 3b a8 96 28 3c f4 a7 5d 3b 82 b8 33 3c
       0.0055832686 0.0102898255 0.0033822032 0.010969283
000230 5e 1e 22 bc 7f ac 44 3b 09 33 ed bb 28 8d 4b 3b
       -0.009894935 0.0030010042 -0.00723875 0.0031059477
000240 60 70 7d 3b 62 5e 0e bc 3c 39 13 3b cd 98 27 3c
       0.0038671717 -0.008689495 0.0022464534 0.010229302
000250 88 10 05 bc e4 fd 05 3c 05 95 24 bc 6b b5 9f bb
       -0.008121617 0.008178208 -0.010045295 -0.0048739216
000260 8b 11 e4 3b 4e 19 31 bb f4 3f f5 3b a9 d0 02 bb
       0.006960099 -0.002702314 0.0074844304 -0.0019960797
000270 1e 27 1f bc d5 de fa 3a 60 ac 34 3c 8d f5 6c 3a
       -0.009713916 0.0019139895 0.0110274255 0.00090392755
000280 51 21 3a 3c 5d 55 18 3c c4 71 b1 3b d9 bb ed bb
       0.011360482 0.009297696 0.0054151732 -0.007255059
000290 8c 29 4e 3c 71 a5 0b 3b 50 99 7a bb 2f a6 00 3b
       0.012583148 0.0021308328 -0.0038238354 0.0019630303
0002a0 c3 08 b1 bb 68 16 3b 3b db 70 88 bb db be 1c 3c
       -0.005402656 0.002854729 -0.004163844 0.009566988
0002b0 94 ef ca 3b 33 a4 45 bb 10 25 e8 ba 1b 11 8b 3b
       0.0061931107 -0.0030157685 -0.0017711241 0.0042439825
0002c0 86 d0 4e 3b df db 73 bb 0e 8e b3 ba ca a2 7a 3c
       0.0031557395 -0.003720991 -0.0013698952 0.015297601
0002d0 59 97 0b 3c b0 01 86 39 50 7d 8b b9 53 ab a9 3b
       0.008519971 0.0002555973 -0.0002660551 0.005177894
0002e0 85 7e 8d 3b f8 25 23 3c dd 12 2c 3c e4 a3 62 3b
       0.004318061 0.009957783 0.010502544 0.003458255
0002f0 3f f5 3b bb a6 ec 36 bb 26 56 f4 bb 81 48 23 3c
       -0.0028680114 -0.002791205 -0.0074565588 0.009966017
000300 5c 81 c2 3b 80 75 f1 3b 92 25 ee bb ad 74 0c 3c
       0.005935831 0.0073687434 -0.0072676623 0.00857274
000310 dd 31 8b 3b c5 d4 96 3b f4 a9 0c 3c 36 4a 09 3b
       0.0042478875 0.004603001 0.008585442 0.0020948774
000320 52 8f 84 3c 33 c4 2c 3b e2 cc a5 3a 5e 92 b7 3b
       0.016181622 0.002636206 0.0012649561 0.005602165
000330 bf a4 dd bb fe 22 2c 3c 24 cb 1c 3c 76 76 ff 3b
       -0.006764024 0.01050639 0.009569917 0.007796104
000340 bd f7 bf 3b 0f 4b 44 3b cd 6a 02 3c 52 2c b3 3b
       0.00585839 0.0029951965 0.007960034 0.00546793
000350 20 61 06 bc 8b e6 79 3b 01 f6 4d 3c de c9 74 3c
       -0.008201867 0.00381318 0.012570859 0.014940707
000360 7d 50 74 3c 20 d5 02 3c 87 84 10 3b ff b5 9c bb
       0.014911768 0.007985383 0.0022051649 -0.004782438
000370 5d ea 64 3c 47 54 25 bc 99 69 a0 ba 9d c1 b1 3a
       0.013971892 -0.010090894 -0.0012238502 0.001356173
000380 18 d1 13 3a e0 77 20 3c 08 ae 80 3c 7e dd fa ba
       0.00056387624 0.009794205 0.015707985 -0.0019139496
000390 97 dd 66 3c 6e d2 ed 3b c0 14 17 3c 50 b4 4d 3c
       0.014090917 0.007257751 0.009221256 0.012555197
0003a0 8d eb 56 3c af 36 97 ba 88 85 6b 3c 00 b4 81 3b
       0.013117683 -0.0011536683 0.014375098 0.0039582253
0003b0 b3 27 b7 bb 43 2f 02 bc 93 2a f9 3b 9c a3 45 bb
       -0.0055894493 -0.007945838 0.007603952 -0.0030157333
0003c0 c7 bd 57 3c 7c c3 4b ba 03 26 b0 3b 7d 7b b7 3b
       0.013167805 -0.0007772965 0.005375625 0.0055994377
0003d0 8d 8d 1d bb f6 61 7a 3c bb 2e 51 bc 11 6c 1a 3c
       -0.002404067 0.015282145 -0.012767489 0.009425179
0003e0 54 1a d0 3b 68 27 b9 ba 44 2f a3 bb 87 7f 62 3b
       0.006350795 -0.0014126124 -0.0049799997 0.0034560876
0003f0 40 17 5f 3b 00 00 00 00 11 51 95 3b 76 39 19 3c
       0.0034040958 0.0 0.004556783 0.009352079

weight f4 [128, 256]
000000 b2 94 f5 bd 10 7a 89 3d 65 e1 09 3c 5e 30 14 bc
       -0.11991252 0.06712735 0.008415555 -0.009044735
000010 6a df 9a bd 0f 52 88 3d 7d 82 7d bd ac f1 7d bd
       -0.07562144 0.066562764 -0.06189202 -0.061998054
000020 19 79 f5 3c ba 2f d6 bd ec db 7f 3d 1b 6d b5 ba
       0.02996497 -0.10458322 0.062465593 -0.001384172
000030 66 72 c9 3d b4 ea 37 3d 3f 9a ae 3d d1 ff 8c 3d
       0.09836273 0.044901565 0.08525514 0.068847306
000040 38 57 98 3d 79 a4 9d 3d a0 9a 8e 3d 70 1c 54 bb
       0.07438511 0.07697386 0.06963086 -0.0032365583
000050 96 b8 9e bd e0 d0 fe 3d 43 8c 2f be 56 6e 42 bd
       -0.07750051 0.124421835 -0.1714335 -0.047468506
000060 b3 76 27 bb af 8e 17 3d 4a a0 93 bc 3e 0a 43 3d
       -0.0025552928 0.037001308 -0.018020768 0.04761719
000070 57 7a 0a be fb e3 19 bd aa 96 bb bd c3 7f da 3c
       -0.13523231 -0.037570935 -0.09159596 0.02667225
000080 80 fe 83 3c 74 fa 0d 3e 96 1a a5 3d 4c 10 87 bc
       0.016112566 0.13865072 0.080617115 -0.016487263
000090 ab 4f b8 bd d6 e9 07 bd fd b8 a8 bd 2e 5a 98 3d
       -0.089995705 -0.033181988 -0.08238409 0.074390754
0000a0 fb 3b fd 3a 3e 99 d5 bc b9 8c 50 bd d0 05 54 bd
       0.0019320244 -0.026074048 -0.050915454 -0.051763356
0000b0 57 aa 2c 3d ed b6 29 bd 08 ac 4c bd 2f 95 3a 3d
       0.042154636 -0.041434217 -0.04996875 0.04555243
0000c0 9e 63 f8 3b 5c 0d 18 3d 9f a5 98 bc a7 ea 72 3c
       0.0075802347 0.037122115 -0.018633662 0.014826453
0000d0 39 6e 23 bc d5 f3 5d bd 9e 05 a6 bc 5c 27 9d 3d
       -0.00997501 -0.054187614 -0.02026635 0.07673523
0000e0 d0 70 ef bd cc 28 a3 3d 9c f7 63 bd ef bd cb 3d
       -0.11691439 0.07966766 -0.05565606 0.09948336
0000f0 fb c9 43 bd 2e 85 87 3d a1 3c a6 3d 45 bd 08 be
       -0.047800045 0.06617199 0.08117033 -0.1335345
000100 d6 72 36 3d f9 64 08 be 17 8d 3e 3c 1f 9c b2 bd
       0.04454311 -0.13319768 0.011630318 -0.08721184
000110 ff 6d 0e bd a0 ff d5 3d c4 6f 45 3d a0 bb 88 bb
       -0.03477287 0.10449147 0.04820229 -0.0041727573
000120 7a d5 75 bd 41 92 d5 bc bf 9a ab 3c 21 7d fb 3b
       -0.06001804 -0.026070716 0.020947812 0.0076748286
000130 23 c9 14 3c d9 f0 ab bc e0 7c b9 bd 59 c3 05 bc
       0.009081158 -0.020988869 -0.09057021 -0.00816425
000140 02 f7 12 3d 98 8a be bd 81 90 b9 bc a1 11 39 3d
       0.035880096 -0.093037784 -0.022651913 0.045182828
000150 9c ec 0f 3d c0 30 45 3c d5 e7 cc 3c 32 cb 55 bd
       0.035137758 0.012035549 0.02501289 -0.052195735
000160 54 c8 83 3d ed cb a8 bd 87 cc ae bd cd 9f aa bb
       0.06434694 -0.08242021 -0.08535104 -0.005207038
000170 3a 6f 71 bc 16 ef 3b 3d ef a6 b2 bc 8d 75 f7 bd
       -0.014735991 0.045882307 -0.021808116 -0.12082968
000180 79 02 e6 3d ef 0a 39 3d 63 ac 23 bd 68 8a cb bc
       0.1123094 0.045176443 -0.039959323 -0.02484627
000190 ff 17 87 bb d0 ae 68 bd 32 6f a2 bd ed 99 bd bc
       -0.0041227336 -0.05680734 -0.07931365 -0.023144687
0001a0 52 22 92 bb 72 bc 0b bd 21 8c 8f 3b 1f e3 9a bc
       -0.0044596577 -0.034115262 0.0043807183 -0.018907128
0001b0 03 d2 90 3d 78 46 45 3d ca 6f 02 bd 47 61 d6 bd
       0.070713066 0.048162907 -0.03184489 -0.10467773
0001c0 56 90 2b bd e1 c2 db bb 23 9b 03 3d 9c fa 9d 3d
       -0.041885696 -0.006706581 0.03213037 0.077138156
0001d0 f9 29 18 bd 1b 21 8a 3d 25 db 24 bd 81 c5 40 bd
       -0.037149403 0.067445956 -0.040248055 -0.047063354
0001e0 32 5e cd bb 3f 3a 48 3b b7 e3 c0 bb 4c 0b 29 bc
       -0.0062673325 0.0030552296 -0.0058865207 -0.010317635
0001f0 1c 7e 5d bd 3d 24 3e 3c da 8f 69 3d 45 c6 2b 3d
       -0.054075345 0.01160532 0.057021953 0.04193713
000200 e4 c2 65 3d 93 2f b8 bd 78 97 bb bd 30 09 ef bd
       0.056094065 -0.08993449 -0.0915975 -0.11671674
000210 9a eb b4 3d b1 83 11 be d5 30 46 bd d6 80 4a bb
       0.08834 -0.14210393 -0.048386414 -0.0030899546
000220 fd 48 ad 3d 25 40 4b 3d 3c b8 2c 3d 65 79 34 3d
       0.08461187 0.04962172 0.042167887 0.044061083
000230 b6 d8 16 bd 72 95 10 bd 2b e3 1f 3d 2b 02 e3 3a
       -0.036827765 -0.035298772 0.039035004 0.0017319372
000240 44 1f 3d bd ce 63 09 3d 28 61 94 bb 88 92 8a 3c
       -0.046172395 0.033542447 -0.0045281835 0.016915575
000250 b6 b6 3c bd a0 17 d3 bd f0 ab 9c ba 29 58 a9 bc
       -0.046072684 -0.103072405 -0.0011953097 -0.02067192
000260 9c 16 ca 3d 21 56 da bd 20 e9 38 bd 35 6f bf 3b
       0.09867594 -0.10660959 -0.0451442 0.0058421143
000270 f1 1c 28 bd c6 94 8a bd 10 fe 76 3d 57 97 d0 bd
       -0.041043226 -0.067666575 0.060300887 -0.10185116
000280 1e 64 7d 3d da fb 43 3d 83 1e 0b bd b6 56 48 3d
       0.061863057 0.047847606 -0.033964645 0.04891082
000290 0e 11 f5 bd eb 12 ab 3d 05 93 84 bc 8a 43 c7 3d
       -0.119661435 0.08353218 -0.016183386 0.09729679
0002a0 f0 e9 55 bd 2e 55 45 bd 5e ae 21 bd 1d 9a 86 3d
       -0.052225053 -0.048176937 -0.03947293 0.065723635
0002b0 90 68 a4 3c fa 22 b7 3d 43 db 86 bc c4 1b ed bc
       0.02006939 0.08942218 -0.016461974 -0.028943904
0002c0 36 39 14 bc 98 69 97 3d b9 db c4 bd 29 44 31 bb
       -0.009046843 0.07393187 -0.09612221 -0.0027048683
0002d0 13 68 2d 3c 32 b8 98 3c 3c 40 31 bd 05 11 7e bd
       0.010583895 0.018642519 -0.04327415 -0.06202795
0002e0 8f 14 f0 bd 84 86 bc 3c 58 6c a8 3d 84 d7 d7 bd
       -0.11722671 0.02301336 0.0822379 -0.10539153
0002f0 02 a9 68 bc 27 7c 0e be 3e d1 52 bd 0b 5a 02 3e
       -0.014200451 -0.13914548 -0.05146908 0.12729661
000300 2f 98 fb 3c 4c a0 03 bd 39 36 87 bd 49 f7 92 3d
       0.030712215 -0.032135293 -0.06602139 0.07176072
000310 ca de 08 bd 0e 00 46 bd ee f2 da 3b 2d c4 8f 3d
       -0.033415593 -0.048339896 0.0066817915 0.070198394
000320 20 d6 49 bd c3 75 a3 bd e5 ae 15 bd a5 b9 d0 bc
       -0.04927647 -0.07981446 -0.036543746 -0.025479147
000330 8a 64 89 bc b0 24 85 3d c3 a2 36 bc c4 1b c5 bc
       -0.016771574 0.06501138 -0.011147204 -0.024061091
000340 d2 a0 aa 3d b3 05 e1 bb cc 8c aa bd 4b ec 20 3d
       0.08331455 -0.0068671345 -0.08327636 0.039287847
000350 74 05 d1 3c 2a 6d c7 3b 0b 5c 70 3d 78 84 6c 3c
       0.025515296 0.0060860114 0.05868153 0.01443588
000360 c2 42 da bd 38 50 3c 3c ec 75 67 bd 42 f3 84 3d
       -0.10657264 0.011493735 -0.056508943 0.0649171
000370 66 6d 97 3a 0c d8 ba bb ef 9f 11 bc c7 b0 bc 3c
       0.0011552989 -0.0057020243 -0.008888229 0.023033513
000380 57 44 3b 3d db 97 04 be d5 b7 1a bd 62 68 c4 3d
       0.04571947 -0.12948553 -0.037772972 0.09590222
000390 08 88 e8 bc 22 28 57 bc c6 62 81 bd bf b7 b3 bd
       -0.028385177 -0.013132127 -0.06317668 -0.08775281
0003a0 63 10 02 be 79 39 6d 3d a7 6a 90 3c 00 07 82 3d
       -0.12701564 0.05791614 0.01762898 0.063489914
0003b0 d2 53 2e bd a0 0b 5d bd df d2 f1 bd c0 c2 84 bd
       -0.042560406 -0.053966165 -0.118077986 -0.06482458
0003c0 8e 16 88 bd 80 1e 25 3d 98 02 77 bd ae 5a 55 bd
       -0.06644927 0.04031229 -0.060305208 -0.052088432
0003d0 2b da af 3c 95 34 90 bd 56 1a 09 3b 90 fb e6 ba
       0.021466335 -0.07041279 0.0020920238 -0.0017622579
0003e0 4a 3a c9 bd ab 9e b3 3d a2 69 73 3c f3 2c 18 bd
       -0.09825571 0.08770498 0.014856728 -0.037152242
0003f0 f1 51 6a 3d e7 30 9e 3d 06 26 8c bc 51 d7 dc bc
       0.05720705 0.07724171 -0.017107975 -0.02695814

bias f4 [128]
000000 6d 35 b1 bb 09 56 a4 3b 8b a7 51 3b d3 d6 37 3c
       -0.00540798 0.005015139 0.0031990733 0.011220652
000010 ed cd a1 3b 57 10 2f 3c f1 f3 66 3b ed b3 c6 bb
       0.0049378783 0.010685048 0.0035240615 -0.0060639293
000020 72 2e a5 3b 2b c6 1b 3c 53 08 1f 3c d7 a8 48 3c
       0.005040937 0.009507696 0.0097065745 0.012247286
000030 07 19 ba bb 17 1c e2 3a 8f db 4d 3c a1 73 a5 b9
       -0.005679253 0.0017250803 0.012564554 -0.00031557403
000040 e1 39 38 3c ea 35 56 3c 69 e9 6a bc 1a d4 5f 3c
       0.011244268 0.013074378 -0.014337876 0.013661409
000050 44 f7 78 3c 69 09 10 3b ce af bc 3b bd bc 6a 3c
       0.0151956715 0.0021978265 0.0057582622 0.014327225
000060 66 69 b9 bb fe 75 ef 3b 5f ec 1a 3c 76 2d 82 3c
       -0.0056583164 0.007307767 0.009455769 0.015890818
000070 83 d7 14 bc 5e 99 da 3b 94 86 ed 3b f8 73 80 3b
       -0.009084585 0.006671115 0.007248709 0.0039200746
000080 43 b8 ae 3c 5f 38 b8 3b 63 0e 48 3c f3 4b da bb
       0.021328097 0.0056219543 0.012210461 -0.006661886
000090 52 05 d7 3b bd b3 47 38 a5 e5 05 bb 6e 62 9e bb
       0.0065619135 4.761269e-05 -0.0020431068 -0.004833511
0000a0 83 04 3c 3c 10 9f 76 ba ad 37 23 bc 00 00 00 00
       0.011475685 -0.00094078574 -0.009962005 0.0
0000b0 92 6d 38 3a 0b 88 0e 3c 01 1a 89 bb c3 0c 48 3c
       0.000703537 0.008699427 -0.004184008 0.012210074
0000c0 95 df d0 ba 29 83 d1 ba ba d9 28 3c 55 b9 28 3c
       -0.0015935773 -0.0015984523 0.010305816 0.010298093
0000d0 16 25 2e 3a 94 94 3e 3c ec 42 32 3c 7d b5 1b bc
       0.00066430995 0.0116321035 0.010880213 -0.009503719
0000e0 da 08 19 bc 28 18 55 3c 2c 26 be 3c f8 29 84 bc
       -0.009340489 0.013006248 0.023211561 -0.016133294
0000f0 d4 9e 07 37 83 c8 db 3b de ad 45 bb 0b c7 c9 b9
       8.083607e-06 0.0067072525 -0.0030163447 -0.00038486006
000100 a5 80 dd bb e0 5f 8a bb a1 80 8d 3a 40 24 93 3b
       -0.0067597204 -0.004222855 0.0010795781 0.0044904053
000110 d9 5d c0 bb 21 7b c7 3b 14 1f 40 3c d9 25 c9 bb
       -0.0058705625 0.006087676 0.01172616 -0.006138545
000120 24 5f 87 bb 10 4e bc bb ac d8 db 3b d0 44 7f 3a
       -0.0041312147 -0.0057466105 0.006709179 0.0009737732
000130 16 f7 8c 3b 03 3f e5 3b 21 1e fd 3b 10 13 ac 3a
       0.004301916 0.006996037 0.007724539 0.001312824
000140 fe 43 bf 3c e5 37 82 3b 0e c4 81 b9 36 11 bd 3b
       0.02334785 0.0039739483 -0.0002475087 0.005769874
000150 04 67 eb 3b 94 b8 40 3c c8 a4 8b 3b c1 3a f2 bb
       0.0071839113 0.011762757 0.004261587 -0.007392258
000160 d8 5e 6d bb 0b 81 6f 3c 05 e8 a3 3b fa 46 12 3c
       -0.0036219861 0.014618169 0.005002024 0.008928055
000170 c2 e0 82 bb 93 e1 53 3c e0 77 a4 3c 0b a4 09 bc
       -0.0039940784 0.012932199 0.020076692 -0.008400927
000180 01 7a 8e 3b e5 b8 8f 3b 47 3e 58 3c 16 76 25 3c
       0.00434804 0.004386055 0.013198442 0.010098955
000190 b4 ff f2 3b af 10 99 3c e6 93 85 3c 01 4f 9d 3b
       0.007415736 0.018684713 0.016305875 0.0048006778
0001a0 5f e1 85 3c fd ee 5a 3c 6a f1 77 ba 2b 69 d8 3b
       0.016342817 0.013362643 -0.0009458276 0.006604334
0001b0 5c 52 68 3c f7 d3 a9 3c 52 1f 50 bc cf 9b c5 bb
       0.014179792 0.020730956 -0.01270278 -0.0060305367
0001c0 aa 48 03 3c d0 97 0b 3b 7e 9e 83 3c f3 75 21 bb
       0.00801293 0.0021300204 0.016066786 -0.0024636954
0001d0 a2 62 f0 3b 8b 9b 0d 3c 91 24 4e 3c e2 05 a2 bb
       0.0073359767 0.008643041 0.01258196 -0.004944549
0001e0 2f 74 9d bb a8 c7 93 3b d2 1a 28 bc 6d 47 97 3c
       -0.00480511 0.004509885 -0.010260301 0.018466676
0001f0 4f 9b a5 bb f7 94 94 3b 37 61 f0 bb 75 82 b8 bb
       -0.0050539146 0.0045343596 -0.0073358077 -0.005630786

weight f4 [24, 128]
000000 65 d3 38 3d 3b ef ce 3d 09 1e 99 bd 47 52 17 3e
       0.045123477 0.10104223 -0.07476432 0.1477748
000010 07 26 5b bd 9d 20 2f 3e 71 21 33 bd 34 c0 98 3c
       -0.053503063 0.17102285 -0.043733064 0.018646337
000020 f5 15 4e 3d c7 03 87 3d 29 73 fa 3c 79 da de bc
       0.05031391 0.06592517 0.03057249 -0.027203785
000030 de 4d 3e bb e3 9c 86 3d 7c 7f aa bc a3 de 58 3d
       -0.0029038112 0.065728925 -0.020812742 0.052946698
000040 3d b8 8c bd 99 39 72 bc b2 8b fb 3d b0 52 1a be
       -0.06871078 -0.01478424 0.12282504 -0.15070605
000050 88 cb 03 bd c4 2e b7 3d 3a 68 b9 bd bc 08 8c 3c
       -0.032176524 0.08944467 -0.09053083 0.017094009
000060 e9 66 6e 3d e5 cc 8c 3d 02 b5 f6 b9 2a 26 de 3d
       0.05820361 0.06875018 -0.00047055638 0.10847123
000070 07 98 2d 3e 12 4a 44 be 32 7c 31 bd 26 95 3a bd
       0.16952525 -0.1916888 -0.043331333 -0.045552395
000080 1d 5a 20 3e 49 dc 6b 3d 1e 30 36 3c 9c 74 a1 3d
       0.15659375 0.057583127 0.0111198705 0.078835696
000090 5e 7d e5 bc 3b ad d8 3c 3f 19 02 be 25 ff 3b 3d
       -0.028013881 0.02644979 -0.12704943 0.04589762
0000a0 10 f9 85 3d aa b5 ac 3a 39 6c 19 be ad a6 a6 bd
       0.065416455 0.0013176699 -0.1498269 -0.0813726
0000b0 0b 61 5c 3d a6 13 51 3e 8c 77 29 be 20 42 85 3c
       0.053803485 0.20417652 -0.1654951 0.016266882
0000c0 8b b3 6f 3c 45 06 47 be 38 b1 9f 3d bb a7 76 3c
       0.014630209 -0.19435985 0.07797474 0.0150546385
0000d0 75 7c ea bc cc e3 a4 bd 62 3c 7e 3d c8 63 d8 bd
       -0.028623799 -0.08051261 0.062069304 -0.10565907
0000e0 28 ff eb bd f0 9a e5 3d 64 8f 5b be 75 8a e8 3d
       -0.115232766 0.112111926 -0.21441418 0.113545336
0000f0 1c 43 e9 3d 4b 41 95 3d 88 b2 ba 3d 0a 8d 0d 3d
       0.11389753 0.07287844 0.091160834 0.034558333
000100 9f 25 d9 3c 60 01 c8 bd ce b1 b4 bd 3f 4f 05 3e
       0.026507197 -0.09765887 -0.08822976 0.13018511
000110 e6 19 d3 bb e9 f1 47 3e 8c 21 89 bd 76 fb 70 bd
       -0.0064422963 0.19525875 -0.06695852 -0.05883356
000120 ca b0 1d be 4e a0 99 3d 50 ec d2 3d 04 0c 7f 3c
       -0.15399471 0.07501279 0.10298979 0.01556683
000130 d2 3d ae 3d 2b 59 60 bd ab 46 fe bd 9e 07 17 3d
       0.08507885 -0.054772537 -0.124158226 0.0368725
000140 17 3c 5a be 83 90 a0 3c 46 b3 9e bd 23 43 d1 bd
       -0.21311985 0.019600159 -0.077490374 -0.102178834
000150 93 92 86 bc ab c9 68 bd 87 df 67 bd 70 6e f5 bd
       -0.016427314 -0.05683295 -0.056609657 -0.11983955
000160 92 f5 5c bd a6 20 bb bd 20 73 44 3d 6e a4 10 be
       -0.05394513 -0.091370866 0.047961354 -0.14125225
000170 d0 fa 53 3c ae 7a 27 bb d9 c5 ff 3d 1c 54 03 be
       0.012938216 -0.00255553 0.12488908 -0.12825054
000180 7a 84 c1 bd e3 f6 ed 3c 64 15 7d 3d e4 ac 24 bd
       -0.09449096 0.029048389 0.061787978 -0.040203944
000190 43 0b 71 bd bc 50 59 bd 7c 2b 8f bd 8a e2 2b be
       -0.05884863 -0.05305551 -0.06990716 -0.16785637
0001a0 dd 14 a0 bc 40 5e 9e bc 67 e3 12 3e 2e 48 da 3d
       -0.019541198 -0.019332051 0.1434456 0.106582984
0001b0 24 69 05 be 34 f6 31 be 38 0c f2 bd a4 cb e6 bc
       -0.13028389 -0.17379075 -0.11818737 -0.028173275
0001c0 ee a9 4c 3e 2d db 9c bd a5 25 d1 3c 36 5c a7 3b
       0.19986698 -0.07658992 0.025530646 0.005107428
0001d0 e8 b9 f1 3d 47 1e b1 3d 40 66 72 bd b8 e4 56 3e
       0.11803037 0.08648353 -0.059179544 0.20985687
0001e0 f7 11 03 3d 6c 85 cd bd ce 08 12 3d 1d a2 db ba
       0.031999554 -0.10035214 0.035652928 -0.0016756688
0001f0 46 47 ac bd ca 4a 24 3e 7b 6a 1f 3e 43 5b dd bd
       -0.08412032 0.16044155 0.15567963 -0.108084224
000200 c5 ba a2 3d e4 25 b2 3d d0 89 59 be 3e a5 2f 3e
       0.0794578 0.08698633 -0.21243978 0.17152879
000210 fb 5a a4 3d a9 9d 25 bc 9c b7 88 3d d4 66 a1 3d
       0.08025166 -0.01010839 0.06675646 0.07880941
000220 d6 99 25 3e d6 f3 20 3d 6a 63 04 3e 14 04 22 be
       0.16171965 0.03929504 0.12928548 -0.15821868
000230 c3 d8 65 bd 3f 65 3f bd 1a 62 93 3c a5 5a 07 3c
       -0.056114923 -0.046727415 0.017991114 0.008261357
000240 31 c8 8a 3d f5 98 84 bc 9e 27 26 be c9 28 30 be
       0.06776465 -0.016186217 -0.1622605 -0.17203058
000250 01 a0 88 be 66 56 65 3d e1 6c b9 bd ab 9e 86 3c
       -0.26684573 0.0559906 -0.0905397 0.01643308
000260 54 4a 30 3c 15 f6 78 bd 70 42 8c bd e2 a3 13 3c
       0.010759909 -0.060781557 -0.068486094 0.009011241
000270 66 36 33 be 9c 0e f4 bd 06 f3 9c bd 39 21 4e be
       -0.1750122 -0.11916849 -0.076635405 -0.20129861
000280 41 a1 0d bd 51 00 42 3d ec e2 45 3c 31 17 3c bc
       -0.03457761 0.047363583 0.012078028 -0.011480139
000290 df c7 14 be 57 56 6b bb 97 3c 9a bd c5 b6 6e bc
       -0.1452937 -0.0035909617 -0.07531088 -0.014569943
0002a0 85 d5 5d 3c a9 c0 43 3d 9a b8 90 bc b8 b7 b4 bc
       0.013539677 0.047791157 -0.01766615 -0.02206026
0002b0 e2 88 03 3e 58 45 40 3d fb 16 d3 bd f5 b0 1c be
       0.12845185 0.04694113 -0.103071176 -0.15301879
0002c0 ca 96 65 be aa d6 34 3e d6 b3 fd bc 28 de 10 3e
       -0.22420803 0.17660013 -0.030969542 0.14147246
0002d0 a5 7b 34 3e 69 f9 fc bd bf cb 05 bd 42 38 00 bc
       0.17625292 -0.12352259 -0.03266501 -0.007825913
0002e0 9b 69 f3 bd a4 8a 84 bc 78 e0 69 bd 85 20 bc bd
       -0.11885377 -0.01617939 -0.057098836 -0.0918589
0002f0 33 61 01 3e aa 59 32 bd 3a d9 ef bc 97 14 a3 bd
       0.12634735 -0.04354254 -0.029278386 -0.079629116
000300 1e 1e 65 3d 9d df 98 bb 6b e7 90 3d 2a 7d e7 bc
       0.055936925 -0.0046653287 0.070753895 -0.028257925
000310 b8 59 ef 3d 2c 0b f5 bc 2a 59 50 bd b0 bb 6b 3d
       0.11687034 -0.029912554 -0.050866283 0.05755204
000320 98 18 53 be 58 cd 85 3d 1a de 40 3c 0a 92 4c 3e
       -0.2061485 0.06533307 0.011771703 0.19977584
000330 5c f2 a2 bd 29 3e c2 bc 4b ba aa bd ca 34 38 bd
       -0.07956383 -0.02371128 -0.08336314 -0.04497222
000340 d1 78 33 be 54 4d 29 be e0 53 de 3c 30 64 c1 bd
       -0.17526557 -0.16533405 0.027139604 -0.094429374
000350 57 54 35 be 95 93 9d bc 70 7a b9 3d 56 da 70 bd
       -0.17707954 -0.019235412 0.09056556 -0.05880197
000360 52 df 27 be 17 8c 5d 3d 5d 77 76 b9 79 a3 94 3d
       -0.16393784 0.05408868 -0.00023504854 0.072577424
000370 01 af c3 bc 25 d5 33 be 02 40 ce 3d 93 e8 d2 bd
       -0.02388716 -0.17561777 0.10070802 -0.10298266
000380 c5 46 54 3d d1 0b b3 bd bd 79 ea bc 2d 46 1d 3d
       0.051825304 -0.08742488 -0.028622502 0.038397003
000390 4b ef 97 be 9e b5 84 bd 0d 93 cc bc e0 b2 91 3d
       -0.29674754 -0.06479953 -0.024972463 0.07114196
0003a0 60 9a 55 3d 66 99 28 be 28 89 9b bd 7a 7a 44 be
       0.052149177 -0.16464767 -0.0759452 -0.19187346
0003b0 de ae d2 3d 3e ad 0e 3d 9b c2 b2 bd 93 14 5d 3d
       0.102872595 0.034833185 -0.08728524 0.0539747
0003c0 d6 e7 1c 3d 98 52 9a bd fa 12 f0 3d 6d 93 e6 bd
       0.038307033 -0.07535285 0.117223695 -0.11258588
0003d0 d1 ca 62 bd 75 c9 14 3e 2b 97 c3 3c 02 47 1c 3e
       -0.055369202 0.14529975 0.023875793 0.15261462
0003e0 ee b4 1a 3b 6d a9 58 3b f6 f3 39 be 04 d4 5e bd
       0.0023606378 0.003305997 -0.1815947 -0.054401413
0003f0 da 3f 0c 3d 5a f1 1c 3e 35 11 4e 3d 57 ed 2c bd
       0.03424058 0.15326443 0.05030938 -0.042218532

bias f4 [24]
000000 73 74 f5 bc 59 fd 44 3a 58 ae b6 bb 13 f5 2b bc
       -0.029962754 0.00075145584 -0.0055749826 -0.010495442
000010 3c 6e 1c bc e4 61 17 bc f7 53 43 bc 0c de 93 ba
       -0.009547766 -0.009239648 -0.011921874 -0.0011281385
000020 e2 02 ba bc e5 62 d0 3c 30 80 9a bb 50 bb 39 bc
       -0.022706453 0.025437782 -0.004714988 -0.011336163
000030 f4 16 c4 3b 34 4f a8 3b 7b 58 69 bc 03 8a 2f bc
       0.0059841815 0.005136395 -0.014242287 -0.010714057
000040 d6 66 3c bc 26 c4 56 bb 31 ce 4e bc dd dd 5f bc
       -0.011499127 -0.0032770722 -0.012622402 -0.013663736
000050 a4 e4 e8 bc 82 ee 58 3b ac 87 06 bc 65 d1 e4 bc
       -0.028429337 0.0033101146 -0.008211058 -0.027931878
