logs/test/exported/policies/policy_1.pt (torch, 817736 bytes, 8 tensors)

weight f4 [512, 66]
0	0x3d569844	0.052391306
1	0xbde26775	-0.11054889
2	0xbd172bcb	-0.036907
3	0xbcfaea74	-0.030629374
4	0xbdb9c2b3	-0.09070339
5	0x3cfc636a	0.030809123
6	0xbe67a327	-0.22620831
7	0xbe1f20fe	-0.1553993
8	0x3d8a4bb5	0.06752721
9	0xbdcf6734	-0.10127106
10	0x3b9d078c	0.0047921594
11	0x3df26180	0.11835003
12	0x3d37ee08	0.04490474
13	0x3d2ff7ff	0.042961117
14	0x3d15c8e8	0.036568552
15	0x3db3cccf	0.087792985
16	0x3b77a33d	0.0037786507
17	0x3df97d3c	0.1218209
18	0xbdb92cc9	-0.09041745
19	0x3c19f072	0.009395706
20	0xbe50282a	-0.20327821
21	0x3daddea2	0.084897295
22	0xbc9f4902	-0.019443993
23	0x3b77dc8a	0.003782066
24	0x3d7353e8	0.05940619
25	0x3d85f91d	0.06541655
26	0x3d03bbda	0.03216157
27	0xbc39ea60	-0.011347383
28	0xbd515245	-0.05110385
29	0x3d873652	0.06602158
30	0x3d1924db	0.037388664
31	0xbe2e3d84	-0.17015654
32	0xbd78fc23	-0.06078733
33	0x3d8a6784	0.06758025
34	0xbd79ff8f	-0.061034735
35	0x3daca482	0.08429815
36	0xbe51cebf	-0.20489024
37	0x3e037c78	0.1284045
38	0xbcc2f82b	-0.023799976
39	0xbe288af8	-0.16459262
40	0xbafa9954	-0.0019119182
41	0xbd055c4a	-0.032558717
42	0xbd0d7ee6	-0.034544848
43	0x3d353e71	0.044249002
44	0x3b182e3e	0.0023220922
45	0xbb81d27f	-0.0039618607
46	0x3b4a9806	0.0030913367
47	0xbdf02055	-0.11724917
48	0x3da28ad1	0.079366334
49	0x3d41ee00	0.047346115
50	0xbe1da077	-0.15393244
51	0xbab26e3d	-0.0013613176
52	0xbd0d1d81	-0.034451965
53	0x3d929403	0.07157137
54	0xbdada6e7	-0.084791
55	0x3c0958e4	0.00838301
56	0x3bf844c5	0.0075765573
57	0xbbdf5216	-0.0068152053
58	0xbd087e87	-0.03332379
59	0x3c592060	0.013252348
60	0xbd46d59a	-0.04854355
61	0xbcd8faa9	-0.026486712
62	0x3c3266aa	0.010888735
63	0x3d972cc7	0.073815875
64	0xbbd7edb1	-0.0065896143
65	0x3dae5bae	0.0851358
66	0xbd025533	-0.031819534
67	0xbc347524	-0.011014257
68	0x3d8d80ed	0.06909356
69	0xbdf3541c	-0.11881277
70	0xbe1ede88	-0.15514576
71	0xbdaa2747	-0.08308273
72	0xbda17016	-0.07882707
73	0xbe4e1844	-0.20126444
74	0xbdd9f1ef	-0.10641848
75	0xbd259cac	-0.040432617
76	0xbdd1f34e	-0.10251485
77	0xbecd2cc6	-0.40073222
78	0x3d80af55	0.06283442
79	0xbcae7c70	-0.02129957
80	0xbc88be3c	-0.016692273
81	0x3d2b5264	0.04182662
82	0xbca19611	-0.019724878
83	0x3d9f3e87	0.07775598
84	0x3de14924	0.110002786
85	0x3cafbc29	0.021452026
86	0xbca2366f	-0.019801347
87	0xbb19e774	-0.0023483904
88	0xbdebd305	-0.11514858
89	0xbd3a3a9c	-0.04546605
90	0xbbd108da	-0.006379229
91	0x3c2c0160	0.010498375
92	0x3d06beb1	0.0328967
93	0x3e6509d3	0.22367029
94	0x3d6722cd	0.056429673
95	0xbdc4ac78	-0.09603208
96	0x3e430b83	0.1904736
97	0x3dad1b57	0.0845248
98	0x3bd4a9a0	0.0064899474
99	0xbe148fb0	-0.14507937
100	0x3bd5b804	0.0065221805
101	0x3e0e2cc6	0.13884267
102	0x3d9e5dc5	0.07732729
103	0xbbd74b59	-0.0065702614
104	0x3df8c352	0.121466294
105	0x3d921046	0.0713201
106	0x3e3df4ed	0.18550463
107	0x3d80add4	0.06283155
108	0x3dad940d	0.08475504
109	0x3e834a70	0.2564273
110	0x3dc578d2	0.09642185
111	0x3eaea011	0.34106496
112	0x3dcb21a6	0.09918527
113	0xbd115483	-0.035480987
114	0x3cd2b27c	0.025719874
115	0x3ccd197a	0.025036562
116	0x3d4a161a	0.049337484
117	0xbd376c97	-0.044781294
118	0xbcc339a6	-0.0238312
119	0x3d4762a5	0.04867806
120	0x3df3f52c	0.11911997
121	0xbd397132	-0.045273967
122	0x3bb29759	0.005450171
123	0x3c600ed8	0.013675414
124	0x3d54a22e	0.05191248
125	0x3d976446	0.073921725
126	0x3dd9ea28	0.10640365
127	0xbd80fc46	-0.06298117
128	0x3d85dea9	0.0653661
129	0x3e04d407	0.12971507
130	0xbd5eb891	-0.054375235
131	0xbc9a6986	-0.018849146
132	0x3d3fe078	0.04684493
133	0x3e396fcb	0.18109052
134	0xbe989a01	-0.29804996
135	0xbd95794e	-0.07298528
136	0xbd6d9a6d	-0.0580086
137	0xbddb8551	-0.107187875
138	0xbe0cf24c	-0.13764304
139	0x3d84f54a	0.06492098
140	0xbcdf5cd2	-0.02726594
141	0xbc9176c5	-0.017756829
142	0x3b8c1316	0.004274736
143	0xbef2ba80	-0.47407913
144	0x3e1fec7b	0.15617554
145	0xbdf4e31e	-0.11957382
146	0x39bb2783	0.00035696858
147	0x3d3c9462	0.046039946
148	0xbd8678a5	-0.0656598
149	0x3c82f5b9	0.01598631
150	0xbd8ee9ef	-0.06978213
151	0x3cce0eed	0.025153602
152	0x3d887514	0.06662956
153	0x3d20a9a8	0.039224297
154	0xbcded056	-0.027198952
155	0x3cd42932	0.02589855
156	0xbdc1bf4d	-0.09460316
157	0xbc88beb5	-0.016692499
158	0xbd63dc2a	-0.055629887
159	0x3d112512	0.035435744
160	0xbd4622b9	-0.048372958
161	0x3bcb09f7	0.0061962563
162	0xbe04c330	-0.12965083
163	0xbdbe3811	-0.092880376
164	0xbdedc545	-0.11609892
165	0xbe458f2a	-0.19292894
166	0xbdab1f93	-0.08355632
167	0x3d1577a4	0.03649105
168	0x3e864564	0.26224816
169	0x3d35cf3b	0.044387084
170	0xbd8e9a84	-0.06963065
171	0xbe632a77	-0.22184168
172	0x3d53f181	0.051743988
173	0x3ccc6391	0.02494982
174	0x3e438c96	0.19096598
175	0x3d8e0295	0.06934086
176	0xbc1bb2c4	-0.00950307
177	0x3e7e6c18	0.24845922
178	0xbe45e50d	-0.19325657
179	0xbcd4ccd1	-0.02597657
180	0xbd2aef87	-0.041732337
181	0x3d16842d	0.036747146
182	0xbd0228f3	-0.031777333
183	0xbd178846	-0.036995195
184	0x3b276c44	0.002554671
185	0xbcd24bb3	-0.025670862
186	0x3dd90933	0.10597458
187	0xbd2ed4e8	-0.042683512
188	0x3db32a63	0.08748319
189	0xbd8cd14e	-0.06875859
190	0x3d809bd7	0.06279724
191	0x3c462274	0.012093175
192	0x3c18f6c9	0.009336182
193	0x3e000f2c	0.12505788
194	0xbca1e93d	-0.019764537
195	0x3c20cd7f	0.009814619
196	0xbb6b3734	-0.0035891058
197	0xbc4768ef	-0.012171014
198	0xbd16cf95	-0.03681906
199	0xbe2d444a	-0.16920581
200	0xbe207fd6	-0.15673766
201	0xbe2b65a2	-0.16737989
202	0xbd6ca439	-0.057773802
203	0xbe16c36d	-0.14722987
204	0xbd617e21	-0.055051927
205	0x3e278d8f	0.16362594
206	0xbd77367b	-0.06035469
207	0xbc991a50	-0.018689305
208	0xbe05d017	-0.13067661
209	0xbd8ed6b6	-0.069745466
210	0x3d56103c	0.052261576
211	0xbd900f26	-0.07034139
212	0xbcc2318c	-0.023705266
213	0xbc4f851e	-0.012666015
214	0x3b6e4155	0.003635486
215	0xbd8365cb	-0.064159
216	0x3ceef135	0.02916775
217	0xbd2ed20f	-0.042680796
218	0xbd5444b3	-0.05182333
219	0xbc9f9a78	-0.019482836
220	0xbd9cd4a8	-0.076577485
221	0x3d2a8cb0	0.041638076
222	0xbd9dd1c4	-0.07706025
223	0x3d60884c	0.054817483
224	0xbd3c5e8c	-0.045988604
225	0xbd6220e6	-0.055207156
226	0x3d872338	0.06598514
227	0x3c9bd456	0.019022148
228	0xbda879d5	-0.082263626
229	0xbdf1f233	-0.11813774
230	0x3d88a2af	0.066716544
231	0x3e00fad4	0.12595683
232	0x3ca34377	0.01992963
233	0x3d367d47	0.044553068
234	0x3d860355	0.06543604
235	0x3ddaa5f2	0.10676183
236	0x3c83ec81	0.016103985
237	0x3dff7c36	0.12474863
238	0xbc57aa02	-0.013163092
239	0xbc96daa5	-0.018414805
240	0x3e519472	0.20466784
241	0xbc845abb	-0.016156545
242	0x3c29ea46	0.010370797
243	0x3dc3a351	0.095526345
244	0xbe233b56	-0.15940604
245	0x3d83be35	0.064327635
246	0x3c7c548e	0.015401019
247	0xbcc8e58f	-0.024523525
248	0x3d4466fb	0.047949772
249	0xbca067f4	-0.019580819
250	0x3d453857	0.048149433
251	0xbdb36d62	-0.087610975
252	0xbdbab5ad	-0.09116683
253	0xbd705b92	-0.05868108
254	0xbb50bde1	-0.0031851458
255	0x3aa6a52d	0.0012714021

bias f4 [512]
0	0x3c789528	0.01517228
1	0x3d3a0d19	0.045422647
2	0x3c541fe9	0.012947061
3	0x3cef6cd0	0.02922669
4	0x3cc5d9f1	0.024151774
5	0x3c4cae7e	0.012492774
6	0x3c5702b5	0.013123204
7	0xbbe99700	-0.0071285963
8	0x3cd42533	0.025896644
9	0x3b985e21	0.004649893
10	0xbc9b77fb	-0.01897811
11	0xbc9201d1	-0.017823132
12	0x3b114754	0.002216776
13	0xb99595f4	-0.00028531218
14	0x3be90b02	0.007111908
15	0xbb904cba	-0.004403678
16	0x3acf29ce	0.0015805305
17	0x3c0e38a6	0.008680498
18	0x3ca9a422	0.020708147
19	0xba960276	-0.0011444825
20	0xbbaf85d6	-0.0053565307
21	0x3a133eab	0.0005616943
22	0x3c6148ca	0.013750264
23	0x3c6d0b9a	0.014468098
24	0x3cdb95cd	0.026804829
25	0x3c59b06a	0.013286689
26	0x3c14ad33	0.009074497
27	0x3ce7d2fb	0.028298846
28	0x3cdc1e33	0.026869869
29	0x3c4f8216	0.012665292
30	0x3ce1fa03	0.027585035
31	0x3b48711a	0.0030584992
32	0xbc3ad454	-0.011403162
33	0x3bc93856	0.006140749
34	0x3ccc5ed0	0.024947554
35	0x3ceb4310	0.028718501
36	0x3c1ffae1	0.009764404
37	0x3ce213a0	0.027597249
38	0xbccda562	-0.025103275
39	0xbb4bdc21	-0.003110655
40	0x3c8079d5	0.015683094
41	0x3cc93a0b	0.02456381
42	0xbc31702f	-0.010829969
43	0xba1b5cd8	-0.00059266156
44	0x3c9d6099	0.0192111
45	0xbcd58716	-0.02606539
46	0xbcf68d42	-0.030096654
47	0xbc2309e6	-0.00995109
48	0xbcbc5a1e	-0.02299219
49	0x3ba3e2e2	0.005001412
50	0x3ce1de67	0.02757187
51	0x39641bb5	0.00021754096
52	0xbbec6ec7	-0.007215354
53	0x3c1a0e73	0.009402859
54	0x3c3d132a	0.011540214
55	0x3ce15010	0.027503997
56	0x3b023788	0.0019869525
57	0x3c4978a1	0.012296827
58	0x3cbff147	0.02343048
59	0x3b371285	0.0027934622
60	0x3d214f72	0.039382406
61	0xbc19da92	-0.00939049
62	0xbcc809e8	-0.024418786
63	0xbc37f4be	-0.011227785
64	0xbb9da27b	-0.004810629
65	0x3c28e59a	0.0103086475
66	0x3c672513	0.01410796
67	0xbc8bb438	-0.017053708
68	0x3c8b8981	0.01703334
69	0xbc62be8b	-0.013839374
70	0xbc9208ad	-0.017826403
71	0xba8bece8	-0.0010675462
72	0xba399c5a	-0.0007080488
73	0x3c22629f	0.009911208
74	0x3c9134e2	0.017725412
75	0x3c851f55	0.016250292
76	0x3cb6b65a	0.022303749
77	0x3b83e65d	0.004025264
78	0x3cd90181	0.026489975
79	0xbbfb4c95	-0.0076690414
80	0x3ba7696b	0.0051090023
81	0x3c25de6c	0.01012383
82	0x3c413328	0.011791982
83	0x3bf3f411	0.0074448665
84	0x3c5449a5	0.012957011
85	0x3d3e9cbb	0.04653619
86	0xbbf83f62	-0.007575915
87	0x3c3690d7	0.011142931
88	0xbc808eda	-0.015693117
89	0x387fd401	6.099418e-05
90	0xbb2209ba	-0.0024725036
91	0x3c001802	0.007818224
92	0x3c924ebe	0.017859813
93	0x3c92efbe	0.017936584
94	0x3c065d08	0.008200891
95	0x3cfd304f	0.030906824
96	0x3aa29774	0.0012404756
97	0xbc19c9ee	-0.009386523
98	0x3c464afa	0.012102837
99	0x3ceefc4d	0.02917304
100	0x3cff3cab	0.031156858
101	0x3c69034f	0.01422198
102	0xbac24077	-0.0014820237
103	0x3c8b4b76	0.017003756
104	0x3ca52442	0.02015889
105	0x3bfffa4c	0.00781182
106	0xbc9ea7b6	-0.01936708
107	0xbb40a98a	-0.0029397928
108	0xb92f688c	-0.00016728247
109	0xbbf79b73	-0.007556373
110	0x3cb466ef	0.022021739
111	0xbc462e21	-0.012095959
112	0xbae8ba33	-0.0017755687
113	0x3d3df1e5	0.046373267
114	0x3bed1b0e	0.007235891
115	0xbc9a2504	-0.018816479
116	0xbc948833	-0.018131351
117	0x3c611378	0.013737552
118	0x3b8d6b98	0.0043158047
119	0xba5fa5c2	-0.0008531475
120	0x3c15fbbf	0.009154259
121	0x3ca41c2d	0.020032967
122	0x3ccb8712	0.02484468
123	0xbc6b6138	-0.0143664405
124	0x3be994a2	0.007128314
125	0x3b2fe46b	0.0026839029
126	0xbbf901a7	-0.007599074
127	0x3aa2fb0c	0.0012434437
128	0x3c3c4798	0.011491679
129	0xbb471a43	-0.0030380643
130	0x3c905cc7	0.017622365
131	0xbba3c485	-0.004997792
132	0x3b901da4	0.0043980647
133	0xbca4eed3	-0.020133412
134	0x39c8f604	0.0003833027
135	0xbc9eb175	-0.019371727
136	0xbc979faa	-0.018508751
137	0x3cf66edf	0.030082164
138	0xbc57f111	-0.013180033
139	0x3dba11b4	0.09085408
140	0x3a847e16	0.0010108377
141	0x3cde9253	0.027169382
142	0xbbdf8baf	-0.0068220715
143	0xbbaf766e	-0.005354694
144	0x3be14108	0.0068742074
145	0xbc2771cb	-0.010220001
146	0x3d3b10dd	0.04567038
147	0x3c8c5275	0.017129162
148	0x3c7c2b51	0.015391187
149	0x3cbee8d1	0.023304375
150	0xbaccbe5b	-0.0015620695
151	0x3cae2cc7	0.021261586
152	0x3cb43ba3	0.022001093
153	0x3c2cc387	0.010544664
154	0xbccee873	-0.025257325
155	0x3b283383	0.002566547
156	0x3cb48050	0.02203384
157	0x3b3d7278	0.002890734
158	0xbb6c2dfd	-0.0036038153
159	0xbc1e2fe2	-0.009654971
160	0x3c097bbe	0.008391319
161	0xbc482c3a	-0.012217576
162	0x390745dd	0.0001290063
163	0x3c9daa8e	0.019246366
164	0x3c9fa2bd	0.01948678
165	0x3d0caf81	0.03434706
166	0x3c82767e	0.015925642
167	0xba2fd014	-0.0006706726
168	0x3c54efd7	0.012996635
169	0xbc51c99b	-0.012804414
170	0x3c9b6663	0.01896972
171	0xba9b6e5e	-0.0011858454
172	0x3ce04546	0.027376782
173	0x3c5f18d6	0.013616761
174	0x3cefe753	0.029285109
175	0xbc0f29b7	-0.008737973
176	0x3b1c6a54	0.0023867087
177	0x3c51a00a	0.012794504
178	0x3cd6f896	0.026241582
179	0x3c56606f	0.013084515
180	0x38ceaa04	9.854513e-05
181	0xbcad3231	-0.021142097
182	0x3cd2ad0d	0.025717283
183	0x3c6b44ff	0.014359712
184	0x3d2dc0b7	0.042420115
185	0xbb92b836	-0.004477526
186	0x3b96784d	0.0045919777
187	0x3ba868bf	0.00513944
188	0xbba29646	-0.0049617616
189	0x3c3db08c	0.011577737
190	0x3c705053	0.014667588
191	0x3af4f95a	0.0018690035
192	0x3c57c4e8	0.013169505
193	0xbb83096f	-0.0039989273
194	0xbafaf576	-0.0019146639
195	0x3abfa8d3	0.0014622457
196	0x3c36153f	0.011113464
197	0x3cf914d4	0.03040544
198	0x3be36e6f	0.006940655
199	0x39d04a1f	0.00039728076
200	0x3c58f471	0.013241873
201	0x3d39c8e1	0.04535759
202	0xbc6c3ec4	-0.014419261
203	0x3c113c5a	0.008864487
204	0xbc1661bc	-0.009178575
205	0x3cf227ed	0.029560054
206	0xbc1b15c8	-0.009465642
207	0x3c2f5e66	0.010703659
208	0xbc410b2a	-0.011782447
209	0x3c97dc69	0.018537717
210	0x3b11313c	0.002215459
211	0xbc2875b4	-0.010281969
212	0x3c8811f9	0.016610133
213	0x3bd82638	0.006596353
214	0xbbe023c5	-0.0068402016
215	0x00000000	0.0
216	0x3ad6e58b	0.0016395313
217	0x3b6c55c6	0.0036061867
218	0xbbb57ff3	-0.0055389344
219	0xbb32a150	-0.0027256794
220	0x3c68bed3	0.014205652
221	0xbc8d0bf1	-0.017217608
222	0xbc1cb3d5	-0.00956436
223	0x3d571ded	0.052518774
224	0x3b93151e	0.0044886013
225	0x3c396bbf	0.011317193
226	0xba2e5497	-0.0006650178
227	0xbcaef164	-0.021355338
228	0xbccaa865	-0.0247385
229	0x3cf83153	0.030296957
230	0x3bd1efc9	0.0064067584
231	0x3c20a8f3	0.009805906
232	0x3c047ca6	0.008086359
233	0x3ce2eb25	0.027700016
234	0xbc2f6e00	-0.010707378
235	0xba3c38a5	-0.00071800716
236	0xba70629e	-0.00091699685
237	0x3b02b23b	0.001994266
238	0x3c6c2a68	0.014414407
239	0x3b04285d	0.002016566
240	0x3bd7918d	0.0065786303
241	0xbc71d4ca	-0.0147602055
242	0x3c88653e	0.016649839
243	0xbc3e2210	-0.011604801
244	0x3cb404ab	0.021974882
245	0x3b8a84e5	0.004227268
246	0x3b7d4b0c	0.0038649468
247	0x3c5b4388	0.0133828
248	0xbc4f47e2	-0.012651416
249	0xbb78a488	-0.0037939865
250	0x3cdb30a5	0.026756594
251	0x3d0db324	0.03459467
252	0x3b4e9b6a	0.003152574
253	0xba8e568e	-0.0010859536
254	0x3cab7411	0.020929368
255	0xbc62e988	-0.0138496235

weight f4 [256, 512]
0	0x3d4193e9	0.0472602
1	0xbd7e320b	-0.062059443
2	0x3ca8af05	0.020591268
3	0x3dc65ba2	0.09685446
4	0xbcae292e	-0.02125987
5	0xbb129178	-0.0022364538
6	0x3e10bf4e	0.14135477
7	0x3db2b925	0.0872672
8	0xbc221467	-0.00989256
9	0xbca0084b	-0.019535204
10	0x3c0e334c	0.008679222
11	0xbd54e4b9	-0.05197594
12	0x3c2c4301	0.010514022
13	0x3e033efc	0.12816995
14	0xbc21fd69	-0.009887078
15	0x3dff7097	0.12472647
16	0x3d66bf20	0.056334615
17	0x3e0403d3	0.12892084
18	0x3d501f17	0.0508109
19	0x3d84a2cd	0.06476364
20	0x3da89769	0.08232004
21	0xbd584b5c	-0.052806243
22	0x3d1a659b	0.037694555
23	0xbda5443e	-0.08069657
24	0x3d18bd6f	0.037290033
25	0x3bfe4651	0.007759847
26	0x3cf48440	0.029848218
27	0xbdc572f1	-0.09641064
28	0xbbe6b82d	-0.0070409984
29	0x3b77c0eb	0.0037804197
30	0xbca8fcb4	-0.02062831
31	0x3db7bb86	0.08971314
32	0xbdeb890d	-0.1150075
33	0xbe113070	-0.14178634
34	0xbbcdb10a	-0.006277208
35	0xbd3be759	-0.045874927
36	0x3e079195	0.13239129
37	0xbd06705e	-0.032822005
38	0xbc97f39e	-0.018548783
39	0x39a7eb3e	0.0003202799
40	0x3d424532	0.04742927
41	0x3da1315a	0.07870741
42	0xbdbcaa84	-0.09212211
43	0x3d1f8084	0.03894092
44	0x3cc5779b	0.024104884
45	0xbd8601aa	-0.06543286
46	0xbd34f255	-0.04417642
47	0xbc0f4bff	-0.008746146
48	0x3dc6bc9a	0.09703942
49	0xbcff3e29	-0.03115757
50	0xbe0a2d96	-0.13493952
51	0x3de0f1c7	0.10983615
52	0x3d79fb3e	0.06103062
53	0xbd35970d	-0.044333506
54	0xbbf76d4e	-0.007550872
55	0xbe2b5da3	-0.16734938
56	0x3b9c7066	0.004774141
57	0x3d6e3aaf	0.058161434
58	0xbe306807	-0.17227183
59	0xbd192e8a	-0.0373979
60	0x3e2009fd	0.1562881
61	0xbba47ae1	-0.005019531
62	0x3d5dc001	0.054138187
63	0x3ce88e56	0.028388184
64	0x3c4d586a	0.012533287
65	0x3d98f92d	0.074694015
66	0xbd07220f	-0.032991465
67	0x3d1de9ee	0.03855317
68	0x3da31883	0.079636596
69	0x3d4277b1	0.047477428
70	0xbc83e16f	-0.016098706
71	0x3e4bd42d	0.19905157
72	0x3e2724e5	0.16322668
73	0x3c9ca6ce	0.019122507
74	0x3ddb3c09	0.1070481
75	0x3da6c32c	0.08142695
76	0x3c1a77dc	0.009427991
77	0xbe22472f	-0.15847467
78	0xbce8a6d8	-0.02839987
79	0x3e24fa06	0.16111001
80	0xbd7778fb	-0.06041811
81	0x3a925d5c	0.0011166739
82	0xbd3c5350	-0.04597789
83	0x3e0a8eb7	0.13531004
84	0x3d0c4455	0.034244854
85	0xbe290bf4	-0.16508466
86	0x3dbde28b	0.09271725
87	0xbe12dd4f	-0.14342235
88	0xbd5bd678	-0.05367133
89	0x3e22b19b	0.15888064
90	0x3da4ff12	0.08056463
91	0x3dcde08f	0.10052597
92	0xbd0ad309	-0.033892665
93	0x3d4dfe10	0.05029112
94	0x3dec556a	0.11539729
95	0x3dabc088	0.08386332
96	0x3d92287c	0.07136628
97	0x3de568b8	0.11201614
98	0xbd83cd13	-0.06435599
99	0xbc5e1fbc	-0.013557371
100	0xbda154ca	-0.078775
101	0x3d218a17	0.039438333
102	0xbd1adcc3	-0.03780819
103	0x3dde20de	0.10846113
104	0xbe0ec7f0	-0.13943458
105	0x3d835245	0.06412176
106	0x3d82c41f	0.063850634
107	0xbe1c0694	-0.15236884
108	0xbd26a0d1	-0.04068071
109	0x3e03d9cd	0.12876053
110	0x3de0e1aa	0.10980542
111	0x3d0e4b9b	0.03474007
112	0x3ddc4298	0.10754889
113	0xbcf021ce	-0.029312994
114	0x3dad0db6	0.08449881
115	0xbd647ea5	-0.05578484
116	0x3e1f1a3a	0.15537348
117	0xbc1d9d3c	-0.009620007
118	0xbcace63e	-0.021105882
119	0xbda993f4	-0.08280173
120	0x3d7bf9a7	0.061517384
121	0x3cdd7cff	0.027037142
122	0x3ca0c41a	0.019624759
123	0x3dfa3ec7	0.12219005
124	0xbd64c4b2	-0.055851646
125	0xbdb1ec5b	-0.08687659
126	0xbd35002a	-0.04418961
127	0xbc92475f	-0.017856298
128	0x3d3cc5ec	0.04608719
129	0x3d6e7ed5	0.058226425
130	0xbe0c93e2	-0.13728288
131	0x3c3e6850	0.01162155
132	0xbc9bd572	-0.019022677
133	0x3d8a76be	0.067609295
134	0xbdb6ec02	-0.08931734
135	0x3d25ec87	0.040508773
136	0x3d22c942	0.039742716
137	0xbd9b2779	-0.07575888
138	0x3cc0760d	0.023493791
139	0xbd17985f	-0.037010547
140	0xbe0d252a	-0.13783708
141	0xbd21da28	-0.03951469
142	0x3d30b44e	0.043140702
143	0xbbdd3c6a	-0.0067515867
144	0x3b07c0e2	0.0020714332
145	0x3cbed74d	0.023296023
146	0xbd8da7fd	-0.06916807
147	0x3db7cbb5	0.08974401
148	0x3df57814	0.11985794
149	0xbd8e475f	-0.06947207
150	0x3df088dc	0.11744854
151	0x3ca54ad6	0.020177286
152	0xbe1c4442	-0.15260413
153	0xbda7bf0b	-0.081907354
154	0x3dda6ddc	0.10665485
155	0x3dd31d6f	0.103083484
156	0xbe0bc9bb	-0.13651173
157	0x3e212655	0.15737279
158	0xba8cdf50	-0.0010747705
159	0xbaf3d377	-0.001860245
160	0x3dfb12f6	0.12259476
161	0x3cde21d5	0.027115742
162	0x3dff6dfc	0.1247215
163	0x3d551e86	0.052031063
164	0x3c04cd17	0.008105538
165	0xbd250025	-0.04028334
166	0xbd47bbc5	-0.048763055
167	0xbcee9bb7	-0.029126985
168	0x3d66b318	0.05632314
169	0xbc765fce	-0.01503749
170	0x3de776d3	0.11301961
171	0xbe17bf07	-0.14818965
172	0x3d94810d	0.07251177
173	0xbd90a8f3	-0.070634745
174	0xbe1d775d	-0.15377565
175	0xbcc8030b	-0.024415514
176	0xbd6ad581	-0.05733252
177	0xbd33af42	-0.04386831
178	0x3c3e9845	0.011632984
179	0xbd0d5d99	-0.03451309
180	0x3d9f50c1	0.077790745
181	0xbdd6651d	-0.104685046
182	0x3d4ff48d	0.05077033
183	0xba0bfe32	-0.0005340307
184	0x3da4b19e	0.0804169
185	0x3dc56edf	0.096402876
186	0x3d1a926f	0.037737306
187	0xbe6beba7	-0.23039113
188	0x3dc72319	0.09723491
189	0x3e1c4ed4	0.15264446
190	0xbb8bfe03	-0.004272224
191	0xbd375dbc	-0.044767126
192	0x3cfbdb1f	0.030744134
193	0x3d7f7f43	0.062377226
194	0x3daca459	0.08429784
195	0x3a4df6b4	0.0007856891
196	0xbe0d51c4	-0.13800722
197	0x3e1a8233	0.1508873
198	0x3d03fb9a	0.032222368
199	0xbe2aa37a	-0.16663924
200	0xbdcdfb2a	-0.10057671
201	0xbe1347a0	-0.14382792
202	0xbd68dca4	-0.056851044
203	0x3c24a0a5	0.010048066
204	0xbb223662	-0.0024751653
205	0x3c4b4093	0.012405532
206	0x3d53c9e3	0.051706206
207	0xbd0cf2c8	-0.03441122
208	0xbd7534c9	-0.059864793
209	0x3e21d27c	0.1580295
210	0x3e52e08c	0.2059347
211	0x3dddbf3a	0.10827489
212	0xbc0e9eef	-0.008704885
213	0xbdb644cb	-0.0889984
214	0xbd8e5d99	-0.06951446
215	0x3c2fef3d	0.010738191
216	0xbb1999ff	-0.0023437736
217	0xbd3a3769	-0.045463
218	0x3d3f376a	0.046683706
219	0x3b7e1d96	0.0038774959
220	0xbdb80819	-0.089859195
221	0xbe1b0ab0	-0.15140796
222	0x3d0c1edf	0.03420913
223	0xbe0df48d	-0.1386282
224	0x3de112d2	0.10989918
225	0x3d600a72	0.05469746
226	0x3bce6f76	0.0062999083
227	0xbd6f9bd0	-0.058498204
228	0xbd1cf884	-0.03832294
229	0xbcfa3064	-0.030540653
230	0x3d222d56	0.039594017
231	0x3c813054	0.015770115
232	0x3d28316e	0.041062765
233	0xbc162b2e	-0.009165568
234	0x3d48503e	0.04890465
235	0xbc3d41d9	-0.011551344
236	0x3d1b4191	0.037904326
237	0x3d04ac17	0.03239068
238	0xbe4e6fcc	-0.20159835
239	0xbdb0c74d	-0.086317636
240	0x3d68acc1	0.056805376
241	0xbd0b8e22	-0.034071095
242	0xbd08beac	-0.033384964
243	0x3d519f03	0.051177036
244	0xbc894a72	-0.016759131
245	0x3ce60d45	0.0280825
246	0x3d854012	0.06506361
247	0xbd8b6832	-0.06806983
248	0x3cb27d2f	0.021788208
249	0x3dc17678	0.09446424
250	0xbd975dc6	-0.07390933
251	0xbe3fcd6a	-0.18730703
252	0xbc565f71	-0.013084278
253	0x3c1accd1	0.009448246
254	0xbd07442e	-0.033024006
255	0xbd7d15cb	-0.06178836

bias f4 [256]
0	0x3c61e4d1	0.013787464
1	0xbbcb9876	-0.006213243
2	0x3b1e31aa	0.0024138489
3	0x3c781d69	0.015143731
4	0x3c55c881	0.013048292
5	0x3cdbd724	0.026835985
6	0xbc04d527	-0.00810746
7	0x3bf2159c	0.00738783
8	0x3b8a78d4	0.0042258296
9	0x3c6d878c	0.014497649
10	0xbc45503b	-0.012043054
11	0x3d100c7a	0.03516815
12	0x3bb2b6c4	0.0054539163
13	0x37c5f852	2.3599863e-05
14	0xbb29e14f	-0.0025921648
15	0xbc9f13ef	-0.019418685
16	0x3d1059a6	0.035241745
17	0xbc93a851	-0.018024595
18	0xbcc57b38	-0.024106607
19	0xbbf67175	-0.0075208494
20	0xbc9379a5	-0.01800234
21	0x3cda7349	0.0266663
22	0xbc20c3b2	-0.009812282
23	0xbc76ae6d	-0.015056235
24	0xbc4a4dfc	-0.0123476945
25	0x3bfb3452	0.007666149
26	0xbc8e0783	-0.017337566
27	0xbba260e1	-0.0049553965
28	0xbc556e8b	-0.013026844
29	0x3c53e899	0.012933874
30	0xbc88ef17	-0.01671557
31	0xbca5a958	-0.020222351
32	0xbbe77e13	-0.0070645898
33	0x3c0e7ce3	0.0086967675
34	0x3d1e3470	0.038624227
35	0xbba8c4df	-0.005150422
36	0xbc5797ca	-0.013158748
37	0x3cb42db0	0.021994442
38	0x3c18d9c7	0.009329266
39	0xbc4b0536	-0.012391379
40	0xbcb3a6f3	-0.021930194
41	0xbc569bb6	-0.013098648
42	0x3d1a787c	0.03771256
43	0xbc30a52c	-0.010781568
44	0xbcf4a47d	-0.02986359
45	0x3c01e435	0.007927944
46	0xbc9263e6	-0.0178699
47	0x3aa00db8	0.001221112
48	0x3d016059	0.031586025
49	0xbc618224	-0.013763938
50	0xbc1c9cba	-0.009558851
51	0x3ca951b8	0.02066885
52	0xbb187a70	-0.0023266338
53	0xbc353093	-0.011058944
54	0xbc819532	-0.015818212
55	0xbbc4142d	-0.0059838505
56	0xbc235285	-0.009968405
57	0xbc92ad29	-0.017904835
58	0xbb9dec3d	-0.0048194216
59	0x3d0c7339	0.034289572
60	0xbc6c3843	-0.014417711
61	0x3d099c58	0.033596367
62	0xbb727768	-0.0036997441
63	0xbb9e6758	-0.004834097
64	0x3c4f734e	0.012661768
65	0x3d1eb407	0.038745906
66	0x3d0185a7	0.0316216
67	0x3cc08fb5	0.023506025
68	0x3cbff23d	0.023430938
69	0x3d125745	0.035727758
70	0xbcb6d6d6	-0.022319239
71	0x3bc6787a	0.0060568424
72	0xbc964c44	-0.018346913
73	0x3c96ecb0	0.018423408
74	0xbcc06f79	-0.023490654
75	0xbc4caf7a	-0.012493009
76	0xbc965e8e	-0.018355634
77	0x3cb2d74b	0.021831175
78	0x3ca7afef	0.020469634
79	0xbc4b3bbf	-0.012404381
80	0x3c6dd5d9	0.014516317
81	0xbc401dc6	-0.011725849
82	0xba95c135	-0.0011425378
83	0xbb1079e0	-0.00220453
84	0x3c66099a	0.014040375
85	0x3cccfd08	0.025022998
86	0x3b27f8b8	0.0025630426
87	0xbca61579	-0.02027391
88	0x3c7d50af	0.015461131
89	0xbc9b3e8e	-0.018950727
90	0x3c3b7acf	0.011442854
91	0xbc2b4ebc	-0.010455783
92	0x3c8d9805	0.017284403
93	0x3c552b07	0.013010747
94	0x3c0b4c2c	0.0085020475
95	0x3cd92bfd	0.026510233
96	0xbc1e42c9	-0.0096594775
97	0x3cdbb83b	0.026821246
98	0xbcc2549a	-0.023721982
99	0xbbbff8cd	-0.005858517
100	0x3a193f55	0.0005845924
101	0xbc6371be	-0.013882099
102	0xbc10984d	-0.008825374
103	0x3c65764b	0.014005254
104	0x3c2b69ae	0.010462208
105	0x3bc3d95a	0.005976838
106	0x3c975803	0.018474584
107	0xbb37fa02	-0.00280726
108	0x3c3dc4c5	0.011582558
109	0x3c95297e	0.018208262
110	0x3c5d4dd8	0.013507329
111	0x3c6f1c88	0.014594205
112	0x3c8976dc	0.01678031
113	0x3cb982ec	0.022645436
114	0x3c0390a0	0.008030087
115	0x3c51e5fc	0.01281118
116	0x3c0422fd	0.0080649825
117	0x3d44f3d0	0.04808408
118	0xbc8e1262	-0.01734275
119	0xbac27e15	-0.0014838601
120	0x3bb41b63	0.005496429
121	0xbca90444	-0.020631917
122	0xbcb075b5	-0.021540502
123	0xbc334210	-0.0109410435
124	0x3d02a814	0.031898573
125	0xbb975eec	-0.00461947
126	0xbc840609	-0.016116159
127	0xbc434f4f	-0.011920764
128	0xbc677f4f	-0.014129474
129	0x3c8833e8	0.016626313
130	0x3be7e85a	0.007077259
131	0x3cb5416a	0.022125918
132	0x3cfd8172	0.030945513
133	0xbb86aae5	-0.0041097277
134	0xbbde929d	-0.00679238
135	0x3cf6c79e	0.030124482
136	0xbac4ffd6	-0.0015029858
137	0x3bff04c5	0.007782551
138	0x3c317719	0.010831618
139	0xbc977955	-0.018490473
140	0xbc6f03dc	-0.0145883225
141	0x3bdebbc7	0.006797287
142	0xbc5f9fb2	-0.013648914
143	0xbc42201a	-0.011848474
144	0xbc399a0a	-0.01132823
145	0xbc236a63	-0.009974095
146	0x3c73380d	0.0148449065
147	0xbc47b387	-0.012188799
148	0xbc099956	-0.008398375
149	0xbc9409ef	-0.018071143
150	0x3c8cb340	0.017175317
151	0x3bccdc9f	0.006251886
152	0xbc38a43e	-0.011269627
153	0x3984df39	0.00025343316
154	0xbc24c12d	-0.010055822
155	0xbba0f9aa	-0.004912575
156	0x3c0a2752	0.008432226
157	0x3ce65cbc	0.028120391
158	0x3c1a3453	0.009411889
159	0x3cc6efdb	0.024284294
160	0xbce4b300	-0.027917385
161	0xbc1b7299	-0.009487771
162	0x3a09b7bc	0.0005253514
163	0xbc9de94d	-0.019276286
164	0x3c64df15	0.0139692025
165	0xb98e0814	-0.0002709037
166	0xbc940440	-0.018068433
167	0x3ca66161	0.020310106
168	0x3cc7b037	0.024376018
169	0xbc48983d	-0.012243328
170	0xbc24ac4f	-0.010050847
171	0x3bc50031	0.0060119857
172	0xbb4d7e45	-0.003135578
173	0xbc42458b	-0.011857401
174	0x3cc3948f	0.02387455
175	0x3a55b96f	0.0008152937
176	0x3c5761d1	0.01314588
177	0xbc4050f4	-0.011738051
178	0x3ce31274	0.02771876
179	0xbc215de2	-0.009849044
180	0x3cd95fef	0.026535003
181	0x3baa3d54	0.005195299
182	0x3c6e2a44	0.014536444
183	0x3b9f93e3	0.0048699244
184	0xbc43d1a0	-0.011951834
185	0x3af7a79b	0.0018894555
186	0xbc55d8b0	-0.013052151
187	0xbc3ec3ff	-0.011643409
188	0xbc689287	-0.014195091
189	0x3cadd952	0.02122179
190	0xbc0d44b0	-0.008622333
191	0xbc63fcce	-0.013915254
192	0x3c349331	0.011021421
193	0x3c19aa88	0.009379037
194	0x3c4125e2	0.011788817
195	0x3c8d7dfc	0.017271988
196	0x3c1f5754	0.0097254105
197	0x3cbd57e5	0.0231132
198	0x3afaf6d9	0.0019147053
199	0x3ad25f8d	0.0016050205
200	0x3c12d591	0.008962051
201	0xbc863639	-0.016383277
202	0xb9521dc2	-0.00020038246
203	0xbc2ff424	-0.01073936
204	0x3b9fda83	0.0048783435
205	0xbc8a8bd2	-0.016912375
206	0x3c8d60fe	0.017258164
207	0x3bfaae0a	0.0076501416
208	0xbc2bac54	-0.010478098
209	0x3c3a1ac3	0.01135892
210	0xbb996c07	-0.0046820673
211	0xbc13e7c5	-0.009027426
212	0x3b04f691	0.0020288567
213	0xbb378bc1	-0.0028006884
214	0xbc7f5cb5	-0.015586068
215	0x3c8a81e4	0.01690764
216	0xba87c950	-0.0010359678
217	0x3a7462d7	0.00093225896
218	0x3c56da27	0.013113535
219	0xbc391e41	-0.011298717
220	0x3c9ca794	0.019122876
221	0x3cb74180	0.0223701
222	0x3c8a3b49	0.016873972
223	0x3cb70ce6	0.022345018
224	0x3d073770	0.033011854
225	0xbc851baf	-0.016248552
226	0xbc0cdd41	-0.008597673
227	0x3cd17e60	0.025572956
228	0x3c0c62a6	0.0085684415
229	0x3cafb42f	0.021448223
230	0xbc8b0b73	-0.016973233
231	0x3cbb0032	0.022827242
232	0x3ca3078f	0.019901065
233	0x3c22b751	0.009931401
234	0xbcc40c82	-0.023931745
235	0x3c1c8ff3	0.009555805
236	0xbb95fba9	-0.0045771194
237	0xbc30ef2f	-0.010799213
238	0x3c3a1b1c	0.011359002
239	0x3bb0b934	0.0053931717
240	0xbca8e202	-0.020615581
241	0x3be79611	0.00706745
242	0xbb0eba1b	-0.0021778408
243	0x3cd1ff5d	0.025634462
244	0xbc803929	-0.015652256
245	0x3cca085f	0.024662195
246	0x3c96d699	0.018412875
247	0x3c7d12bf	0.015446364
248	0xbcfe2393	-0.031022822
249	0x3aa194b8	0.0012327647
250	0xbc23ca0e	-0.009996904
251	0xba920784	-0.0011141156
252	0xbc5ff868	-0.0136700645
253	0xbc8043cb	-0.015657326
254	0xb8366b02	-4.349184e-05
255	0x3815377d	3.5576046e-05

weight f4 [128, 256]
0	0xbdf42130	-0.119203925
1	0x3d92adfc	0.07162091
2	0x3c09e165	0.008415555
3	0xbc055ce7	-0.008139825
4	0xbd9685c0	-0.073497295
5	0x3d4d3887	0.050102737
6	0xbd6edc05	-0.058315296
7	0xbd6506b8	-0.05591461
8	0x3d044ef1	0.032301847
9	0xbdd62fba	-0.10458322
10	0x3d8808c9	0.06642301
11	0xbc898f5f	-0.016791997
12	0x3dd04fa0	0.10171437
13	0x3d66e3b4	0.0563695
14	0x3d814006	0.063110396
15	0x3d9a24ea	0.07526572
16	0x3d9df16a	0.07712062
17	0x3d905cd1	0.07048953
18	0x3d8e9aa0	0.06963086
19	0xb94b41f8	-0.00019384164
20	0xbd955c88	-0.072930396
21	0x3de0c74c	0.10975513
22	0xbe2a134b	-0.16608922
23	0xbd426e56	-0.047468506
24	0xb9d4ddfa	-0.00040601176
25	0x3c9f0cdc	0.019415312
26	0xbc75280c	-0.014963161
27	0x3cf84d35	0.030310253
28	0xbe0a6d1e	-0.13518187
29	0xbd64e0f1	-0.055878583
30	0xbdb6d689	-0.08927638
31	0x3c386bd2	0.011256175
32	0xbb2bc01a	-0.002620703
33	0x3df62d63	0.120203756
34	0x3d794bd7	0.060863342
35	0xbc86c0a0	-0.016449273
36	0xbdbb33c3	-0.09140732
37	0xbd4ba101	-0.049714092
38	0xbdd10a82	-0.10207082
39	0x3da819e3	0.082080625
40	0x3b88844b	0.004166161
41	0xbcaaea69	-0.020863729
42	0xbd890c96	-0.06691854
43	0xbd5405d0	-0.051763356
44	0x3ca7f51c	0.02050262
45	0xbd1a2d9e	-0.03764116
46	0xbd4a6705	-0.049414653
47	0x3d394f95	0.04524191
48	0x3bc5a626	0.0060317693
49	0x3d35d090	0.044388354
50	0xbc79f634	-0.015256453
51	0x3c9e80d1	0.019348534
52	0xbc2e332f	-0.01063232
53	0xbd94ca60	-0.072651625
54	0xbc85e2d0	-0.016343504
55	0x3d723e6d	0.059141565
56	0xbdef70d0	-0.11691439
57	0x3da9a9c4	0.08284333
58	0xbda1af84	-0.07894805
59	0x3dcd0224	0.10010174
60	0xbd86501c	-0.065582484
61	0x3d4cb170	0.049973905
62	0x3d897a64	0.06712797
63	0xbe1541dc	-0.14575905
64	0x3d4d9f2d	0.05020063
65	0xbe1a292d	-0.1505477
66	0x3c2859d8	0.010275327
67	0xbdd472d8	-0.10373467
68	0xbd097f48	-0.03356865
69	0x3db27038	0.0871281
70	0x3d59e490	0.05319649
71	0xbce7d8d8	-0.028301641
72	0xbd5c5f0c	-0.05380158
73	0xbd2dc292	-0.042421885
74	0x3cb4a7f7	0.022052748
75	0xbc5069bf	-0.012720524
76	0x3c14c923	0.009081158
77	0xbcab113b	-0.02088224
78	0xbdbb87b6	-0.09156744
79	0xbbbff5b0	-0.0058581457
80	0x3c8976e7	0.01678033
81	0xbdbe8a98	-0.093037784
82	0xbd3d7586	-0.046254657
83	0x3cb11c3b	0.021619907
84	0x3d1b44c2	0.03790737
85	0x3bd759c7	0.0065719816
86	0x3c3f636e	0.011681421
87	0xbd55f2bb	-0.05223344
88	0x3d4256da	0.04744611
89	0xbd9f61e5	-0.07782344
90	0xbdd67867	-0.10472184
91	0xb7a02fcd	-1.9095745e-05
92	0xbc16d1a4	-0.009205256
93	0x3d4e8590	0.050420344
94	0xbd3a5485	-0.04549076
95	0xbdf411b1	-0.11917437
96	0x3deb4362	0.114874616
97	0x3d4d8cc3	0.05018307
98	0xbd87a88e	-0.06623946
99	0xbd29bd9c	-0.04144059
100	0xbcb93677	-0.022608979
101	0xbd6d857b	-0.057988625
102	0xbd96964e	-0.07352887
103	0xbd36525d	-0.04451214
104	0xbb570c70	-0.003281381
105	0xbd63e0b2	-0.055634208
106	0x3c10e0fd	0.008842704
107	0xbd2e8e6d	-0.042616297
108	0x3d8a584a	0.06755121
109	0x3d512a70	0.051065862
110	0xbd2f0f33	-0.042739104
111	0xbdf6e583	-0.12055495
112	0xbd7f88bd	-0.062386263
113	0xbcf8c114	-0.030365504
114	0x3c686816	0.014184972
115	0x3d612af8	0.05497262
116	0xbd135d57	-0.035977688
117	0x3d4a2357	0.04935011
118	0xbd643fca	-0.055724896
119	0xbd58437f	-0.052798744
120	0xbcb53a61	-0.022122564
121	0x3b483a3f	0.0030552296
122	0xbb6b5f9f	-0.003591515
123	0xbc1e0b55	-0.009646256
124	0xbda5fc0a	-0.08104713
125	0xbb887b32	-0.0041650767
126	0x3d773de6	0.060361765
127	0x3cd7a341	0.026322963
128	0x3d5af348	0.053454667
129	0xbdb2eaea	-0.087362126
130	0xbddfdbd1	-0.109305985
131	0xbe016f18	-0.12640035
132	0x3daa5e81	0.083188064
133	0xbe1183b1	-0.14210393
134	0xbd529e06	-0.051420234
135	0x3a389143	0.00070406887
136	0x3dad980b	0.084762655
137	0x3d0a3ea7	0.033751156
138	0x3cd49290	0.025948793
139	0x3d347994	0.04406126
140	0xbd09844d	-0.033573437
141	0xbcf7b1ac	-0.030236088
142	0x3d1fe32b	0.039035004
143	0x3c27b4ca	0.010235975
144	0xbd0341b1	-0.03204507
145	0x3d0963ce	0.033542447
146	0xbc30f344	-0.010800187
147	0x3cad53b2	0.021158073
148	0xbd3cb6b6	-0.046072684
149	0xbdcb4f6d	-0.09927259
150	0xbcbf25fd	-0.023333544
151	0xbca95829	-0.02067192
152	0x3dd31d1b	0.10308286
153	0xbdd473b7	-0.10373633
154	0xbd2a75f0	-0.04161638
155	0xbc3b9dfc	-0.011451241
156	0xbd074112	-0.03302104
157	0xbdae15f0	-0.08500278
158	0x3d838ada	0.06422968
159	0xbdf37538	-0.11887592
160	0x3d8adb34	0.06780091
161	0x3ceb8b93	0.028753078
162	0xbceca83a	-0.02888881
163	0x3d4856b6	0.04891082
164	0xbe0ea323	-0.13929419
165	0x3d895d8b	0.06707295
166	0xbc855fae	-0.016280975
167	0x3d9f2384	0.07770446
168	0xbd50b5f4	-0.050954774
169	0xbd358566	-0.04431667
170	0xbd21ae5e	-0.03947293
171	0x3d17aab8	0.037028044
172	0x3ae597c7	0.0017516547
173	0x3db722fa	0.08942218
174	0xbd0f67db	-0.035011154
175	0xbceea0c5	-0.029129395
176	0xbb40d254	-0.002942224
177	0x3d9555ee	0.072917804
178	0xbdea1919	-0.11430568
179	0xbcaa7a90	-0.020810395
180	0xbbd7924d	-0.0065787197
181	0x3bc3a183	0.0059701814
182	0xbd3c8ec2	-0.046034582
183	0xbda68688	-0.081311285
184	0xbdfd9729	-0.12382347
185	0x3cc878aa	0.0244716
186	0x3db12d6a	0.0865124
187	0xbdd23e51	-0.10265792
188	0xbc68a902	-0.014200451
189	0xbe2a3baf	-0.1662433
190	0xbd52d13e	-0.05146908
191	0x3ddca0a5	0.10772828
192	0x3d3b98ad	0.0457999
193	0xbd3ff814	-0.046867445
194	0xbdb32f34	-0.08749238
195	0x3d87297f	0.065997116
196	0xbd465281	-0.048418526
197	0xbd352926	-0.044228695
198	0xbbde34e4	-0.0067812074
199	0x3d9952d9	0.07486505
200	0xbd95a348	-0.07306534
201	0xbdc8adef	-0.097988
202	0xbd246af2	-0.040141053
203	0xbcd0b9a5	-0.025479147
204	0xbc89648a	-0.016771574
205	0x3d90a034	0.07061806
206	0xbceac344	-0.028657563
207	0xbd2789a0	-0.040902734
208	0x3dae5bae	0.0851358
209	0xbcfc634c	-0.030809067
210	0xbdce5154	-0.10074106
211	0x3d36af25	0.044600625
212	0x3b6394c5	0.0034726125
213	0xbc36116c	-0.011112552
214	0x3d705c0b	0.05868153
215	0xbba2f2ea	-0.0049728053
216	0xbdcf7710	-0.10130131
217	0x3c728b9c	0.014803793
218	0xbd9cc076	-0.076538965
219	0x3d84f342	0.0649171
220	0x3b3dcb21	0.0028960186
221	0xbbbad80c	-0.0057020243
222	0xbc0611d0	-0.008182958
223	0x3ad2289c	0.0016033831
224	0x3d063e3e	0.032774203
225	0xbe01221b	-0.12610666
226	0xbd226420	-0.039646268
227	0x3da1d095	0.07901112
228	0xbcadf21c	-0.02123361
229	0xbbe6ece6	-0.0070472835
230	0xbd852c63	-0.06502607
231	0xbdd4e603	-0.10395434
232	0xbe13b2b3	-0.14423637
233	0x3d2dd5ec	0.04244034
234	0x3c5171d3	0.012783485
235	0x3d1b65d6	0.037938915
236	0xbd2e53d2	-0.042560406
237	0xbd5d0ba0	-0.053966165
238	0xbe096d25	-0.13420542
239	0xbd84c2c0	-0.06482458
240	0xbd7b7f10	-0.061400473
241	0x3cefd77e	0.02927756
242	0xbd9e46e3	-0.07728364
243	0xbd89e03e	-0.06732224
244	0x3cafda2b	0.021466335
245	0xbdb10cd8	-0.08645028
246	0x3a971f51	0.0011529719
247	0xbadeb829	-0.001699214
248	0xbdc0c26c	-0.09412083
249	0x3daaf0be	0.08346699
250	0x3c7369a2	0.014856728
251	0xbd310cbe	-0.043225043
252	0x3d717625	0.058950562
253	0x3d9e30e7	0.07724171
254	0xbd00fb38	-0.03148958
255	0xbcdd1022	-0.026985232

bias f4 [128]
0	0xbcb6003a	-0.022216905
1	0x3d4962d9	0.049166534
2	0xbc34cdd2	-0.0110353995
3	0x3c79cb4d	0.015246225
4	0xbcd36e05	-0.025809297
5	0x3d216e0a	0.039411582
6	0xbcdb7de3	-0.026793426
7	0xbc8c3d05	-0.01711894
8	0xbc62e642	-0.013848843
9	0x3b7db8f2	0.0038714972
10	0xbca3fcd1	-0.020018013
11	0xbcf2a757	-0.02962081
12	0xbc4e9486	-0.012608653
13	0x3d0e0718	0.034674734
14	0xbc1f3819	-0.009717965
15	0x3c832856	0.016010445
16	0x3a6b1ec9	0.0008969126
17	0x3db112e1	0.08646179
18	0xbca3bb97	-0.01998691
19	0xbc4ce45e	-0.012505619
20	0xbce9fd2a	-0.0285631
21	0x3c9f01d3	0.01941005
22	0x3cefebae	0.029287186
23	0x3d4df0b9	0.0502784
24	0xbc779703	-0.015111688
25	0xbc5db25b	-0.013531293
26	0xbcb62b21	-0.022237362
27	0xbbe3ef57	-0.0069560218
28	0xbcdf4743	-0.02725566
29	0xbb7c62ab	-0.003851096
30	0x3d06acac	0.032879516
31	0x3d1005ee	0.035161905
32	0x3d004acb	0.031321328
33	0xbcaddd2c	-0.021223627
34	0xbc80897b	-0.015690556
35	0x3cbcabfa	0.023031224
36	0x3d166cee	0.036724977
37	0xbc355a42	-0.011068882
38	0x3c08c310	0.008347288
39	0xbbdd8708	-0.0067604817
40	0x3cb118b9	0.021618234
41	0xbc606431	-0.0136957625
42	0x3b79ca64	0.003811502
43	0xbbb0cffd	-0.005395888
44	0xbaee199f	-0.0018165595
45	0x3c86b994	0.016445912
46	0x3cd5240b	0.026018163
47	0x3caea3cc	0.021318339
48	0x3bae73bd	0.0053238557
49	0xbd1bf62b	-0.03807656
50	0xbc0e46ac	-0.008683842
51	0x3bf84437	0.007576491
52	0x39d608e8	0.00040823896
53	0xbc9d9370	-0.019235343
54	0xbca74695	-0.020419398
55	0x3c99d486	0.018778097
56	0xbc0fa6c1	-0.008767785
57	0xbc9b9e86	-0.018996488
58	0xbc9e1be6	-0.019300412
59	0x3ccc35a4	0.024927922
60	0x3c4b02ae	0.012390776
61	0xbc9a13d2	-0.01880828
62	0x3cc72fa3	0.024314707
63	0x3b0aa68e	0.0021156403
64	0xbcbc082c	-0.022953115
65	0xbce49a7d	-0.027905697
66	0xbb270b81	-0.0025489035
67	0x3c2f1605	0.010686402
68	0x3bdf32de	0.0068114838
69	0xbc3f85a6	-0.011689579
70	0xbc05a5fe	-0.008157251
71	0xbc836b1a	-0.016042281
72	0x3d14b458	0.0363048
73	0xbc148013	-0.009063738
74	0x3ca1e433	0.019762134
75	0xbc2b626a	-0.010460475
76	0xbca48b79	-0.020086037
77	0x3c4eac17	0.012614272
78	0x3aa3a4c3	0.0012485016
79	0x3b8e8e4e	0.00435046
80	0x3c110c2a	0.008852998
81	0xbc1adf86	-0.009452706
82	0x3ab34347	0.0013676666
83	0x3c9e5b90	0.01933077
84	0x3a5996b4	0.00083003496
85	0x3d01142a	0.03151337
86	0x3d03828e	0.03210693
87	0xbaacf0bd	-0.0013194304
88	0x3d109bbd	0.035304774
89	0x3d3438ad	0.043999363
90	0xbcdb444b	-0.026765963
91	0x3cca7d66	0.024717998
92	0x3c5947d2	0.013261752
93	0x3ce3a625	0.027789185
94	0x3cc52ffa	0.024070729
95	0xbd1c1e98	-0.038115114
96	0xbc2d2ad1	-0.01056929
97	0x3c965904	0.018352993
98	0x3d147d7b	0.03625248
99	0x3be21f0d	0.006900674
100	0xbcb7195e	-0.022350963
101	0xbc962c47	-0.01833166
102	0xbbb16280	-0.0054133534
103	0x3d357fdd	0.044311393
104	0x3cb19e01	0.021681787
105	0xbced6c6b	-0.028982362
106	0x3ba37966	0.004988837
107	0xbcc273c7	-0.023736848
108	0xbc4fc70e	-0.012681736
109	0xbca11b31	-0.019666286
110	0x3d0c7f39	0.034301016
111	0xbcb1d8b9	-0.021709787
112	0xbc61a564	-0.013772342
113	0x3d0b2300	0.033968925
114	0xbbab74a0	-0.0052324086
115	0x3bd3d685	0.0064647817
116	0xbcbe00ec	-0.023193799
117	0x3c2d5056	0.010578236
118	0x3cc06938	0.023487672
119	0x3cb71deb	0.022353133
120	0x3cbda5a2	0.023150269
121	0x3bd2070b	0.006409531
122	0xbc93f0b9	-0.018059121
123	0xbc2ae76a	-0.01043115
124	0xbc8b8647	-0.017031802
125	0xbc72591d	-0.014791754
126	0x3be40e4b	0.0069597117
127	0xbc00f8b8	-0.007871799

weight f4 [24, 128]
0	0x3ceac0a3	0.02865631
1	0x3e030fe1	0.12799026
2	0xbc5b604f	-0.013389661
3	0x3e475aca	0.19468227
4	0xbcad6f33	-0.021171188
5	0x3e1988a0	0.14993525
6	0x3d982313	0.07428565
7	0x3d164824	0.036689892
8	0xbd8bcedb	-0.06826564
9	0x3dcb3658	0.099224746
10	0x3d59e9e0	0.053201556
11	0xbc968877	-0.018375618
12	0x3cd1ef7e	0.025626894
13	0x3da12f2b	0.07870325
14	0x3dd94517	0.10608881
15	0x3c99369e	0.018702801
16	0x3d4aac1d	0.049480546
17	0x3e139384	0.14411741
18	0x3defa5be	0.11701535
19	0xbd39b6e6	-0.04534044
20	0xbdd25849	-0.10270745
21	0x3e087397	0.13325344
22	0xbda93ffa	-0.08264156
23	0xbc4aac57	-0.012370191
24	0x3d86cd96	0.06582181
25	0x3e2102b0	0.15723681
26	0xbc4a903e	-0.012363492
27	0x3b9fd02a	0.00487711
28	0x3e5156ba	0.2044324
29	0x3d707175	0.05870195
30	0xbd53425b	-0.051576953
31	0x3d93ad60	0.07210803
32	0x3dfd6a54	0.12373796
33	0x3da870a9	0.08224613
34	0x3ca13b1d	0.019681508
35	0x3c072408	0.008248337
36	0xbca36868	-0.019947246
37	0x3d362909	0.044472728
38	0xbddb5088	-0.107087195
39	0x3ce7e217	0.02830605
40	0x3e5f37b3	0.21798591
41	0x3b1e0fa1	0.0024118202
42	0xbe15f022	-0.14642385
43	0xbda725bb	-0.081614934
44	0x3d3ce2c6	0.046114706
45	0x3e2b4336	0.16724858
46	0xbd998ae8	-0.074971974
47	0x3e19a062	0.15002587
48	0x3e3ada02	0.18247226
49	0xbe1b2472	-0.15150622
50	0x3dd0ac00	0.101890564
51	0x3c9a40e6	0.018829774
52	0x3d51dd8d	0.051236678
53	0xbc560e73	-0.013064968
54	0x3dc4bee7	0.09606724
55	0xbe6e65fb	-0.2328109
56	0xbe0cd1f4	-0.13751966
57	0x3dfa7420	0.1222918
58	0xbd65fae3	-0.056147467
59	0x3eb5d1ce	0.3551163
60	0x3ddb8764	0.10719183
61	0x3dd64c17	0.10463732
62	0x3d463309	0.048388515
63	0x3dd6cb10	0.1048795
64	0x3d125389	0.035724197
65	0xbdb44ff3	-0.088043116
66	0xbde26ed4	-0.11056295
67	0x3e07569c	0.13216633
68	0x3dea956f	0.114542834
69	0x3e39ce19	0.18145026
70	0xbd03b005	-0.032150287
71	0xbc839a86	-0.016064893
72	0xbe2ef471	-0.17085434
73	0x3d5c9dbe	0.053861372
74	0x3e3aaed1	0.1823075
75	0x3ddc6670	0.10761726
76	0x3da2e131	0.07953108
77	0xbde7b1be	-0.113131985
78	0xbe0664f1	-0.13124444
79	0x3d09cdbf	0.03364348
80	0xbd386c94	-0.045025423
81	0x3d1ba01e	0.037994497
82	0xbd0d8d77	-0.03455874
83	0xbe3a42fa	-0.18189612
84	0x3de96aba	0.113973096
85	0xbb974f43	-0.004617603
86	0x3d1de50a	0.038548507
87	0xbd8a0f98	-0.067412555
88	0xbce9cfc3	-0.028541451
89	0xbd2520b8	-0.040314406
90	0x3e2837ff	0.16427611
91	0xbe4a8dbf	-0.19780634
92	0xbb5bcaa7	-0.0033537538
93	0xbc9dd7db	-0.019267967
94	0x3de9468f	0.11390411
95	0xbe1311e5	-0.14362295
96	0xbdda6389	-0.10663516
97	0x3cf8004f	0.030273585
98	0x3e33028e	0.17481443
99	0x3b652237	0.003496302
100	0x3d98ae93	0.074551724
101	0xbd7811fa	-0.06056402
102	0xbcc74813	-0.02432636
103	0xbdb4fdc3	-0.08837464
104	0xbcbea429	-0.023271637
105	0x3d8768b3	0.06611767
106	0x3d0b0796	0.03394278
107	0x3cc4c6ca	0.024020571
108	0xbda8d23f	-0.08243226
109	0xbde9b7ea	-0.11412032
110	0xbe8ed168	-0.2789414
111	0xbcdb84c8	-0.026796713
112	0x3e54f3f6	0.20796189
113	0xbd249d6d	-0.040189195
114	0x3c90b204	0.01766301
115	0x3c2f72f4	0.010708559
116	0x3c30a013	0.010780352
117	0x3e8a5230	0.2701583
118	0x3cd4bc80	0.02596879
119	0x3e88a3d7	0.266875
120	0x3d5acf4b	0.053420346
121	0x3bfd0a36	0.0077221645
122	0xbdb3c1c0	-0.08777189
123	0x3d27feea	0.04101459
124	0xbdc6b715	-0.09702889
125	0x3e36be14	0.17845947
126	0x3e436b33	0.19083862
127	0xbe0828e9	-0.13296856
128	0x3dd55e67	0.104183964
129	0x3de0185a	0.10942145
130	0xbe088b0d	-0.13334294
131	0x3dc788bb	0.09742876
132	0x3db6859a	0.08912201
133	0x3c8bb2ff	0.017053125
134	0x3e5a45f1	0.21315743
135	0x3dab6cfa	0.08370395
136	0x3e90aa39	0.2825487
137	0x3e2116a3	0.15731291
138	0x3de0c2a4	0.10974625
139	0xbe28d507	-0.16487513
140	0xbdc083c2	-0.09400131
141	0xbd582469	-0.0527691
142	0x3d908b3c	0.07057807
143	0xbc79d68e	-0.015248908
144	0x3ceaf135	0.02867947
145	0x3d78e308	0.06076339
146	0xbe191735	-0.14950259
147	0xbe67821b	-0.22608225
148	0xbd08eb4e	-0.03342753
149	0x3d4f43e8	0.05060187
150	0xbd9ad618	-0.075603664
151	0xbd82e465	-0.06391219
152	0x3cc8d887	0.02451731
153	0xbde68f1d	-0.112577654
154	0xbda3ce4b	-0.07998332
155	0xbc3b304a	-0.011425087
156	0xbdb08996	-0.086199924
157	0x3dfbe12b	0.12298807
158	0xbd484931	-0.048897926
159	0xbc0b2038	-0.008491568
160	0x3d8c5079	0.068512864
161	0x3cd752a5	0.026284525
162	0xbd6e457c	-0.058171734
163	0xbd4dc84a	-0.05023984
164	0xbd041e07	-0.0322552
165	0xbbac56c5	-0.005259367
166	0xbd3fd337	-0.04683229
167	0xbcc281c4	-0.023743518
168	0x3e109187	0.14118014
169	0x3d7a85d7	0.061162796
170	0x3b17765e	0.0023111324
171	0xbcb3b9b9	-0.021939145
172	0x3e26b846	0.16281232
173	0x3bb27c3d	0.0054469393
174	0xbd8a2abf	-0.067464344
175	0xbccd1b30	-0.025037378
176	0x3dc271e1	0.09494377
177	0x3e2c154f	0.16805004
178	0x3c58df3b	0.013236816
179	0x3d37ce3d	0.04487442
180	0x3e3e4fd9	0.18585147
181	0xbdac6d62	-0.084193006
182	0xbd2cac02	-0.042156227
183	0xbdc50de3	-0.09621789
184	0xbdd2765f	-0.10276484
185	0xbd420dc3	-0.047376405
186	0xbd442c98	-0.04789409
187	0x3d155231	0.036455337
188	0x3df24a7b	0.11830612
189	0xbbe376f4	-0.0069416706
190	0x3d5aa238	0.05337736
191	0x3d505a8a	0.050867595
192	0x3d44321d	0.047899354
193	0x3b7436ac	0.0037264032
194	0x3cd96ff5	0.026542643
195	0xbb4d2a55	-0.003130575
196	0x3de395ca	0.11112554
197	0x3a2e7f4e	0.0006656543
198	0xbc55544d	-0.013020587
199	0x3debe51c	0.115183085
200	0xbe7e3968	-0.24826586
201	0x3c210f80	0.009830356
202	0xbbdd1ef4	-0.0067480747
203	0x3e4827e8	0.19546473
204	0xbd7bf940	-0.061517
205	0xbd1749ea	-0.036935724
206	0xbcd264ca	-0.025682826
207	0xbd4ba260	-0.0497154
208	0xbdfc1b67	-0.12309914
209	0xbdbfda58	-0.09367818
210	0x3d2dd339	0.042437766
211	0xbd9f7d4d	-0.07787571
212	0x3dd166d1	0.10224689
213	0xbc39fc81	-0.0113517055
214	0xbd18d8e5	-0.03731622
215	0xbda7697d	-0.08174417
216	0x3cac0acd	0.021001244
217	0x3dbe2eb1	0.092862494
218	0x3e3f3e47	0.186761
219	0xbda468c8	-0.08027798
220	0xbda952fd	-0.08267782
221	0xbe43a359	-0.19105281
222	0x3e487606	0.19576272
223	0xbd4f28cb	-0.050576013
224	0x3c74324d	0.014904571
225	0xbe1481df	-0.14502667
226	0x3e4092a3	0.18805937
227	0x3c48367d	0.012220022
228	0xbe354d98	-0.17705381
229	0xbdadaf7e	-0.08480738
230	0xbd58259a	-0.052770235
231	0x3d1d915e	0.03846871
232	0x3e1a0968	0.1504265
233	0xbdc5a3e0	-0.09650397
234	0x3dd684a3	0.10474517
235	0xbde2ec8b	-0.11080273
236	0x3dc20b0b	0.094747625
237	0x3d8919ec	0.06694397
238	0xbdcd62a3	-0.10028579
239	0x3d1dbd13	0.038510393
240	0x3c555a80	0.013022065
241	0xbc244a54	-0.010027487
242	0x3da264c7	0.07929378
243	0xbda7d3aa	-0.081946686
244	0xbdff67bb	-0.12470957
245	0x3e3762d1	0.17908789
246	0x3e16b598	0.1471771
247	0x3e3a8f52	0.18218735
248	0x3cd8b128	0.026451662
249	0x3d751ece	0.05984383
250	0xbe5b754b	-0.21431462
251	0xbd42335a	-0.047412254
252	0x3d130afe	0.035899155
253	0x3e059323	0.1304441
254	0x3df31769	0.118696995
255	0xbdbb02d2	-0.09131397

bias f4 [24]
0	0x3c99cb57	0.018773718
1	0x3cb1c580	0.02170062
2	0x3c8844d8	0.01663439
3	0x3cfd69fb	0.030934324
4	0xbd067f91	-0.0328365
5	0x3cd80d2c	0.026373468
6	0x3d1cf2eb	0.038317602
7	0x3ae9987f	0.0017821937
8	0xbd817868	-0.06321794
9	0xbd088510	-0.033330023
10	0xbc9ae28b	-0.018906852
11	0xbc438c36	-0.011935284
12	0x3b47ace1	0.0030468034
13	0x3ce12a7b	0.027486077
14	0xbd492d41	-0.049115423
15	0x3c2cda1a	0.010550046
16	0x3a417679	0.00073800195
17	0xbb51196d	-0.0031906024
18	0xbd133e5e	-0.03594815
19	0x3ac6fe53	0.0015181996
20	0xbdd9f5f5	-0.10642616
21	0xbc156170	-0.009117469
22	0x3d685aa7	0.056727078
23	0xbdbf7784	-0.09348968
