logs/test/exported/policies/policy_1.pt (torch, 817736 bytes, 8 tensors)

weight f4 [512, 66]
0	0x3ddad2ae	0.10684715
1	0xbd0ba32c	-0.03409116
2	0xbb7a9212	-0.0038234037
3	0x3c930698	0.01794748
4	0x3e08b3c4	0.13349825
5	0xbce5155f	-0.027964292
6	0x3e143980	0.1447506
7	0xbde4717a	-0.111544564
8	0x3d83555b	0.06412765
9	0xbc56a987	-0.013101942
10	0x3b83619e	0.0040094396
11	0xbab86884	-0.0014069234
12	0xbda2fe26	-0.07958631
13	0x3d399bd6	0.045314632
14	0xbc127ffe	-0.0089416485
15	0x3dcc3767	0.09971505
16	0xbd841b4c	-0.06450519
17	0x3e0a8bd3	0.13529901
18	0xba92b8f3	-0.0011194035
19	0x3c0c4f60	0.008563846
20	0xbdf4af5a	-0.11947508
21	0xbc444e69	-0.011981585
22	0xbceaf561	-0.028681459
23	0xbb4f3394	-0.0031616436
24	0x3c00f2ea	0.007870415
25	0x3d636fc0	0.055526495
26	0x3ce6c018	0.02816777
27	0x3cceb151	0.025231035
28	0xbd8a5dce	-0.06756173
29	0x3d697591	0.056996886
30	0x3dceab0d	0.10091219
31	0x3d02e616	0.03195771
32	0xbbddf32f	-0.0067733745
33	0xbc6ec1e4	-0.014572594
34	0x3d40b08b	0.047043364
35	0x3d463929	0.048394356
36	0xbd7b8f9f	-0.061416265
37	0xbdb0346a	-0.08603747
38	0x3c5cb0ad	0.013469857
39	0x3da139de	0.078723654
40	0x3cd98132	0.026550863
41	0x39ac3538	0.00032846048
42	0x3d73f9c8	0.05956438
43	0xbca74c67	-0.020422174
44	0x3dc7c843	0.09754994
45	0x3d0dd848	0.03463009
46	0x3d0c0cb9	0.03419182
47	0xbd9e6af7	-0.07735246
48	0x3d8c6847	0.06855827
49	0x3d9233a2	0.071387544
50	0xbe14b962	-0.14523843
51	0x3d55556b	0.052083414
52	0x3b9d504e	0.004800833
53	0x3db485bd	0.08814571
54	0xbd335f3d	-0.043792
55	0xbc2f6e7e	-0.010707496
56	0x3d734a4e	0.059397034
57	0xbc5a75f4	-0.013333786
58	0xbd1ae9a4	-0.037820473
59	0x3c1f565e	0.009725181
60	0xbbc1afe1	-0.005910859
61	0xbd2648f1	-0.040596906
62	0x3cd686f1	0.026187392
63	0x3cf5fd04	0.030027874
64	0xbcb4c2f3	-0.022065615
65	0x3d9dc148	0.07702881
66	0xbdd7e06b	-0.10540851
67	0xbcfc6d20	-0.030813754
68	0xbe2fe2dd	-0.17176385
69	0x3d5e06cb	0.054205697
70	0xbe009f44	-0.12560755
71	0x3ea07cd7	0.31345245
72	0xbdafad2f	-0.08577954
73	0xbe4fe903	-0.2030373
74	0xbd90490e	-0.07045184
75	0x3d5b933f	0.05360722
76	0xbc29fa83	-0.010374668
77	0xbcbb18b0	-0.02283892
78	0x3d219419	0.039447878
79	0x3d29ed35	0.041485984
80	0x3cad139b	0.021127513
81	0xbce9be4f	-0.028533129
82	0x3dbbd97d	0.09172342
83	0x3d561f34	0.05227585
84	0xbe31e497	-0.17372356
85	0x3d765ad7	0.060145225
86	0x3d744dc6	0.059644483
87	0xbdcb9f9f	-0.09942555
88	0xbda70d76	-0.08156864
89	0xbccf4510	-0.025301486
90	0xbd952020	-0.07281518
91	0xbcd93860	-0.02651614
92	0x3d1d0d64	0.03834285
93	0x3d97275b	0.07380553
94	0xbcfc7d98	-0.030821607
95	0xbd343ea3	-0.044005048
96	0xbd535558	-0.051595062
97	0xbcbc33b9	-0.022973882
98	0xbde75053	-0.112946175
99	0xbdc28ce9	-0.09499533
100	0xbd3deb85	-0.046367187
101	0x3d9e480b	0.07728585
102	0x3ea02b0d	0.31282845
103	0xbe2e9d48	-0.17052186
104	0x3e168e24	0.1470266
105	0x3ea4fd71	0.3222461
106	0xbc30708a	-0.010769019
107	0xbda0b201	-0.078464516
108	0x3e51c581	0.20485498
109	0x3d929b3f	0.07158517
110	0x3d75346d	0.05986445
111	0x3e327757	0.17428337
112	0xbd9d9a70	-0.07695472
113	0xbcb46455	-0.022020498
114	0xbd27660e	-0.04086881
115	0x3cf00d73	0.029303288
116	0x3c95ba55	0.018277327
117	0xbd586895	-0.052834112
118	0x3c048a01	0.008089543
119	0x3e0bf0d3	0.13666086
120	0x3ccbc2d2	0.024873171
121	0xbd68f69d	-0.056875814
122	0x3b0898a0	0.0020842925
123	0x3d9648a9	0.073380776
124	0x3cca0b00	0.024663448
125	0x3d9a2ab3	0.075276755
126	0x3ce6fef3	0.028197741
127	0xbdd4a48c	-0.10382947
128	0x3d37c8a9	0.0448691
129	0x3c427107	0.011867768
130	0xbdf58628	-0.11988479
131	0xbd04a6a1	-0.032385472
132	0x3c97673a	0.01848184
133	0x3e013f49	0.12621798
134	0xbdc4a2e3	-0.09601381
135	0xbdea798e	-0.11448966
136	0x3e80e1df	0.25172326
137	0xbe391665	-0.18074949
138	0x3e595c79	0.21226682
139	0x3e4d5f3e	0.20055863
140	0xbd43717f	-0.04771566
141	0x3c49f6a2	0.012326868
142	0xbbeed55c	-0.007288618
143	0xbe7193ef	-0.23591588
144	0x3e028335	0.12745364
145	0xbdddf2a2	-0.10837294
146	0x3cd43450	0.02590385
147	0xbcc662d5	-0.024217049
148	0xbd91ea0e	-0.071247205
149	0x3c93bdd1	0.018034847
150	0xbd526b14	-0.05137165
151	0x3c50570a	0.012716064
152	0x3dde77a3	0.10862663
153	0xbd1c64c5	-0.03818204
154	0xbbc3ed12	-0.0059791887
155	0x3caef6e9	0.02135797
156	0xbd8ef1f3	-0.06979742
157	0xbc82e9ae	-0.015980568
158	0xbce8f785	-0.028438339
159	0xbc97806b	-0.018493852
160	0xbca7a001	-0.020462038
161	0x3abca271	0.0014391673
162	0xbdad40f1	-0.08459652
163	0xbcb5b1dc	-0.022179537
164	0xbe2ad4fa	-0.16682807
165	0xbe27c5f0	-0.16384101
166	0xbdd7c8a4	-0.10536316
167	0xbb030a51	-0.0019995163
168	0x3d95c95f	0.07313799
169	0xbdb20c61	-0.08693767
170	0xbdc2d4a6	-0.09513216
171	0xbe29d7d4	-0.16586238
172	0xbe45fc67	-0.19334565
173	0x3daef240	0.08542299
174	0xbb390ea5	-0.0028237489
175	0xbd3546cd	-0.044256974
176	0xbd886668	-0.066601574
177	0xbdbe317a	-0.09286781
178	0xbc9006a7	-0.017581297
179	0xbd473ac6	-0.048640035
180	0xbc6ad15b	-0.014332141
181	0x3d6edeb5	0.05831786
182	0xbc3e5dda	-0.011619056
183	0x3d7467df	0.05966937
184	0x3c40c58f	0.011765852
185	0x3c72c4bc	0.014817413
186	0xbceb52ce	-0.028726008
187	0xbd6d7ba8	-0.057979256
188	0x3db4ee57	0.08834522
189	0xbe1921ce	-0.14954302
190	0x3d71b08f	0.05900627
191	0x3cf22e0d	0.029562974
192	0xbd4e3199	-0.05034027
193	0x3df74882	0.12074377
194	0xbc98a36d	-0.018632615
195	0x3e16f9a4	0.14743668
196	0x3cd647a5	0.02615721
197	0xbb3f8670	-0.0029224418
198	0xbb49edd8	-0.0030811932
199	0xbdad482d	-0.08461032
200	0xbe2d1daa	-0.16905847
201	0xbda1221d	-0.07867835
202	0x3db67d9a	0.08910675
203	0xbd2b2454	-0.041782692
204	0x3caabfe9	0.020843463
205	0x3e34a408	0.17640698
206	0xbd254881	-0.04035235
207	0x3d3aee73	0.04563756
208	0xbcee0176	-0.029053431
209	0x3dac8e79	0.08425612
210	0xbd148e80	-0.03626871
211	0xbddfa99b	-0.109210216
212	0x3ca00004	0.019531257
213	0xbe0d00d4	-0.13769847
214	0x3c35c18d	0.011093509
215	0xbc75fb84	-0.015013579
216	0x3bdef0a5	0.0068035894
217	0xbc1518b8	-0.009100132
218	0x3cbce285	0.023057232
219	0x3da2e0ec	0.07953057
220	0xbd679302	-0.056536682
221	0x3d304d9d	0.043042768
222	0xbd1ebb77	-0.038753
223	0x3cfe7ff6	0.031066876
224	0xbcbc9d21	-0.023024144
225	0xbc24443e	-0.010026036
226	0x3d8d0582	0.06885816
227	0x3d40471c	0.046942815
228	0xbd78c427	-0.06073394
229	0xbe1b1ace	-0.15146944
230	0x3e0b8439	0.13624658
231	0xbdd0756f	-0.10178649
232	0xbd1810f2	-0.037125535
233	0xbcfb1fc5	-0.030654797
234	0x3e57820a	0.210457
235	0x3d93c7dd	0.07215855
236	0xbd1e69f5	-0.038675267
237	0x3dbb3dc5	0.09142641
238	0xbddc86eb	-0.10767921
239	0xbbb068ac	-0.0053835716
240	0x3d950aba	0.072774366
241	0xbcb1355e	-0.021631893
242	0x3d46e6c0	0.048559904
243	0xb9dcad31	-0.00042090708
244	0xbe1f2529	-0.15541519
245	0x3c60a629	0.013711491
246	0xbd269535	-0.04066964
247	0xbd0c996c	-0.034326002
248	0x3d3fac79	0.046795342
249	0xbc6e0965	-0.014528607
250	0x3c914211	0.017731698
251	0xbdc5b7d0	-0.096542
252	0xbd6d7f35	-0.057982642
253	0xbd56fe43	-0.052488577
254	0xbce63c22	-0.028104845
255	0xbc8c6600	-0.017138481

bias f4 [512]
0	0x3c28eaf0	0.01030992
1	0x3c6fa715	0.014627238
2	0x3c362cf3	0.011119115
3	0x3b877351	0.00413362
4	0x3cbc1158	0.022957489
5	0x3c72b0e6	0.014812684
6	0x3ca0f2c7	0.019647015
7	0x3cfcdd9e	0.030867394
8	0x3c61c93f	0.013780891
9	0x3d00b2b7	0.031420436
10	0x3cf64d52	0.030066166
11	0x3b36628c	0.0027829735
12	0x3c98c2df	0.01864761
13	0xbb13499d	-0.0022474297
14	0x3be0d2b6	0.006861056
15	0x3cc85173	0.0244529
16	0x3ac0847c	0.0014687921
17	0x3b8b9ee5	0.004260885
18	0x3bb2b66a	0.0054538744
19	0x3c122784	0.008920554
20	0xbb3cea14	-0.0028826045
21	0xbab4c4fa	-0.0013791614
22	0x3a50d029	0.00079655886
23	0xbb114ed4	-0.002217223
24	0x3c278f5c	0.010227051
25	0x3d0adc48	0.033901483
26	0x3c5baa63	0.013407323
27	0x3bcc317c	0.006231485
28	0x3c919da6	0.017775368
29	0xbae0fa23	-0.001716439
30	0x3c317f8b	0.010833631
31	0x3c160923	0.009157452
32	0x3bed1ec2	0.0072363326
33	0x3c8fd2d2	0.017556582
34	0x3d0c2c5f	0.034222003
35	0x3cea2cc7	0.028585805
36	0x3c6ec68d	0.014573705
37	0xbc7805f9	-0.015138143
38	0x3b94d56d	0.004542044
39	0x3c5f5493	0.013631004
40	0xb97c3b9e	-0.00024054802
41	0x3cfd8b56	0.03095023
42	0x3b3885b5	0.0028155867
43	0x3bb95c06	0.005656722
44	0x3b385675	0.0028127704
45	0xbba24d4e	-0.004953063
46	0x3d8e0167	0.06933861
47	0x3c6a8ec2	0.014316263
48	0x3c38a632	0.011270093
49	0x3c52d595	0.012868305
50	0x3c6e39ed	0.014540178
51	0x3c3120d3	0.010811049
52	0x3c74a7a5	0.014932548
53	0x3c9a1b3e	0.018811818
54	0x3c941b60	0.01807946
55	0x3c965274	0.018349864
56	0x3c5b69a5	0.013391887
57	0x3bf58f36	0.0074938787
58	0x3c277142	0.010219874
59	0x3bed0c1f	0.007234111
60	0x3d654750	0.055976212
61	0x3c6a1a99	0.014288568
62	0x3b21f872	0.0024714735
63	0x3cb066c5	0.02153338
64	0x3b8254ff	0.0039774175
65	0xbc93ed99	-0.018057631
66	0xbac51440	-0.0015035942
67	0xbb218aa7	-0.0024649294
68	0x3ccb25ea	0.024798352
69	0x3c836cf2	0.01604316
70	0x3c557554	0.0130284615
71	0x3c976be7	0.018484069
72	0x3be38316	0.006943117
73	0x3c8eff5a	0.017455745
74	0x3c3a8aec	0.011385661
75	0x3cde0743	0.027103072
76	0x3c626b3d	0.013819513
77	0x3c33ffae	0.010986252
78	0x3c2e9739	0.0106561715
79	0x3a5655a7	0.00081762153
80	0x3c8be90a	0.017078895
81	0x3b8a1dc6	0.004214975
82	0x3c36fc74	0.011168588
83	0x3c097381	0.008389355
84	0xbca53d8b	-0.020170948
85	0x3cebc1c9	0.028778927
86	0x3c55ef6f	0.013057574
87	0x3c80d348	0.015725747
88	0x3c877443	0.01653493
89	0x3c6a0426	0.014283216
90	0x3c20efd0	0.009822801
91	0x3c31ea65	0.010859107
92	0x3c012b7a	0.007883901
93	0x3d1d5852	0.038414307
94	0xbc2b440f	-0.010453238
95	0x3d976aca	0.07393415
96	0x3b9d7c9c	0.0048061144
97	0x3c89a43b	0.016801944
98	0x3d254594	0.040349558
99	0x3c5c773c	0.013456162
100	0x3c63da18	0.013906978
101	0x3c05281b	0.008127238
102	0x3d0f2c89	0.03495458
103	0x3a27cba6	0.00064008904
104	0x3c053f3b	0.008132751
105	0x3c7db068	0.015483953
106	0x3c696f39	0.014247709
107	0x3a3009c8	0.00067153247
108	0x3b8595c4	0.0040766913
109	0x3c8d81a1	0.017273726
110	0x3c0927ea	0.008371333
111	0xbb8c2d14	-0.0042778347
112	0xba94122f	-0.0011296923
113	0x3ccabe7b	0.024749031
114	0x3c4f9bc1	0.012671412
115	0x3b854683	0.0040672435
116	0xbb9fbbd8	-0.0048746876
117	0x3c6bb814	0.014387149
118	0x3c9560ef	0.018234698
119	0xbb118baf	-0.0022208502
120	0xbc1aafd5	-0.009441336
121	0x3cb634c7	0.022241963
122	0x3b35deb7	0.0027751157
123	0x3c85f77a	0.016353358
124	0x3c80516f	0.01566383
125	0x3c68c383	0.01420677
126	0x3c0a10eb	0.008426885
127	0x3cca18d3	0.02467004
128	0x3b62d872	0.0034613875
129	0xbb845765	-0.0040387386
130	0x3b6bea00	0.003599763
131	0x3d22dd2f	0.03976172
132	0x3bd48ebc	0.006486742
133	0xba118060	-0.00055504404
134	0x3ccd5e08	0.025069252
135	0xbb65c5bc	-0.0035060486
136	0x3c5408bd	0.0129415365
137	0x3c19202b	0.009346048
138	0xbc26da04	-0.010183815
139	0x3d658351	0.056033436
140	0xbb66f836	-0.003524316
141	0x3c4707aa	0.012147823
142	0xbb53c629	-0.0032314158
143	0x3cf6962b	0.030100903
144	0x3c5dee33	0.013545561
145	0x3c512180	0.012764335
146	0x3aa1a335	0.0012331965
147	0x3b96a752	0.004597583
148	0x3d750cea	0.05982677
149	0x3bca5e4a	0.006175791
150	0xbb6b43ad	-0.0035898492
151	0x3cf79bb7	0.030225618
152	0x3d11b7e4	0.035575762
153	0x3cb58322	0.022157256
154	0xbb8f6b74	-0.004376823
155	0x3cdc9d94	0.026930608
156	0x3c8e4910	0.017368823
157	0x3c992248	0.018693104
158	0x3b8477a3	0.004042582
159	0xbb78766b	-0.003791238
160	0x3a652770	0.00087415334
161	0x3cc5e86c	0.024158679
162	0x3cd47823	0.025936192
163	0x3db1e81b	0.08686849
164	0x3c4d9913	0.012548703
165	0x3c870d61	0.016485872
166	0x3c4ac269	0.012375453
167	0xbad87ec9	-0.0016517277
168	0x3c8e5693	0.017375266
169	0x3cab87fe	0.02093887
170	0x3cde6ba9	0.027150946
171	0x3bdf98a2	0.006823615
172	0x3bfcc85b	0.007714314
173	0x3c01d976	0.007925382
174	0x3cd61ee2	0.026137773
175	0xbc70f116	-0.014705917
176	0xbc568c33	-0.01309495
177	0x3bdefd4e	0.0068050986
178	0xbae1bc11	-0.0017222186
179	0x3c040f90	0.008060351
180	0x3c7641ba	0.015030319
181	0xb88e7544	-6.79293e-05
182	0x3d1ab4f0	0.03777021
183	0x3cf3f507	0.029779924
184	0x3c83fa93	0.016110694
185	0x3aabdc3a	0.0013111897
186	0x3bc81d40	0.0061070025
187	0x3c1877f1	0.00930594
188	0x3c24141c	0.01001456
189	0x3c500aca	0.012697885
190	0x3c9afd3c	0.01891958
191	0x3b7516c7	0.003739761
192	0x3c8df299	0.017327594
193	0xba2208ba	-0.000618111
194	0x3c1bccf2	0.009509312
195	0x3cccd61f	0.025004445
196	0x3c027a66	0.007963752
197	0x3bc23cc9	0.0059276563
198	0x3c83ee98	0.016104981
199	0x3cac8e19	0.021063851
200	0x3d0ae8f0	0.033913553
201	0x3d4badb7	0.049726214
202	0x3d1e3568	0.03862515
203	0xba39a0d9	-0.0007081158
204	0x3b6d697a	0.00362262
205	0x3ced5df5	0.028975466
206	0xbc2f2bf6	-0.010691633
207	0x3c87bb78	0.016568884
208	0x3c3109e5	0.010805582
209	0x3c6ae77f	0.0143374195
210	0x3c4439a1	0.01197663
211	0xb9c6b1f8	-0.000378981
212	0x3b3025ee	0.0026878077
213	0x3b92d1af	0.0044805626
214	0x3d2b456a	0.041814245
215	0x00000000	0.0
216	0xbbd75470	-0.006571345
217	0x3c82ce93	0.015967643
218	0x396a4a00	0.00022343546
219	0x3cb17a6a	0.021664817
220	0x3b50d089	0.0031862578
221	0xb9a86fd8	-0.00032126787
222	0xbb845fcb	-0.0040397397
223	0x3ca8bf98	0.020599172
224	0x3cb62f76	0.022239428
225	0x3cfcf825	0.030880043
226	0x392b6f15	0.00016349212
227	0x3d2db17a	0.042405583
228	0x3d0e34b1	0.03471822
229	0x3d8870bc	0.066621274
230	0x3c4aed40	0.012385666
231	0xbae23c0e	-0.0017260329
232	0x3d5d6068	0.05404702
233	0x3d620dda	0.05518899
234	0x3c0c4450	0.008561209
235	0x3bcf3e92	0.0063245976
236	0x3c90287e	0.017597433
237	0x3cbcf33d	0.023065204
238	0x3b7fbf50	0.0039023943
239	0x3c6e8cac	0.014559906
240	0x3cd3381a	0.025783587
241	0x3d226fa4	0.03965725
242	0x3bae152a	0.0053125815
243	0x3c21e37e	0.0098808985
244	0x3cf03396	0.029321473
245	0x3c19bbd8	0.009383164
246	0x3b63120a	0.0034648203
247	0x3c349ccc	0.011023711
248	0x3cce5620	0.025187552
249	0x3cbd7bdb	0.023130348
250	0x3b831be0	0.0040011257
251	0xbc757208	-0.0149808
252	0x3ca9dcce	0.02073517
253	0x3c540c30	0.012942359
254	0x3d1d4abe	0.038401358
255	0x3cef2ffa	0.029197682

weight f4 [256, 512]
0	0x3bc449d6	0.0059902472
1	0x3a16bcc1	0.00057501724
2	0x3d89436c	0.06702313
3	0x3db4a534	0.088205725
4	0x3d1250ba	0.035721518
5	0x3bdcfde2	0.0067441324
6	0x3d51092b	0.051034134
7	0x3d1cede0	0.038312793
8	0xbce33903	-0.027737146
9	0x3cc43fce	0.023956206
10	0x3c1ae5eb	0.009454231
11	0xbd5b56bb	-0.05354951
12	0xbc5dacca	-0.013529966
13	0x3d8af29a	0.06784554
14	0xbcc68525	-0.02423341
15	0x3c1ab21e	0.0094418805
16	0x3c558031	0.0130310515
17	0x3c3c4022	0.0114899
18	0x3cab585a	0.020916153
19	0x3ce2223b	0.027604213
20	0x3cec746b	0.028864106
21	0xbd32bdcb	-0.043638032
22	0x3a999c49	0.001171955
23	0x3b1fc491	0.0024378637
24	0x3c72ad27	0.014811791
25	0x3c936087	0.017990364
26	0x3cd7b112	0.02632955
27	0xbd9e4c29	-0.0772937
28	0xbcfeb55f	-0.031092344
29	0xbca90ef0	-0.020637006
30	0xbcd625c8	-0.026141062
31	0x3d3e5d49	0.046475682
32	0xbd9dbc28	-0.077019036
33	0xbda1bf3d	-0.07897804
34	0x3c9cf645	0.0191604
35	0xbd17a321	-0.037020806
36	0x3d7d60c4	0.06185986
37	0x3db2865c	0.08717033
38	0xbc9a6af7	-0.018849833
39	0xbcb913e5	-0.022592494
40	0x3c048f9e	0.008090882
41	0x3cd728a3	0.026264494
42	0xbdb29fd3	-0.0872189
43	0xbac24355	-0.0014821092
44	0x3d4e79dd	0.050409187
45	0xbc8ccdaa	-0.017187912
46	0xbd02bce2	-0.031918414
47	0xbcfc5084	-0.030800112
48	0x3d97c182	0.074099556
49	0xbc9f2860	-0.019428432
50	0xbba66102	-0.005077482
51	0xbb88e0ca	-0.0041771876
52	0x3a88ba83	0.0010431561
53	0x3d23ef96	0.04002341
54	0xbc882ca0	-0.016622841
55	0xbd38634b	-0.04501657
56	0xbbe15677	-0.0068767625
57	0x3cf01238	0.029305562
58	0xbd019e00	-0.03164482
59	0xbcf5fc4b	-0.03002753
60	0x3c4538bd	0.012037453
61	0x3ca3c211	0.019989999
62	0xbcfcf4dd	-0.030878479
63	0xbc91511b	-0.01773887
64	0x3c1c547c	0.009541627
65	0x3cd67451	0.02617851
66	0xbd8a1270	-0.06741798
67	0x3cb92a37	0.022603137
68	0xbcc0bd8e	-0.023527887
69	0x3d106f3c	0.03526233
70	0xbd19a972	-0.03751511
71	0x3dbcc420	0.092170954
72	0x3c699918	0.014257692
73	0xbcf115fd	-0.02942943
74	0x3ccc7071	0.02495596
75	0x3d3551c2	0.044267423
76	0x3c459f42	0.012061896
77	0xbdc80f66	-0.09768562
78	0xbd0a41f3	-0.0337543
79	0xbcbcfd4f	-0.023070006
80	0xbd541242	-0.051775225
81	0xbcaaa106	-0.020828735
82	0xbd5abc4f	-0.05340224
83	0xbbf288bb	-0.0074015534
84	0x3d2b93ad	0.04188888
85	0xbd160c00	-0.036632538
86	0x3c5a04f3	0.013306844
87	0xbda97c74	-0.08275691
88	0xbd62725f	-0.055284854
89	0x3ddbe9da	0.10737963
90	0x3d327c0b	0.043575328
91	0xbc120979	-0.008913391
92	0x3c80b730	0.01571235
93	0x3d63e5b3	0.05563898
94	0x3dbbcf6a	0.091704205
95	0x3dc24117	0.09485071
96	0x3c4b9007	0.0124244755
97	0x3d7a76f5	0.061148603
98	0xbd28528e	-0.041094355
99	0x3cd288a1	0.025699915
100	0xbd9b081d	-0.07569907
101	0xbc673174	-0.014110912
102	0xbbbc1556	-0.005739848
103	0x3cc22f98	0.023704335
104	0x3c67d432	0.014149712
105	0xbcfc225d	-0.030778104
106	0x3d7f0113	0.062256884
107	0xbddd5bf7	-0.108085565
108	0x3d6cccb5	0.05781241
109	0x3cd94732	0.026523206
110	0x3d375842	0.044761904
111	0xbcbdf679	-0.023188816
112	0x3d4257a6	0.04744687
113	0xbcf88c0e	-0.03034022
114	0x3bab8c34	0.0052352194
115	0xbd190564	-0.037358657
116	0x3d1299ac	0.035791084
117	0x3a5c6b8f	0.00084083615
118	0xbc608a2d	-0.013704819
119	0xbd38e329	-0.04513851
120	0x3d32f900	0.043694496
121	0x3c61b139	0.013775163
122	0xbcf12071	-0.029434415
123	0x3d02c660	0.031927466
124	0xbd1d5071	-0.038406793
125	0xbd04d9fc	-0.03243445
126	0xbdebdf1c	-0.11517164
127	0x3b4ba8a1	0.0031075852
128	0xbb006717	-0.0019592696
129	0x3c907264	0.01763267
130	0xbd814cfe	-0.06313513
131	0xb8ac7ddb	-8.2250415e-05
132	0xbb66e0e5	-0.0035229262
133	0x3cd3b3e9	0.025842624
134	0xbd976ff2	-0.07394399
135	0x3d1599e2	0.036523707
136	0x3d10ad40	0.035321474
137	0x3c23d2d2	0.009998994
138	0x3cc63469	0.024194913
139	0x3c3efca9	0.011656919
140	0xbd9938d0	-0.07481539
141	0xbce91eea	-0.028457124
142	0x3c184d42	0.009295763
143	0x3c604f15	0.01369073
144	0xbce1b2f9	-0.027551161
145	0xbc7b16c3	-0.015325251
146	0xbdade60c	-0.084911436
147	0x3d508118	0.050904363
148	0x3d992df0	0.07479465
149	0xbd4d953b	-0.050191145
150	0x3d9b2f03	0.07577326
151	0x3bba52e0	0.005686149
152	0x3c6c4af7	0.01442217
153	0x3c8dbced	0.017302
154	0x3d639721	0.05556405
155	0x3d871a74	0.065968424
156	0x3c9443fe	0.018098827
157	0x3d7ec82c	0.062202618
158	0xbd896f83	-0.06710722
159	0xbaf3d377	-0.001860245
160	0x3cef83aa	0.029237587
161	0xbd04d2a3	-0.03242744
162	0x3d99b714	0.075056225
163	0x3cc37809	0.023860948
164	0xbd06075c	-0.032721862
165	0x3d2b70ab	0.041855495
166	0xbd90032e	-0.070318565
167	0x3cbdec44	0.02318395
168	0xbcbc8de5	-0.02301688
169	0xbca4d1ff	-0.020119665
170	0x3d134247	0.03595188
171	0xbd2aa1ac	-0.04165809
172	0x3d1bf8dd	0.03807913
173	0xbd089c4e	-0.03335219
174	0xbd98c56b	-0.074595295
175	0xbcc60468	-0.024172023
176	0xbcda735a	-0.026666332
177	0xbd52f7cc	-0.05150585
178	0x3d757a48	0.05993107
179	0xbcfe3086	-0.031028997
180	0x3d80533d	0.062658764
181	0xbdb52047	-0.08844047
182	0xbd4d5f10	-0.050139487
183	0xbc7d85b7	-0.015473775
184	0x3d695937	0.056969848
185	0xbcf0c2e6	-0.02938981
186	0x3ccbb4e2	0.024866525
187	0xbd6616e5	-0.056174178
188	0x3d190042	0.03735376
189	0x3db288c7	0.087174945
190	0x3c9f7c77	0.01946853
191	0x3c3d02c7	0.011536307
192	0xbd062085	-0.032745857
193	0xbc5dbb05	-0.013533358
194	0x3d85b60d	0.06528864
195	0xbd07cb5c	-0.033152923
196	0xbd0512da	-0.03248868
197	0x3d58eff5	0.052963216
198	0x3ad1989c	0.0015990916
199	0xbc3acbee	-0.01140116
200	0x3b380919	0.0028081595
201	0xbd65d32c	-0.056109592
202	0xbd3902fb	-0.045168858
203	0x3c32e03b	0.0109177185
204	0xbd22c6ef	-0.0397405
205	0x3c9356c6	0.017985713
206	0x3d43f0dc	0.047837123
207	0xbd133055	-0.035934765
208	0xbc1b1dbc	-0.009467538
209	0xbd1a6824	-0.037696972
210	0x3c8e33b3	0.017358636
211	0x3d77c414	0.06048973
212	0x3c147ff0	0.009063706
213	0xbd0ba77a	-0.034095265
214	0xbd8e5d99	-0.06951446
215	0x3c2fef3d	0.010738191
216	0xbd77b5d7	-0.06047615
217	0x3c7df5b0	0.015500471
218	0x3cf3f8b9	0.029781686
219	0xbd1e2761	-0.038611773
220	0xbc1a70b8	-0.009426288
221	0xbdf50a8e	-0.11964904
222	0x3c264f04	0.010150675
223	0xbd3a531f	-0.045489427
224	0xbb7af3ba	-0.0038292245
225	0xbcb015ed	-0.02149483
226	0x3ceef4eb	0.02916952
227	0xbd6f9bd0	-0.058498204
228	0xbceba775	-0.028766373
229	0x3b885ff4	0.004161829
230	0x3da6cddd	0.08144734
231	0x3c898c29	0.016790466
232	0x3cb548e4	0.022129484
233	0x3a1a862b	0.00058946264
234	0xbb8612fc	-0.0040916186
235	0xbba5ad4f	-0.0050560604
236	0x3b60a755	0.0034279425
237	0xbd2976c0	-0.041373014
238	0x3c1d557e	0.009602902
239	0xbd04e39d	-0.03244363
240	0xbdd95d9b	-0.10613557
241	0xbd12ab2f	-0.035807785
242	0x3d032391	0.03201634
243	0xbca5c54b	-0.020235678
244	0xbd5b03be	-0.053470366
245	0x3cad3590	0.021143705
246	0xba93de87	-0.0011281528
247	0xbce43362	-0.027856532
248	0xbb40114a	-0.002930718
249	0x3d71ea17	0.059061136
250	0xbd23fd2e	-0.040036373
251	0xbd9c2619	-0.07624454
252	0xbcde0568	-0.027102187
253	0xbcef8ec1	-0.029242875
254	0xbd2537a6	-0.040336274
255	0xbd7f9650	-0.06239921

bias f4 [256]
0	0xba2b9e71	-0.0006546742
1	0x3cea2553	0.02858225
2	0x00000000	0.0
3	0xbbd3cd65	-0.006463694
4	0x3b426352	0.002966125
5	0x3b98c363	0.004661964
6	0xbbd7f88e	-0.0065909093
7	0xbbc52cf9	-0.006017324
8	0x3bcc58f3	0.0062361895
9	0x3cbbd8c5	0.022930512
10	0xbc37d281	-0.011219622
11	0x3c0f8f61	0.008762212
12	0xbbabd5d0	-0.0052439943
13	0xba08bf30	-0.00052164774
14	0x3c30cab2	0.010790514
15	0xbb362da0	-0.002779819
16	0x3c65882e	0.014009519
17	0x3bb45bb6	0.005504097
18	0xbb87b3ec	-0.0041413214
19	0x3afbe756	0.0019218724
20	0xbb3c46ee	-0.00287288
21	0x3cc4115b	0.023934057
22	0x38c0d1ab	9.194327e-05
23	0xbba11eb1	-0.004916989
24	0x3b63b28c	0.0034743873
25	0x390c33c0	0.00013370719
26	0xbc1f79ac	-0.009733599
27	0x3c7506bd	0.01495522
28	0x3c25259f	0.01007977
29	0x3c86b6f8	0.016444668
30	0xbbf53055	-0.0074825683
31	0x3c6b1fe1	0.014350862
32	0x3c95c495	0.018282214
33	0xbc1f7ea3	-0.009734782
34	0xbc988a6f	-0.018620698
35	0x3c404800	0.011735916
36	0x3cea2dea	0.028586347
37	0x3af54604	0.0018712883
38	0x3c1cf05a	0.009578789
39	0x3cecf5e5	0.028925845
40	0xbc5a7882	-0.013334395
41	0xbbbd201c	-0.00577165
42	0xbcaefebf	-0.021361707
43	0x3bfa9b01	0.0076478724
44	0xbc0349f2	-0.008013235
45	0x3bfc8092	0.0077057565
46	0x3cc1822f	0.023621647
47	0xb989623f	-0.00026203875
48	0x3bbdca4e	0.005791939
49	0x3c23db1b	0.010000969
50	0x3c39048b	0.011292587
51	0x3c33623d	0.010948715
52	0xbba61e53	-0.005069533
53	0x3bed78de	0.0072470745
54	0x3c9ad427	0.01889999
55	0x3cbbb1b3	0.022911882
56	0xbb06f86d	-0.002059485
57	0xbc2c540b	-0.010518084
58	0x3c3aa1f3	0.011391151
59	0xbc067d85	-0.008208637
60	0x3c2467be	0.0100345
61	0x3c6feef6	0.014644375
62	0x3b87d86a	0.0041456716
63	0x3bd4a2ce	0.0064891344
64	0x3b1cd6e5	0.0023931798
65	0x3be6d441	0.0070443456
66	0x38d4bf84	0.0001014462
67	0x3b856406	0.0040707616
68	0xbbe4b9c4	-0.006980153
69	0x3b09c0ce	0.0021019462
70	0x3c466cb5	0.012110879
71	0x3c7cebba	0.015437061
72	0xbbc889ca	-0.0061199414
73	0x3cd996ba	0.02656113
74	0x3af19b61	0.0018433147
75	0x3bf4a044	0.007465394
76	0xbbdfdba2	-0.006831602
77	0x3cbe377e	0.02321982
78	0xbb2ad1fa	-0.0026065097
79	0xbbfe7aac	-0.0077660885
80	0x3c2406dd	0.010011402
81	0x00000000	0.0
82	0x3bc2b771	0.005942278
83	0x3ccfd253	0.025368845
84	0xbc48d22d	-0.012257141
85	0xbbef399a	-0.007300568
86	0x3c86769b	0.016413977
87	0x3bd1a4e4	0.0063978303
88	0x3b6d5866	0.003621602
89	0xbbe2121f	-0.006899133
90	0xbc286e46	-0.0102801975
91	0x3c275b2c	0.010214608
92	0xbc57c13a	-0.013168627
93	0xbbde6832	-0.0067873234
94	0x3b7e011b	0.0038757983
95	0x3c262e02	0.010142805
96	0xbb8e4674	-0.0043418948
97	0x3c3c9083	0.011509064
98	0x3c8c0d5d	0.017096216
99	0x3c97a0d9	0.018509315
100	0x3c19c14c	0.0093844645
101	0xbc2573c1	-0.010098399
102	0xbbb423d3	-0.0054974346
103	0x3bd43440	0.0064759552
104	0x3c02582a	0.00795559
105	0x3d35ad41	0.04435468
106	0x3b72c49f	0.0037043465
107	0xbc7cf6a3	-0.015439662
108	0x3d144b23	0.03620447
109	0xbaecaa15	-0.001805606
110	0x3c62ef37	0.013850979
111	0x3b9d43b0	0.0047993287
112	0x3c234026	0.009964025
113	0x3c10fb55	0.008848985
114	0xbbd312c6	-0.006441447
115	0x3cb9de59	0.022689031
116	0x3c94f875	0.01818488
117	0x3c679a31	0.014135883
118	0xbc0fe445	-0.008782451
119	0x3c3d0b46	0.011538332
120	0x3ccc3b9b	0.024930766
121	0xbb8ddb73	-0.004329139
122	0xbc11d842	-0.008901658
123	0x3c3a35c3	0.011365357
124	0xbc844131	-0.016144367
125	0x3b9e5f08	0.004833106
126	0x3c43bf9c	0.011947539
127	0x3b1de9a6	0.0024095564
128	0x3ba8304f	0.005132712
129	0xbc4ea56b	-0.012612681
130	0x3c36722b	0.011135618
131	0x3bf6e193	0.0075342148
132	0x3cb09f2c	0.021560274
133	0x3ca7261f	0.02040392
134	0xbb92d11a	-0.0044804933
135	0x3c638a2e	0.013887925
136	0x3c46f193	0.012142557
137	0x3b857df8	0.0040738545
138	0x3cb66a2e	0.022267427
139	0x3c92a077	0.017898781
140	0xbbc40daf	-0.0059830765
141	0xba726c8b	-0.00092477415
142	0xbaec1eab	-0.0018014511
143	0x3d0fcd22	0.03510774
144	0x3d849035	0.06472818
145	0xbc8ae3eb	-0.016954383
146	0xbc9d3175	-0.019188622
147	0xbc01b115	-0.007915755
148	0x3cc01c40	0.02345097
149	0x3d2fc088	0.04290822
150	0xbc0f4abc	-0.008745845
151	0xbbad66ba	-0.005291787
152	0x3b851abe	0.004062026
153	0xbbac973c	-0.005267052
154	0xbb91da47	-0.0044510695
155	0x3c0f1499	0.008732938
156	0x3bbf9484	0.005846562
157	0x3aaf9e55	0.0013398627
158	0xbbbc54a2	-0.0057473937
159	0xbb6f0d03	-0.0036476261
160	0x3c9cb884	0.019130953
161	0x3c429648	0.01187665
162	0x3c3d1bc9	0.011542269
163	0xbbdc99a5	-0.006732183
164	0x3c26d11d	0.010181692
165	0x3b3c529d	0.0028735765
166	0x3c92e345	0.017930636
167	0xbbe905da	-0.0071112933
168	0x3c95e8b6	0.018299442
169	0x3d302117	0.043000307
170	0x3d083d58	0.033261627
171	0xbbf17321	-0.0073684608
172	0xbb227580	-0.0024789274
173	0x00000000	0.0
174	0x3cc7aeba	0.024375308
175	0xbc30a28d	-0.010780943
176	0xbbfe35ff	-0.0077579017
177	0xbc47f12e	-0.012203498
178	0x3c7b009c	0.0153199695
179	0x3bf0ba96	0.0073464615
180	0x3c9a509d	0.018837268
181	0xbbb28100	-0.005447507
182	0x3c2ca067	0.01053629
183	0x3c0c44f7	0.008561364
184	0xbbcdeb0a	-0.0062841224
185	0x3b8a2c62	0.0042167166
186	0x3c966aff	0.018361567
187	0xbb042592	-0.0020163995
188	0xbc09894b	-0.00839455
189	0x3c69ee5c	0.014278021
190	0x3bd51fd2	0.0065040374
191	0x3b1e64ec	0.002416904
192	0xbc41ed1a	-0.011836315
193	0x3c289430	0.010289237
194	0x3d4411bd	0.04786848
195	0x3c9d6fe9	0.019218402
196	0x3ba9f22c	0.00518634
197	0x3c007d1a	0.007842327
198	0x3aedffaf	0.0018157865
199	0x3c457bf7	0.012053481
200	0xbc326cdc	-0.010890212
201	0x3c0dcc53	0.008654672
202	0x3b8d9fde	0.004322036
203	0xbb6f520e	-0.0036517414
204	0xbc45af8e	-0.012065781
205	0xbc7498e8	-0.014929034
206	0x3c89a07e	0.016800161
207	0x3c9c3aa3	0.019070929
208	0xbc39283d	-0.011301097
209	0x3b3a7e22	0.0028456529
210	0x3ba75552	0.0051066065
211	0x3c79ec82	0.015254142
212	0xbbc86106	-0.0061150817
213	0x3c816a42	0.015797738
214	0xbab20f56	-0.0013584893
215	0x3c1b5f26	0.009483134
216	0x3c33b36e	0.010968072
217	0x3c70cb32	0.014696883
218	0xbc6fd268	-0.014637567
219	0xbb9a8e4c	-0.00471667
220	0x3d308b64	0.043101683
221	0xbc0c5035	-0.008564045
222	0xbbc5a572	-0.0060316855
223	0x3afd226e	0.0019312629
224	0x3c96e920	0.01842171
225	0x3a84d353	0.001013378
226	0x3b903286	0.004400554
227	0x3cefd3e7	0.029275848
228	0xb915fe11	-0.00014304394
229	0x3ccfb7ca	0.025356192
230	0x3ca411f6	0.020028096
231	0x3cef205b	0.029190233
232	0x3a260d49	0.0006334377
233	0x3bfb13c4	0.0076622684
234	0xbc1febdf	-0.009760826
235	0x3c827c76	0.015928488
236	0x3c6e2afc	0.014536615
237	0x3b423abd	0.0029637062
238	0x3b48b200	0.0030623674
239	0xbbe1bb8e	-0.0068888133
240	0xbcaabadb	-0.020841053
241	0x3bb64a6e	0.005563072
242	0x3cb50204	0.022095688
243	0x3c98bba5	0.018644163
244	0x3ca45175	0.020058373
245	0x3ce2b171	0.027672501
246	0x3c30d08b	0.010791908
247	0x3c7e007a	0.015503043
248	0x3c89ca56	0.016820114
249	0x3c3dcb4b	0.011584113
250	0xbc2a2f0d	-0.010387194
251	0xbc570d23	-0.013125691
252	0x3b8978a8	0.0041952915
253	0xbade7b4b	-0.0016974
254	0x3bd96161	0.006633923
255	0xbc2871cb	-0.010281037

weight f4 [128, 256]
0	0xbdf42130	-0.119203925
1	0x3dba51e0	0.09097648
2	0x3c09e165	0.008415555
3	0xbc56402c	-0.013076823
4	0xbda36da0	-0.07979894
5	0x3d909351	0.070593484
6	0xbd6edc05	-0.058315296
7	0xbd6506b8	-0.05591461
8	0x3d00101c	0.031265363
9	0xbdd62fba	-0.10458322
10	0x3d8808c9	0.06642301
11	0x3c202ae5	0.009775852
12	0x3dd04fa0	0.10171437
13	0x3d66e3b4	0.0563695
14	0x3db5fbf0	0.08885944
15	0x3d9bfd5a	0.07616682
16	0x3da5f4b4	0.08103314
17	0x3d905cd1	0.07048953
18	0x3d8e9aa0	0.06963086
19	0x3a40f085	0.0007360059
20	0xbd955c88	-0.072930396
21	0x3e063791	0.13107134
22	0xbe3016e1	-0.17196228
23	0xbd426e56	-0.047468506
24	0xb9d4ddfa	-0.00040601176
25	0x3d2b0928	0.04175678
26	0xbc75280c	-0.014963161
27	0x3d5919ed	0.05300324
28	0xbe0a5264	-0.13507992
29	0xbd61a1d5	-0.055085976
30	0xbdb6d689	-0.08927638
31	0x3d0ede32	0.03487987
32	0x3cb5d993	0.022198474
33	0x3e1140a6	0.14184818
34	0x3daa21a6	0.08307199
35	0xbcabc518	-0.020968005
36	0xbdbb33c3	-0.09140732
37	0xbcfd5819	-0.030925797
38	0xbda58ef3	-0.08083906
39	0x3db68f60	0.08914065
40	0x3b88844b	0.004166161
41	0xbcaaea69	-0.020863729
42	0xbd626033	-0.055267524
43	0xbd47650c	-0.04868035
44	0x3d2caa57	0.042154636
45	0xbd333b7d	-0.043757904
46	0xbd4d2e47	-0.05009296
47	0x3d28702d	0.041122604
48	0x3bc5a626	0.0060317693
49	0x3d3543b0	0.044254005
50	0xbc888081	-0.016662838
51	0x3c8e2a66	0.017354202
52	0xbc2e332f	-0.01063232
53	0xbd456a89	-0.048197303
54	0xbcc12975	-0.023579339
55	0x3da564b2	0.08075847
56	0xbdef70d0	-0.11691439
57	0x3da9a9c4	0.08284333
58	0xbd8a1b02	-0.067434326
59	0x3dcd0224	0.10010174
60	0xbd349a8f	-0.04409271
61	0x3d8d5c05	0.06902317
62	0x3db59754	0.08866754
63	0xbdfe5ff2	-0.12420644
64	0x3d4f2994	0.05057676
65	0xbe029a88	-0.12754261
66	0x3c2859d8	0.010275327
67	0xbdb5359a	-0.08848114
68	0xbd097f48	-0.03356865
69	0x3de66408	0.11249548
70	0x3d42de31	0.04757518
71	0xbc4d5a10	-0.01253368
72	0xbd5c5f0c	-0.05380158
73	0xbce82b3b	-0.028340926
74	0x3ce38649	0.027773993
75	0x3ca956b8	0.020671234
76	0x3c14c923	0.009081158
77	0xbcbfcfb5	-0.023414472
78	0xbdbb87b6	-0.09156744
79	0xbbbff5b0	-0.0058581457
80	0x3d0d671d	0.034522165
81	0xbdbe8a98	-0.093037784
82	0xbca8a459	-0.02058618
83	0x3d26dc6c	0.040737554
84	0x3d430e5d	0.04762112
85	0x3bd759c7	0.0065719816
86	0x3ce7ebf5	0.028310755
87	0xbd55f2bb	-0.05223344
88	0x3d8f8a3a	0.070087865
89	0xbd9f61e5	-0.07782344
90	0xbdaad3d1	-0.08341182
91	0xbc2d8cee	-0.010592682
92	0xbc243379	-0.010022038
93	0x3d3b016b	0.04565565
94	0xbd0099d8	-0.031396717
95	0xbe0cb493	-0.13740759
96	0x3deb4362	0.114874616
97	0x3d48b48b	0.049000304
98	0xbd348397	-0.044070806
99	0xbcbfddcc	-0.02342119
100	0x3c07f0e6	0.008297181
101	0xbd6d857b	-0.057988625
102	0xbd96964e	-0.07352887
103	0xbc7ef8fb	-0.015562291
104	0xbba36198	-0.0049859993
105	0xbd095f84	-0.033538356
106	0xbb8764ea	-0.004131903
107	0xbca782c0	-0.020448089
108	0x3d8dbbe4	0.06920603
109	0x3d335e59	0.04379115
110	0xbd0b2a64	-0.033975974
111	0xbdd4d97f	-0.103930466
112	0xbcf3bf65	-0.02975435
113	0xbc1930cc	-0.009350013
114	0x3d42000a	0.04736332
115	0x3d9fe102	0.07806589
116	0xbd0ea00b	-0.034820598
117	0x3d915abc	0.07097384
118	0xbd643fca	-0.055724896
119	0xbd4da32c	-0.05020444
120	0xbb827118	-0.003980767
121	0x3b483a3f	0.0030552296
122	0xbb6b5f9f	-0.003591515
123	0xbbf332e7	-0.0074218395
124	0xbd7295c6	-0.059224866
125	0x3ce6e4ca	0.028185267
126	0x3d507bf5	0.050899465
127	0x3d46ef38	0.04856798
128	0x3d4a5296	0.049395166
129	0xbdb2eaea	-0.087362126
130	0xbdbbfbc8	-0.09178883
131	0xbdfb8d20	-0.12282777
132	0x3da01473	0.078164004
133	0xbe1183b1	-0.14210393
134	0xbd529e06	-0.051420234
135	0xba480d6d	-0.0007631395
136	0x3db1c0db	0.086793624
137	0x3d766a06	0.060159706
138	0x3d4af78e	0.049552493
139	0x3d0bde31	0.034147445
140	0xbd09844d	-0.033573437
141	0xbd03857b	-0.03210972
142	0x3d1fe32b	0.039035004
143	0x3c16f863	0.009214493
144	0xbcf4ff84	-0.029906996
145	0x3d0963ce	0.033542447
146	0xbcf5e07b	-0.030014267
147	0x3cad53b2	0.021158073
148	0xbd4d544d	-0.050129224
149	0xbde76ba2	-0.11299826
150	0xba9cabf0	-0.0011953097
151	0xbca95829	-0.02067192
152	0x3dc8633a	0.09784551
153	0xbdd473b7	-0.10373633
154	0xbd2a75f0	-0.04161638
155	0x3c071131	0.008243845
156	0xbd074112	-0.03302104
157	0xbd8388cd	-0.06422577
158	0x3d7310a5	0.059342045
159	0xbdc7fd95	-0.09765164
160	0x3d8a3013	0.06747451
161	0x3cef66f4	0.029223897
162	0xbcee255d	-0.02907055
163	0x3d4856b6	0.04891082
164	0xbdf07d61	-0.11742664
165	0x3db6b131	0.08920515
166	0xbc855fae	-0.016280975
167	0x3dcca132	0.09991683
168	0xbd3a9ca5	-0.045559544
169	0xbd3903f4	-0.045169786
170	0xbd15a1ff	-0.036531445
171	0x3d75a6e6	0.05997362
172	0x3cc28da4	0.02374918
173	0x3db722fa	0.08942218
174	0xbc6aa580	-0.014321685
175	0xbceea0c5	-0.029129395
176	0xbb40d254	-0.002942224
177	0x3d9555ee	0.072917804
178	0xbdad7c96	-0.084710285
179	0xb9a05ec7	-0.00030588193
180	0x3c5d3f18	0.013503812
181	0x3cda9aea	0.026685197
182	0xbd312d30	-0.043255985
183	0xbd8fcd74	-0.07021609
184	0xbdfd9729	-0.12382347
185	0x3caa2e49	0.020774024
186	0x3dabf524	0.08396366
187	0xbdcd2bcd	-0.1001812
188	0xbc68a902	-0.014200451
189	0xbe1494f4	-0.14509946
190	0xbd72f2f0	-0.059313715
191	0x3e03d8f7	0.12875734
192	0x3d3b98ad	0.0457999
193	0xbcf0e39c	-0.029405408
194	0xbd873370	-0.06601608
195	0x3d867878	0.06565946
196	0xbcbb2069	-0.022842603
197	0xbd5593b2	-0.052142806
198	0x3c874103	0.016510492
199	0x3d9881ca	0.0744663
200	0xbd508b0b	-0.05091385
201	0xbd9a33c0	-0.07529402
202	0xbd2ed8cd	-0.042687226
203	0xbcd0b9a5	-0.025479147
204	0xbc89648a	-0.016771574
205	0x3d90a034	0.07061806
206	0xbc0e2cff	-0.00867772
207	0xbc000571	-0.007813797
208	0x3dae36bc	0.085065335
209	0xbc1eea4a	-0.009699414
210	0xbd86e206	-0.06586079
211	0x3d36af25	0.044600625
212	0x3cd10574	0.025515296
213	0x3c2afd1e	0.010436324
214	0x3d705c0b	0.05868153
215	0x3c926c09	0.01787378
216	0xbdb924e0	-0.090402365
217	0xba8e098f	-0.0010836589
218	0xbd540d88	-0.051770717
219	0x3d84f342	0.0649171
220	0x3b3dcb21	0.0028960186
221	0xbbbad80c	-0.0057020243
222	0xbc0611d0	-0.008182958
223	0x3cd29d01	0.02570963
224	0x3d0d8909	0.034554515
225	0xbe010a89	-0.12601675
226	0xbd226420	-0.039646268
227	0x3dcbccb8	0.099511564
228	0xbcc72557	-0.024309797
229	0xbbc46baa	-0.00599428
230	0xbd757f0f	-0.059935626
231	0xbdaeb45f	-0.08530497
232	0xbdf91c22	-0.12163569
233	0x3d81d88b	0.063401304
234	0x3c5171d3	0.012783485
235	0x3d6fb695	0.058523733
236	0xbd33cebc	-0.04389833
237	0xbd5d0ba0	-0.053966165
238	0xbdfc982f	-0.12333714
239	0xbd84c2c0	-0.06482458
240	0xbd7b7f10	-0.061400473
241	0x3d11dd01	0.035611156
242	0xbd6cd892	-0.057823725
243	0xbd39c4c0	-0.04535365
244	0x3cafda2b	0.021466335
245	0xbd860bc6	-0.06545214
246	0x3a971f51	0.0011529719
247	0xb793c360	-1.7614744e-05
248	0xbdc81a13	-0.09770598
249	0x3d8e0427	0.06934386
250	0x3c7369a2	0.014856728
251	0xbd310cbe	-0.043225043
252	0x3d4f8d59	0.05067191
253	0x3d9e30e7	0.07724171
254	0xbc906dbf	-0.017630456
255	0xbcdd1022	-0.026985232

bias f4 [128]
0	0xbab318e3	-0.0013664033
1	0x3bc31524	0.005953448
2	0xbc5e3d2b	-0.013564388
3	0x3cf6cdf9	0.030127512
4	0xbc80dd9f	-0.015730677
5	0x3cbe11ce	0.02320185
6	0xbc97c9dc	-0.018528871
7	0xbb912206	-0.0044291047
8	0xbb595940	-0.003316477
9	0xbc705fbb	-0.014671261
10	0xbbf42803	-0.007451059
11	0xbc684251	-0.014175967
12	0x3d1b1c67	0.037868883
13	0x3a301128	0.00067164237
14	0x3cea9672	0.028636191
15	0x3b309f8d	0.0026950568
16	0xbac113ea	-0.0014730666
17	0xbc701d26	-0.014655387
18	0x3d1291f7	0.035783734
19	0x3cb942c2	0.02261484
20	0x3b805b87	0.003917161
21	0x3c2e50ed	0.010639411
22	0x3c9f1425	0.019418785
23	0x3c7b80d1	0.015350536
24	0x3c5a03bd	0.013306555
25	0x3c5a5e6d	0.013328177
26	0x3c942640	0.018084645
27	0x3b010864	0.001968884
28	0xbc32adab	-0.0109056635
29	0x3a88168c	0.0010382696
30	0x3b7d253b	0.0038626927
31	0x3c33b171	0.010967598
32	0x3c285bcd	0.010275793
33	0x3ce2c5d9	0.027682232
34	0x3c0d4e07	0.00862456
35	0x3ce78e8a	0.02826621
36	0x3c131a26	0.008978402
37	0x3be5c8ee	0.007012478
38	0x3c8c0220	0.017090857
39	0x3a4833dc	0.0007637122
40	0x3c11db8e	0.008902444
41	0x3c828622	0.0159331
42	0xbc95f3fc	-0.018304817
43	0x3c17d5cf	0.009267285
44	0x3bb21193	0.005434224
45	0x3c8e6e95	0.017386714
46	0xbb2a9026	-0.002602586
47	0x3c515669	0.012776949
48	0xbc215d52	-0.009848909
49	0xbaef5126	-0.0018258437
50	0x3c180ba4	0.009280119
51	0x3bb3a21e	0.0054819724
52	0xbb8aa22d	-0.0042307586
53	0x3ba4f815	0.0050344565
54	0xbbfa064a	-0.0076301442
55	0xbcb8421d	-0.022492463
56	0xbca364b1	-0.019945474
57	0xbc214c8f	-0.009844913
58	0xbbd7930a	-0.0065788077
59	0x38068b92	3.2078075e-05
60	0x3aea3d02	0.0017870965
61	0xbb516e12	-0.0031956476
62	0x3ccc251a	0.024920035
63	0x3c52bc3f	0.012862264
64	0xbaa21841	-0.0012366847
65	0xbbb6797a	-0.0055686804
66	0x3cdd86c4	0.0270418
67	0x3a5befa5	0.0008389897
68	0x3cd3a97f	0.025837658
69	0x3ca36b5a	0.01994865
70	0xbb273f80	-0.0025520027
71	0xbb47d3d6	-0.0030491254
72	0xbbcaa1ed	-0.006183854
73	0x3cda53d7	0.026651306
74	0x3c4310dc	0.011905875
75	0xbc8cb04f	-0.017173914
76	0xbbde1afa	-0.006778118
77	0x3bf50ce5	0.007478344
78	0x3c527ade	0.012846677
79	0x3c5ddfe1	0.013542146
80	0x3cd887ea	0.026431996
81	0xbc996b92	-0.018728051
82	0xbac8d86a	-0.0015323285
83	0x3cbd9099	0.023140239
84	0x3d17ec43	0.03709055
85	0xbb387eb6	-0.0028151697
86	0xba3649ad	-0.00069537276
87	0x3c12b319	0.008953833
88	0x3c94dd9f	0.018172083
89	0xbb15e0c0	-0.0022869557
90	0x3c8073a5	0.015680144
91	0x3c9295d5	0.017893711
92	0xbbc59884	-0.006030144
93	0xbc21f4c5	-0.009885018
94	0xbc1fc360	-0.009751171
95	0xbc2f49f7	-0.010698787
96	0x3b9ffabd	0.0048821853
97	0x3c699995	0.014257808
98	0x3c7ebfa5	0.015548621
99	0x3c6b974d	0.014379335
100	0xbb923299	-0.004461598
101	0x3c18db3f	0.009329616
102	0xbc7a0439	-0.015259796
103	0x3b1fb53c	0.0024369499
104	0xbbd713e0	-0.0065636486
105	0xbc796dd9	-0.015223944
106	0xbc2b7c98	-0.010466717
107	0xb9b41806	-0.00034350174
108	0x3c66af7e	0.014079927
109	0x3d199d46	0.037503503
110	0x3c7ab594	0.015302081
111	0xbc06ce4e	-0.008227898
112	0x3b5ffb09	0.0034176728
113	0x3c17b09b	0.009258415
114	0xbbbfc784	-0.0058526415
115	0xbbdb72a3	-0.0066970154
116	0x3b914c54	0.004434148
117	0xbc01bb27	-0.007918156
118	0x3c19e5eb	0.009393196
119	0xbb5ec30d	-0.003399077
120	0xbbdae0df	-0.0066796388
121	0x3cd59bd2	0.026075277
122	0xbc2d9bec	-0.010596257
123	0xbc2b0df5	-0.010440339
124	0xbc418cef	-0.011813386
125	0x3cd287b0	0.025699466
126	0x3d2100e4	0.03930749
127	0x3c985028	0.018592909

weight f4 [24, 128]
0	0x3d30cfd0	0.043166935
1	0x3d874ac6	0.06606059
2	0x3c14eb0d	0.009089244
3	0x3dda6214	0.10663238
4	0xbc83d7f6	-0.01609419
5	0x3e41a350	0.18909955
6	0x3b29d37e	0.0025913413
7	0x3cb8ac91	0.022543224
8	0xbc90eceb	-0.017691096
9	0x3df2c560	0.118540525
10	0x3d57af6e	0.052657537
11	0x3cd1970a	0.025584716
12	0xbcffeeaf	-0.031241743
13	0x3d23d152	0.039994545
14	0xbb7cffb4	-0.003860456
15	0x3b80fa20	0.003936067
16	0x3d770049	0.060303006
17	0xbc30b380	-0.010784984
18	0x3e6afdd6	0.22948393
19	0xbd89974f	-0.06718313
20	0xbda6b63c	-0.08140227
21	0x3dc8319f	0.097750895
22	0xbdb9f843	-0.09080555
23	0x3bcb94b5	0.0062127956
24	0x3e29ca1d	0.16581006
25	0x3d57e1b2	0.052705474
26	0x3d3998bb	0.04531167
27	0xbdf4cc15	-0.11952988
28	0x3e2ce697	0.16884838
29	0x3d53cb21	0.05170739
30	0x3c0f51d3	0.008747536
31	0xbdbebcf3	-0.09313383
32	0x3e68fc26	0.22752437
33	0x3d4189bb	0.04725049
34	0x3c306d7d	0.010768292
35	0x3d80bfc8	0.06286579
36	0x3c6e3af0	0.014540419
37	0xbdbbd721	-0.09171892
38	0xbe0170e3	-0.12640719
39	0x3d38ec95	0.045147497
40	0x3d40e795	0.047095854
41	0xbd29d155	-0.0414594
42	0xbe01777b	-0.12643234
43	0xbde92c0f	-0.11385357
44	0x3d1306ac	0.035895035
45	0x3e073d00	0.13206863
46	0xbdb12330	-0.086492896
47	0x3d189a97	0.037256803
48	0x3d6cf81b	0.0578538
49	0xbe4b1995	-0.19833978
50	0x3d8b4643	0.06800511
51	0x3c450bd9	0.0120267505
52	0xbc4fa6be	-0.012674032
53	0xbda44772	-0.080214396
54	0x3dce9b5e	0.10088228
55	0xbe0a7351	-0.13520552
56	0xbdb0051a	-0.08594723
57	0x3e0137d8	0.12618959
58	0xbd9bc873	-0.07606592
59	0x3d4be750	0.049781144
60	0x3d7983ad	0.06091659
61	0x3db45ad6	0.08806388
62	0x3e13af6f	0.14422391
63	0x3d836c76	0.06417172
64	0x3c55dec7	0.013053603
65	0xbdbaa84a	-0.0911413
66	0xbdbbd206	-0.09170918
67	0x3dee49e8	0.1163519
68	0x3dca237a	0.09870048
69	0x3e4e199f	0.20126961
70	0xbd8d4676	-0.06898205
71	0xbd609068	-0.054825217
72	0xbe1b3a00	-0.15158844
73	0x3d8eae03	0.06966784
74	0x3e0720d5	0.13196118
75	0x3d774953	0.06037266
76	0x3d41db30	0.047328174
77	0xbd68340c	-0.05669026
78	0xbe3caec1	-0.18426038
79	0x3da0cd07	0.07851606
80	0xbe03e56f	-0.1288049
81	0xbc9a17aa	-0.018810112
82	0xbdbb9a62	-0.091603056
83	0xbd96750e	-0.07346545
84	0x3e185430	0.14875865
85	0xbd1c657d	-0.038182724
86	0xbc836d6f	-0.016043393
87	0xbe7f4182	-0.24927333
88	0xbda38b06	-0.07985501
89	0xbdca273e	-0.09870766
90	0x3d854c54	0.06508699
91	0xbe35e0b3	-0.17761497
92	0x3d919478	0.07108396
93	0xb8d8d46b	-0.000103392485
94	0x3e174078	0.14770687
95	0xbe03d75a	-0.12875119
96	0xbdcefa6b	-0.10106357
97	0x3d1e1d2f	0.03860205
98	0x3d081472	0.033222623
99	0x3d009c78	0.03139922
100	0x3db64776	0.08900349
101	0xbc24cd40	-0.010058701
102	0xba6cb462	-0.00090295647
103	0xbe348afb	-0.17631142
104	0x3c46c84d	0.012132716
105	0x3b49e434	0.0030806186
106	0x3d25fbdd	0.0405234
107	0x3b50dd58	0.0031870212
108	0xbdda3335	-0.10654298
109	0xbd84ab7a	-0.06478019
110	0xbddc9453	-0.10770478
111	0xbc6026fe	-0.013681171
112	0x3e7a39e2	0.24436143
113	0xbd9f285f	-0.07771372
114	0x3c901213	0.017586743
115	0xbada1d7f	-0.0016640871
116	0x3dd656ed	0.104657985
117	0x3dbbc41b	0.091682635
118	0xbd6a6bc5	-0.057231683
119	0x3e2b9eec	0.16759843
120	0x3cdf4649	0.027255194
121	0xbce8019f	-0.028321085
122	0x3d026ef8	0.03184411
123	0x3d3169f0	0.04331392
124	0xbd9b58c1	-0.07585288
125	0x3e1c6a21	0.1527486
126	0x3e3666f0	0.17812705
127	0xbe0aded3	-0.13561563
128	0x3d9f5b4e	0.07781087
129	0x3d5f1a68	0.054468542
130	0xbdc565ca	-0.09638555
131	0x3d97452a	0.07386239
132	0x3dfb34bf	0.1226592
133	0xbd342e6f	-0.043989595
134	0x3d01248a	0.031528987
135	0x3dab8c01	0.08376313
136	0x3e48b8d5	0.19601758
137	0xbbc434fe	-0.0059877625
138	0x3d9d98df	0.076951735
139	0xbe23627a	-0.15955535
140	0xbd81ca0a	-0.06337364
141	0xbdc98cb6	-0.098412916
142	0x3d8f295b	0.0699031
143	0x3d406e43	0.046980154
144	0x3e58a1ef	0.21155523
145	0x3ae8466e	0.0017721185
146	0xbd57b057	-0.052658405
147	0xbe18ce89	-0.14922537
148	0x3d4e9e36	0.05044385
149	0x3d8d9fa9	0.069152184
150	0xbc0bca9b	-0.008532192
151	0x3cd810a7	0.026375128
152	0x3e4e7869	0.2016312
153	0xbe00d788	-0.12582219
154	0x3b48ceb4	0.0030640783
155	0x3cc85932	0.024456594
156	0xbe2e42c0	-0.1701765
157	0x3e189742	0.1490145
158	0xbc35e1ac	-0.011101168
159	0xbe50f631	-0.20406415
160	0x3da57eed	0.0808085
161	0x3cd6fb67	0.026242925
162	0xbcf5eada	-0.030019213
163	0xbc9d9152	-0.019234333
164	0xbdb84bf1	-0.0899886
165	0xbd3a1cda	-0.04543767
166	0xbd854a20	-0.06508279
167	0xbd584c37	-0.05280706
168	0xbd22268b	-0.03958754
169	0xbb6e1d48	-0.003633337
170	0xbd090b8e	-0.033458285
171	0xbcdf0a87	-0.0272267
172	0x3d25974e	0.0404275
173	0xbc5faab7	-0.013651541
174	0xbd793996	-0.060845934
175	0xbe13fe88	-0.14452565
176	0x3d1dc24e	0.03851538
177	0x3e2a441d	0.16627546
178	0xbd357f5b	-0.04431091
179	0x3d3206b7	0.043463435
180	0x3dda9a4d	0.10673962
181	0xbda6d2b0	-0.08145654
182	0xbd05b2f9	-0.032641385
183	0xbd34ed38	-0.044171542
184	0xbd82646a	-0.06366809
185	0xbd368550	-0.04456073
186	0xbda57af1	-0.0808009
187	0xbdc4ac92	-0.09603228
188	0x3dca89de	0.09889577
189	0x3d90c945	0.07069639
190	0x3c88b787	0.016689075
191	0xbd53c939	-0.051705573
192	0x3d672797	0.05643424
193	0xbc1f95f4	-0.009740341
194	0x3cce241a	0.025163699
195	0xbc8bce6a	-0.0170662
196	0x3e950885	0.29108062
197	0x3cae2032	0.021255586
198	0xbd6d4ae0	-0.057932734
199	0x3d58e0be	0.052948706
200	0xbe5789c4	-0.21048647
201	0x3dcdcf4f	0.100493066
202	0x3cfc9ea4	0.030837364
203	0x3e0bdeca	0.13659206
204	0xbd91d6d7	-0.071210556
205	0xbd9e2fc4	-0.07723954
206	0xbcda96a6	-0.026683163
207	0x3c848ae0	0.016179502
208	0xbb54bfb4	-0.0032462897
209	0xbe26bf03	-0.16283803
210	0xbb5ef121	-0.0034018236
211	0xbc39bce5	-0.01133654
212	0x3da8a2db	0.08234187
213	0x3c93831d	0.018006856
214	0x3dbac426	0.091194436
215	0xbd69bc04	-0.05706407
216	0xbe32c99a	-0.17459717
217	0x3d832795	0.06404034
218	0x3df16a92	0.11787905
219	0x3ca5bca4	0.020231552
220	0xbc1a11be	-0.009403644
221	0xbe098f1f	-0.13433503
222	0x3e07fb3d	0.13279434
223	0xbdc18d82	-0.094508186
224	0x3d949803	0.072555564
225	0xbdab0223	-0.08350017
226	0xbcea21c5	-0.028580556
227	0x3da14684	0.07874778
228	0xbe45d4c6	-0.19319448
229	0xbdc80990	-0.09767449
230	0xbd087924	-0.033318654
231	0xbd13fd2e	-0.036130123
232	0x3d86866b	0.06568607
233	0xbe3cc616	-0.18434939
234	0xbd3b8af6	-0.04578682
235	0xbe41d8ee	-0.18930408
236	0x3db5bee0	0.08874297
237	0x3dd1738c	0.10227117
238	0xbd539e89	-0.051664863
239	0x3d72e179	0.05929706
240	0x3df07030	0.11740148
241	0xbd9dbeab	-0.07702383
242	0x3dd2ead9	0.102987
243	0xbda89428	-0.082313836
244	0xbba8535d	-0.005136891
245	0x3e0a9c31	0.13536145
246	0x3d1344ce	0.03595429
247	0x3e064069	0.13110508
248	0x3a59c019	0.0008306518
249	0x3d1355b0	0.03597039
250	0xbe2407da	-0.1601862
251	0xbd1563d6	-0.036472164
252	0x3d2d58a8	0.042320877
253	0x3dfd173c	0.12357947
254	0x3e663145	0.22479732
255	0x3d90acbd	0.07064197

bias f4 [24]
0	0xbccd228c	-0.025040887
1	0x3c791f0d	0.015205157
2	0xbc498021	-0.012298615
3	0xbbe12145	-0.006870421
4	0x3b491570	0.0030682944
5	0xbc825e1a	-0.015914012
6	0xba9b7db5	-0.0011863025
7	0x3c36ce72	0.011157619
8	0x3b584242	0.0032998477
9	0x3c93d143	0.01804412
10	0xba821713	-0.000992509
11	0xbb04b80b	-0.00202513
12	0x3a08d582	0.00052198034
13	0x3caf42a6	0.021394085
14	0x3c4dd0c9	0.012561985
15	0xbcbdf9a6	-0.02319033
16	0x3c443b42	0.011977019
17	0xbca670c6	-0.020317446
18	0xbce25b3a	-0.02763139
19	0xbbabc067	-0.005241442
20	0x3b772887	0.0037713365
21	0xbd34779f	-0.044059392
22	0x3c549427	0.012974775
23	0xbbb8dba6	-0.0056414185
