logs/test/exported/policies/policy_1.pt (torch, 856648 bytes, 8 tensors)

weight f4 [512, 85]
00000000: 1403 9a3c b7e1 023d a87c 91bc e1b2 48be
00000010: 1069 26bd de39 cebd ac91 ddbc 2372 bc3d
00000020: 7a21 7cbd 180b 52bb 46e0 6f3a f83c 763d
00000030: 7882 cc3c 9a33 52bb d357 bdbd db54 d23d
00000040: 469e 14bd dcd6 3c3d 36ec c8bd 1f2b b2bc
00000050: 6e02 6d3c 4994 8abd cde0 313e 07e3 b8bd
00000060: 4ddb b3bd ec6f 3c3d ee3d 6f3d 1a3a 84bc
00000070: a09f 33bc 275c 63bd 6bb8 c7bc ab9f b8bd
00000080: 9cf4 6ebd 0897 1c3c 4e56 87bd 2fec 503c
00000090: 5f91 50bd 97c6 1d3d 4f95 a8bc a4f6 de3c
000000a0: 0c5e 77bd 30e1 b6bd f29e 1dbd 74f1 dabc
000000b0: 1048 70bd 1a3d 753b 47de fa3c cb6d 8dbd
000000c0: 439a 89bd 6be5 5abd da0b a8bc 9e3d 6abd
000000d0: 9e18 6f3d c760 06bd 0565 61bd 6652 d93b
000000e0: ab86 433d 086e 1ebd 4f7a b33c edd3 3a3d
000000f0: 0966 933d 58db 823c fe66 283d de19 b5bd
00000100: e8d8 a63d 670c cdbc 9373 94bd c2bb a9bc
00000110: 4641 70bd 676b 813d 50c0 373c 23b2 a2bd
00000120: 5b17 a6bc f636 313d d995 8dbd ac86 e0bc
00000130: 5592 23bc 4c36 d83d 7d7f 323d 7143 f73d
00000140: 197c 8cbd d89e b7bd 5a0d 13be 46ee 1a3d
00000150: 938b 40bb 5796 a7bc d279 83bd 96ba 09bd
00000160: a08e 1fbd 8310 8a3c 64d5 96bd 95c8 a3bd
00000170: af34 af3c e150 6cbb 69ed e2bc 043d 82bd
00000180: 0917 d03e 421b 8b3d c521 7b3d a5cf 303d
00000190: 0832 7c3c 1c91 e2bc 26b7 29bc c352 b2bb
000001a0: 277d 84bd 39d8 803d 3ae6 afbd 0de9 843c
000001b0: eadd d53d 2f2a aabd 9cdd 683c 1fc3 65bd
000001c0: abd5 9ebd 3623 033c 4a13 1ebd 6d3a 3cbc
000001d0: 7830 1cbd 74b7 6bbc c988 8fba ed7c 21be
000001e0: 827e 35bc 644e a43d 7d5f cabb 7ab8 4e3d
000001f0: 55c9 c5bd 8304 a8bd 684c 3dbc caba ee3d
00000200: 9fd1 69bd 7a2f aebd b1d0 723d 42cb 8d3d
00000210: 9207 3e3e 5fe0 1d3c 64c8 b1bc c13f 893d
00000220: d70b f63c c9c9 e43c e253 d9bd da10 253b
00000230: d511 0f3d 42f8 3c3d 1ea9 91bc 8c33 563c
00000240: dccb 21bc 931b e13b 5a41 4abd 5405 79bc
00000250: b835 c4bc be69 463d c4de a2bb 61bc 0ebd
00000260: 0ee1 7cbd 97aa 493d 3b17 113e cc99 e9bc
00000270: 6640 6b3d 5bea 8fbc 1be1 4bbb 608a cb3d
00000280: 382f 153d baf6 fcbc 4e57 8d3d 0d9c 5c3c
00000290: 48fd 103d 9283 1c3d 5640 7c3d aeb7 e1bd
000002a0: 0e5d 373d 0ae5 a1bc 4ba8 5bbc 51c9 783b
000002b0: c67a 7cbd 7f51 38be 8c8d 873d 9cc9 3cbd
000002c0: 2e7e 42bd 62be c33d 351f a3bd a095 10bc
000002d0: 03ec 2a3c a0c7 bf3d 2808 c7bd 5103 0bbe
000002e0: 9eea 3cbe 48a1 bcbd 1d33 20bb 6d85 24bd
000002f0: 636e d5bc 8485 b9bd dca5 93bd ae85 aa3d
00000300: 161d c73d 9af2 3fb9 10f1 73bd 771c 1bbc
00000310: 7ca0 82bd 7a1d b5bd b3ac 53bc 1c21 8b3d
00000320: b5b0 76bc 2631 81bc 7167 6fbd 62d6 02bd
00000330: 0dcc 2fbe 21ee 3bbd fbdc 2c3d 13b7 afbc
00000340: a003 f9bc a93d 0dbe 1af8 df3c db54 0fbc
00000350: def5 2c3c 6c16 c3bc dc7f aabd 8416 6abd
00000360: 9d4f 08be d584 873d ad1e fabb f5f7 043d
00000370: 2856 58bc fa2e 663d f2bf d23d 94d0 c33d
00000380: 4337 0fbb ad5c 713d 9043 b9bd c479 023c
00000390: 5efa ab3d 8a10 813d d9e8 edbb 8155 443d
000003a0: ba39 803c 2f6a 60bd 2cba c83c cf5e 86bc
000003b0: 4e64 ffbd 2bc0 a7bc 85e7 aa3d 5ae0 5e3e
000003c0: 9451 203c f3a9 c13d a4a4 62bd 1e8f e43c
000003d0: c68b db3b 0a84 a03d ed07 423c 54ff fbbd
000003e0: 8733 8f3d e89f f8bb 715f 6abd 2e81 c4bd
000003f0: 2f4a 9cbb ebe2 3d3d 404b 4cbc c515 023e
0.018800296 0.03195354 -0.017759636 -0.19599487 -0.04062754 -0.10069631 -0.027047 0.09201457
-0.061555363 -0.003205007 0.0009150546 0.060116738 0.024964556 -0.0032074214 -0.09245267 0.10270091
-0.036283754 0.046103343 -0.09810679 -0.021749077 0.014465911 -0.067665644 0.17370911 -0.09027677
-0.08782063 0.046005175 0.05840867 -0.016140986 -0.010963351 -0.055507805 -0.02437993 -0.09014829
-0.058338746 0.009557493 -0.06608258 0.012751623 -0.050919887 0.03851947 -0.020579008 0.027217217
-0.060392424 -0.0892967 -0.03848166 -0.026726462 -0.058662474 0.0037420453 0.030623568 -0.06905707
-0.06718876 -0.053441446 -0.020513464 -0.05718767 0.058373086 -0.032807138 -0.05502798 0.006632137
0.04773585 -0.038679153 0.021908907 0.045612264 0.07197196 0.015973732 0.041113846 -0.088428244
0.0814684 -0.025030328 -0.072486065 -0.020719413 -0.058656 0.063193135 0.0112152845 -0.07944133
-0.020274809 0.043265305 -0.06913347 -0.027407967 -0.009983619 0.10557231 0.043578614 0.1207341
-0.06859607 -0.08965844 -0.14360562 0.03782489 -0.0029380068 -0.02045743 -0.0641972 -0.033625208
-0.038954377 0.016853577 -0.0736492 -0.07997242 0.021387426 -0.003605895 -0.027701097 -0.06359294
0.40642574 0.067923084 0.061311502 0.043166775 0.015392788 -0.027657084 -0.010358607 -0.005441995
-0.064691834 0.06291241 -0.08588834 0.016224409 0.104427174 -0.08308827 0.014212992 -0.056094285
-0.07755598 0.008004 -0.038592614 -0.011488539 -0.03813216 -0.014387 -0.0010950799 -0.15770312
-0.011077525 0.08022764 -0.006175934 0.0504689 -0.09657542 -0.082039855 -0.011553861 0.11656721
-0.057084676 -0.08505149 0.059281055 0.06923534 0.18557575 0.009636014 -0.021701999 0.06701613
0.030034943 0.02792825 -0.106117025 0.0025187046 0.034929115 0.046135195 -0.017780837 0.013073813
-0.009875264 0.006869742 -0.04937873 -0.015199024 -0.023951396 0.048440687 -0.0049704034 -0.03484762
-0.061738066 0.049234953 0.14169018 -0.028515719 0.057434462 -0.017567804 -0.0031109515 0.09938502
0.036421984 -0.030879367 0.06901418 0.01346494 0.035397798 0.038211413 0.061584793 -0.11021362
0.04476648 -0.019762535 -0.013406823 0.003796179 -0.061640523 -0.17999838 0.06618795 -0.046090707
-0.047483616 0.09557797 -0.07964937 -0.008824736 0.010432246 0.09364247 -0.097183526 -0.13575484
-0.18448874 -0.092104495 -0.0024444528 -0.040166307 -0.026053613 -0.09058669 -0.072093695 0.083262786
0.097223446 -0.00018305556 -0.059556067 -0.009467236 -0.06378266 -0.08843513 -0.012919593 0.067934245
-0.015056779 -0.015770506 -0.05844826 -0.031942733 -0.17167683 -0.045881394 0.04220293 -0.021449601
-0.030397236 -0.13793053 0.027339984 -0.008748258 0.010556666 -0.023814403 -0.083251685 -0.05715038
-0.1331162 0.066171326 -0.0076330514 0.032463033 -0.013204135 0.056197144 0.10290517 0.095612675
-0.0021853007 0.058926273 -0.0904609 0.0079636015 0.08397363 0.06301983 -0.0072604236 0.047933105
0.015652526 -0.054788765 0.024502836 -0.01640263 -0.124703035 -0.020477375 0.0834494 0.21765271
0.009785075 0.09456243 -0.055332795 0.027900275 0.006700012 0.078376845 0.01184271 -0.12304559
0.0699225 -0.0075874217 -0.057219926 -0.095949516 -0.0047695856 0.046358984 -0.012469113 0.12703617

bias f4 [512]
00000000: b38d 303c 71f0 1cbc 67a3 423c 6958 0fbc
00000010: d93d d73b a19c 5cbb 3cb4 1fbb 2b24 7d3c
00000020: 4390 9d3b e1f6 213c e2a0 743b 8796 c8bb
00000030: b2ca 0f3c 461a c83b 4e0e afbb f701 c03a
00000040: bd6a 283a 9191 293c d425 383c 1548 2a3b
00000050: ffce 8fbb 0a83 1ebc f02a 6c3c ceac 953c
00000060: 126f 243c 81bc 6c3a aa37 7a3b b989 b33c
00000070: 47d9 fabb 7441 673c 5fba 163c 0f8f 3c3c
00000080: 828b d63b 39e3 483b 8828 2aba 9855 0c3d
00000090: 1138 d23b eb23 0c3b fecc bdbb 1002 30ba
000000a0: 405e cfbb 311a a23c e8f1 9cbb 20aa 423c
000000b0: 9d6a 89bb 41c2 1ebb 040a 3d3b 300e 883c
000000c0: bb9b 543c fa48 eb3c f22c 923c 2507 eb3b
000000d0: b094 173b a319 e03b 8f1c f83b ef91 1d3b
000000e0: 7aac 93bb d7ea 973c e252 1b3b 57d7 c3ba
000000f0: 5d74 853c dbdc a83c c3bb 0bbc 9044 21ba
00000100: 36be 56bb 709b d13b 51a4 b4b8 f438 053c
00000110: f9f5 113c 37d2 9abb 3343 693c 7773 193c
00000120: 373d 73ba db83 96bb bd07 3dbc 6526 c53c
00000130: e0c3 dfbb 2aae 0bbc 0000 0000 c921 fbba
00000140: 3dd1 d13c 1365 9c3a e18a 2e3c 7b01 9f3c
00000150: d970 1a3c a515 2b3c dac4 a53c f1f3 a23c
00000160: dbc7 543c 70f7 89bb fcce f53b a692 243c
00000170: 0f60 cabb 04a8 ae3c fa29 8c3c fb24 67bb
00000180: 6d13 153c bed5 ba3b e75f 14bb a305 ca3c
00000190: bd7b 2d3c adac 28bc f445 9a3c 380b a23b
000001a0: ac91 b93b 7b0a 28bb 5a83 d33b 995d 3b3b
000001b0: 80d0 3c3b 0191 543c 9f85 a5b9 c87e 7f3b
000001c0: 8a04 5f3c 9d9a c8ba 603a dd3a 6b11 0b3c
000001d0: 613f 8dba d5dc 233c 2303 b03b cd05 fd3a
000001e0: e503 61bc ad4e 6f3c b303 353c dc5b 8e3b
000001f0: 321a bb3c 4972 f63b 1beb 2a3c 7144 eaba
00000200: 8cd6 093b bd4f 853b 79c6 f7ba 53eb 783c
00000210: a56d bebc 7332 423b e2b8 713c 8598 913c
00000220: 364c e93b 6a92 cfbb cd40 b23c 0a0f 9fbc
00000230: c886 99bb f288 bbbb 8990 11bc 0faa 89bb
00000240: 96a2 8d3b 3e87 fb3a 79f3 f13a 2518 953c
00000250: 8550 4f3c fbc8 1a3c d84d 243c 0430 0f3c
00000260: 1337 873b 7650 143c 5758 8e3c cd64 0e3c
00000270: 872d 0f3c 286f ad3b 5e73 47bb 0df0 bb3b
00000280: 0000 0000 9e4a 753c 4ba1 ffbb faa8 cc3c
00000290: e61d 633b 70e3 983b 51f0 103c 261f 3e3c
000002a0: 8bd1 8a3c e6f7 4c3c bf44 1e3c 5996 043c
000002b0: eeb5 b9bc 6da3 d3bb a0a9 3f3c cf43 1e3c
000002c0: 53a5 573b f9d0 973c 650f c13b adfb e23b
000002d0: 2a5d ca3c 7a2c ef3c a3e3 d53c f338 b93c
000002e0: c2e4 19bb e23a 4f3c 2482 70bc 1f8d b43a
000002f0: cb2e 353b 6941 2dbb 7c6a 253c be32 32bc
00000300: 4bf7 193c d76f 0dbb 9eef 563b c02f 47bc
00000310: 4456 aeba 955b 113c 5c55 a23a 0336 dfbb
00000320: a6fc 243c 1f4f cc3b 2201 81bb 146f afbc
00000330: fa8e 583a 74a6 7b3b 01ab 5f3c 1f71 213c
00000340: eb86 073c 1b06 0b3c 8f7a d8bb dd9c 0cbc
00000350: ac59 8fbc 052b 363a fca7 cbbb 2b53 c73b
00000360: 9c1d 583c 7aa1 5abc 6fde 833b 72a9 84bc
00000370: bce4 cc3b 5c94 fe39 c5d5 573b 83ef 173c
00000380: e284 b5bb f92b 21bc 5af3 523b 5b04 313c
00000390: d66e 3f3b fd98 30bc b7ac a23b b385 b6bb
000003a0: 9999 973b f96e 4c3c 08d4 0c3b 0c52 29bb
000003b0: cd35 073d 9358 2fbc 76c0 c83a b2eb e1bb
000003c0: 3c6a 0b3c 1030 e839 d702 9f3c 2893 403c
000003d0: 680e 1e3c 4bce 993c 9f82 963b a8b2 973b
000003e0: 9bf4 dd3c fbd0 753c 0659 de3a e7f7 123c
000003f0: 06c3 563c 4c80 1abc ad2e 5d3b 4beb 1f3c
0.010775971 -0.00957881 0.0118797785 -0.008749106 0.006568652 -0.0033662694 -0.0024368903 0.015450518
0.004808457 0.009885521 0.003732734 -0.00612146 0.008776354 0.0061066477 -0.0053422814 0.0014649023
0.00064245966 0.010349647 0.011239488 0.0025982906 -0.0043886895 -0.009674797 0.014414534 0.018270876
0.010036247 0.0009030775 0.003818015 0.021916257 -0.007655296 0.014114726 0.009199708 0.011508717
0.0065473923 0.0030653013 -0.0006491025 0.034261316 0.006415375 0.0021383713 -0.0057922592 -0.00067141745
-0.006328374 0.01978788 -0.0047895797 0.011881381 -0.0041936175 -0.002422467 0.002884508 0.016608328
0.012976582 0.028721321 0.017843697 0.0071724826 0.0023129396 0.0068389936 0.007571764 0.0024043282
-0.004506645 0.018544598 0.0023700525 -0.0014941496 0.016290838 0.020613125 -0.008528653 -0.0006151879
-0.0032767183 0.0063967034 -8.613675e-05 0.008131254 0.008908742 -0.0047247666 0.014237213 0.009365908
-0.0009278836 -0.004593355 -0.0115374895 0.02406616 -0.00682877 -0.008525411 0.0 -0.0019159849
0.025612468 0.0011931978 0.0106532285 0.019409886 0.009426319 0.010442172 0.020235468 0.019891711
0.012987102 -0.004210405 0.007501481 0.010044729 -0.006176002 0.02132035 0.01710986 -0.0035269845
0.00909887 0.0057017496 -0.002264017 0.02466089 0.010588584 -0.010295075 0.018832184 0.004945185
0.0056631174 -0.0025641012 0.0064548673 0.0028589724 0.00288108 0.012974025 -0.00031570808 0.003898548
0.013611922 -0.0015304867 0.0016878359 0.0084880395 -0.0010776335 0.010001381 0.0053714677 0.0019304097
-0.013733839 0.01460616 0.011048245 0.0043444466 0.02283964 0.007520948 0.01043203 -0.001787318
0.002103242 0.0040683434 -0.0018903754 0.015192824 -0.023245642 0.002963212 0.014753552 0.017772922
0.0071196808 -0.0063345926 0.021759415 -0.01941635 -0.0046852566 -0.0057231123 -0.0088845575 -0.004201181
0.0043223603 0.0019190086 0.0018459401 0.01819999 0.012653475 0.009447332 0.010028325 0.008739475
0.0041264384 0.0090523865 0.017376108 0.008691025 0.008738882 0.005292792 -0.0030433754 0.0057354034
0.0 0.014971403 -0.00780121 0.024982918 0.0034655272 0.0046657845 0.008846358 0.011604106
0.016945621 0.0125102755 0.009659945 0.008092486 -0.022669759 -0.006458691 0.011698157 0.0096597215
0.0032904937 0.018532263 0.0058917277 0.0069269747 0.024702627 0.029196013 0.026109522 0.022610163
-0.0023482298 0.012648316 -0.014679465 0.0013774968 0.00276463 -0.0026436693 0.010096189 -0.010876356
0.009397338 -0.0021581554 0.0032796632 -0.012157381 -0.0013300856 0.0088719325 0.0012385058 -0.0068118586
0.010070002 0.006235018 -0.0039369026 -0.02141527 0.0008261051 0.0038398774 0.01365161 0.00985363
0.008271913 0.008485342 -0.006606407 -0.008582321 -0.017498814 0.00069491594 -0.0062150937 0.0060829124
0.013190653 -0.013344163 0.004024319 -0.01619408 0.006252853 0.00048557192 0.0032933813 0.009273413
-0.0055395225 -0.009837144 0.0032188506 0.010804261 0.002921035 -0.010778663 0.004964437 -0.0055701374
0.0046264646 0.01247763 0.0021488685 -0.0025836257 0.033010293 -0.01070227 0.0015316147 -0.006894552
0.008509215 0.00044286298 0.019410534 0.011753835 0.009646989 0.018775126 0.004593208 0.004629452
0.027094176 0.015003438 0.0016963787 0.008970237 0.013108021 -0.009430002 0.0033749745 0.009760688

weight f4 [256, 512]
00000000: c775 f0bc 6e0f 033c 69fc 053d 0f4c 0abb
00000010: fe26 8b3d 5c34 7e3d 80ae dfbb b0db 12bd
00000020: 034b dc3c abed 72bd 315e cabb 1670 45bd
00000030: 2e2f 8cbd 7702 4c3a bafb 77bd efbc abbc
00000040: 65b8 c7ba 2910 91bd 0f04 9f39 8f81 17bd
00000050: 12d3 b1bc 0dff 72bd 8f78 6b3b a4af 303d
00000060: 88e5 6fbb b6b1 093d 84dd 7e3d a4c7 dbbb
00000070: 5f45 4bbd 5cc2 683d cb5a 2a3d 4744 27bc
00000080: cfec 6fbb b8c2 e33c ead1 123d 298b cebc
00000090: a159 a73b 937f e8bc b247 aa3c 1da2 193b
000000a0: 7bea 87bd 93ab 51bd 12d2 1c3d 345a e63b
000000b0: 01a2 0a3d 4f2a d73b f605 87bb c5ba eabc
000000c0: 53b5 92bd 1e10 773d f71b 17bc 83fa b8bd
000000d0: 025e f9bc f5ee 753d b689 a43a d8a4 02bd
000000e0: 77e6 08be e686 3b3d 37f9 4cbd 8830 1dbd
000000f0: d419 313d 2933 36bd 7868 1abd ddb1 37bc
00000100: 0e6d 86bc 4ab1 963c 854e c13d 8c40 97b9
00000110: 9056 87bd 2067 2a3d d990 dfbc 2b4a 93bd
00000120: 8403 dabd 596a 11bd 8265 763c 379f 323b
00000130: 5478 3b3d 3314 cb3b 4316 66bd e7a4 f33b
00000140: 7313 72bc 77a4 adbc f00f 6f3d 14fc 5bbd
00000150: ea83 163c 48d5 15bd f911 463d d3da 7e3d
00000160: a972 553d f4e2 95bd dcc0 913c f954 d13c
00000170: 82f3 89bc 238c d53c b8df 6abd cf63 b8bc
00000180: b6ac 36bd f27f 2bbd 7679 c23b 2632 c33c
00000190: b3ac 38bd 5f67 65bc 5f5b ad3d e766 81bd
000001a0: 00d8 3f3d 778d 2dbd 7b8a eabd a597 d1bc
000001b0: 19d1 063b 4e2f df3c e017 793c b178 d5bc
000001c0: ca8a 12bd 017a 1ebd 64cc bcbc c346 f03c
000001d0: 3eea f0bb cd70 99bc 1c04 fd3b a513 0b3d
000001e0: 2017 1d3d 7bb8 fa3c f4b1 d3bd bdf7 443b
000001f0: 4be4 a0bc c156 a1bd 0e81 46bd 169c 0e3d
00000200: e995 063d 1b74 1abd 8cd2 f73c 273a 78bb
00000210: 82cc 8dbd 08b2 bf3c ef97 18bd 4583 66bd
00000220: 6c3d 35bd 8f5d c3bd c9af cb3b 67e3 4b3d
00000230: 190c 39bd 0665 bcbc b30f 5b3d f30b f5bc
00000240: 942c 65bc 5d46 f83b 1625 35bd ce98 643d
00000250: e931 8cbb d75d 66bd 6d3f a8bc 2711 c73c
00000260: a83e be3c 2677 6bbb 3b61 61bd 887b c73b
00000270: 8e18 53bd 8e43 85ba b109 2abc 1b35 9b3c
00000280: e425 34bb 0ebd e4bc b81e 853c 122e 73bc
00000290: e365 393d c986 fabc 6063 a63c f7ba f93b
000002a0: f444 143d 5ac2 b93d bd11 72bd 32dd 823c
000002b0: a70b c33b 7f61 db3c 0cab 29bd 8b08 023d
000002c0: 0274 2e3d c372 893c 9608 393d 9878 26bd
000002d0: cdc4 1dbd 035b 0e3d 0355 abbc 09ed 0c3d
000002e0: bd5a bd3b 622c 0dbd b96c 7cbd 0753 0f3c
000002f0: 6e83 80bd 8fad dd3b 344f 423d a345 a8ba
00000300: fbbd b0bc 4a9c a8bc 3343 1dbd 0d06 1fbd
00000310: 3058 aabc 8ecf ca3b e33b 893d 6931 023d
00000320: 7d54 793d 1661 e2bd d0f9 0d3d a43b 4cbc
00000330: 2c6f 5abd e88d 003d 3b0f adbd d9f5 3a3d
00000340: a873 c83c 4d5f bb3b 38c4 9e3c cbfc bdbc
00000350: 56db 293d aceb ae3a 4036 c9bc 414e 213d
00000360: ce5b 213d f0e4 993c 9e74 e4bd e3c4 b23c
00000370: 15ca 57bd 252a 68bd d350 00bd 824c debd
00000380: c8f5 273d e69c 0cbd 2e9a 893d 0e2a 753d
00000390: bac0 0e3d 7885 64bc c006 76bd 0a3a da3c
000003a0: 76cd 763d 428a b23c 0e86 803d dfcb 523c
000003b0: 8c70 b7bc 1eaa 283c 387f f13c 18a1 9c3c
000003c0: fd5e 923d 8d05 1f3d c83e 9cbd bbaa 953d
000003d0: 5cfb 3abc 8c4e 96bc 2e7b bbba 04e3 82bd
000003e0: 1b62 fc3c 8923 963c 26c4 813c b7fd 1cbd
000003f0: 4281 23be 0405 b5bc 65ed 23bd b9e1 aabd
-0.029353036 0.007999284 0.03271142 -0.0021102463 0.067945465 0.062061653 -0.006826222 -0.03585404
0.026891237 -0.05930869 -0.0061757793 -0.048202597 -0.06844936 0.000778235 -0.0605428 -0.020964114
-0.0015237449 -0.070831604 0.00030329867 -0.03698879 -0.021707091 -0.059325267 0.0035930013 0.043136254
-0.0036605317 0.033616744 0.062222973 -0.0067071486 -0.049626704 0.05682598 0.041590493 -0.01020915
-0.0036609655 0.02780281 0.03584472 -0.025212841 0.00510712 -0.028381145 0.02078614 0.0023442574
-0.066365205 -0.051189017 0.038286276 0.007029796 0.033845905 0.006566323 -0.0041205836 -0.028653512
-0.07163491 0.060318105 -0.009222976 -0.09032156 -0.030440334 0.06004234 0.0012553248 -0.03189549
-0.13369165 0.045782946 -0.050042357 -0.03837636 0.043237522 -0.044482384 -0.037697285 -0.0112118395
-0.016409423 0.018395085 0.094388045 -0.00028849056 -0.06608307 0.041602254 -0.027290748 -0.07191881
-0.10645202 -0.03550181 0.01503885 0.0027255544 0.04576905 0.0061974763 -0.056173574 0.0074354294
-0.014775145 -0.021196587 0.05836481 -0.053707197 0.009186724 -0.036580354 0.048356984 0.062220406
0.0521113 -0.073186785 0.017792158 0.025553213 -0.016839746 0.026067799 -0.05734226 -0.02250853
-0.044598304 -0.041870065 0.0059348894 0.023827624 -0.045086574 -0.014001696 0.08464693 -0.06318455
0.046836853 -0.04237124 -0.11452194 -0.025585005 0.002057141 0.027244236 0.015203446 -0.026058527
-0.03577689 -0.03869057 -0.02304668 0.029330617 -0.0073521426 -0.018730545 0.007721437 0.03395428
0.03835213 0.030605545 -0.10336676 0.003005489 -0.019640109 -0.07877875 -0.04846292 0.034816824
0.03285781 -0.037708383 0.030251764 -0.0037876458 -0.069237724 0.023400322 -0.03725427 -0.056277532
-0.04424803 -0.09539329 0.0062160236 0.049777415 -0.045177553 -0.02299739 0.05348177 -0.029912924
-0.013987679 0.0075767473 -0.04422482 0.05580979 -0.0042784107 -0.056241836 -0.020538056 0.024300171
0.023223236 -0.0035929172 -0.055024367 0.006087724 -0.05153709 -0.0010167228 -0.010378287 0.018946221
-0.0027488405 -0.02792218 0.01625 -0.014842527 0.045263182 -0.030581849 0.020311058 0.007621165
0.03619857 0.09070273 -0.059098948 0.015974615 0.005952317 0.026779888 -0.04142289 0.03174643
0.042591102 0.016778355 0.045174204 -0.04064235 -0.038517762 0.034754764 -0.02091456 0.03440574
0.005778639 -0.034466155 -0.061627124 0.008747823 -0.06275068 0.0067650746 0.047438815 -0.0012838136
-0.021574965 -0.020582337 -0.038394164 -0.03882413 -0.020794004 0.006189293 0.067008756 0.031785402
0.06087159 -0.11053674 0.034662068 -0.012465391 -0.053328678 0.031385332 -0.084501706 0.045644615
0.024469212 0.005718148 0.019380674 -0.02319183 0.04146894 0.0013345382 -0.024562001 0.03938127
0.039394192 0.018785924 -0.111550555 0.021822399 -0.052682955 -0.056680817 -0.03132708 -0.108544365
0.04100588 -0.034329318 0.067188606 0.05985456 0.034851767 -0.013947837 -0.06006503 0.026639003
0.060254537 0.021794442 0.06275569 0.0128659895 -0.022392534 0.010294465 0.029479608 0.019119784
0.07147024 0.038823653 -0.07629162 0.07307955 -0.011412468 -0.018348001 -0.0014303678 -0.06390956
0.0308085 0.018327491 0.015840601 -0.0383279 -0.15967277 -0.022097118 -0.04002132 -0.083438344

bias f4 [256]
00000000: c092 e2bb 805b 923c 638f 013c f86d 8038
00000010: 851a 013c 85b2 f43b d842 3fbb bdd3 b43b
00000020: d3a8 f73a 8734 b53b fb6d 3c3c 4df6 d23b
00000030: 1049 0bbc fa12 df3b e43e b63b c83c a33c
00000040: 4d6e c63a 3e46 8f3c b0f5 2a3c ce0e 32bc
00000050: bca1 4f3c 421f 563c 1c0d 0d3c f22a 9b3b
00000060: 1b3f b9bc ce19 403b 41d4 4c3b 0d72 8e3a
00000070: 36df d5bb 8807 1a3c 24df 29bc 3547 103c
00000080: 8079 083c 77cb 29bc fd17 feba 6f58 2f3c
00000090: 8ddc 573c 413d 6c3b 5a7b 8c3b 9f08 5c3c
000000a0: 6f12 043c 672a 403c cf3c 7bba ed6e b13c
000000b0: 48c7 ac3a 30c0 4f3c bfc5 fe3b 86f5 713b
000000c0: f190 dd3b 7c83 063c c5a9 843a 33dc 063c
000000d0: 6762 5d3b 46c4 d63b 7709 253b 5016 0b3c
000000e0: 6f21 ddbb e84d 613c 164c 513c 74ff 1b3c
000000f0: eadd 0c3c 7db7 473c 22ad 293b 76ed 7f3c
00000100: 94a9 2a3c 5e03 953c 4678 793c 2cb8 613c
00000110: e081 033c ad06 f63b 8f7f 093b d25f 0abb
00000120: 7460 693b e9a6 d93b ec0d 6dbc 3de3 37ba
00000130: cc26 243c bbda 783b 704c 34bc 15da 51bb
00000140: a6b6 27bc 2d9e 51bc aa0b 833b c73e 14ba
00000150: 5ca2 103b 9bb3 97bb 5ff5 3b3c f215 f5bb
00000160: 2393 873b bb3d 0e3c c803 cebb 6ed5 173c
00000170: 0c32 163c cf93 663b 5973 b5bb 52c2 493c
00000180: 7b1f 633c 5de9 e13c 5c9c bc3b 8be3 5b3b
00000190: 52cb 253c 3517 2c3c 614b b63b fc6e b53b
000001a0: 4da7 5c3c a8e9 753c a499 37bc c94c 69bb
000001b0: a193 073c 46e1 f93b dfc7 103c 1735 8b38
000001c0: 8672 aa3b 2531 603b 5272 eb3b 0006 8cbc
000001d0: abd8 8c3c c7c6 0d3c a934 0c3c 805c bf3c
000001e0: 7c56 633c 430e 8a3b b36a 7c3c 9aa8 013c
000001f0: efd5 b23b 9c30 623b 72cb 63ba 6f13 07bc
00000200: aacb 8b3c 7c4a 3b3b c0e4 aebb 8035 4c3c
00000210: 56a8 26bb 8db7 823c 9f37 633c cdd3 c53b
00000220: ae6e 893c 4451 883c d4ba 9b3b 9e36 f23b
00000230: 7647 c03a e0c4 d2bb 9b29 6d3c ad6d 8f3a
00000240: 832f 573c b6f9 3fbc 5c0a bebb cdac 023c
00000250: 796d 853c cb84 92b8 a28b 69bb 17fb 3d3b
00000260: 128a 2a3b 0370 353c 8fd5 c93b eceb 453b
00000270: 2087 2a3c 79ec 073b 24a9 2e3b 2fab 6c3c
00000280: 8e8e ec3b e6c1 a9ba 4ed6 013c 99db 173c
00000290: 22bb db3b 0412 763c 6606 1b3c a10c 99bb
000002a0: 5846 6bbc 2454 c03b 988d fdbb 8217 253c
000002b0: bc37 5ebb d1e1 6d3c 9f48 2bbc 2d6f 593b
000002c0: b713 3ebb f244 c9bb 7d55 90bc 9d2c 043c
000002d0: b838 423c 3f7c 153c 31eb 4bbc 53b9 3c3c
000002e0: 6695 1e3c 5201 c03b 5e38 05bb 7bf7 2a3c
000002f0: dabb 183c 182e 613c 76e5 243c b9a4 bb3a
00000300: e9a0 713b ba36 1a3c 7a3b ad3b a2b0 fb3b
00000310: 127e 36bc 7693 883a 40cf 673b 3f9c 8e3c
00000320: 8bb1 093d 853e 943c 351b 743b ac4b 0f3c
00000330: 82dd 033c ff85 5b3c 7792 593c 888f 603c
00000340: ca2b 553b 9318 53bc 1fb0 933b 39fb 95ba
00000350: e005 823b c502 843b 4b67 0d3c 44cf 7d3c
00000360: 112c d33b 7957 fb3b 7b38 593c 22a7 2a3c
00000370: dcd3 d23b aa87 203c 0de5 cdbb 16a8 9c3b
00000380: 684f b03b 1e94 c13b 6a2e b439 d002 da3a
00000390: 0368 f33b 4329 36bc 290b 5dbb f803 7b3c
000003a0: 78b3 793c 4cf9 873b e70a d73b 7b4e 7aba
000003b0: 048f 103c aeb5 663b f765 d53b 1330 d13a
000003c0: 4034 ef3b c56a ab3b 7023 073c 2120 263c
000003d0: f201 fb3b 0c10 563c f80c 903c fd2e f33a
000003e0: 6ffd 2fbc 05d2 373c c206 3c3b b24c c33a
000003f0: 0493 943c 3880 8e3c 6f6c 8e3b fa71 7b3b
-0.0069144666 0.017865896 0.007907721 6.123999e-05 0.007879858 0.0074675702 -0.002918413 0.005518405
0.0018894918 0.0055299434 0.011500831 0.0064380527 -0.008501306 0.006807682 0.0055616964 0.019926444
0.0015139073 0.017489549 0.010434553 -0.0108677875 0.012672838 0.013068976 0.008609083 0.004735344
-0.022613099 0.0029312256 0.0031254443 0.001086773 -0.006526853 0.00940121 -0.010368142 0.00880604
0.008329749 -0.010363451 -0.0019385811 0.010702237 0.013175142 0.0036047252 0.0042871656 0.01342979
0.008061036 0.0117288595 -0.00095839513 0.021659339 0.0013181949 0.012680098 0.007775038 0.0036920025
0.006761663 0.008210059 0.0010121396 0.0082312105 0.0033780576 0.0065541593 0.0025182643 0.008489206
-0.0067483704 0.013751484 0.012774488 0.009521354 0.00859783 0.012189743 0.0025890549 0.01562058
0.010416407 0.018190082 0.015226429 0.01377682 0.00802657 0.00750812 0.0020980572 -0.0021114242
0.003561047 0.0066422117 -0.014468651 -0.0007014757 0.0100190155 0.003797217 -0.011004552 -0.0032020856
-0.010236418 -0.01279406 0.003999193 -0.00056551065 0.002206943 -0.004629565 0.011472075 -0.0074794227
0.004137413 0.00868171 -0.006287072 0.009267194 0.009167206 0.0035183316 -0.005537432 0.012314396
0.013862486 0.027577097 0.005755944 0.0033552374 0.010119276 0.01050358 0.005563185 0.005536912
0.013467622 0.015009321 -0.011206064 -0.0035598746 0.008274944 0.0076257316 0.0088367155 6.637925e-05
0.0052016405 0.003420898 0.007185259 -0.017092705 0.01719316 0.008653349 0.008557477 0.023359537
0.0138756 0.004213126 0.015406298 0.007913733 0.005457632 0.0034513837 -0.00086896785 -0.008244379
0.017064888 0.0028578332 -0.0053373277 0.012463927 -0.0025429926 0.015956664 0.013868242 0.0060372115
0.016776409 0.016640313 0.0047524963 0.007391765 0.0014669735 -0.0064321607 0.014475252 0.001094272
0.013133886 -0.011717251 -0.005799575 0.007975769 0.016287552 -6.986557e-05 -0.0035636206 0.0028988773
0.0026022238 0.011074069 0.0061594914 0.0030200435 0.010408193 0.0020740314 0.0026651109 0.01444511
0.0072191423 -0.0012951463 0.007924629 0.009268665 0.0067056576 0.015018944 0.009461975 -0.004670695
-0.014360033 0.0058694053 -0.0077378266 0.0100764055 -0.0033907732 0.014519171 -0.010454326 0.0033177838
-0.002900345 -0.006142252 -0.017618889 0.008067277 0.011854343 0.009123861 -0.012446211 0.011518794
0.009679174 0.0058595324 -0.0020327787 0.0104349805 0.009322131 0.0137439 0.010064473 0.0014316059
0.0036869592 0.009412462 0.005286631 0.0076809684 -0.011138456 0.0010419923 0.0035371333 0.017408488
0.033616584 0.018096218 0.0037247662 0.008746069 0.008048417 0.013398646 0.013279549 0.0137060955
0.003252732 -0.012884277 0.0045070793 -0.0011442668 0.0039679855 0.0040286505 0.008630584 0.0154913105
0.006444462 0.0076703397 0.013258095 0.010415824 0.006433947 0.00979797 -0.0062834085 0.0047807796
0.0053805597 0.0059075495 0.00034366857 0.0016632918 0.0074281706 -0.011118236 -0.0033728576 0.01532077
0.015240543 0.0041495916 0.006562579 -0.00095484377 0.00882316 0.0035203504 0.0065123993 0.0015959762
0.00729993 0.005231234 0.008248195 0.010139496 0.007660144 0.013065349 0.017584309 0.0018553432
-0.010741576 0.011219506 0.0028690551 0.0014900176 0.018136509 0.017395124 0.0043464224 0.0038367496

weight f4 [128, 256]
00000000: e059 36bd 225c ed3d f1f6 423d 9ed4 b2bd
00000010: a07a 2dbd e0d0 b0bc adc5 173d 3c2e ff3c
00000020: 956b 6f3d 0834 eebc 27c4 b1bc 1f9e de3b
00000030: 5526 093d 8d20 14bd 6fc6 d9bd f82d 363e
00000040: eed4 2d3c ece3 d7bc 1005 cebd 8ba9 acbd
00000050: 261b 783d 81d8 973d 5675 07bd f71a 6ebd
00000060: 1135 783d 37d9 68bd aeea f43d ec36 273d
00000070: b709 82bd 1e6b c0bc 7254 15bb ee99 5bbe
00000080: d852 ce3c 0e9a 28bd 1d35 413d e761 bfbc
00000090: 11df bb3d 2bd6 a23d a06c a9bd 81e0 ce3d
000000a0: 321f a13d ed0c f43c 659a 8d3c 1e01 ad3d
000000b0: d1b0 48bd 545b c3bd 5fba d63d 6b5c 84bc
000000c0: 59a1 6ebd 6b24 65bd 3f3e 463e fdcf 8dbc
000000d0: 2f4e 85bc 6be6 15bc d73d 0f3e 2d06 163d
000000e0: aa2a f1bd b29e 16be a414 163d cc50 b93d
000000f0: 4266 c3bd 4d61 5f3d 6b3c a4bd c334 b3bd
00000100: 7155 b73d d8e1 023d 5f6d 1e3e fbb6 923d
00000110: 5f22 a4bd 04a4 5f3d 4f76 2bbd 04dd 3a3d
00000120: 58dd b33c db12 b7bd 8541 03be 6943 503e
00000130: 58f8 b2bc 603b 42be 9e13 b8b9 9656 bb3b
00000140: 62c0 92bd 3709 93bb 1788 a1bc 0e1a 953c
00000150: 2797 633d 6adc fd3c dc16 90bd 304a c6bc
00000160: 3c77 923d 244a 073c 2e7d 133d 644a 5e3d
00000170: 4bbc 7c3d c55f 093d 6faa 0bbe 7cc1 923d
00000180: b739 0abe 5acf 0cbe 2dfe a7bc ae6c 003e
00000190: d7b3 ee3c 3336 8ebd 71df e3bb 0b5a 553d
000001a0: 6e02 cdbc fbae 133b c507 153c 5d77 043e
000001b0: 6831 09bc 2764 8dbc cfd0 c43b 42b3 21be
000001c0: 2967 18be 3134 633d d6a3 b7bc 02cc 1cbd
000001d0: 524e bebc 04d5 f33d 938b ce3b a74b 933d
000001e0: 328a 80bd fe62 afbd 0fe9 923c 2e1a 4c3e
000001f0: d305 133e 34ef 363d a017 20bd 89d3 ae3d
00000200: 504c a03c 0239 25bd 045d a13c a247 8e3c
00000210: 2c28 593c 646d 923d f0f2 463c 95b7 3f3d
00000220: 990e 873c 433e 07bd e004 3c3d ec8e 82bd
00000230: 4a92 853d 035a eb3c 8737 b13d 314c 403c
00000240: 1512 b7bb e523 4dbd 5081 9d3c 2339 c63d
00000250: 4c4b 5ebd ea5b 87bc e745 04be 649a b53d
00000260: d8b9 bfbd ff84 8abd 3068 dcbc 6833 ebbc
00000270: 59cf 25be f2c9 c73d 1346 a83d 5cf8 993a
00000280: 6977 71bd d167 10bd eb5a cc3a cca3 b03c
00000290: b72a ba3d fb23 babd 9e52 aabd cade 9f3d
000002a0: c941 dbbc 3921 393e 049f b43d ed06 873b
000002b0: fa7c 253d 4c1e bb3d 8697 82bd d991 cfbc
000002c0: f171 2c3d 8697 7d3d 08c1 f2bd e1c1 ba3d
000002d0: 3dd0 f6bd c966 8ebc 77e3 f23d c519 0ebe
000002e0: 7132 883d 7b7e a83c 5154 8abd 0ae3 71bd
000002f0: 8c40 403e f767 22be fcf3 94bc 8402 76bd
00000300: aa41 173d c0dc dabc c0b4 fb3c 049f 99bd
00000310: 688f 0f3d bdf6 ab3d c513 edbc 942f 3f3d
00000320: e80b 7a3d 8a73 033e dfd1 5bbd ebc0 903d
00000330: 6881 113e 9365 033d c401 f6bc 1046 a43d
00000340: a787 3dbc a2ed 5cbd 0eab 153d bb24 993d
00000350: 5f57 82bd 0f1e 9f3d b9b1 663d 37c9 0fbe
00000360: 9ffb 62bd acce 113d 820d 943d 6126 90bb
00000370: 30d1 50ba ea0a ab3d a461 f73d 76f8 253e
00000380: fc99 053d 827e de3d c8ea 813c dd7b d93d
00000390: 4753 98bb efe5 3bbb 936c c03d d011 a9bb
000003a0: 17fb 7e3d 7161 2fbc dd49 1bbd 908f 483d
000003b0: 85a0 bf3c e7f2 d13c 00ce 8bbd 08e4 6b3d
000003c0: 9f9c 6e3d e6a2 583d c0b0 fa3b eeb1 8fbd
000003d0: 1c60 183d 7126 8fbc f1c0 c2bd 47d9 11bd
000003e0: b123 1dbd c1f4 10be 80e0 ce3d c666 4d3c
000003f0: e83c 2a3d 76d7 8d3d 8ecf 3bbd 15ea ea3d
-0.044519305 0.115898386 0.047598783 -0.0873196 -0.042353272 -0.021583974 0.037053753 0.031149976
0.058452208 -0.029077545 -0.021699978 0.006793752 0.033483822 -0.036163855 -0.10633551 0.17790973
0.010609848 -0.026353799 -0.10059559 -0.08430775 0.060572766 0.07414342 -0.033070885 -0.058131184
0.060597483 -0.056847777 0.11958824 0.040823862 -0.06349509 -0.023488577 -0.002278593 -0.21445438
0.025185987 -0.041162543 0.047169793 -0.023362113 0.09173406 0.079510055 -0.08272672 0.101014145
0.07867278 0.02979132 0.017285535 0.08447479 -0.04899675 -0.09538904 0.10484766 -0.01615735
-0.058259342 -0.055942934 0.19359683 -0.01731109 -0.016272632 -0.009149174 0.13988434 0.036626983
-0.11775716 -0.14708975 0.03664078 0.09048614 -0.095409885 0.054536153 -0.08019336 -0.08750298
0.089518435 0.031953663 0.1547141 0.07163807 -0.08014368 0.054599777 -0.041860875 0.045620933
0.02195613 -0.08939143 -0.12817962 0.20338215 -0.021846935 -0.18967962 -0.0003510983 0.005717109
-0.071656 -0.0044871825 -0.019718213 0.0182009 0.055564072 0.03098889 -0.0703561 -0.024205297
0.071516484 0.008257423 0.036008053 0.054270163 0.061703008 0.0335386 -0.13639234 0.071658105
-0.13498579 -0.13750973 -0.020506943 0.12541458 0.029138489 -0.069439314 -0.0069541265 0.052087825
-0.025025573 0.0022534716 0.009096091 0.12936158 -0.008373596 -0.01725967 0.0060063372 -0.15791038
-0.14883102 0.055469695 -0.02241699 -0.038280495 -0.023230705 0.11905864 0.0063032596 0.07192164
-0.06276359 -0.08563803 0.017933397 0.19931862 0.1435769 0.044661716 -0.03908503 0.08536441
0.019567639 -0.04033757 0.019697674 0.017368142 0.013254207 0.07149771 0.012142882 0.046805937
0.016486453 -0.03301836 0.045903087 -0.063749164 0.06522043 0.028729444 0.08653169 0.011736915
-0.0055868723 -0.05008306 0.0192267 0.09678867 -0.054271027 -0.01652332 -0.1291729 0.08867338
-0.09361619 -0.06763648 -0.02690515 -0.028711036 -0.16192378 0.09755315 0.082164906 0.001174699
-0.05895177 -0.035255257 0.001559106 0.02156248 0.090901785 -0.09088894 -0.08316539 0.078061655
-0.026764767 0.1807908 0.08819392 0.0041206987 0.04040239 0.09136638 -0.06376557 -0.0253381
0.04210085 0.061912082 -0.11853224 0.09119011 -0.12051437 -0.017382996 0.11859792 -0.13877018
0.06650246 0.020568123 -0.06754363 -0.059054412 0.18774623 -0.15859972 -0.018182747 -0.060060993
0.036927857 -0.02671659 0.030725837 -0.07501033 0.035048872 0.08396671 -0.02894009 0.046676233
0.06104651 0.12837043 -0.053666946 0.07068046 0.14209521 0.03207929 -0.030030139 0.08021176
-0.011567987 -0.05393756 0.036540084 0.07477709 -0.06364321 0.07769405 0.056321833 -0.14041601
-0.055415746 0.03559749 0.07229139 -0.0043991064 -0.00079657417 0.08351691 0.1207917 0.16208062
0.032617554 0.10863973 0.015859023 0.10619328 -0.0046485993 -0.0028670987 0.09395709 -0.005159594
0.062251177 -0.010704384 -0.03791224 0.048965037 0.023391971 0.02562852 -0.06826401 0.057590514
0.058254834 0.052889727 0.007650465 -0.07016359 0.037201032 -0.017474385 -0.09509457 -0.035607602
-0.038364116 -0.14155866 0.10101414 0.01253671 0.04156199 0.069258615 -0.045852236 0.11470429

bias f4 [128]
00000000: 75f0 103b 8dcb ca39 b0e8 f4b9 53c7 dcbb
00000010: a265 183c 7e0e 9f3b 007d 563a 954d 173c
00000020: 3642 813c 1bd3 53bc 44e2 0c3a a31e 433c
00000030: 649d 843a d16f 123c b02b 803c 7da1 233c
00000040: 1b47 eebb c3d5 ceba d79c 6b3c c58d 703c
00000050: 9dc6 23bc 3384 683c 4cd2 263b 8f1a e63b
00000060: 145b 0f3c a8a8 453c ebf5 693c 40bf 62bc
00000070: 8bed 503c 014f 9e3c bf13 c53b 0431 8c3b
00000080: 0ea5 533c 3467 f2bb 199c 4f3c 6783 1abc
00000090: 4314 0e3c 091f 66b9 5b80 913c 2c14 ccbb
000000a0: d6b1 ddbb 536f 223c b199 f3ba c64e 8c3c
000000b0: 9945 033c b5b7 653c c7ed fc3b c520 68bc
000000c0: ad9e 22ba b021 76bc 4117 ac3b f9b9 e63b
000000d0: 3daf 67ba 9724 50bb 5a97 663c 9e73 0e3c
000000e0: b26e aa3c 66a4 533c c3be 1d3c 6de9 af3b
000000f0: c306 413c e047 77bc 598f 113c 5b1e aabc
00000100: 2171 733c e183 713c dd12 0d3c 753c f73b
00000110: 2714 2abb b5be d63b 4330 c63b cbe7 66bc
00000120: aec2 413c 5366 8a3b c23c 48bc 99a0 db3b
00000130: ac4a 793c f9c4 ad3b e332 243c 00b0 303c
00000140: 0cec ac3b b26a febb 64ff 57ba 5261 58bc
00000150: 53ca 7c3b 3f7a 503c 772f 063c 580c d1bb
00000160: 52b1 533c ed60 713c ee70 853c 8bf9 8bbb
00000170: 2d9b 3d3c 2afc bcbb 5c9a 483c 0c7a 223c
00000180: 5691 bcbc 7f27 aebc d191 62bb 126d 1b3c
00000190: 67a2 93bc b6c1 4b3c 200f 613c acbb 3c3c
000001a0: fbe9 4e3c acb8 053c fbe6 0e3c 509a da3c
000001b0: fde5 263c cd19 6d3c 57db 4f3c 8b94 013c
000001c0: 092d 75bc ef15 7fbc dc8e db3b fa13 703c
000001d0: e522 d53b 516a 7a3c 236b 18bb a3b3 7fbc
000001e0: e0d0 33bc 672d ea3b ec8d 8e3c 5889 1eba
000001f0: b06e 81bc 2624 94bb 7947 bf3b 2627 b13b
0.002211598 0.000386801 -0.00046712672 -0.0067376285 0.009301575 0.0048540225 0.00081820786 0.009234806
0.015778642 -0.012928749 0.00053742924 0.01190916 0.0010117707 0.008937792 0.015645832 0.009987232
-0.00727166 -0.0015780259 0.014380655 0.014682238 -0.009996084 0.014191675 0.0025454937 0.007022209
0.008749742 0.012064137 0.014279823 -0.013839543 0.012751947 0.019324781 0.006014317 0.004278304
0.01291777 -0.0073975567 0.012671494 -0.009430743 0.008671823 -0.00021946071 0.0177614 -0.0062279906
-0.0067655845 0.009914237 -0.0018585232 0.017127406 0.008012199 0.01402085 0.007718775 -0.014167969
-0.0006203454 -0.01502268 0.0052517955 0.0070412126 -0.0008838063 -0.003176009 0.014074171 0.0086945575
0.020804737 0.012917614 0.009628001 0.0053684027 0.011781397 -0.01509282 0.008884274 -0.020766428
0.014858515 0.014740915 0.008610454 0.007545049 -0.0025951953 0.006553496 0.0060482337 -0.01409335
0.0118262 0.004223624 -0.012221517 0.0067024943 0.015215557 0.005303022 0.010021898 0.010784149
0.0052771624 -0.007764184 -0.0008239655 -0.013206797 0.0038572743 0.012724458 0.008190027 -0.0063796453
0.012920694 0.014732582 0.0162892 -0.004271691 0.011572641 -0.005767365 0.012243833 0.009916794
-0.02301852 -0.021259068 -0.0034571777 0.009486454 -0.018021775 0.012436321 0.013736516 0.011519354
0.0126290275 0.008161705 0.008722062 0.02668491 0.010186669 0.014471483 0.012686572 0.007908951
-0.0149643505 -0.015569194 0.00670038 0.0146532 0.006504404 0.015284137 -0.0023257218 -0.015606794
-0.010975093 0.0071465257 0.017401658 -0.00060476875 -0.01579985 -0.004520911 0.0058373776 0.005406278

weight f4 [24, 128]
00000000: 14d9 213e cc21 3b3c 9d1b 50be 2990 3b3d
00000010: 128a 283e 75cd 05be d2ed ca3d 356a 103e
00000020: fc2a d2bc b1a3 edbc 6587 d8bc dca2 6abc
00000030: a60c efbd b15d 0bbd a0e0 38be bc5e 833e
00000040: a4cc 1a3d 1322 7a3d 5a0a 803c bf62 fabc
00000050: eb2a dc3d 4214 c8bd c3e4 e5bd d7b0 473e
00000060: c7de ebbd 672c 123d 359d 5ebd f223 713a
00000070: 086f 073d 4a52 fcbd 4cde 1a3e a6b6 d03d
00000080: 35be 9f3c 6674 56ba 6c2f 0d3d c796 59be
00000090: fe50 cc3c 2577 223e 361e 7fbc d4f2 0abe
000000a0: ca40 6cbd 768c a13d 8d17 313e aee3 bfbc
000000b0: e195 a9bc ca76 65bd 39db 5c3d b79d 8cbd
000000c0: 2db6 633d 8689 d9bd c65b 0dbd 99cf 043e
000000d0: e608 0dbe f369 9cbd 3db4 d5bd 3fc5 b03d
000000e0: 8362 8f3d 31fc d4bc baf5 febd 9359 f7bd
000000f0: 32bd ec3c 0519 3dbd 0069 74be 9119 84bc
00000100: 2c25 58be f1ae 8fbc 8af8 b73d 63dc 9cbd
00000110: dd75 643d d9c6 85bd a005 c03b 5826 433e
00000120: d789 21be 697b 0a3e 85c8 883c 750e af3c
00000130: bf3a 9bbd 33c3 493d b2be 0bbe 08c7 343d
00000140: 363f 0a3c a2c6 b33c d425 bd3c 0f78 0d3e
00000150: 8aa4 2bbe 6938 43be bd72 09be a3e0 c73d
00000160: a4e1 933d 6f74 ea3d 04a4 393d d3d3 503e
00000170: 1b1a 16bd 8584 edbd 2bf7 323e a3bd f5bd
00000180: 233b 30bd 9839 83bc 9704 313e ad1d a0bc
00000190: 72a2 693d 6e3a dbbd dda2 2e3d 10c6 cc3d
000001a0: c586 623e 839e afbb 6653 da3b b28b 1bbd
000001b0: 66b0 863d d7d8 073c 0598 403e 823b 9abe
000001c0: cbb0 59bd e5da 1abd 2083 bc3d 9cff f43d
000001d0: 86de fa3c 5e0e 7f3b 5e31 863d 04da 95bd
000001e0: 1d34 923d bd88 893d a4a4 e8bd 4126 813e
000001f0: 678a e03c dac6 3bbe 0fb6 c63d c644 07be
00000200: db4b 8d3d f91a bf3d f0e5 003e 9af5 973d
00000210: 31aa 403c c2f5 9f3d 4a48 dfbd 6f7c 1c3e
00000220: 3add e43d dad4 eebd c27f 2bbb 3327 5d3d
00000230: 42e7 983d b00e 1dbd 40fc 8bbc 439e f7bc
00000240: 155a 3abd c840 763c b5b2 ffbd 6dab 8c3d
00000250: d147 e23c 09e4 66bd e6e3 37bd a738 983e
00000260: a80b 8dbd 0625 acbd c069 10bd 5ee1 bebd
00000270: 3c23 dc3c 3129 4f3d 57b9 75bc 3be3 26be
00000280: c623 fabc 4ccf 00be 0d6d d23d 7508 06bd
00000290: cbfa abbd e406 c63d 63dc 37be 678f cc3d
000002a0: ba46 063e 0481 143b c3fd 593d d990 b1bd
000002b0: c3fd 00be fa7c df3d fa08 7ebd f8f4 3dbd
000002c0: 932b 3a3e 3cd2 eb3d 3915 10bc 87e5 923d
000002d0: 18a6 2bbe 6c6e eb3c 33c3 e0bd d918 0d3e
000002e0: 3da0 85bd 7a4d c9bd 1c6b ebbd 598e 633d
000002f0: b799 9c3d 6e02 9dbc ae8a 18bd 762f 0e3e
00000300: d7ba 933c 727d 75bb 2cff fc3b bb1b 4ebb
00000310: c19e 753d 1500 c03d 8d7a c13d f3ba 9d3d
00000320: 15ea 26be 30a2 003e 7cf6 fb3d 4d1b 27be
00000330: 5816 143e bd38 e2bc 3cf7 f93c 2492 63bc
00000340: ffb6 deba 3bd6 6bbe ac9a fdbc 8a69 05bb
00000350: 390c 0abe 40bc 60be cef7 afbd 5fd2 ce3d
00000360: d28e 0bbe c014 e6bc 1156 c03d f5e5 843d
00000370: 37cc bf3d 067a a9bd bb38 c23d edd8 c8bd
00000380: 3022 dd3c 316f 6b3d 226f 323e fd30 17bc
00000390: d50e 063c 2bbd 04be e706 4f3d a7d0 a1bb
000003a0: c0d0 223e 7b55 df3d 7d0f f13b a010 bbba
000003b0: 4d6f 363b 9534 803e fa7d 073e 311b ab3d
000003c0: 6991 ad3c 8328 0cbd b6ae 36bd 5818 40be
000003d0: 195e 11bd 7ba0 0ebe 0d7a 94bc 18c6 23bd
000003e0: e485 283d 719e c83c b0e4 5abe 0341 e7bd
000003f0: 1fe8 d73d b50f 6bbb ee9f 6abc 4ccd 1f3e
0.15805465 0.011421632 -0.20323034 0.04579178 0.1645892 -0.13066657 0.09908642 0.14103015
-0.025655262 -0.029008718 -0.026431749 -0.014321055 -0.116723344 -0.034024898 -0.18054438 0.25658214
0.037792817 0.061067652 0.015629936 -0.030564664 0.107503735 -0.09769489 -0.112252735 0.19501053
-0.11517101 0.035686877 -0.054349143 0.00091987767 0.033064872 -0.12320383 0.15123862 0.101910874
0.019499877 -0.0008180797 0.034469053 -0.21248923 0.024940964 0.15865763 -0.015571168 -0.13569194
-0.057678975 0.07888119 0.1729414 -0.023423996 -0.02070135 -0.05602149 0.053920005 -0.06866019
0.05559366 -0.10621934 -0.03451135 0.12969817 -0.13772926 -0.07637396 -0.10434768 0.08631372
0.070012115 -0.02599916 -0.12449212 -0.12077632 0.02889881 -0.04616644 -0.2386818 -0.016125472
-0.2110793 -0.017539473 0.08982952 -0.07659223 0.055776466 -0.06532068 0.0058600456 0.19057596
-0.15775238 0.1352364 0.016697178 0.021369198 -0.07579564 0.049258422 -0.13646963 0.044135123
0.008437922 0.021945301 0.023089327 0.1381533 -0.16761985 -0.19064488 -0.13422675 0.09759643
0.07220772 0.11447989 0.045322433 0.20393305 -0.03664599 -0.11597542 0.174771 -0.11999061
-0.043025147 -0.016018674 0.17286907 -0.0195454 0.057039686 -0.10704504 0.042635787 0.09998715
0.22121723 -0.0053594722 0.006662774 -0.03797502 0.06576614 0.008291445 0.18807991 -0.30123526
-0.05314712 -0.03780641 0.092046976 0.11962816 0.030623686 0.0038918476 0.06552385 -0.07316974
0.07138846 0.06715534 -0.11359528 0.25224498 0.027409745 -0.18337575 0.09702694 -0.13209829
0.06899234 0.093313165 0.12587714 0.07419892 0.011759327 0.078105465 -0.1090246 0.15281843
0.11175008 -0.11661692 -0.002616868 0.05399246 0.07465984 -0.038344085 -0.017088056 -0.030226832
-0.045496065 0.0150300935 -0.124852575 0.068686344 0.027622135 -0.056369815 -0.044895075 0.29730722
-0.06886989 -0.08405499 -0.0352571 -0.09320329 0.02687227 0.050576393 -0.014997802 -0.16297619
-0.030534636 -0.12579077 0.10274706 -0.03272291 -0.08397444 0.09669283 -0.17955165 0.09988289
0.13112918 0.0022659907 0.05322052 -0.086702056 -0.12596802 0.10912509 -0.06202028 -0.0463762
0.18180685 0.115147084 -0.008794122 0.07172685 -0.16762578 0.028739177 -0.10974731 0.1377901
-0.06524704 -0.098292306 -0.11495039 0.055555675 0.07646506 -0.019166198 -0.03724163 0.13885292
0.018033428 -0.0037458804 0.0077208485 -0.0031449634 0.059965853 0.09375016 0.09447203 0.07701673
-0.16300233 0.1256187 0.123028725 -0.16319008 0.14461648 -0.027614946 0.030513398 -0.013889823
-0.0016991793 -0.23030941 -0.030957542 -0.0020357096 -0.13481225 -0.21946812 -0.08592187 0.10098719
-0.136287 -0.028086066 0.09391416 0.06489173 0.09365123 -0.08275227 0.09483477 -0.09807
0.026993841 0.057479087 0.17425206 -0.009227988 0.008182247 -0.12962787 0.050543692 -0.0049382034
0.15899944 0.10904976 0.0073565827 -0.0014271922 0.0027837337 0.25040117 0.1323165 0.08354796
0.021187501 -0.034218322 -0.04460021 -0.18759286 -0.03549013 -0.13928406 -0.018124605 -0.03998384
0.041143313 0.024489613 -0.213763 -0.11291697 0.105423205 -0.0035867516 -0.014320357 0.15605658

bias f4 [24]
00000000: 372b 84bc 9c54 a7ba dd00 afbb 5157 17ba
00000010: 9c15 65bc 8894 e1bc 3767 a6ba 2ed4 0a3a
00000020: 8ec8 6d3b 5838 99bc 2a97 ea3b abf8 ec3b
00000030: 552f 593b ec1f 3b3c 95a6 4cbb a1d5 2a3c
00000040: 7c5d 403c ace9 5d3c 0dca a33b 0e86 d33b
00000050: 1b3a f7bb 456a a13b 694b af3c 4749 e9b9
-0.016133888 -0.0012766304 -0.005340679 -0.0005773204 -0.013982203 -0.027536646 -0.0012695555 0.00052958995
0.003628287 -0.018703625 0.0071591334 0.007231792 0.0033139784 0.011421185 -0.003122722 0.01042691
0.011741038 0.013544481 0.0049984516 0.0064551895 -0.0075447685 0.0049259984 0.021398263 -0.0004449582
