logs/test/exported/policies/policy_1.pt (torch, 817736 bytes, 8 tensors)

weight f4 [512, 66]
00000000: f363 8f3c c46b 133d 4438 c1bc b974 a63c
00000010: 4ffa 5739 30b0 b1bd 5dd0 92bd a2a8 a2bc
00000020: 4cb8 2ebc ee4d 183c 80c2 9abd 4b82 f3bd
00000030: 4f4d 883d dd54 48bd 6426 a6bc 8781 1f3d
00000040: 170c 4fbd d99d de3c 1b81 3b3d f1a2 cebd
00000050: a841 8dbd a830 97bb 71f7 adbb effc 0bbd
00000060: 1fae 27bc ed55 54bd bbeb 073d c360 4fbc
00000070: 7cc2 98bd ea39 3dbd a539 fd3c 9005 6e3d
00000080: 6373 57bd da58 ac3d b7b5 303c 86c5 eb3c
00000090: 3e2e 81bd 5100 94bd 2bab 37be 7ba5 aabc
000000a0: c5fa 693b 1c15 bc39 a134 8f3c 7488 38bc
000000b0: 2af1 a0bd 1ebe 6e3d a1f0 b4bc d80c e93c
000000c0: 25ac fcbb 20cf c6bd 8394 26bd c63a bb3b
000000d0: 3290 1e3c 44a7 3bbd a193 20bd 86ca 1fbd
000000e0: ed79 87bb 07ad f2bd a337 a13c 61c1 7dbd
000000f0: 9157 973d 0b1a 92bd b541 98ba b4d8 3f3d
00000100: e1c2 33bd c78f a8bd 14f6 673d fbe6 cf3c
00000110: a162 85be d826 ec3d aa8b a6be 1e72 12bd
00000120: 4e24 f3bc 2b16 03bd 2dd9 d93a 940b a4bd
00000130: 4f51 d5bd 196f c13e 8b56 893c c5bf 82bd
00000140: b8ee a9bb 5348 fd3c 8e12 3bbc 9384 9c3d
00000150: 99db e53d 4add 00bd 4f4a 03bd 9cc7 d73d
00000160: e1da 90bb 49d8 8c3c f536 f03c 18b1 273d
00000170: 0188 3dbd 20a2 37be 1792 0e3d ad36 00be
00000180: abe4 023d dfe7 92bd 321c 5d3d a091 9ebd
00000190: 0f91 bb3d 7d7d 233d 7352 77bc 4b9e b13d
000001a0: ab7f be3c 4055 aa3d 25ae 953c 6ac6 f43d
000001b0: f175 eebd 6811 eb3d 7c58 553d 6344 df3b
000001c0: 4ec5 9aba 3018 fc3c 401a 2bbd 0e44 3c3d
000001d0: 00e7 4dbc 5a81 f9bd 060a f23c 4da8 043d
000001e0: 45d5 d43d 4e13 edbc b782 3c3d 4c6d ee3c
000001f0: efae 9b3c 6023 04bd 7733 aa3d 414a d43d
00000200: 0d11 4dbd 2027 95bd 0997 443d 6e98 373c
00000210: c0d3 c63c dae2 dd3b 97bf a0bd d3ac 84be
00000220: 4d01 7ebe 8054 c6be 8179 7bbb 4d31 51be
00000230: 5a34 21bd 9e77 0dbd ee94 ad3d f59d 883e
00000240: 7e4a 973d b6e0 adbc a5e3 8ebc 3182 a43d
00000250: 8555 14be 5faa 1abd 4a78 443d 39a8 bf3d
00000260: 9244 17bd 90dc 473d bad2 febc c612 d63c
00000270: 2be7 d73c 6208 93bc b182 cabc 0f4e efbd
00000280: e304 75bd d8ab 873d 9190 523d 0454 5bbe
00000290: ec50 d4bd 376e a23c b008 32be 4e89 353c
000002a0: 9cb3 d03d c120 7a3d cd4d b03d ae6f 5abd
000002b0: ddfa f1bd 0d90 e13c cacd 1d3d b630 0c3d
000002c0: f918 873c 68d6 abbc 9e5d d6bc 5661 fcbd
000002d0: ec11 85bd d461 8ebc 8b15 43bd c07d 0fbe
000002e0: 2735 ca3d bcfb 9c3c d815 203d ac1b 9b3d
000002f0: c3b3 17bd 64a7 20bd 3517 00bd 0146 913d
00000300: 9248 59bb d7ea c03c 5436 b63c 6800 90bd
00000310: e77b 333d 7df0 f63c f973 c1bd e49f 363e
00000320: 2480 77be cf7b 1f3e 9d7c ab3d a267 293d
00000330: c96f 243e 4d93 39bd c3a3 153d 68bc a6bd
00000340: 4a95 803d b0c0 29be 1a79 33be c15b 4bbd
00000350: ec40 e43c a57a ba3c 912e 03be 7fd5 16bd
00000360: a704 eabd bedf 1e3d 1c6c 37bc 4378 3bbd
00000370: dea8 e33c 3c86 293c 17d8 79bd 85c6 8a3d
00000380: 69ec 7a3d 378b 32be bbb7 41be a7f3 ed3d
00000390: 25f7 a33d a756 8cbd 7c8b 71be 5a60 b03d
000003a0: aa64 993d 6ea1 613e 76fe 913d 64c5 5fbd
000003b0: b81f 23be 6deb d33d 4437 2bbe 82dd f7bc
000003c0: 1b30 793d 622f b1bc 5ef2 aabd b080 d23d
000003d0: 12b7 a33d f134 283e d858 56bd f41e d7bd
000003e0: 08c8 d43c e3aa 7b3d 8a2e 99bd c55d dc3b
000003f0: 22d9 a23c 8aa5 953d 27fb 1dbb 073c a03d
0.017503714 0.035991445 -0.0235864 0.02031933 0.00020597245 -0.08676183 -0.071686484 -0.019855801
-0.010664057 0.009295924 -0.07556629 -0.11890086 0.066553704 -0.048909057 -0.020281978 0.038941886
-0.05054864 0.027174877 0.04577742 -0.10089672 -0.068972886 -0.0046139546 -0.0053090383 -0.034176763
-0.010234385 -0.051839758 0.033183794 -0.012657347 -0.0745897 -0.04619781 0.030911276 0.058110774
-0.052600276 0.084153846 0.010785512 0.02878071 -0.06307648 -0.07226623 -0.17936389 -0.02083086
0.0035702449 0.00035873882 0.01748115 -0.011263002 -0.078584984 0.05828678 -0.022087397 0.028448507
-0.007710951 -0.09707475 -0.040668976 0.0057137934 0.0096779335 -0.045813814 -0.03920329 -0.0390115
-0.0041344077 -0.118494086 0.01967985 -0.061952 0.07389749 -0.071338736 -0.0011616262 0.046837524
-0.043887023 -0.08230548 0.056631163 0.025378695 -0.2605181 0.11530846 -0.3252843 -0.035753362
-0.029680397 -0.032003563 0.001662051 -0.08010021 -0.10415899 0.37780073 0.0167649 -0.063842334
-0.005185928 0.030918276 -0.011417998 0.07642474 0.112235256 -0.031461038 -0.032053288 0.10536119
-0.0044206236 0.017192977 0.02932308 0.040940374 -0.04627228 -0.1793294 0.03480729 -0.12520857
0.031956356 -0.07173132 0.053981967 -0.077426195 0.09158527 0.039914597 -0.015095341 0.0867277
0.023254236 0.083170414 0.018271515 0.11951907 -0.11643589 0.11477929 0.05208634 0.0068135723
-0.0011808069 0.030773252 -0.04177308 0.04596334 -0.012567282 -0.12182875 0.029545795 0.032387067
0.103922404 -0.02893987 0.046023097 0.029104851 0.019004313 -0.0322603 0.083105974 0.10365725
-0.05006509 -0.07282853 0.0479956 0.011205776 0.024270892 0.0067714276 -0.07849043 -0.25913104
-0.24805184 -0.38736343 -0.0038371983 -0.20428963 -0.039356567 -0.034537904 0.08475672 0.26683012
0.07387255 -0.021225315 -0.017442534 0.080326445 -0.14485748 -0.037760135 0.04796628 0.09358258
-0.036930628 0.04879433 -0.031106342 0.026131999 0.026355347 -0.017948333 -0.024720522 -0.1168481
-0.059819113 0.066245735 0.0514074 -0.21418768 -0.10366997 0.019827945 -0.17386127 0.011080099
0.10190508 0.061066393 0.08608589 -0.053329162 -0.118154265 0.02753451 0.038526334 0.034226142
0.0164914 -0.02097626 -0.026167687 -0.12323253 -0.06497559 -0.017380632 -0.047627967 -0.14012814
0.09873419 0.019163005 0.03908333 0.07573637 -0.03703667 -0.039222136 -0.031272132 0.0709343
-0.0033154828 0.02354948 0.022242703 -0.070313275 0.043819334 0.03014397 -0.09445948 0.17834431
-0.24169976 0.15574573 0.083733775 0.041358598 0.16058268 -0.045306493 0.03653313 -0.081414044
0.06278475 -0.1657741 -0.17526665 -0.04964805 0.027862988 0.02276356 -0.12810732 -0.0368247
-0.114266686 0.038787596 -0.011195209 -0.045768987 0.027790483 0.010346945 -0.060997095 0.06776146
0.061260615 -0.17435919 -0.18917744 0.116187386 0.080061235 -0.06852465 -0.23588365 0.086121276
0.07489903 0.22034237 0.07128613 -0.054631606 -0.15930068 0.10347638 -0.16720301 -0.03025699
0.060836893 -0.02162904 -0.08347009 0.102784514 0.07993902 0.16426446 -0.05233082 -0.10503951
0.025974289 0.061442267 -0.0747958 0.0067250454 0.019878928 0.07306965 -0.0024105997 0.07823949

bias f4 [512]
00000000: 595d edbc 3798 acbb 6b23 9f3c f16c c03c
00000010: f3ad b9ba 3665 67bc f6ec d2bc 5417 8b3b
00000020: d511 c9bb 7fa9 10bc ec5c 97bc ac2d ba3a
00000030: 7b15 7bbc 8fe0 38bb cbaf 15bb d90f 11bc
00000040: daa9 22bc 47a6 b0bb 2f77 58bb b17d 36bc
00000050: 3571 21bc 5ba5 82bb 1527 e2bc 8424 003b
00000060: d819 3ebd 4bb5 04bc c0a8 0dbd 6147 8e3c
00000070: d52d 133c fdeb 453b 58eb b4bc 2c1f 253b
00000080: 9073 caba b85b b6b9 cf65 5abc dfd9 c03a
00000090: bd1b 9dbc 3ff0 80bc 81e1 f1bc a073 1d3a
000000a0: 5e28 123c 3849 39bc d841 eb3b b202 dc3b
000000b0: 4ec8 e03b cf22 21bb 2f54 02bd 79ec 6b3b
000000c0: c607 3dbc 8b1c b1bc 4d63 593c d254 aebc
000000d0: 6068 2fbc e25c acbb 854a 92bb c439 b1ba
000000e0: 3b98 323a cae6 3c3c 7cbe 3dbc 6433 fa3b
000000f0: d86c 95bb 13e2 75ba b2d5 993a 4c49 f43b
00000100: e639 39bc ea53 8abc fe17 61bc 27d1 2cbc
00000110: 0cb1 05bc 12e2 803c 5d88 d5bc 45a5 82bc
00000120: 24de c9ba 4462 a13c ab27 623c 9ae4 fd3a
00000130: e0d6 37bc 9a3a 35bc 499f 16bc 4790 d6ba
00000140: 6598 56bc 197d a3bb 16a1 01bc b679 d9bb
00000150: 243d 9bbc 8f84 4cba a994 3abb 21ad ac3c
00000160: b56c d7bb 039f 64bc acf0 2abc 55aa f1ba
00000170: b976 aebc 102f 97bc 06fc 753c ba6a 23bb
00000180: 5094 9fbc 5549 eebb 228b c4bc 4ff8 113c
00000190: 9427 5cbb 921f b7ba 189b 2d3c b6ff 5d3a
000001a0: c512 13bb c04c da3b 8f64 5c3b 396c 7a3c
000001b0: 73db 7bbb ca22 823c 4c37 27bd 7a3c 89bc
000001c0: 472e 8dbc 0b86 b1bc e87a 18bc 4735 54bc
000001d0: 8938 423c 6456 ee3c 5b44 9cbb 69bf 9dbb
000001e0: d29d c7bc a0f2 6e3b 0fdc 41bc 4bbb d6bc
000001f0: 6e03 0b3b 9589 c3bb fed8 9dbc fb0c 1d3c
00000200: 2275 50bb 6e5d 5dbc 3212 9abc ef30 87bb
00000210: d80c bbbb 996a cd3a 2a9e d4ba 363f 90bb
00000220: b6e9 1e3c 7f93 7b3c 9d4c 86bb 2177 9bbc
00000230: d439 f13c 244d 3abc 7ae8 58bc ee0b 01bb
00000240: 9729 c23b 4e95 b5bc 81ce 72bc ae78 c9bc
00000250: e578 feba 81f1 be3b eb61 103c 79be 60bc
00000260: 8ba2 e5ba bf21 e33b a979 5abc 2793 723c
00000270: 90b6 dabb 5c36 98bc 35f9 bdbb 5314 ef3a
00000280: 3985 893c 427d cd3a f42e eabb c7f0 9fbc
00000290: 3331 0c3c 3ba7 a0bc 4c78 133b 2c2b b1bc
000002a0: 1f5a 2f3c 5b66 dbbb 1e01 cd3b dad2 bcbb
000002b0: d181 84bc 8c4a ce3c c1a4 163c dc17 923c
000002c0: 3e6c b53b b88f 99bb 5508 15bb 34ba 51bc
000002d0: 8e64 08bc 15f6 18bc 5aea ed3b 7777 2e3b
000002e0: 431a 6f39 8edd d03b f09a 653c 3852 43bc
000002f0: 563f e83b caac 00bd b572 2cbc 55d6 83bc
00000300: 46ee da3b b991 7e3b 9871 933c a7a9 80bc
00000310: 0d59 dbbb eb96 c23c 5ad1 693c daf3 13bb
00000320: ea21 9ebc 9942 4fbb 4f9d b1bb df46 f43a
00000330: 42d1 7d3c e337 4fbc e480 40bc f19c 793b
00000340: b5fd 9dbc edf5 f33b 0674 e63a c6e7 e4bb
00000350: 6fc8 1cbc 8eda 1abc d8f3 55ba b87c f03a
00000360: 0cf0 c839 62f9 afba e9bc 5fbc 6d45 cabb
00000370: 673d 20bd 659c fe3b a6aa 0fbc 7e79 9fbc
00000380: 63af e4bb 89af 1ebc 2af6 e6bb 3b9c 883c
00000390: 5f5b b73c 0294 84bb 6f8c 6ab9 2935 b9bb
000003a0: a2e8 b7bc 8c65 3bba 8438 bd3c 0da3 d8bb
000003b0: ebf0 853a a89f 12bc 8ddb f8bb 474e c3bc
000003c0: c5ad b8bb 0793 dbbb bced abbc e727 c4bb
000003d0: 9b78 e53b 51e7 5ebb ceb7 5bbc 357b 2cbc
000003e0: 836c 2dbc 66ad 8339 9845 cbbc bef8 0bbc
000003f0: abe9 633c 1ac1 85bc b686 acbc 6fcc 47bb
-0.028975176 -0.005267169 0.019426068 0.023489447 -0.0014166221 -0.014123252 -0.025747757 0.0042447243
-0.006136159 -0.0088294735 -0.018476926 0.0014204285 -0.015324946 -0.002821002 -0.0022840376 -0.008853876
-0.009928191 -0.0053909156 -0.0033030023 -0.011138366 -0.009853651 -0.003986997 -0.027606526 0.0019553015
-0.046411365 -0.008099864 -0.03458476 0.01736802 0.008983095 0.0030200474 -0.022084877 0.0025195582
-0.0015445817 -0.0003478208 -0.013329937 0.0014713368 -0.019178266 -0.015739558 -0.029526474 0.0006006304
0.008920757 -0.011308961 0.00717948 0.0067141885 0.0068598157 -0.0024587398 -0.031818565 0.0035999103
-0.011537498 -0.021620056 0.013268304 -0.02128068 -0.010706037 -0.005260096 -0.00446445 -0.0013521244
0.0006812845 0.011529634 -0.01158106 0.007635521 -0.0045600943 -0.0009379696 0.001173666 0.0074550267
-0.011305308 -0.016885716 -0.01373863 -0.010547913 -0.008159887 0.015732799 -0.026066 -0.015947947
-0.0015401286 0.019700177 0.013803403 0.0019370497 -0.011220664 -0.011061335 -0.00919325 -0.0016369902
-0.013097857 -0.004989278 -0.007911941 -0.0066368235 -0.018950053 -0.0007801735 -0.0028469956 0.021078648
-0.006574238 -0.013953927 -0.010433357 -0.0018437604 -0.021296846 -0.018455058 0.0150137 -0.002493544
-0.0194799 -0.0072719255 -0.023992125 0.008909299 -0.0033592926 -0.0013971201 0.010596059 0.0008468585
-0.0022441607 0.0066619813 0.0033629274 0.015284591 -0.0038430362 0.01588573 -0.04082422 -0.01675247
-0.01723398 -0.021670362 -0.009306647 -0.012952155 0.011854299 0.029093929 -0.004768891 -0.0048140776
-0.024367247 0.0036460534 -0.011832251 -0.026212355 0.002121176 -0.005967329 -0.019268509 0.009585614
-0.0031808098 -0.013511045 -0.018807504 -0.0041257064 -0.005708318 0.0015672027 -0.0016221453 -0.0044020666
0.009699276 0.01535499 -0.0040984885 -0.018977704 0.02944652 -0.011370931 -0.0132390205 -0.0019690949
0.005925368 -0.02216592 -0.014819742 -0.024593677 -0.0019414691 0.0058271294 0.008812408 -0.013717287
-0.0017519755 0.006931513 -0.01333467 0.014805592 -0.006674595 -0.018580608 -0.00579753 0.001824031
0.016787158 0.0015677589 -0.0071467105 -0.019523991 0.008556652 -0.019610992 0.0022502122 -0.021627031
0.010702639 -0.0066955513 0.0062562367 -0.00576244 -0.016175183 0.025182031 0.009194554 0.017833643
0.005536585 -0.004686322 -0.0022740562 -0.012800742 -0.008324755 -0.009336014 0.007260603 0.00266215
0.000228026 0.0063740676 0.014013991 -0.011921458 0.0070876284 -0.031414784 -0.010525395 -0.016093412
0.0066812364 0.0038844182 0.017998502 -0.015705897 -0.0066939653 0.023753604 0.014271105 -0.0022575767
-0.01930328 -0.0031625389 -0.005420364 0.0018636844 0.0154917855 -0.012647602 -0.01174948 0.003808793
-0.019286016 0.007445088 0.0017582185 -0.0069856374 -0.0095692715 -0.009451522 -0.0008161641 0.0018347716
0.00038325822 -0.0013425762 -0.01365588 -0.006172827 -0.039121058 0.0077701085 -0.008768713 -0.019467112
-0.0069789155 -0.0096854055 -0.007048388 0.016676059 0.022382436 -0.004045964 -0.00022368295 -0.005652089
-0.022449795 -0.00071486156 0.023098238 -0.006611234 0.0010218894 -0.008949198 -0.007594532 -0.023841036
-0.0056359493 -0.0067008766 -0.020987384 -0.005986202 0.0070029027 -0.0034012387 -0.013410522 -0.010527422
-0.010584953 0.0002511546 -0.024813458 -0.0085431915 0.013910691 -0.01632743 -0.021060329 -0.0030486842

weight f4 [256, 512]
00000000: 210e b5bc 69a8 113d 08ab 71bb 3032 7dbd
00000010: 172d 65bc 3df5 b8bc 9a92 95bc 6d79 84bd
00000020: cd16 3f3d 7313 c33c 2b88 08bd b67c 50bd
00000030: 522f 7bbd 947c 1a3d be52 6ebd c9a2 5cbc
00000040: 9961 68bd d2ce 8cbd f9a9 3abd 98fe 4dbc
00000050: e8da 533d 0391 8c3d 73f0 b33c 4eb6 95bb
00000060: 7f5b eebc 340a e23d 6d77 04bc 382e c53c
00000070: b3d0 febc 64f0 57bd b041 9bbd 622a 943d
00000080: 39e6 af3d beb1 41bd 2b6b a13d 888a 5abc
00000090: e379 d8bc e932 b73d fae7 28bc ce77 96bc
000000a0: 241c 663d 3a98 be3b 0839 5d3d 7e89 0cbe
000000b0: 50b1 4abc 9a79 2bbd 9c2d f73b dca4 07bd
000000c0: 2aac 553c 8700 aa3c 841d 72bd 5356 cebd
000000d0: 6b1f 183c b18f 583d a554 893d 40ad e7bc
000000e0: ece4 fd3d 0c2b d73d fe44 cd3b c88a 75bd
000000f0: c29d 25be f911 36bb 8afa 7e3d 92cb a63d
00000100: c809 513b c26c a4bc b35c 3b3d 658a f23c
00000110: 43c3 25bd 926d 9abd 770c 26bd beaa 5f3d
00000120: 5fa6 723d 31bf 4e3c b3dc 2fbd 8969 653d
00000130: 718b 98bd 173a 18bd 4708 c73c 63dd 4dbc
00000140: 13f4 6dbd 141e 8d3d 7b20 b63d 9d15 a93b
00000150: 0878 8fbd 7504 273c 5416 273d eb65 023e
00000160: c19b 843d 6d9a 70bc d980 ac3c 6891 e1bd
00000170: 44d8 553d ddd3 253d 3ca2 f03c 63e5 aabd
00000180: fb9f 6c3d a292 cd3d ff76 63bd d7bd b0ba
00000190: a55b 80bc ed23 81bc 0f61 803d 1406 413a
000001a0: 87b1 c53d 6439 1c3b 88b8 1b3d 571a 4e3d
000001b0: b4a7 ec3b 1031 c93d b9bb b73c caba 3d3d
000001c0: 3ca2 99bd 61ae 553c 4037 583d 2173 fa3c
000001d0: f487 92bc 4cac ae3d b9f4 aebc 7276 ddbd
000001e0: c138 c33b 4015 5b3d 2c06 27ba f9d7 d8bc
000001f0: 7aff b53d 0403 e3bd 4f6f c53d 7b16 1c3d
00000200: d185 543d 059b a4bd b6ad b23d 2301 193d
00000210: 466f 333d d4b8 c2bd 9f3f 2c3d 8b62 2b3d
00000220: da72 a9bc 67d8 d93d ea88 6c3d 4286 2d3d
00000230: 3092 e4bc cfc5 5e3c 3dac b23c 269c 42bc
00000240: f05d 65bd ea73 92bd 5f66 283b 352e 5a3d
00000250: ea5d a7bd f63e 81bc 7ed5 26bd 224d 303d
00000260: cbd2 88be e70b 443d a8e4 733d 59ea c4bc
00000270: 99b8 113d 67b6 a6bc 1e15 9fbd aea9 98bb
00000280: 1461 f53c f173 813d 3b60 84bd a7b0 863d
00000290: 2152 03bd b8ee 9d3d efb2 de3d 558b acbc
000002a0: fa36 dabc 8750 8e3c 49b8 e63c 46b2 4fbd
000002b0: cb55 893d 5f94 c83c fe39 d23c 6b99 cabc
000002c0: 9101 dc3d 97fd 89bd 284b 263d eacc 17bd
000002d0: 0552 863d ecad 223c 9e10 cbbc c417 7d3d
000002e0: 10b4 9ebd 37cc eb3d f95d 04bd d474 0bbd
000002f0: 2885 873b d3ac 00bd 559a a53d 4b6c ecbc
00000300: 0f1d f7bd 3748 013e 6da1 55bd ed54 bdbd
00000310: cf4a a73b ac3a bfbd 1829 163e df4d 83bd
00000320: a342 29bd 4962 b53d c3fe 7d3d 9db2 2fbd
00000330: 5089 d6bb 4afc d33d c62c 113d 9e9d ff3d
00000340: b71c 9cbd dd0d b3bb 8bf6 b4bd 4143 aebc
00000350: 4135 b03d 95f9 c9bc 4df2 a8bc 75ff 3a3d
00000360: a5fe 2f3d 4132 433d b9e0 d63c 84ac a6bd
00000370: 2d67 7ebd b586 e83c de45 4bbc 431b 6737
00000380: f7e8 043d a987 79bd 8197 29bc fdc5 28bb
00000390: 7f6b 113d 10b9 143c 719f 1c3d fee8 94bb
000003a0: 827c e0bd 039d f1bc 6eb3 05be 9aeb 573c
000003b0: ea3d 843d 6a70 2abd 11ec d63c 4ae1 b5bd
000003c0: 6fab 273d f7fe 24bd 2ad9 17bc 0284 943c
000003d0: db75 a33c 3efe 02be 1070 c5bc 3665 583b
000003e0: f02f 52bd 1698 a83d 90ad 653d 34a3 95bc
000003f0: 73c0 81bd b30e 313d 35bd dfbc 5ddc 50bc
-0.022101464 0.035561 -0.0036875624 -0.06181544 -0.013987801 -0.022577876 -0.018258382 -0.06468473
0.046652604 0.023812985 -0.033332985 -0.050900184 -0.061324425 0.037716463 -0.058184378 -0.013466545
-0.0567337 -0.06875385 -0.045572255 -0.012572907 0.051722437 0.06863596 0.021965241 -0.0045688516
-0.029096363 0.11037102 -0.008085114 0.02406989 -0.031105375 -0.05271949 -0.07580888 0.072346464
0.08588833 -0.04728865 0.07881769 -0.0133386925 -0.026425308 0.08945257 -0.010309214 -0.018367674
0.05617918 0.0058164867 0.054009467 -0.13724324 -0.012371376 -0.041864015 0.007543279 -0.033116207
0.013041535 0.020752205 -0.05911018 -0.10075059 0.009284834 0.05287141 0.06705598 -0.028280854
0.12397179 0.105062574 0.006264328 -0.059946805 -0.16173461 -0.0027781709 0.06225065 0.08144297
0.00318967 -0.020071391 0.0457427 0.029607007 -0.04046942 -0.0754043 -0.04053923 0.05460619
0.059240695 0.012618826 -0.042935085 0.05600885 -0.07448471 -0.037164774 0.02429594 -0.01256499
-0.058094095 0.068905026 0.08892914 0.005160047 -0.07005316 0.010193934 0.040792778 0.12734191
0.0647502 -0.0146852555 0.021057533 -0.11014062 0.0522082 0.04048525 0.029374234 -0.08344533
0.057769757 0.100377336 -0.055533405 -0.0013484311 -0.0156687 -0.015764201 0.062685125 0.00073632714
0.09653001 0.0023837918 0.03801778 0.05031809 0.00722214 0.09823811 0.02242838 0.046320714
-0.07501647 0.013042063 0.052787066 0.030572476 -0.017887093 0.08528957 -0.021356927 -0.10813607
0.0059576933 0.053487062 -0.0006371464 -0.026470171 0.08886619 -0.110845596 0.09640371 0.038107377
0.05188543 -0.0803738 0.08724539 0.0373546 0.04380729 -0.095079094 0.04205286 0.041842025
-0.020684648 0.106369786 0.05774776 0.042364366 -0.027901739 0.013596966 0.021810645 -0.011878049
-0.05599779 -0.07151015 0.0025695784 0.053266723 -0.081722096 -0.015777092 -0.040730946 0.04304231
-0.26723322 0.047862913 0.059544235 -0.024037527 0.035576437 -0.020350648 -0.077677 -0.0046588993
0.029953517 0.06320942 -0.06463667 0.065766625 -0.032060746 0.077115476 0.108739726 -0.021062532
-0.026637543 0.017372383 0.028164046 -0.050707124 0.06705817 0.024484811 0.025662418 -0.024731359
0.10742486 -0.067378215 0.04059902 -0.037060656 0.06558613 0.0099291615 -0.024788197 0.061790243
-0.07749188 0.1151356 -0.03231618 -0.034046963 0.0041357465 -0.031414818 0.08086077 -0.028860232
-0.12066089 0.12625204 -0.0521559 -0.09244714 0.0051053534 -0.09337363 0.14664114 -0.06411337
-0.041323315 0.08856637 0.062010538 -0.04289495 -0.0065471306 0.10350855 0.03544309 0.12481235
-0.076226644 -0.005464299 -0.08836087 -0.021272304 0.086039074 -0.024655143 -0.02062335 0.04565378
0.042967457 0.047655348 0.026230203 -0.081383735 -0.062110115 0.028384546 -0.012406794 1.377502e-05
0.032448735 -0.06092039 -0.010351063 -0.0025752776 0.035502907 0.009077325 0.038237993 -0.0045443764
-0.10961248 -0.029493814 -0.13056728 0.01317873 0.06457122 -0.041611113 0.026235612 -0.08880861
0.040934976 -0.040282216 -0.009268085 0.018129352 0.019953659 -0.12792298 -0.024101287 0.003301931
-0.051315248 0.08232133 0.056073725 -0.018266298 -0.06335535 0.04322691 -0.0273119 -0.012747851

bias f4 [256]
00000000: bb80 cd3c ec84 c83c 6aa3 31bd 67b1 813c
00000010: 6e74 103d 7c7b 943c 9e37 75bc e118 1039
00000020: e346 8abc ea60 803c 299d e23c 5793 de3c
00000030: b59a 0cbc 72ad 143b 2da6 33bc bcf1 493c
00000040: 927d ba3c 3df4 c2bc 12f6 dcbc d073 3bbc
00000050: b83f 17bb 4b06 533d f550 193d faa7 753c
00000060: 7bc9 eb3c 7907 af3c a064 cf3c d5b6 a9bc
00000070: 1a95 623a 02e0 bbb8 6f75 e13c ff40 2dbc
00000080: eb44 8dba 6d29 f43b 4e4e be3c 0eb0 e03c
00000090: 7406 173d 33b0 0dbd 7112 a23c 487e 90bc
000000a0: 4bb3 d93c 5293 803c 9f12 083c 6085 ce3c
000000b0: 70ad 06bc fec5 fabc b058 b33c e9bc 263c
000000c0: d275 f139 d26a 97bc 8a64 88bc afb0 01bb
000000d0: 0163 633c 2022 723c c7d2 903a 771c cfbc
000000e0: 2367 bfbc add6 a3bb ffad f2bc a5d8 fd3b
000000f0: 60fa f4bc 6050 0e3d eb6e 4b3d 7d9a 613b
00000100: 0b91 703c 32ff 413c b531 803c b3c2 193d
00000110: d658 9ebc 7d8e fb3b 3723 563c 4ef3 31bc
00000120: 4f9b b83c 1b36 123d 88d4 01bc 3bfc 0b3c
00000130: d29b b03b 2551 673c e2e3 d13c 7a29 ebbc
00000140: c0b9 a3ba 10da febb d387 a0bc e637 563c
00000150: a73a d13c bbb8 b1bc 2d44 c53c 631b f1bc
00000160: 89ae b7bc 8dff 313b 1e4f ae3b c0c3 af3c
00000170: 6221 153c d1e8 b83b 5f61 8ebc f8a6 0a3d
00000180: 3f74 243d 2d9f e53c 3b21 8bbc 0246 14bc
00000190: 6def 9cbc bb96 adbc e537 b0bc 96ca af3c
000001a0: 2b79 53ba 3f57 5cbc 3e52 753c 8d7f 80bc
000001b0: a2dc 0e3c 2bbe bc3c 6a33 443c c882 043d
000001c0: 8325 ce38 dc6a 6bbc fce8 4a3c c9a5 eabc
000001d0: 3621 91bb c9ea 87bc e719 85bc faf6 2fbd
000001e0: e65e 8c3c bcc5 0ebd 33c8 8cba 8f45 b63c
000001f0: 29d8 30bd d62b 28bc 7db4 533c f9df aa3c
00000200: bbf6 edba a450 043d 588e 3f3b 86a9 923c
00000210: a321 683c d161 eb3a 575b 37bd 8f94 723c
00000220: fd6e 523c 4420 c3bc 27e4 ffb9 498b aabc
00000230: e734 9d3c ebaa 083d 02d8 86bc 9495 1abc
00000240: 9e78 aabc 34d6 0fbd 55c9 bf3b c168 d33b
00000250: d02e fcbc d055 6d3c 2a22 ca3c 0709 83bb
00000260: 4b9f 47bb 1578 b43c 6eaa 893c eb29 193d
00000270: 1c98 c0bc 18d8 d9bb 1694 8c3a 361f 3e3c
00000280: d6b4 593c 1bea 7cbc 7357 053d 6423 adba
00000290: 54ce 6abb 3c0f bfbc 4543 c9bc 12fe c9bc
000002a0: 6380 413b bd7f 513c e844 b63b c6fe 4dbc
000002b0: 3804 ad3c fceb 093b 6a70 20bc 72e3 503b
000002c0: b3c4 c13c 716d aabc 6089 973c 07dc 1ebc
000002d0: 618f 143c 775c 59bb 31ed 393d 1fca 613c
000002e0: 7594 8ebc f2b2 84bc e814 f8bb ab69 a0bb
000002f0: 8b0d 15bc 699a 63bc 5bc9 433d 0d4e 1bbd
00000300: c1d8 923c 0978 9d3b d96b a3bc 5553 cbbc
00000310: 2635 ce3c 5dcc e63c bb86 6bbc ce7f 853c
00000320: 1728 4d3b b56c 903c cf26 ab3c dd1f 8f3b
00000330: 1350 9f3c a1f1 02bc 1e69 7ebb 1bae 1b3b
00000340: 0bbe b1bb 3570 b13c 3b06 1dbc 55f2 fe3b
00000350: 4672 e4bc 25c8 8b3c b721 b03c 4c33 2fbd
00000360: 23c5 ab3c 30bc 2cbd aabe b03c e0e7 bd3c
00000370: 6d30 d23c 7c15 d6bc 37c2 b7bb 2791 8d3c
00000380: e32c 403c 8684 213c a6b2 94bc 232c 1b3c
00000390: 49ed 33bc edb2 84bc 0585 1b3c ac65 82bc
000003a0: cf56 b9bc d35c c33c e7ed f63b 8e38 0fbd
000003b0: 0dd4 f1bc 27ac 1d3c 599d c33c a9d2 c93c
000003c0: 1a2e f4bb b5a2 ec3c bc2b c8bc f12b 823c
000003d0: 0999 b93c da00 abbb ea92 093d 28d0 6abc
000003e0: c053 d83c 025e 053c 6025 f63c 175a f8ba
000003f0: c7b4 9abb 645c 82bc d7f1 123d fb8c cc3b
0.025085798 0.024477445 -0.043368734 0.015831662 0.035267286 0.018125288 -0.014966873 0.00013742178
-0.016879505 0.015671212 0.02766283 0.027169866 -0.008581807 0.002268639 -0.010964912 0.0123257
0.022764955 -0.023798103 -0.026972804 -0.011441186 -0.002307875 0.051519673 0.037430722 0.014993662
0.028782597 0.021365868 0.025316536 -0.020717064 0.00086434337 -8.9585796e-05 0.027521817 -0.010574578
-0.0010777985 0.0074512274 0.023230698 0.0274277 0.03687139 -0.034591865 0.019784184 -0.01763834
0.026574751 0.015695248 0.008305221 0.025210083 -0.008220062 -0.030611988 0.021892875 0.010176876
0.00046054885 -0.018483553 -0.016649503 -0.001978915 0.013878585 0.014778644 0.0011049145 -0.025282128
-0.02336461 -0.0049999566 -0.029623983 0.0077467733 -0.029904544 0.03474462 0.049666326 0.0034424358
0.014683018 0.011840628 0.015648702 0.037539195 -0.01932947 0.007676898 0.013069919 -0.010861231
0.022534994 0.03569613 -0.007924207 0.008544023 0.005389669 0.014118467 0.025621358 -0.028706301
-0.0012491271 -0.00777746 -0.019596016 0.013074851 0.025540663 -0.021694532 0.02408036 -0.029432004
-0.022422092 0.0027160377 0.00531949 0.021455646 0.009102197 0.0056429883 -0.017380415 0.03385064
0.040149923 0.028030002 -0.016983619 -0.009049894 -0.019157136 -0.021190038 -0.021511028 0.021458905
-0.00080670667 -0.013448535 0.014973221 -0.015685821 0.008719595 0.023039898 0.011975149 0.032351285
9.8298326e-05 -0.014368739 0.012384649 -0.028643506 -0.004429008 -0.016591446 -0.016247703 -0.042960145
0.017135095 -0.034856543 -0.0010740816 0.022249965 -0.043174896 -0.010264358 0.01292145 0.020858752
-0.0018155196 0.032303467 0.002922913 0.0179031 0.014168176 0.0017958229 -0.044764843 0.014805927
0.0128438445 -0.023819096 -0.00048807377 -0.02081837 0.019190265 0.033366125 -0.016460422 -0.009435076
-0.020809468 -0.03511639 0.005852858 0.0064516966 -0.03078404 0.014485791 0.024674494 -0.003998879
-0.0030459936 0.022029916 0.0168049 0.03739349 -0.023510031 -0.006648075 0.0010725285 0.011604121
0.013287744 -0.0154366745 0.0325541 -0.00132094 -0.0035828548 -0.023322694 -0.02456821 -0.024657283
0.0029525987 0.012786803 0.0055624135 -0.01257295 0.021120176 0.0021045199 -0.009792427 0.003187385
0.023653364 -0.020804139 0.018498123 -0.009696013 0.009067387 -0.0033166686 0.04539222 0.0137811
-0.017404774 -0.016198609 -0.0075708516 -0.004895409 -0.009097467 -0.013891795 0.04779945 -0.037916232
0.017925622 0.004805569 -0.019948887 -0.02482001 0.025171828 0.02817362 -0.014375384 0.016296294
0.0031304413 0.01762996 0.020892529 0.004367812 0.019447362 -0.007992179 -0.003881998 0.0023754898
-0.005424266 0.02165995 -0.009584005 0.007780353 -0.027886521 0.01706321 0.021500451 -0.04277353
0.020968026 -0.042171657 0.02157529 0.023181856 0.025657857 -0.026133291 -0.005607869 0.017281128
0.011729452 0.009858256 -0.018151592 0.009470972 -0.010981866 -0.0161986 0.009492164 -0.015917622
-0.022624401 0.023847973 0.0075356844 -0.034966044 -0.029520059 0.009623564 0.02387874 0.024636583
-0.007451785 0.028886179 -0.024434917 0.015890094 0.02265598 -0.0052186074 0.033587374 -0.014331855
0.026407123 0.008140089 0.030047119 -0.0018947747 -0.0047212574 -0.015913196 0.035875168 0.006242392

weight f4 [128, 256]
00000000: d212 a1bc ce0f 83bd 6f11 fe3c 4d77 0cbd
00000010: a90f abbc 6150 dabd 0bfd 51bd e9e6 a53d
00000020: 6c58 863c d9da 84bd 89e9 74bc 3a37 1dbd
00000030: c4e9 5fbd 1e0d f0bc 51c3 153d ed36 65be
00000040: cc94 4abc 8eb2 4fbd 9f50 f8bd 72ab aa3d
00000050: f6c9 ecbb 8d48 aebc 8e79 08be 7cea 633d
00000060: 30a8 eebd 6852 9abd f1ae 833a 711a 58be
00000070: 07eb 683d 7d09 06bc 81e9 c63d bcf7 c43c
00000080: 4d44 b63c 22ba 5cbd d2cf 6a3d c6a0 573d
00000090: 25de 6e3d a9d7 62ba 2201 a9bd 72ef 083e
000000a0: a4c1 a1bd 6221 523d a023 9bbc 5d3b 0a3d
000000b0: 3f1a a1bc 540c a83c ce34 0fbe c9a2 4cbd
000000c0: 48a5 2cbd 2b0d 06bd 2012 1abc cfff da3d
000000d0: afa7 2f3d 4ba2 a9bc 1b64 0fbe 69a2 d9bc
000000e0: 701a 97bd ff2e b8bc b238 663c 06f1 28bd
000000f0: fd78 a4bd 370c 4ebd a445 db3c d874 4abd
00000100: e6c8 6abd 65c9 a43c 2d59 13bd a1a2 473b
00000110: b1d3 42bc 1a4a 933c fac2 8abc 3e6c 50bd
00000120: 88d5 afbd ce12 c0bc cecb 16be 6ccd 7d3d
00000130: eaa8 90bd 2570 d63d 27e2 60bd 649c 5f3d
00000140: 3127 fa3b bb87 673d 64f6 443d b74d 1cbe
00000150: d5ee 713b 63af 9fbd 75d5 82bd 5ecc d73d
00000160: 19dc 59bd f447 43bc 5df8 82bd fdb7 52bd
00000170: a00e 7dba 9480 e8bc bd81 f6bc 96ab 45bc
00000180: 14bd 953b 1536 873d 1ea2 2c3d 2409 bdbd
00000190: f4c8 0fbd e034 423c 500d e83c b672 b1bb
000001a0: 7142 d73d afa2 f9bc f4f4 3f3d 9fd7 a2bd
000001b0: ed8f cebd fefe 10bd eeb6 e5bc 57b8 023d
000001c0: eb2c 05be 9edc 90bc 6eee d93d 65ba d8bc
000001d0: 383c 4bbd 09dd f6bc c7d0 023c b164 34bd
000001e0: a2ad 35bd d251 bfbd 6095 ffbc 6f40 693c
000001f0: 3490 dc3b 8695 bebc 357a 3b3c d6f9 283d
00000200: 8b69 8ebd 3b54 10be 4f45 43bd 78ae dbbd
00000210: 0c0d 9c3c eb7b 4d3d c5a8 04bd bd0f 783d
00000220: 7cad 88bd 5938 913c 3efc b7bc 5690 1ebd
00000230: e87b 1f3c 095c abbc ee05 97bd 7315 9e3d
00000240: ab92 42bd 7f99 793d c5e5 1d3d 6b23 1fbe
00000250: 2b2c b1bd e73e 43be 0b58 0b3d e354 28be
00000260: c38b 8e3c 9b06 08bd c72d a53d 2a75 163d
00000270: c6e8 d73c f090 303c cf4b 90bd 2c3f 243c
00000280: ad70 82bd 9047 69bc 2794 78bd dc9f 483d
00000290: 0a59 f4bc 30d7 843c f736 39bd 9778 aebc
000002a0: 0a0d e63c 6b3b 3abd e963 ba3d 54a5 f6bd
000002b0: e379 84bd 839c 15bd b10a b2bd 0965 f7bd
000002c0: f8bd c13c 4e9f 97bb 4238 183d d7cd 46bb
000002d0: 1200 cebc c1a8 2f3d 83c4 01be b29f 823d
000002e0: 3138 2f3b e179 bfbd 593e 43be 9ca4 45bd
000002f0: 6d7c b0bd 3f1e e8bc 5878 20bd 6cbc dc3c
00000300: e719 8abd 570f ee3d 0eda 32bb d527 943d
00000310: e75c b4bd 788f cabc cd27 3f3c f40f a83b
00000320: 8895 d63c 01d5 bfbd 4b2e 11be c744 eebc
00000330: 661b 843d 2db2 0cbe 2a51 a2bc acc5 15be
00000340: eca7 a93d d03d 93bd 8f89 9b3d 94da 7bbd
00000350: b819 80bd 17f4 c4bb 7018 38bd 476a b6bd
00000360: e1b8 303c 0e98 043b f414 96bd cb22 e6bc
00000370: d78a 72bd 2638 a8bd a1a7 07bd cff6 793d
00000380: ab23 c5bd c1b0 0b3e 5d15 a73d 4f10 d9bc
00000390: 196a fabd 953d 353d 7151 ef3b f13e e83c
000003a0: e792 933d 970d 473d 8192 08be 9a7d 3f3c
000003b0: cef9 5cbd e5e2 c03c 565f debc b56c c5bc
000003c0: 552c ed3d 87f3 87b9 959d bbbc f721 16be
000003d0: 0718 8bbd 9db5 ae3d e206 46bd 7f6f 223c
000003e0: 4769 09be c770 1cbd 466f 17be dd80 903d
000003f0: 249d 9a3b fc6d 863d 62d6 fabc a277 1dbd
-0.019662295 -0.06399499 0.031014172 -0.03429346 -0.02088149 -0.10659862 -0.05126671 0.08100683
0.016399585 -0.064870544 -0.014948257 -0.038382746 -0.054666296 -0.02930313 0.03656322 -0.22384234
-0.0123645775 -0.050707392 -0.12124752 0.08333482 -0.007226224 -0.02127483 -0.1332762 0.055643544
-0.11653173 -0.07535249 0.0010046643 -0.21103837 0.056864765 -0.008180973 0.09712506 0.02404391
0.022249365 -0.053888448 0.0573271 0.05264356 0.058317322 -0.00086533517 -0.08252169 0.13372591
-0.07898262 0.051301368 -0.018937886 0.03374802 -0.019665835 0.020513691 -0.13984987 -0.04995993
-0.042149812 -0.0327274 -0.009403735 0.10693323 0.042884525 -0.02070727 -0.14003031 -0.026566701
-0.073780894 -0.022483347 0.014051603 -0.041245483 -0.08030889 -0.050304618 0.026766606 -0.049427837
-0.057320498 0.020115564 -0.035973717 0.0030461925 -0.0118912915 0.01797967 -0.016938675 -0.050884478
-0.0858565 -0.023446467 -0.14726183 0.061963484 -0.07063468 0.104706086 -0.054903176 0.054592505
0.0076340665 0.056525927 0.04808654 -0.15264021 0.0036916037 -0.07797124 -0.0638837 0.10537027
-0.053188417 -0.01191901 -0.06395028 -0.051444996 -0.00096533634 -0.028381623 -0.03009116 -0.012064835
0.004569659 0.06602112 0.042146794 -0.09230259 -0.035103753 0.011853427 0.02832666 -0.005415286
0.105107196 -0.030473081 0.046864465 -0.07951283 -0.100860454 -0.03539943 -0.02804133 0.03191408
-0.13005416 -0.017683323 0.1064118 -0.026456067 -0.049617976 -0.030134695 0.007984347 -0.04404134
-0.044355042 -0.09341778 -0.031199157 0.014236554 0.0067310575 -0.023264658 0.011442711 0.041253887
-0.069537245 -0.14094631 -0.04767352 -0.10726637 0.01904919 0.050167006 -0.032387514 0.060561884
-0.066737145 0.017727064 -0.022459146 -0.03871187 0.009734131 -0.02091791 -0.07374178 0.07718935
-0.047503155 0.0609374 0.038549203 -0.15540855 -0.086510025 -0.19066964 0.03401951 -0.16438632
0.017400628 -0.033209424 0.08065372 0.03673283 0.026356112 0.010776743 -0.07045709 0.010024827
-0.063691474 -0.014238253 -0.060688164 0.04898058 -0.029827613 0.01621589 -0.045218434 -0.021297736
0.02808239 -0.04546682 0.091010876 -0.120432526 -0.064685605 -0.036526214 -0.086934455 -0.12079818
0.023650154 -0.004627145 0.037163027 -0.0030335092 -0.025146518 0.042885546 -0.1267262 0.06378116
0.0026736374 -0.093494184 -0.19066752 -0.048252687 -0.08617482 -0.028334735 -0.03917727 0.026945315
-0.06743222 0.116240196 -0.0027290615 0.0723416 -0.08806782 -0.024726614 0.011667204 0.005128855
0.026194349 -0.09366799 -0.14177816 -0.02908553 0.06450538 -0.13739844 -0.019814093 -0.14626187
0.08283982 -0.07189524 0.075945966 -0.06148775 -0.062549055 -0.006010543 -0.04494518 -0.089069895
0.010786266 0.0020232233 -0.07328215 -0.028092762 -0.05921444 -0.082138345 -0.033118848 0.06102639
-0.09625944 0.13641645 0.081583716 -0.026497034 -0.12227268 0.044248182 0.0073034097 0.028350325
0.07205754 0.048596945 -0.13337137 0.011687661 -0.05394917 0.023545692 -0.02714507 -0.024099687
0.11580721 -0.0002593065 -0.02290229 -0.14661394 -0.06791692 0.08530734 -0.048346408 0.009914278
-0.13419066 -0.03819349 -0.14788541 0.07055829 0.0047184397 0.065639466 -0.030619804 -0.03844417

bias f4 [128]
00000000: 08a6 09bd a76a 9e3c 0bb1 3bbd 3729 883b
00000010: 123e 63bd 72f8 e93b efae 733c 6efa 483c
00000020: 637a 09bc cc73 e33c 43f5 c33c f5c3 823c
00000030: d427 54bd 7751 ae3b 97a4 bcbc e73a 823c
00000040: a684 7e3b 225e 463c 6519 e23c 3831 abbc
00000050: bf0b 9f3c e456 3f3a f8da 463c 7603 ff3c
00000060: 5304 30bd 6f8e e1bc fc7e 09bc 2e59 f73c
00000070: eeaf d1bc 868a b9bc ab51 933c 614f a53c
00000080: 60e8 783c f6f7 2f3d 1ffd 94bd a1b1 c5bc
00000090: 4cbc 6a3b d349 0e3d 25bf 153c 9d73 4fbd
000000a0: 5a80 013d 1057 88b9 712a ddbc 806a 62bd
000000b0: 6af5 13bd e353 63bb 4807 4a3a 21b2 733c
000000c0: e32d 05bd e480 4a3b effb 503b 534c 57bb
000000d0: ce0f 0f3d 3f9b c03c 2f6f ccbc 9ce4 dfbc
000000e0: 7c88 433d b899 403d fd8b 78bc 09d2 893c
000000f0: 3035 963c 603c cfbc 346a 26bd a070 b83c
00000100: 2ae6 a33c 0a42 e63a dab7 c5bc fc67 d43c
00000110: 14d7 9b3c ea29 f83c 763d ba3c 9349 0f3c
00000120: f1bf 973c 7ac8 a23b 4f02 6dbc 07d7 b3bc
00000130: d3b4 903c 3556 3db9 824c 373d 7172 2f3d
00000140: a39b 203d 07e5 263d 93ff 8d3c 32c3 6cbc
00000150: ab7b 0b3d 26f4 ff3c b2ce 1ebc 9252 b7bc
00000160: 7d1d ea3c 71a4 313d a044 0dbd aaba d63c
00000170: 2929 ab3c 3fce d73c 3e17 453d 0093 3f3d
00000180: 9792 1fbc 270a ae3c bb88 023d 7668 ab3c
00000190: f7a3 03bc 4d21 0f3d 16a8 543b d382 e63c
000001a0: cbeb a63c ecd9 023d a206 4b3b b85a 23bc
000001b0: a750 923c 4a19 59bc 6ae7 f2bc d096 cf3c
000001c0: 53df 3cbc 238c dc3b d00d d8bb 5263 b03c
000001d0: 130e 6cbd b161 c0bc 2ec8 33bd c3ff 90bb
000001e0: 8de2 67bd b734 df3c fa27 543c c53b c63b
000001f0: b272 aabc 5b14 2abd 1ba9 353c 7dbe 47bb
-0.033605605 0.019337965 -0.04582314 0.004155304 -0.055479117 0.0071402127 0.01487325 0.012266738
-0.008390996 0.027765177 0.02392066 0.01596258 -0.051795796 0.00531977 -0.023027701 0.015897227
0.003883639 0.012107404 0.0276 -0.020897493 0.01941478 0.00072990195 0.012137167 0.03112958
-0.042972874 -0.027533738 -0.008392092 0.030193891 -0.025596585 -0.022649061 0.017983278 0.020179452
0.015192121 0.042961083 -0.072748415 -0.024132552 0.00358178 0.034738373 0.009139811 -0.050647367
0.031616546 -0.00026004808 -0.026997777 -0.055277348 -0.036122717 -0.0034687452 0.00077067735 0.014874012
-0.032514464 0.0030899579 0.0031888445 -0.003285189 0.034927182 0.023511527 -0.02495536 -0.02733069
0.047737584 0.047021598 -0.015170095 0.016823785 0.018335909 -0.025297344 -0.040628627 0.022514641
0.020007212 0.0017567289 -0.024135519 0.02592849 0.019023456 0.030293424 0.022734385 0.008745569
0.018524142 0.0049677463 -0.014465882 -0.021953119 0.017664349 -0.00018056559 0.044750698 0.04283375
0.039210927 0.04074576 0.017333781 -0.014450835 0.034053486 0.031244349 -0.009692835 -0.02237824
0.028578514 0.043369714 -0.034489274 0.026212055 0.02089365 0.026343463 0.04811787 0.04677105
-0.00973954 0.021245075 0.031868678 0.020923834 -0.008034698 0.034943867 0.003244882 0.028138554
0.020376107 0.031946108 0.0030979295 -0.0099703595 0.017860724 -0.013250658 -0.029651362 0.025340468
-0.011527854 0.006730573 -0.0065934435 0.021531735 -0.05763061 -0.023484083 -0.043892078 -0.0044250204
-0.05661254 0.027246816 0.012948984 0.0060496056 -0.020806644 -0.04152332 0.011087681 -0.003047853

weight f4 [24, 128]
00000000: 0010 483d ba97 c03b 4a1d 56bb 58fd cc3d
00000010: 438e 48be b149 8a3c 6ebf 2bbe 8a3d f03b
00000020: 39ed febd e6f0 0e3d cff8 03bd fed1 dabd
00000030: 795e c03a bd76 4dbb 1b71 43be ab9a 44bd
00000040: 0717 5f3d ac24 48bd d6e7 893d a0be 3d3d
00000050: 01ba 2fbd 7489 7e3d 9353 143d a6a8 763e
00000060: 7b45 38bc a04c 55bc d7b2 c73d 744c 1b3e
00000070: 22ea 863e a72c 51bc 0a04 b1bc e1a6 d63d
00000080: 9dc0 b43d fa98 273b f8b3 613e b4c6 0f3d
00000090: b5b6 263e 8f52 a4bc 4ac3 07be 9dc9 743d
000000a0: 5922 163d 7570 583e 0094 92ba 1dcf 743e
000000b0: de7c 4b3d e9d7 29bd cabd 2d3e f925 dfbb
000000c0: f9dc 94bd a22a 3bbe a929 253e 9d66 0ebe
000000d0: 2c16 65bc 2194 c83d 228b 863d 750a cdbb
000000e0: 366b c9bd 138e 9abd 72a2 6f3d 9941 083e
000000f0: 34e4 75be 6903 84bd 492d 883c f082 5c3d
00000100: b9a0 c1bc 7434 63be bb1b 4b3d 8a0c 0cbe
00000110: 321f 733d c865 d33c e198 dabc 4b0d 93bd
00000120: e784 a4bd 9948 98bd b26d f3bd 898a 8a3e
00000130: 174d bebd 4895 1f3e 15d6 bcbc ed6d bb3d
00000140: f26c 88be b2e6 24bd 6d5f c2bb 80dd 68bd
00000150: 3341 9fbd 69b7 133e 5390 153d ee23 703e
00000160: bec9 0c3c dc26 f23c 2cf6 3ebe 6507 a63d
00000170: c9b9 053e 9a93 55bc 2880 2c3d 5a72 90bd
00000180: d458 13be 0af2 0b3d 1073 07be 2f49 953d
00000190: 7557 80be a64a adbd 74f6 263e 4bd5 3ebc
000001a0: 7ea2 3bbe 4731 01be 7c36 aabd b76e a6bc
000001b0: 0f93 933d a565 11bd 66dd fd3d 9792 4ebe
000001c0: e40e 94bc eb41 22be eb9c c3bc 6d62 293d
000001d0: a672 63bd bdf0 783d 948a 1f3e 4536 d2bc
000001e0: 8700 fc3c 8678 073e f551 843c 6ac2 94bc
000001f0: 0b25 383d a794 9d3d fa0e c7bd fef0 90bd
00000200: 2cd6 cb3d 7dc3 ef3d c2d7 c73d 9a06 223d
00000210: fed4 d2bd 292e 703d e73c 873d ad6d a93d
00000220: 986f 4bbe ec33 a93d 8e07 5b3d e156 80bc
00000230: a9e2 223c bede 523b 3dc9 a2bd d544 f73d
00000240: b955 6a3d 4622 55bd ddd5 913d cacb 9c3d
00000250: 2b5c 82bd 787a 4b3d 26a0 853d 36a5 553d
00000260: 793d b33d d68e 3b3e a5c3 5d3e 1c33 393c
00000270: 5ba1 da3d c2a7 373d 7523 90bd 8e43 c0bd
00000280: f47b eb3c 8f90 463d b6a5 a73c 9ccf 8a3b
00000290: 9792 02be 3a85 08be fdf9 e0bc 8200 cd3d
000002a0: fe7f 383d 71f1 9ebd 1a21 463c db34 afbe
000002b0: f1a8 23bd 4471 7bbd fc3f 01be 5b75 c03d
000002c0: 03c3 babd 4d17 45be 2621 143c 5453 b7bd
000002d0: 8151 49bd aabe b13c 067b e7bd a48f 4dbd
000002e0: 888b ac3d 923d cc3c 8dee 0eba 4f7d cebc
000002f0: aa25 18be 7bfd 75bb 9a89 df3d 6a10 25be
00000300: a77a a83d 4296 453b 0be4 c3bd f47a 883d
00000310: d75c 89bd 70ad 333d 9b4e 863d 2fca 44be
00000320: a8ba 433d d9fb 9b3d 2196 dabd eb61 2ebd
00000330: c4d8 2cbe 3cf4 61bc b49f a5ba 6f64 69bd
00000340: c2db 01be 7672 6cbd cba4 753d cc96 3a3e
00000350: 5e48 54bc c047 2bbd 23fc cf3d e17d 29bd
00000360: b719 c53d ae95 4c3e 754c 7ebe d0da ce3d
00000370: 8999 b5bb 9ea9 8a3d e0ea 90bd 5c87 0c3c
00000380: 7acb 4abe d692 82bb 0b57 02be f953 5bbe
00000390: f706 263e 1681 93bd 3d3d 02be 5fa0 933c
000003a0: 9ad6 65be a988 f7bd 6ee5 663d 523d 8b3d
000003b0: 4767 1c3d 1f80 e4bc b1e6 a9bd 3ba5 60be
000003c0: dece e9bc 7281 99bd ee05 10bd 818c 99bd
000003d0: dfdc 0fbe d563 82bd 811a 91bd b549 02be
000003e0: 4e12 413d 5c29 273e 82ec a93d a2ea 1dbe
000003f0: 4c41 57bc 3554 33be cc51 8e3d ebfd ff3c
0.048843384 0.005877462 -0.0032671266 0.10009259 -0.19585519 0.016880842 -0.16772243 0.007331555
-0.124475904 0.034897707 -0.032219704 -0.10684584 0.0014676593 -0.003135129 -0.19086115 -0.047999065
0.05446532 -0.048863098 0.06733672 0.046324372 -0.042901997 0.062142804 0.036212515 0.24087772
-0.011247034 -0.013018757 0.09750908 0.15165883 0.26350504 -0.012766994 -0.021608371 0.104810484
0.088258006 0.002557336 0.22041309 0.035101607 0.16280635 -0.020058898 -0.1325809 0.059762586
0.03665385 0.21136649 -0.0011183023 0.23907132 0.04967963 -0.041465674 0.1696693 -0.0068099466
-0.0726871 -0.18277982 0.16129173 -0.13906331 -0.013982337 0.09793878 0.06569506 -0.00625735
-0.09834902 -0.0754663 0.05850453 0.13306274 -0.24012834 -0.06445963 0.016623156 0.05383581
-0.023636209 -0.22187978 0.049586993 -0.13676658 0.059355922 0.025805369 -0.026684226 -0.0718027
-0.080331616 -0.07435722 -0.11886157 0.2705882 -0.092920475 0.1558429 -0.023051301 0.09151826
-0.2664562 -0.04025907 -0.005931786 -0.056851864 -0.07776108 0.14425434 0.03651459 0.23451206
0.008593021 0.029559545 -0.18648595 0.08106879 0.13059153 -0.013035679 0.042114407 -0.07053061
-0.14389354 0.034166373 -0.13227487 0.07289349 -0.25066724 -0.08461504 0.16304952 -0.011647533
-0.18323705 -0.12616454 -0.08311173 -0.020316465 0.072057836 -0.035497326 0.12395744 -0.20173107
-0.018073507 -0.15845458 -0.023878535 0.04135363 -0.05552926 0.06077646 0.15580207 -0.025660643
0.03076197 0.1322957 0.016152361 -0.01815911 0.044957202 0.07694369 -0.097196534 -0.070772156
0.099529594 0.11707208 0.097579494 0.039557077 -0.10294531 0.05863777 0.06603413 0.08272872
-0.19866788 0.082618564 0.053474 -0.015666427 0.009941735 0.0032176222 -0.079485394 0.120736755
0.057210658 -0.05203464 0.07120869 0.07656057 -0.06365236 0.049677342 0.065246865 0.05215951
0.08751959 0.18316206 0.21656664 0.011303689 0.10675307 0.04483772 -0.07038013 -0.09387885
0.028745629 0.048477706 0.02046476 0.0042361747 -0.12751232 -0.13332072 -0.027462954 0.100098625
0.045043938 -0.07760895 0.012092853 -0.34220013 -0.039956037 -0.061387315 -0.12622064 0.09397384
-0.09119227 -0.1924717 0.009041106 -0.089514405 -0.049149994 0.021697361 -0.11302762 -0.050185814
0.08425051 0.024931703 -0.0005452417 -0.025206236 -0.14858118 -0.003753512 0.10914917 -0.16119543
0.08226519 0.0030149375 -0.0956498 0.066640764 -0.06707161 0.043866575 0.065579616 -0.19217752
0.04778543 0.076163955 -0.10673166 -0.04257385 -0.16879565 -0.01379114 -0.0012636096 -0.056980547
-0.12681487 -0.057726346 0.059971612 0.18221587 -0.012956707 -0.041816473 0.10155513 -0.041379813
0.09624045 0.19978973 -0.24833854 0.10100329 -0.0055419845 0.06770633 -0.07076049 0.008577194
-0.19804183 -0.0039847894 -0.12728517 -0.21418752 0.16213594 -0.072023556 -0.12718673 0.018020807
-0.22445145 -0.12086613 0.056371145 0.06798805 0.03818443 -0.027893124 -0.08295954 -0.2193803
-0.028541025 -0.07495393 -0.035161905 -0.07497502 -0.140491 -0.06366698 -0.07085133 -0.1272343
0.047136597 0.16324371 0.082970634 -0.15421537 -0.013138127 -0.17512591 0.06949195 0.031249007

bias f4 [24]
00000000: 4985 9b3b b559 0b3c 4481 26bc 1487 4cbb
00000010: 7677 ef3a 018e 983a 7547 333b d13f 113d
00000020: 0f87 153b c91b a23b 99ac 263c 9e8b ed3c
00000030: d1c2 883c f343 d93c edac 2a3d e8f9 563c
00000040: fe38 513c f3f8 aa3c 9a89 f43b 737c dd3c
00000050: b434 253d 0cd4 1c39 b3d4 003d 832b dd3c
0.0047461134 0.008505275 -0.010162655 -0.0031208443 0.0018269855 0.0011639 0.0027355824 0.03546125
0.0022816097 0.00494716 0.010172986 0.028997239 0.016694458 0.026521659 0.04166882 0.013121106
0.012769936 0.020870661 0.0074626924 0.027036881 0.040333465 0.00014956313 0.031452846 0.026998287
