logs/test/exported/policies/policy_1.pt (torch, 856648 bytes, 8 tensors)

weight f4 [512, 85]
00000000: 5410 56bc f600 b13d 5174 85be e9eb 0abe
00000010: 6b00 c2be c3ee ddbd 7b04 423c 7b71 5e3d
00000020: 41fe 32bd e500 e7bb d68f d4bd 9ad6 0dbe
00000030: 636d 733e 1424 9dbc 236e 33bf 8a91 033e
00000040: 9a61 b8bd 1cac 13bd 7ac6 5dbd e1ce 173e
00000050: e283 543c ca07 bcbd 786c 093e b43a 04bd
00000060: 9600 fd3b 3ad4 e93c d85c f73d 953b 263e
00000070: 8e71 a1bd d1bd 84be 3db9 d3bd f8fe 12bf
00000080: ed50 f9bd 0fa8 22bd 8aed 783d c753 973d
00000090: 0186 eabc f908 923d 4e71 1fbc c629 7c3d
000000a0: f328 f0bd e355 073d 6097 123d e8ff 99bd
000000b0: 59a1 0b3e 6a7b 283e b8fd 38be c81f c73d
000000c0: 6151 09bd e519 d7bd 266c 3fbc 4f50 89bd
000000d0: ba1f 3c3d fb23 8cbd a08e bcbc 28e3 143c
000000e0: 26b1 3a3d 09c5 2f3d f3a4 97bc a650 123d
000000f0: ec7a 7abb 0e9e 3bbd e03c 803d 8cc0 49bb
00000100: 8eff 123d c6ca 0cbe fdd6 863d 2996 a93c
00000110: 5de0 70bc e65a ef3d 7a63 963d 61c5 663d
00000120: aaba 3fbd b853 12bd 0405 38bd 6390 aa3d
00000130: ddf7 8f3d eddd 3bbc 964e 1f3d 2d22 c13d
00000140: 3c91 9d3c 3bc5 b9bc 7cec a6bd f19d 193d
00000150: 5e2e 91bc 15c1 1c3d a308 1abc 01bd bc3d
00000160: 6096 623c c195 443e 742b d0bd e807 963c
00000170: 0426 9abe 6b9c 9d3c 118a ac3d 0c9e 48bd
00000180: a0f1 033f e2ab de3d 323e 2d3e 1bb8 e23b
00000190: a36d 193e 9b63 5fbe bd29 e2bc 3a69 8cbc
000001a0: 0c98 17bd 41f0 113d cb68 a2be e442 a23d
000001b0: 3edb cb3d 05b4 1dbe c5af f9bd 3be1 bcbd
000001c0: c62f 11be c982 8a3d 14e5 2ebb 742f a3bd
000001d0: 9a19 123d 311f 4cbc 3ef8 e13d 4cc7 39be
000001e0: bbde 6c3d 7bd4 133e 80ef 06be 374d ff3b
000001f0: 5c81 2bbe 9a9b 86be a91d 32bd 2cd1 8c3e
00000200: 81d2 a63d 83d7 d3bd fe2c e33c 7567 0e3e
00000210: 81f9 463e ccc7 9d3b 703d 863a 6b25 973d
00000220: bf38 bd3d 04a8 84bc c753 22be 97fb 36bd
00000230: 7a5c 42bc f7c7 1e3d 16ca 15be 0884 0a3d
00000240: 4938 e5bc 8416 0cbd ae5a 02be 73da 1fbd
00000250: e7ce c6bc 7087 623d 953c 16bc dd8b 36bd
00000260: a5db 113e 82a0 a63d 5c0c a83d b87d 39bc
00000270: 0f65 833d c27b 6abc 09c4 4d3d 10c6 ab3d
00000280: 081b 913d a10d d2bc c440 b43d 63c3 9c3c
00000290: 3a43 2b3d 9285 efbc fa05 083d a1f9 c5bd
000002a0: 4e05 6c3d 64e6 2abd f86d d0bd 454b dfbc
000002b0: 23e8 fdbd a0cf ac3e 4907 62be 25fd ce3e
000002c0: b86e 2cbd 0933 213e 4956 02bd 986f d63c
000002d0: 67b6 15be a00b 963e e34a 4abe 5f58 90bc
000002e0: dbaf 7ebd 877a 9bbd 44ff dabd c775 0ebe
000002f0: ea52 90bd e42c 07be 6303 84bd 9e3c 063e
00000300: 1221 bd3d b412 6fbd ff58 3cbd c1ae 24be
00000310: e39b f6bd c5dc afbd 963f 903b 6700 e739
00000320: 1dd9 7f3d 7490 6fbc 1bec 8fbc 5e57 ffbc
00000330: 5dd0 b5bd 1f14 c13d 58c5 d03d 5aac 3fbc
00000340: 9b16 1dbd 968e 35bc 91c7 87be a7c0 0f3c
00000350: 6922 e7bc 3e44 043e 5002 d23d 571b cdbd
00000360: 0bcb 27be 0425 933d 6cd9 adbd d029 913d
00000370: e52e e03c ee8a 903d a707 a53c 92f3 fb3c
00000380: 423f 053e 2c18 7dbd 0bb6 05be 4a8b 1fbd
00000390: 2e27 85bd 53b7 013c bef3 8bbd bff8 34bd
000003a0: 77d0 5ebc 066b fe3c 7cb4 053d b473 bebd
000003b0: 9a33 54be d96c 4f3b e4d1 88bd 87e2 13bd
000003c0: d811 c4bd 1de3 18be 56c1 87bc 449d 033d
000003d0: afc1 b7bd a544 7cbd dcb6 ffbd 18ea 7cbb
000003e0: 3ef9 bf3d 1c0f 713c c4be 1ebe 83d8 83be
000003f0: 1154 f0bd b8e1 d73d 3dbb 82bd 6d31 563e
-0.013065416 0.086427614 -0.26065305 -0.13566555 -0.37890944 -0.10836556 0.011841889 0.054307442
-0.043699507 -0.007049667 -0.10378997 -0.13851395 0.23772196 -0.019182242 -0.7008993 0.12848487
-0.09002991 -0.03605281 -0.05414436 0.14825012 0.012970896 -0.09181173 0.13420284 -0.032282546
0.007721017 0.02854358 0.120782554 0.16233666 -0.07882987 -0.25926068 -0.10338066 -0.574203
-0.121736385 -0.039711054 0.06077341 0.07389026 -0.028628351 0.07130618 -0.009731604 0.061563276
-0.117265604 0.033040892 0.035788894 -0.07519513 0.13635768 0.16453329 -0.18065536 0.09722859
-0.033524875 -0.10502986 -0.011683499 -0.06704771 0.045928694 -0.068428 -0.023017228 0.009087361
0.0455791 0.042912517 -0.018511271 0.035721444 -0.003822024 -0.04580503 0.06261611 -0.0030784933
0.035888247 -0.13749227 0.065839745 0.020701485 -0.01470193 0.116872594 0.073431924 0.05634058
-0.046808876 -0.03572437 -0.04492666 0.08328321 0.07029698 -0.011466485 0.038893305 0.09430347
0.019234292 -0.022677055 -0.081505746 0.03750414 -0.017722305 0.038270075 -0.009401473 0.09215737
0.0138297975 0.19197752 -0.10164538 0.018314317 -0.3010713 0.019239625 0.084247716 -0.04897885
0.51540565 0.10872628 0.16918257 0.0069189197 0.1498323 -0.2181534 -0.027607793 -0.01714002
-0.037010238 0.035629515 -0.31720576 0.079229146 0.099539265 -0.15400703 -0.121917285 -0.09222647
-0.1417838 0.067632265 -0.0026686834 -0.07968035 0.035668947 -0.0124586085 0.110336766 -0.18142432
0.0578296 0.14436524 -0.131773 0.007791187 -0.16748565 -0.2629059 -0.043485317 0.27503335
0.08145619 -0.1034384 0.027731415 0.13906653 0.19431116 0.0048150774 0.0010241698 0.07380184
0.09239339 -0.016193397 -0.15852271 -0.04467353 -0.011862868 0.03876492 -0.14627871 0.03381732
-0.02798094 -0.03420116 -0.12729904 -0.03902669 -0.02426858 0.055304945 -0.009169717 -0.044566978
0.14243944 0.08136083 0.08205482 -0.011321478 0.0641576 -0.014311733 0.05023578 0.08387387
0.07085234 -0.025641264 0.088014156 0.019136136 0.04181216 -0.029238496 0.033208825 -0.096667536
0.057622246 -0.041723624 -0.10177225 -0.027257571 -0.12397792 0.33752155 -0.22073092 0.4042751
-0.042097777 0.15742125 -0.03182057 0.026176259 -0.14620362 0.29305744 -0.1975513 -0.017620264
-0.062179428 -0.075917296 -0.10693219 -0.13912116 -0.070470646 -0.13200718 -0.064459585 0.13109061
0.09234823 -0.058367446 -0.04598331 -0.16082288 -0.12041452 -0.0858703 0.0044021113 0.00044060053
0.062462915 -0.014621843 -0.017568639 -0.03116959 -0.08877633 0.09427666 0.1019389 -0.011698807
-0.038351636 -0.011081358 -0.26519445 0.008773959 -0.02821465 0.12916657 0.10254347 -0.1001498
-0.16386048 0.071847945 -0.084887356 0.07088053 0.027366111 0.07057749 0.02014525 0.030755792
0.13012412 -0.06179063 -0.13057725 -0.038951196 -0.065016136 0.007917243 -0.068335995 -0.044182535
-0.013599507 0.031056892 0.032642826 -0.09299412 -0.2072281 0.0031650572 -0.066806585 -0.036104705
-0.09573716 -0.14930387 -0.016571682 0.032132402 -0.08972489 -0.061588902 -0.124860495 -0.003859168
0.09373711 0.014713075 -0.15502459 -0.25751123 -0.117347844 0.10541099 -0.06383369 0.20917292

bias f4 [512]
00000000: dd56 83bb e22f 01bd 78ba 21bd 9727 d8bc
00000010: 9853 81bd 4351 0fbd ffcb 07bd fdda 843c
00000020: a483 f1bb ff6c 88bc 20e4 933c ea77 953b
00000030: 2808 283c 0ade 8a3c 2a92 c4bc 6daf a73a
00000040: a063 0c3d 72bf 72bb 99a4 c2bc e0e8 2fbc
00000050: 790f 7fbc ae12 f7bc 9df0 48bc fbb1 d039
00000060: d2da 193d 6d54 35bd 752c d339 e1e2 513c
00000070: 06d5 9d3a 539f b33c 78de aa3c 6e68 b13b
00000080: ff0b 713d 184a a13a b6cb f5bc 7dbb dc3a
00000090: fc65 0a3c d578 a03b 2d97 d0bb 1a41 903c
000000a0: cef4 2dbd ad50 973c 1dd9 b93c b16d a7bc
000000b0: 6a8a 77bc 6fe5 5e3d 7d7d d7bc 36ea 483c
000000c0: ad0d 69bc d766 a9bc 4492 e53b 53e7 02bd
000000d0: 2193 05bd d6ba 1f3d a917 b9b8 c2e0 0a3d
000000e0: f3e8 743a 0691 30bd 4180 363c 3a95 a73c
000000f0: 0832 61bc e661 2b3d ed47 69bc 485e f9ba
00000100: aec6 9cbc 5193 ff3c d291 c9bb 1816 8cbb
00000110: 7460 42bc 7b18 8cb8 49d6 203d 1972 51bb
00000120: 9b98 11bc ce0b 5b3b 7b4f febc ad39 633c
00000130: 218c 0ebc 1db6 923c 919f 0dbc 141b e63c
00000140: acea dabc 2f8d 9f3c 76e1 bbbc 3bca 03bd
00000150: 6b8f 1c3c d00d 483d 4aa4 85bc 3202 bdbc
00000160: 2dfe a03c 1027 24bd 1031 013d df02 823b
00000170: 2a41 953c cb48 24bd 321e 18bd e439 ccba
00000180: 9d9e 2a3d 61a7 fbba 4216 6dbc 63de 05bd
00000190: aef9 953b 7e55 d8bc a4fd e3bd f337 f3ba
000001a0: 06ca 973c e12a 72b9 5718 a9bb 6b62 5ebc
000001b0: 1eb2 d23c b714 1dbc 708a 52bc 8e6a a43c
000001c0: 23a6 5bbc d002 fc3c d301 44bc 1c07 053b
000001d0: 9e5f fb3b 91b4 6fbb e69b 113d 6f6a eebc
000001e0: f9ba e6bc 150d 213d 0105 a83b 711b 343c
000001f0: 3e2b 6f3c 248f 043a a5b8 673c 63d8 68bc
00000200: b23c ce3b d308 333d c2a4 7abc 8812 903b
00000210: c7f1 53bc ed36 aebc 034a 9a3b 082b 003d
00000220: 00b4 be3c 16ea 06bd f621 4d3c 6657 88bc
00000230: 5eed aabc bd53 1fbd c944 28bc 1963 593c
00000240: 4175 cdba 9f0c cabb 1f1f c3bc 1462 f83c
00000250: 83fc ac3c 14ac 18bd d10c 23bc 8194 a0bc
00000260: 7bf4 7c3b 699e 473c 4bad 103d 4a76 75bc
00000270: 5837 1dbb 396b 4fbc be3a 4bbd 104e babb
00000280: a1a5 113b 6754 05bd f0c4 763d 27cf 0e3c
00000290: 0e04 94bc b658 203d be05 f03c 585f 4abb
000002a0: ad2a 533d 98a4 99b9 1ddf cd3c cfbc 163d
000002b0: 0fa5 96bc 2c0d 80bc 6124 d5bc e3cd b43c
000002c0: 605d 09bc 179d b538 082a 5abd 773a c9bb
000002d0: cae1 2fbd 1b2e 5d3d 10ee 5e3d f78a 563d
000002e0: 9a21 b9bb 5cf9 80bc 5cee 4cbc 1289 f93a
000002f0: 16c8 74bc 0141 e43b 0681 6cbc 71c1 343c
00000300: 2fc1 7abb 7a63 16bc 185b f5bb 7921 50bd
00000310: 0c05 093c b246 113c d6f2 383c bbf2 da3c
00000320: 5d1a 10bd 0c02 83bd a10f 363c 35dc a6bc
00000330: 8af0 6abc 65dd 04bc ebb4 c0ba f512 7fbb
00000340: 900d 243b e69a 973c 9b50 453b 8372 5bbd
00000350: f56e c13c 3f56 b5bc d077 3b3c c6db 903b
00000360: 063b 2a3c 281e 3638 4d39 dfbc ac50 febc
00000370: 8af2 6f3c 4f96 cdbc 1aa5 0abd 77ac 43bc
00000380: 2adb 60bc 5627 d93b 5dc5 8dbc 62ba 423c
00000390: dacd 413b b2fb 823c 2efb 163b 6145 2dbc
000003a0: 2f5a 4a3c db7b e53c 9c62 d8bc 56b1 2fbd
000003b0: c779 1b3d beac 06bd 3723 303c 17dd 843c
000003c0: 1dd7 b1bb 686f 7dbc 9b9b cc3a af86 aab7
000003d0: 183d 3cbd e74c 91bc 44a6 ad3b f206 f9bb
000003e0: 2999 103b ac48 84bb 8b23 84bc 8414 33bd
000003f0: 4941 8d3c 33b7 283c 8f00 e73b 82b5 c4ba
-0.0040081576 -0.031539805 -0.03948447 -0.026386065 -0.06314772 -0.034989607 -0.03315353 0.016217703
-0.007370429 -0.016653536 0.018053114 0.004561414 0.010255851 0.01695158 -0.023995478 0.001279337
0.034274697 -0.003704038 -0.023760127 -0.010736674 -0.015567654 -0.030160274 -0.012264398 0.00039805457
0.0375622 -0.044269968 0.0004027818 0.01281044 0.0012041635 0.021926558 0.020858034 0.0054140603
0.05884933 0.0012305407 -0.030004364 0.0016840544 0.0084471665 0.004897217 -0.006365678 0.017609168
-0.042469792 0.018471086 0.022686535 -0.020438047 -0.015108684 0.054418024 -0.026304955 0.0122628715
-0.014224452 -0.02067892 0.0070059616 -0.03195889 -0.032611016 0.03899654 -8.8258945e-05 0.033905752
0.00093425735 -0.043107055 0.011138977 0.020456899 -0.013744839 0.04184141 -0.01423834 -0.001902529
-0.019137707 0.031198176 -0.0061514163 -0.0042750947 -0.0118638165 -6.68028e-05 0.03926686 -0.0031958877
-0.008886482 0.0033423784 -0.031043759 0.013868731 -0.0087004015 0.017909104 -0.008644001 0.028089084
-0.026723228 0.019476501 -0.022934657 -0.032175284 0.009555678 0.048841298 -0.01631369 -0.023072336
0.01965245 -0.040076315 0.03154093 0.0039676274 0.01821955 -0.040108483 -0.03713817 -0.0015581218
0.04165517 -0.0019199663 -0.014470639 -0.032682788 0.0045768833 -0.026407953 -0.111323625 -0.0018556103
0.01852895 -0.00023094892 -0.0051603722 -0.013573269 0.025719699 -0.009587458 -0.012850389 0.02007034
-0.013406309 0.03076306 -0.011963326 0.0020298427 0.0076713106 -0.0036576132 0.035549067 -0.029103486
-0.028165327 0.039319117 0.0051275496 0.010992871 0.014597712 0.000505673 0.014143144 -0.014211747
0.0062938565 0.043709587 -0.01529807 0.0043967403 -0.012936062 -0.021266425 0.00470853 0.031291038
0.02327919 -0.032938085 0.012520304 -0.016643237 -0.020865139 -0.03889822 -0.010270306 0.013268256
-0.0015675203 -0.0061660553 -0.02381855 0.030320205 0.0211165 -0.03727348 -0.009951786 -0.019602062
0.003859787 0.012183764 0.035321515 -0.014981816 -0.0023989286 -0.012659841 -0.049616568 -0.0056855753
0.0022223967 -0.032551195 0.060246408 0.008716381 -0.01806834 0.0391471 0.029299613 -0.0030879583
0.05155437 -0.00029305066 0.025130803 0.036801156 -0.018389253 -0.01563128 -0.026018323 0.02207083
-0.008384079 8.660013e-05 -0.05326274 -0.0061410028 -0.04293994 0.053999048 0.054426253 0.05237862
-0.0056497576 -0.015743904 -0.012508001 0.0019038043 -0.014940282 0.006965757 -0.014435058 0.011032448
-0.003826212 -0.0091789905 -0.007487666 -0.050813172 0.00836302 0.008866953 0.011288365 0.026727071
-0.035181392 -0.06396875 0.011112125 -0.020368675 -0.014339576 -0.008109425 -0.0014702355 -0.0038921211
0.0025032498 0.018506479 0.003010786 -0.053576004 0.023612479 -0.022135852 0.01144214 0.0044207303
0.010390049 4.3420267e-05 -0.027249003 -0.031044327 0.014645228 -0.025096087 -0.03384886 -0.011942974
-0.013724128 0.0066270037 -0.017306024 0.011885257 0.002957216 0.015989158 0.0023037898 -0.010575623
0.012350603 0.02801316 -0.026414208 -0.04289373 0.037957933 -0.032879584 0.010750583 0.016218705
-0.005427255 -0.015468456 0.0015610339 -2.0328296e-05 -0.0459567 -0.017736865 0.0052993614 -0.007599705
0.0022063947 -0.0040369835 -0.01613023 -0.043720737 0.017243044 0.010297584 0.007049627 -0.0015007707

weight f4 [256, 512]
00000000: 0276 6dbd d3f3 3a3d 623d 3a3c cb71 513d
00000010: 0953 16be e9bd 933d c198 b6bd 3b82 41bd
00000020: db9f 2b3d 392e 94bc c901 c73d e375 05bd
00000030: 1495 fcbd 80db 2a3d 95e8 87be f935 8dbd
00000040: e488 b63b f1dd 4fbe c7f9 dbbd 1b08 9b3d
00000050: 7156 93bd 1595 1cbd 8bb3 97bd 507a 383e
00000060: 5e9e dfbd b7c1 9ebd 4d52 053e fa68 b43d
00000070: 1c31 a4bd 1e32 553d 1d34 3e3e 7a6b d73c
00000080: 5a3e 163d 839f 073e 5d13 123e c7bd e1bd
00000090: c64f 9e3c 05a1 e03d a94d 8a3d 9f79 0fbe
000000a0: 9178 d2bc b6df 933d 800b 053e 0584 673d
000000b0: 9481 f9bc d793 073e 1cb1 ec3c d50f 13bc
000000c0: 88c6 113b b070 123e bf1f 7d3d 7a65 acbe
000000d0: 33a0 16bd 583d 143e 155a 933d 2b54 a7bd
000000e0: f399 53be b1bb 6e3d 1883 f23c 6d98 1a3d
000000f0: f5c1 163e fae0 84bc 8c4f 1bbe 6d8f a0bc
00000100: 4b47 bc3d 35d8 353d 72dc 1e3e 8103 023d
00000110: c902 43bd 39b4 2d3e 50c7 df3d c6f4 c1bd
00000120: f451 1f3d 4577 b83d 7717 96bd db58 343e
00000130: 0c10 9c3d d351 eb3d 5ce0 8a3d 4fdf f13d
00000140: c2e7 94bd 1d01 b23d 99a4 823d 4b0d 4fbe
00000150: fec4 d5bd e980 29bc 6afd 893d b946 de3c
00000160: 289b de3d bc08 64bd 9571 fd3c 3998 053e
00000170: c3d2 0abd 92cc e9bb 7285 a4bd 3740 983c
00000180: cb25 723d ac96 433d 0e60 923d 2d8f 86bd
00000190: fa01 67be 7dd0 e63c c6ca 023e e6d3 62bc
000001a0: f9d2 783d 0e95 3dbe 945d 80bd 25db 283d
000001b0: c9fe e83c d8e7 db3c c5a7 b3bd 94e5 a03d
000001c0: 2032 583d 6771 a53a 66d8 fdbd 9e71 90bd
000001d0: b961 5bbd c41a 24bd 558f 2abd f593 903d
000001e0: 2bff 3b3d 579f f63d 9b49 abbd dbc8 9db9
000001f0: dddc 32be d4f1 8a3c 3f0d 42be 5c5d 0b3e
00000200: 0b76 aa3c 4ffd b8bd 47be 413d e24e 1b3e
00000210: 6c6d 1abd 4896 86bd 9964 37bd 34ea 843d
00000220: fa95 c9bd 8cd0 ecbd 38ac 3c3d 0288 a0bd
00000230: e48d bc3c 0455 dd3c 0e20 603d 1c95 22bd
00000240: 7a6e 48bd 6e03 353d 1042 413d af7a a73d
00000250: b5d6 9b3d 5baf 8abd 7287 303d bb82 773c
00000260: a4f7 23bd 0e20 bd3c f814 c63c e126 d63a
00000270: 1be8 9bbc 6f40 5dbd bf71 9bbe 16c4 183d
00000280: e7ae 14be 1322 a83d 1cb7 b63c 27c0 47bd
00000290: 9d19 d33d 8b66 e1bd b263 303c c8e4 f03d
000002a0: 9a8c d7bd 2bfa 923d 25c4 10be e54b 233e
000002b0: 1427 3dbd 4c65 8d3d eb37 04be 2479 9f3d
000002c0: 71bf da3d 00ba 0d3d bd5c 3dbd e694 b8bd
000002d0: 5ad9 603b 3940 1c3e b059 1abe a8cc 023e
000002e0: a1e7 5a3b a395 88bc 9a74 11be d0f4 72bd
000002f0: 6607 ed3c 8e02 af3d e596 c73d 1460 4b3d
00000300: f2c7 8d3d 0ce5 f9bd 949f b0bc fed9 ae3b
00000310: fac1 dd3c 1d74 193a fc8e 13be ddb7 033d
00000320: 968f 2c3e 8610 10be d608 0e3e cf0f c73d
00000330: 8cea 02be 3d6e 953c d404 b6bd 6c36 40be
00000340: 8fe5 a83d dcba 053d 8378 e23d 94c9 973c
00000350: d0bf ed3d 91e5 cbbc f1e2 513d 4309 153e
00000360: e2f9 b43d 705d aa3d 60dd 1bbd fb7b ef3c
00000370: 1370 0fbd f35e 78be 835d 0ebd b67a 85bd
00000380: 0fd7 83bd d3fb ecbc edda af3d dab7 53bc
00000390: 01c0 0cbe d607 1c3d 2e81 b4bd 3c61 163e
000003a0: 5644 3c3e ade7 3abd aaae 9abe 69fb 83bd
000003b0: 2224 ab3c cf21 2dbc 15f7 81bd 023a a13d
000003c0: 77ac a5bd 9708 8b3d cd21 bebd 2c2f d73d
000003d0: 7314 013d bee9 cabc ee0d 89bc 2e61 a0bd
000003e0: 5f81 fd3d a5c7 703d bc56 eabd 0db5 a9be
000003f0: f5c4 11be 1c62 253d e467 48bd 3b4a c8bd
-0.05797387 0.045642685 0.011367174 0.051133912 -0.14680113 0.07213957 -0.08915854 -0.047243338
0.041900497 -0.018088447 0.09717137 -0.03258313 -0.12333122 0.041713238 -0.26544634 -0.0689506
0.005570518 -0.20299508 -0.107410006 0.07569905 -0.07194222 -0.038228113 -0.07407292 0.18015409
-0.10918878 -0.07751792 0.13019677 0.08809085 -0.08017179 0.05204975 0.18574567 0.026296366
0.036680557 0.13244443 0.14265199 -0.11022525 0.019325148 0.10968212 0.06753094 -0.14011239
-0.025692256 0.07220404 0.12992668 0.056522388 -0.030457295 0.1323999 0.028893046 -0.008975943
0.0022243578 0.143008 0.061797854 -0.3367117 -0.03677387 0.14476526 0.07194916 -0.08170351
-0.20664196 0.058284465 0.029603526 0.03774302 0.14722426 -0.016220558 -0.15167063 -0.01959964
0.091932856 0.044395644 0.1551378 0.031741623 -0.047610078 0.1696328 0.10926688 -0.09470515
0.038896516 0.09007124 -0.07328694 0.1761202 0.07620248 0.11490216 0.067810744 0.11810171
-0.07270767 0.086916186 0.06379051 -0.20219915 -0.10437964 -0.010345676 0.06737788 0.027133333
0.108694375 -0.055672392 0.03093795 0.1304635 -0.033892404 -0.0071349824 -0.08033265 0.018585308
0.059118073 0.047751114 0.07147227 -0.06570277 -0.22559348 0.028175587 0.12772664 -0.013844466
0.060748074 -0.18513891 -0.062678486 0.041224618 0.028441804 0.02684395 -0.08772234 0.078562886
0.052782178 0.0012622298 -0.1239479 -0.07052921 -0.053559992 -0.04006459 -0.0416406 0.070594706
0.045897644 0.120421104 -0.083636485 -0.00030095023 -0.17467065 0.016961016 -0.18950365 0.13609833
0.02080824 -0.0903269 0.047300603 0.1516681 -0.03770201 -0.065716326 -0.04477367 0.06489983
-0.09843059 -0.11563215 0.046062678 -0.078384414 0.023016877 0.027018078 0.05471807 -0.039692983
-0.048933484 0.044192724 0.047182143 0.08177697 0.076093115 -0.06771728 0.04309792 0.015106852
-0.04003109 0.023086574 0.02417992 0.0016338491 -0.019031575 -0.054016527 -0.3036022 0.037296377
-0.14519845 0.08209624 0.02230411 -0.048767235 0.1030762 -0.11005887 0.010765957 0.117623866
-0.105248645 0.07176622 -0.14137323 0.1594692 -0.046179846 0.069040865 -0.12911956 0.077867776
0.10681046 0.03460121 -0.04623102 -0.09012775 0.003430924 0.15258874 -0.15073276 0.12773383
0.0033402222 -0.016672915 -0.14204636 -0.059315503 0.028934192 0.08545409 0.09745578 0.049652174
0.06922902 -0.1220189 -0.021560468 0.0053360453 0.027070034 0.0005853789 -0.14410013 0.032157768
0.16851649 -0.14068803 0.13870558 0.09719812 -0.12784785 0.018241042 -0.0888764 -0.1877076
0.0824691 0.032648906 0.11058142 0.018528737 0.11608851 -0.02488974 0.05124182 0.14554314
0.08836724 0.08318603 -0.038052917 0.029233923 -0.03501899 -0.2425497 -0.03475715 -0.06517546
-0.064375035 -0.028928673 0.08586679 -0.012922252 -0.13745119 0.03809341 -0.088137016 0.1468553
0.18385443 -0.0456311 -0.30211383 -0.06444437 0.020891253 -0.010567143 -0.06345955 0.07872392
-0.08089536 0.06788748 -0.09283791 0.10507044 0.031513643 -0.02476966 -0.016730275 -0.078310356
0.12378191 0.058784146 -0.114423245 -0.33145943 -0.1423529 0.040376768 -0.048927203 -0.09779783

bias f4 [256]
00000000: 2333 363d 2769 1d3d 8f01 ae3b f068 e53c
00000010: bb6a ab3c 0b79 113c 993b 0bbc cc2c 543d
00000020: 38ce 9cbc f5b0 eb3b 0476 7a3c bdec 87bc
00000030: b4aa 31bc 9b16 ecba b56b 913c 6e5d 9ebc
00000040: 9792 6dbb bc5a 4cbc f7b6 1c3d 35a8 273d
00000050: 2249 b33a 2989 793b b7d4 74bb b748 dd3c
00000060: 84d5 eebc 9d51 c4bb 52c0 8d3c efb8 d23c
00000070: 19be 983c de59 f43c 1b86 e5bc 5892 283c
00000080: e994 d23c 8450 a13c 773b ba3b d7b8 d53b
00000090: dd53 493c 3044 3f3d d6ff bd3b 511f dfbb
000000a0: 24a9 ed3c 4318 cc3c c370 823b 38f5 213d
000000b0: 8a0d 13bc ef5c c1bc 858b bc3b 1cdb bf3c
000000c0: f074 1ebb d6f2 c9bb 1609 4f3d 043f 553a
000000d0: 2884 38bb ca3c 82bb 9074 503c a4f4 e63b
000000e0: 922d d13b a218 7dbb 7cd6 af3c e420 f6bc
000000f0: 660b 213d a8c3 b73c 5849 4b3c 7e69 f6bc
00000100: 5672 9c3c 3716 f3bc 12d4 b5bc a545 35bc
00000110: 5813 edbb adf7 313c 2cac 393d 26fa 5b3c
00000120: 1a7f 30bc ff0f ef3c 1975 e43b d2dc a3bc
00000130: f28e 8f3c e2d6 983c 0eb6 0bbd 0360 a4bc
00000140: 8081 823c c5e7 823c 6249 2e3d e1f6 e23c
00000150: 6f49 d1bc 95c0 1a3d e243 a03c fed6 a13c
00000160: 0aeb a03b 6c58 003c 9e7d 9cbc 3b8b 1a3c
00000170: 1b56 e93c b345 013d 6def 2f3d 4bb9 d43c
00000180: 9636 023d cefd 4c3d 5826 b83c 942d cebc
00000190: eaf6 5fbb 4d71 fb3c 2884 94bc 8765 a13c
000001a0: e2a0 e6ba b2fc 693d 7cf9 23bc 1910 e5bc
000001b0: 2b1d fa3c cc3a 7fbb f0ce a2bc 4384 863d
000001c0: ee4d 273d 4720 91bc 3d39 a5bb bf03 033d
000001d0: 0cb3 8c3c 25f3 743b ba08 57bc 44c7 fb3c
000001e0: 2d7f 0bbc 8dcb 373b d1ee 9d3c 580e 5fba
000001f0: 62f2 60bb 9af7 473c 1feb 993b 8065 afbc
00000200: 8a7c 903b 8f08 003c c455 033b 4d52 8dbc
00000210: 3344 d83c 9cb4 9fbc 9d89 8f3c 699b 3fbc
00000220: dabc 453c 2d73 f63b 5f1f 2a3d b35b 47bb
00000230: ad61 153d 5a66 413c 89cf f13c cb5c db3c
00000240: 02c9 d93c 890d f53b f805 363d b518 c8bc
00000250: 8436 1dbc 4dd0 773b c1a4 ba3c 8675 993a
00000260: c638 213d a22f 043d 8041 7fbc f8fd 133c
00000270: f649 a73c 1008 623c 46c8 c8bc c227 f63c
00000280: ab41 a7bc 7154 933c b324 093d bc77 f93c
00000290: df82 8f3c daf3 2c3c 275a cc3c 6af7 9e3c
000002a0: a590 c73b acb7 6b3c 1c84 3abc 10da f03b
000002b0: a034 81bc a454 633c e0e6 153d 15c3 9bbc
000002c0: ac6e 87bc 3bd0 07bd c0f2 40bc 6b1c 1a3d
000002d0: 6741 e43c e5a1 5fbc 115c 9b3c 25ce 003d
000002e0: 7570 ff3c dba8 293d 956a 0f3c d628 ca3c
000002f0: fbba 1a3c c7cb 193d 6b7d e93c 7c31 e03c
00000300: 13d0 caba b5e4 923b b596 6c3b 178b 073d
00000310: 389f 7c3d d1ae 583c e7d5 e13b 67fe 773c
00000320: ebad 94bc 8434 3b3c 2a9e b83b bd9e d83c
00000330: 68a5 093d bb8e 3b3d f94e 413c 7118 973c
00000340: 7455 223d 1281 d3bc 56ae 1f3c e53c 6e3d
00000350: e270 3f3b 763b 153d 154a 103d 9081 a1bc
00000360: 366e f4ba 68f1 033c 73b3 dfbb cb98 413c
00000370: 5aff dcbc 88e4 54bc 0baf d6bb 8ecd 08b7
00000380: bcd3 ff3c 4583 3a3d a8bf 1e3d 56ff 103d
00000390: 982c c7bc 8301 debc 96c4 05bd f1c9 eebc
000003a0: 36e5 b03c cec9 84bc 5aeb b2bc ce8d b63c
000003b0: fed9 d13c edca 1e3c ace6 913c bc26 bf3c
000003c0: 752f 023d 4ac4 a73c 07f0 4d3c 86c9 923b
000003d0: 2656 87bb 6868 053d e06f 0b3d ed0d 303a
000003e0: ad8d 503c 35bc 823c 7360 433c c5a0 b93b
000003f0: 8e3c a83c 2426 04bd ce7c 523d af4a 6a3c
0.04448236 0.03843036 0.0053102444 0.02800414 0.020924916 0.008878957 -0.008498096 0.051800534
-0.019141302 0.007192726 0.015286926 -0.016592378 -0.010843921 -0.0018012108 0.017751554 -0.01933166
-0.0036250704 -0.012472805 0.038260426 0.0409319 0.0013678411 0.0038076139 -0.0037358233 0.027012212
-0.029154547 -0.0059911744 0.01730362 0.025722949 0.018645333 0.029828008 -0.028018048 0.010288797
0.025705772 0.019691713 0.0056833583 0.0065222788 0.012288061 0.046695888 0.0057983203 -0.006809153
0.029011317 0.024913913 0.0039807274 0.0395405 -0.008975396 -0.023603885 0.0057539367 0.02341991
-0.0024178587 -0.0061629815 0.050545774 0.0008134695 -0.0028154943 -0.003974532 0.012723103 0.0070482064
0.006383606 -0.0038619419 0.021464579 -0.03004498 0.03931751 0.022432163 0.012407623 -0.0300796
0.019097488 -0.029673679 -0.02219585 -0.011063968 -0.007234972 0.010862273 0.04533021 0.013426339
-0.010772491 0.029182432 0.006971967 -0.020002756 0.017524216 0.018657152 -0.034109168 -0.020065313
0.015930891 0.015979657 0.042550452 0.027705612 -0.025547711 0.037781317 0.019563619 0.019755837
0.0049108313 0.007833581 -0.019102868 0.009432609 0.028483441 0.03156061 0.042952944 0.02596726
0.03179034 0.050046735 0.022479221 -0.025168218 -0.0034174272 0.030693674 -0.018129423 0.019701732
-0.0017595554 0.057125755 -0.010008212 -0.027961778 0.030531486 -0.0038944958 -0.019874066 0.06568196
0.040845804 -0.017715586 -0.0050422237 0.031985994 0.01717522 0.003737637 -0.013124639 0.030734666
-0.008514208 0.002804491 0.019278916 -0.0008508912 -0.003432416 0.012205029 0.004697218 -0.021410704
0.0044093775 0.0078145405 0.0020040134 -0.017251158 0.026399707 -0.019495301 0.017521674 -0.0116947675
0.0120689515 0.0075210542 0.041533824 -0.0030419647 0.036470104 0.011804188 0.029517906 0.026777646
0.026585106 0.00747842 0.044439286 -0.024425844 -0.009595517 0.0037813366 0.022783639 0.0011707998
0.039360784 0.03227199 -0.015579581 0.009032719 0.02042101 0.013795868 -0.02450956 0.030048255
-0.020417055 0.0179846 0.033482265 0.030452602 0.017518459 0.010556186 0.024945332 0.019405086
0.006090241 0.0143870525 -0.011384036 0.007350214 -0.015772164 0.01387516 0.036597133 -0.01901392
-0.016532265 -0.03315757 -0.011776626 0.037624758 0.027863218 -0.0136494385 0.0189648 0.031446595
0.031181553 0.0414208 0.0087534385 0.024677675 0.009443994 0.037547853 0.028502187 0.027367346
-0.0015473388 0.0044828304 0.003610057 0.03309163 0.06167528 0.013225273 0.006891954 0.015136338
-0.018149337 0.011426095 0.005634089 0.02644288 0.03360501 0.045790415 0.011798614 0.018444272
0.039632276 -0.025818381 0.009746155 0.058163542 0.002921157 0.03643366 0.0352269 -0.0197151
-0.0018648568 0.008053161 -0.006826812 0.011816214 -0.02697723 -0.012993939 -0.0065516285 -8.154091e-06
0.031228893 0.045535345 0.038756996 0.035399757 -0.024313256 -0.02710033 -0.032658182 -0.029149028
0.021593671 -0.01620951 -0.02184074 0.022284415 0.025616642 0.009691936 0.017810188 0.0233339
0.03178354 0.02047934 0.012569434 0.00447959 -0.0041301427 0.032570273 0.03404224 0.0006715942
0.012729091 0.015958885 0.011924851 0.005664917 0.020536687 -0.032262936 0.051388554 0.0143000325

weight f4 [128, 256]
00000000: 6ec1 48bd a1c5 b13d d8b2 fd3c 5d72 9fbd
00000010: a6bd 57bc 2b6b 0cbd 21b5 df3d fcab cbbc
00000020: 07b4 383b f0cb 9bbd a4ce d63c 1147 c03c
00000030: bb48 3d3d d38b 96bd f31b 09be 7302 8c3d
00000040: f834 043d c955 f2bc a4e2 babd 4a90 c0bd
00000050: 2d49 563d 828c e83d aefd ca3d 03e1 0ebd
00000060: 68b7 963d 8ccf 82bd 7ed0 033e 84f6 84bc
00000070: 8552 80bd 6ed0 83bd 1c4a 4ebd 4ad1 6cbe
00000080: 587c 003d 8dfa 1ebc b247 f2bd fe5d 02bd
00000090: de68 ac3d 12ee e63d 00b3 46bd 03b0 12bd
000000a0: 42c9 093e 1504 13bd 9dcd 8e3d ccb4 e83d
000000b0: 20d5 cf3d f9c4 0abe f60b 1a3e 249a 9cbd
000000c0: efcc 993c 1459 81bd 1a11 ec3d cbb1 a63d
000000d0: 9980 76bd 2361 c8bd 622b 973d 6693 813d
000000e0: eeb3 213c f1f6 06be c19c b93d 8d7f 623e
000000f0: 472f a1bd a8fc c33d 2ce4 ecbc 73bf 27bd
00000100: 8b79 d73d 7194 45ba c3f9 103e e965 873c
00000110: 57dd 89bd 3152 8f3d 3244 d0bc 9682 263d
00000120: be6c 26bd 8fe5 e5bd 042f f5bd 1175 af3d
00000130: 72c2 063d f217 3ebe 8ac5 5a3c a097 163c
00000140: d196 8bbd 5b85 6ebc 7f23 5dbe 1b72 b2bc
00000150: fc81 a53d 43a9 543d dd52 f93b 0cff 6c3c
00000160: fe63 eb3d f0fb 3e3e ebf2 993d da87 373b
00000170: ea19 9e3d 35ea eb3c 2926 68bd ad54 e23d
00000180: 0b2e febd 5793 f3bd 512c f8bd 4904 a93d
00000190: 70a6 9a3c cd0c 933d 4fb1 8abb 5aaa ac3d
000001a0: 5fb9 86bc d5ce 83bd d877 f73d bcc3 bbbd
000001b0: a442 1ebc 6727 283d 61b5 16bb 2296 a43d
000001c0: fd6f debd d820 b53c 0bc7 df3d b149 263d
000001d0: 4829 2abd a2ff ec3d 9e95 9abd f075 6c3d
000001e0: e367 9b3c ac82 17be cdde 963d f855 183e
000001f0: 3435 403e 2653 443d 1bac 5abd 78ee 5a3d
00000200: d2f4 803d 349f e0bd 6833 8bbc b7ff 813c
00000210: acdc f73b f5db b63d a2f4 d93d 9758 b83d
00000220: 6dae b1bd 4f55 ca3b 3419 973d dea9 05bd
00000230: d187 b33d 135a 9b3d 78f4 3a3e da8c b33d
00000240: e6bb 8d3c 3ce2 1bbb f069 9b3d 20ff 56bb
00000250: b82e b43c f75f bc3c 266d 5cbd 4a3f d03d
00000260: ba8b c1bd ed85 3cbb d67e 8dbd 3c7c cd3d
00000270: b950 1bbe f0d0 ea3d 0c42 643d c1a4 b83c
00000280: 7696 bd3c 5d55 fbbd 5445 ca3c ee7a a23d
00000290: 432f 293e 32a9 dcbd ca14 e0bd 24e5 ab3d
000002a0: 1fde 5e3a 20eb 023e a559 de3d f9c1 7e3c
000002b0: 6f06 313d fa98 fb3d 7b6d 8f3d bf42 dcbc
000002c0: b258 eabc 3d66 163d 7444 e9bd 44e4 483e
000002d0: e604 72bd bfd8 a53b 198e ad3c 960f 38be
000002e0: 2c75 973d f3d3 c6bb 6afa 6b3c d692 e1bd
000002f0: 4221 453e 3afc 21be 3380 313d 390e a93d
00000300: c26d 853d 08fa 5cbd ef7d f73b d000 a7bd
00000310: de43 483c 3023 d33d 18ff f7bc a643 bc3d
00000320: 0afe 3e3d cc4b 1f3e 33f5 8e3d ea34 943d
00000330: 4fd2 4d3e 1078 b8bc 6e67 64bd 929f 163e
00000340: 1005 bebd f650 79bd 98ca 833d 09f7 1d3e
00000350: a042 543c a97a d53c 0433 e13d e7f7 cbbd
00000360: 6b41 20bd c9b6 733d 9257 263d 3ac0 e03a
00000370: 2e14 a5bb fdf3 1e3e 9cb5 443e a584 443e
00000380: ec2f ce3d 4c58 173d 1152 fc3c 27cc d73d
00000390: 9f3a 033c c5f8 e23c aee8 a13d 8ef2 41bd
000003a0: 1dde be3d ba63 a93d 180b 82bd 788b 5c3d
000003b0: 71f6 193c e65d dc3d 662a cf3a 2cf8 92bd
000003c0: 61fc 933d 9e9c fd3d 20ea fdbd e0c6 913d
000003d0: 267b 783d 2a46 ae3c 9886 9bbd 3810 b73c
000003e0: a082 96bd b0d8 d2bd 27f8 eb3d e90e 623d
000003f0: 6096 2a3e 60f0 0a3e 78df eabd d7de 963d
-0.049012594 0.08680273 0.030969068 -0.07785485 -0.013167774 -0.03428189 0.109232195 -0.024862282
0.0028183477 -0.07607257 0.02622158 0.023471387 0.04621194 -0.07350888 -0.13389568 0.06836405
0.032277077 -0.029581921 -0.091252595 -0.09402521 0.05231588 0.11354925 0.09911667 -0.034882557
0.07359201 -0.06387243 0.12872502 -0.016230829 -0.06265739 -0.06436239 -0.050363645 -0.23126712
0.031368583 -0.009703291 -0.11830081 -0.03182792 0.08418439 0.11275877 -0.04851055 -0.03581239
0.1345568 -0.035892565 0.06972811 0.11362609 0.10148072 -0.13551702 0.15043625 -0.076465875
0.018774478 -0.063158184 0.11526699 0.0813938 -0.060181234 -0.09784152 0.073813215 0.06326942
0.009869559 -0.13180138 0.090631016 0.2211897 -0.078703456 0.09569675 -0.028917395 -0.040954065
0.10521229 -0.0007537073 0.14157777 0.016528087 -0.0673167 0.06998099 -0.025423143 0.04065188
-0.04063105 -0.112254255 -0.11971858 0.085672505 0.03290028 -0.18563822 0.013352761 0.009191424
-0.06815875 -0.014558162 -0.21595572 -0.021782925 0.08081433 0.051919233 0.007608755 0.014465105
0.11493681 0.18650794 0.07517036 0.0028004558 0.077197865 0.028798202 -0.056677017 0.11051307
-0.12411126 -0.11893337 -0.12117828 0.082527705 0.018878192 0.07180176 -0.0042325626 0.084309295
-0.016445814 -0.064359345 0.12083405 -0.09168193 -0.009659443 0.041053202 -0.0022996294 0.08036448
-0.10861204 0.022110388 0.10926636 0.04059762 -0.041543275 0.115721956 -0.075480685 0.05772966
0.018970435 -0.14795941 0.073667146 0.14876544 0.18770295 0.04793086 -0.05338679 0.053450078
0.06296696 -0.109678656 -0.016992286 0.015869005 0.007564148 0.08928672 0.10642363 0.09001272
-0.08675847 0.0061747204 0.07377854 -0.0326327 0.08766139 0.0758554 0.1825732 0.087671
0.017301511 -0.002378597 0.07588565 -0.0032805875 0.021994933 0.022994978 -0.05381503 0.101683214
-0.09450479 -0.002876635 -0.06908958 0.100334615 -0.15167512 0.11465633 0.05572705 0.022539498
0.023143034 -0.12272141 0.024691261 0.07933603 0.16521935 -0.10774459 -0.10941465 0.083933145
0.00085017266 0.12785006 0.10856942 0.015549176 0.043219026 0.12285037 0.070033036 -0.026887296
-0.028606746 0.036718596 -0.113900095 0.19618326 -0.059086703 0.0050612385 0.021185922 -0.17974696
0.07395396 -0.006067747 0.014402965 -0.11014335 0.19250968 -0.15818873 0.04333515 0.08254666
0.06515075 -0.053949386 0.0075528543 -0.08154452 0.012223212 0.10309446 -0.030273005 0.091925904
0.04662899 0.15556258 0.06980362 0.07236655 0.20099758 -0.022518188 -0.0557627 0.14709309
-0.09278309 -0.060868226 0.06435126 0.15426268 0.012955338 0.026059465 0.109960586 -0.09959393
-0.039124887 0.05950049 0.040610857 0.0017147132 -0.005037806 0.15522762 0.19209903 0.19191225
0.10067734 0.03694944 0.030800851 0.10536986 0.008009582 0.027706513 0.07905708 -0.04735046
0.093197085 0.082709745 -0.06349772 0.053843945 0.009397135 0.10760097 0.0015805482 -0.07176241
0.07225872 0.12383388 -0.123981714 0.071180105 0.06066432 0.021273691 -0.07594031 0.0223466
-0.073491335 -0.10295236 0.11521941 0.05519 0.16658926 0.13568258 -0.114684045 0.07366722

bias f4 [128]
00000000: 86f3 a13c cb1f b73c e346 0dbd 491f 3b3c
00000010: e3e0 343c e88c fe3c d668 163c e389 d03c
00000020: 6960 56bc 2ab2 f7bc 18ac 203d a4a0 3b3c
00000030: 113b cc3c a83c 733d 1a65 56bc 3ffb d53c
00000040: 33e6 f5bc 9756 823c caab eb3b 9650 2ebc
00000050: f46d e13b 9052 11bd 3db0 863c 560b a13c
00000060: 27ed c03c 6501 3b3d 8455 1c3d 77bd 6a3c
00000070: c99c 903c c8c0 473d 154d 9f3c be03 1bbc
00000080: 3087 1d3d 85ce 5cbd 5515 fd3c 41f1 dbbc
00000090: 4a95 d33c eae0 533c b28f 243d fcfe 96bc
000000a0: 5911 08bd 8e13 febc 01a8 afbc 3a5a f93b
000000b0: 20ec f2bc 1d00 733d 6257 ed3c 742e 023d
000000c0: f500 113d fb94 78bc c11d f13c 56a9 8b3c
000000d0: c73a d53c 7486 6d3d bf7a a03c 9f8d a63b
000000e0: 2630 473d e0a7 3d3d 707b 903c 4f40 503c
000000f0: ef89 d8bc 8e8d 4b3d 5a22 cbbc 108d 0dbd
00000100: c1df dfbc 2049 003d 40c7 523c c355 323d
00000110: 5dee 193d c24b 263d d064 193c 6d8f 4c3b
00000120: 3cc8 393d 65d1 0c3d ef4a 3a3c e7b1 cd3c
00000130: ee26 043d 4022 663c 8135 673d e792 f43c
00000140: d33e 743d 1e40 b4bc 56c7 d03c 4458 353d
00000150: 343d 373c 9002 d53c ebc7 84ba 4480 b4bc
00000160: 998d fb3c d0ec 7a3c 49c3 21bd d8e9 233d
00000170: 2837 173c a94b a83c a80b 213d 4f71 d73c
00000180: 420b 01bd 0c71 273d 4b63 e83c 70a7 24bd
00000190: bbab 3d3d 7e1b ec3c de1b 1ebd 6393 0d3c
000001a0: 93b1 f53c 3050 843c 6964 473d e9b1 de3c
000001b0: 7ae5 053c 18a9 8a3c 1b52 8bbb 3aa2 243c
000001c0: a25a 5e3d fd17 dd3c 0656 ee3b 1975 533c
000001d0: 8b6d 9e3c 6602 de3c 55a0 5f3b 5f19 c1bc
000001e0: 1db1 94bc 4b7a dbbb b581 083d ba35 123c
000001f0: b0e4 233d 5c40 b53c b054 bdbc 352d 16bc
0.019769441 0.022354027 -0.03449143 0.011421033 0.011039945 0.031073049 0.009180268 0.025456375
-0.013084509 -0.030236322 0.03922662 0.011451874 0.024930509 0.05938402 -0.013085628 0.02612078
-0.030016994 0.01591043 0.0071921097 -0.01063933 0.0068795625 -0.03547913 0.016441459 0.019658726
0.023550583 0.045655627 0.03816749 0.0143273985 0.017652886 0.048767835 0.019445935 -0.009461341
0.038459003 -0.05390789 0.030893961 -0.026848437 0.025828023 0.012932042 0.0401761 -0.018432133
-0.03321967 -0.031015184 -0.021442415 0.007609633 -0.029653609 0.05932628 0.028972331 0.031782582
0.035401303 -0.015172238 0.029433133 0.01704852 0.026029004 0.057989553 0.01958978 0.0050828005
0.048629902 0.046302676 0.017636985 0.012710645 -0.02643296 0.049695544 -0.024796654 -0.034558356
-0.027328374 0.031319737 0.012864888 0.04353882 0.037580837 0.040599592 0.0093624145 0.0031213418
0.045356974 0.03437938 0.011370405 0.025109245 0.03226369 0.014046252 0.05644751 0.029855205
0.059630226 -0.02200323 0.025485676 0.04427363 0.011184026 0.026002198 -0.0010130381 -0.022033818
0.030707167 0.01531525 -0.03949288 0.040017933 0.009229459 0.02054389 0.039317757 0.026299147
-0.031504877 0.040879294 0.02836766 -0.040198743 0.046306353 0.028821703 -0.038600795 0.008641097
0.0299919 0.016151518 0.048679743 0.027184444 0.008172387 0.016926333 -0.004251731 0.010048443
0.054285653 0.026988978 0.0072734384 0.012906336 0.019339344 0.027100753 0.0034122665 -0.023571668
-0.01815086 -0.006697928 0.033326823 0.008923942 0.040013015 0.022125416 -0.023111671 -0.009166052

weight f4 [24, 128]
00000000: 6627 913e 691e 57bd 6b8a 54be f021 0e3d
00000010: 901a ad3e 9a21 dcbd 82e9 5c3e 1caf 8e3e
00000020: b792 893e 994b 93bd 6595 fdbd 9f88 3c3c
00000030: c693 0bbe 8f4b f9bc 6494 593d 0ef0 673e
00000040: 7b29 593b 1c4a 373d d723 52be 156d 50bc
00000050: d0b8 d03c 52a6 f8bd 88d0 70be 9897 823e
00000060: 29b9 b0be 059c fd3d ac52 81be 6138 d9be
00000070: 7465 243d a859 5dbc cc64 0d3e ba38 573d
00000080: cab8 843e 23ec bebd 8391 fe3d d7d4 18be
00000090: 56ea 2b3e 20b7 dc3d ba14 acbd 4171 e93d
000000a0: 7b3d 39bd bd39 883d 0870 1fbc 5495 fe3d
000000b0: 52b9 a6bd ee50 95bd 8988 853d 878d 4dbc
000000c0: bcf3 a23e 189e 11be 7966 72be b926 c83d
000000d0: dcfe 1dbe 406c 0bbf 848f 1bbe 5673 3e3e
000000e0: ff02 4fba e2cd 40be 1422 d5bd 8286 cdbd
000000f0: 655d e2bb f0b3 1abe 4ad1 e4bd 75c6 3dbd
00000100: 2fd1 fdbd 4331 593e 2965 023e 19a1 31be
00000110: e2e6 803d 528e 683e ca10 6a3e 36d2 d33e
00000120: 05a3 cfbd d3f6 843e a43e 2a3e 7788 df3d
00000130: 6039 dcbd 2a96 b83c a15a 41be 04e4 95bc
00000140: 96a1 423e cf52 1c3d 4218 ca3d 9c92 d13e
00000150: 4e0a 05be 0df1 99be b7f8 6abe abf3 a23d
00000160: 1649 a63a f9e1 8cbe 108e 823d 32bd f83c
00000170: e1c0 2abe 385b 7c3c 3db5 da3e a981 44be
00000180: f86a 07bc f633 123b 1efa 4d3e 01c9 92bd
00000190: ca3e b3be e220 cfbd 3531 90bd 31d7 0f3e
000001a0: a681 96bd 81eb f93d 146a 92be 53f2 99bd
000001b0: a05a 803e 30ba 6dbd 83c0 f1bd c295 95be
000001c0: 7b40 b43d 7ee4 d8be 0712 223e 300e 6b3e
000001d0: e045 ec3c 4e00 d3be 5dd6 993d 4541 92bd
000001e0: fe5c 5f3d 49df f33e 8901 75be 46a9 c73e
000001f0: bb45 873e 785c 9cbc 841f ff3d 1351 8ebd
00000200: 4958 0c3e 1336 63be 86da eb3d 189c 6a3c
00000210: f7d9 aa3d 1db0 1f3e c8bd db3b 40ff 663e
00000220: b79d 403e af8e f7bd ca72 acbd 0944 653e
00000230: 36ec c03d d37b 62bc b0af 033e 39d1 d3bc
00000240: 0781 f2bc 98c5 a03e 3f00 e9be 661c 013e
00000250: 942a 703d 5ecd 853d c165 37bc f484 b13e
00000260: 07f4 73be f144 3fbd 9015 e2bd ccef 55be
00000270: 818a 433d f8a4 643d 5e29 acbd 6d28 35be
00000280: 54c9 523a 40e4 bcbd 9d8e 953b 77e2 0f3e
00000290: 1805 483b 4786 e83d 8162 96be d571 773e
000002a0: eced fd3d ecb0 643e c4b8 9c3d c3a8 fb3c
000002b0: 2eb9 2a3e 0f43 273e 8ba0 983a 4756 3c3d
000002c0: df26 cd3e b74e 8f3e 706f 31bd bf5c 893e
000002d0: 3a6f 2ebe 4af0 08bf 605d 5fbc 087f 80bc
000002e0: ec51 10be e76a 8bbd fdcd 13be b86a d03d
000002f0: 75e6 a33d 443a 3b3e 5c98 4abc c9d1 ff3d
00000300: 7724 f63c 7efb b23c 2ad6 0d3e 181d c5bd
00000310: c9a4 4a39 b7ee 9e3e 4bca af3e fe94 7b3e
00000320: 6bda 49be a9a6 db3e 43b7 a9bc b568 983d
00000330: b97f 61bc 2909 1c3c 3168 ebbd c274 3b3e
00000340: adc4 4e3e 536c 40be ddf9 e63d 780c 2b3e
00000350: 145a 09be 79f4 d8be b8a2 18bf 4974 cc3d
00000360: 6af2 62be b0c7 8dbe 278b 9f3d fc86 113e
00000370: ab8a 053e 514d 013e ccac 493e 6bac 60bd
00000380: 8028 2a3c dbf1 363e fc7d c13e 2af7 23bc
00000390: b8fa 27be 589a 20be 03ae 673d af13 3abd
000003a0: f591 ee3d 803e f63d 20cc 7c3e 699b 89bd
000003b0: a0fd 833d cef9 963e 0dde bb3e 0e02 373d
000003c0: 3cca 2f3e a68d f0be acb4 873d fb37 80be
000003d0: 7e15 2b3d f384 e63c dc18 ac3c 672b 6abc
000003e0: 08c9 9cbc d110 783e c9f8 82be 8d7c fb3b
000003f0: 2691 2d3e 57d2 d53b eb9b 453d d25d 893d
0.2835037 -0.052519236 -0.20755927 0.034700334 0.33809328 -0.107485965 0.21573451 0.27867973
0.26869747 -0.071921535 -0.1238201 0.011507182 -0.1363059 -0.030431537 0.053120032 0.22650167
0.0033136297 0.04474841 -0.20521484 -0.01272132 0.02547875 -0.12141098 -0.23517048 0.25506282
-0.34516266 0.12383274 -0.25258386 -0.42425826 0.040135816 -0.013510145 0.13807982 0.052544333
0.25922233 -0.09322383 0.12430098 -0.14924942 0.16788611 0.10777116 -0.08402391 0.113985546
-0.045224648 0.06651638 -0.0097313 0.12430826 -0.08140816 -0.07290827 0.06520183 -0.01254595
0.3182658 -0.14220464 -0.23671903 0.09773011 -0.15429252 -0.5446205 -0.15191466 0.18598685
-0.000789687 -0.18828538 -0.104068905 -0.10035421 -0.006908106 -0.15107703 -0.11172731 -0.04633184
-0.12393414 0.21210198 0.12733902 -0.1734661 0.062940374 0.22710541 0.22857967 0.41371316
-0.101385154 0.25969562 0.16625458 0.109147005 -0.10753131 0.022532541 -0.18882228 -0.018297203
0.19006953 0.03816491 0.09867908 0.40932167 -0.12992212 -0.3006672 -0.2294644 0.07956632
0.0012686576 -0.27516153 0.063747525 0.030363653 -0.1667514 0.015402608 0.427164 -0.19190086
-0.008265249 0.0022308803 0.20114943 -0.07167245 -0.35008842 -0.10113694 -0.070406355 0.14046933
-0.07348947 0.12203122 -0.28596556 -0.07516923 0.2506914 -0.05803889 -0.11804297 -0.2921582
0.08801361 -0.42361826 0.1582719 0.22954631 0.028841913 -0.4121117 0.0751159 -0.071413554
0.054532044 0.4763129 -0.23926367 0.38996333 0.26420388 -0.019087061 0.12457183 -0.069490574
0.13705553 -0.22188596 0.115162894 0.014319442 0.08342355 0.15594526 0.0067059733 0.22558308
0.18810163 -0.120877616 -0.08420332 0.22389235 0.09420054 -0.013823467 0.12859988 -0.025856601
-0.02960254 0.31400752 -0.45508 0.1260849 0.058634356 0.06533311 -0.011193694 0.34671748
-0.23823558 -0.046696607 -0.11039269 -0.20892256 0.04773951 0.05582139 -0.08406328 -0.17691202
0.00080408645 -0.09223223 0.00456412 0.14051233 0.0030520614 0.11353736 -0.29372028 0.24164517
0.123988956 0.22333115 0.07652429 0.03072012 0.16672203 0.16334175 0.0011644525 0.045980718
0.4006872 0.27989742 -0.043319166 0.26828572 -0.17034617 -0.5349165 -0.013633102 -0.015685573
-0.1409375 -0.068074994 -0.14434047 0.10176605 0.080029406 0.18283945 -0.012365427 0.12491185
0.030046685 0.021848436 0.13851228 -0.0962469 0.00019325608 0.310415 0.34334025 0.24568555
-0.19712226 0.4290059 -0.020717269 0.07441846 -0.013763362 0.009523668 -0.11494482 0.18306258
0.20192213 -0.18791322 0.112781264 0.16703975 -0.13413268 -0.42374018 -0.5962329 0.09983117
-0.22162786 -0.27691412 0.07790213 0.14211649 0.13041179 0.1262715 0.19694823 -0.05485193
0.0103856325 0.17865698 0.3779143 -0.010007659 -0.16404235 -0.15683877 0.056562435 -0.045428928
0.11648933 0.1202364 0.24687243 -0.06719095 0.064448595 0.2948746 0.3669285 0.044679694
0.1716699 -0.4698307 0.06626257 -0.2504271 0.041768543 0.028139567 0.021007948 -0.0142925745
-0.019138828 0.24225165 -0.25580433 0.0076747597 0.16949901 0.0065253186 0.048244398 0.06707348

bias f4 [24]
00000000: 1151 40bd 9e8b 6b3c 2a22 9dbc 816c 403d
00000010: 5b18 0dbc 483c 5ebd 50b8 6ebc 4284 3cbc
00000020: 424b 063c c6f4 2dbd dbda 153b 26e8 0e3c
00000030: a85e 83bc a4a5 d63c e232 113b 876b 9a3c
00000040: dfbe 873c a646 143c ce6b a83c 7dce 183b
00000050: 70c5 253d 55e9 ab3c 356c 063c c866 b43a
-0.04695231 0.014376549 -0.01918133 0.046978477 -0.008611764 -0.054256707 -0.014570311 -0.011506142
0.008196654 -0.042469762 0.0022866044 0.008722341 -0.016036347 0.02620203 0.0022155573 0.018850101
0.016570507 0.009050047 0.020559218 0.0023316436 0.040471494 0.020985285 0.0082045095 0.0013763541
