logs/test/exported/policies/policy_1.pt (torch, 817736 bytes, 8 tensors)

weight f4 [512, 66]
-0.002392164 0.06454659 -0.107418425 0.17262615 0.18184899 -0.27034432 -0.32651255 -0.0032800348
-0.039653294 -0.10924768 -0.08137533 -0.28232417 0.12434256 -0.1073024 0.032238353 0.049658198
-0.16926312 0.037527617 0.16430667 -0.086173266 0.038133025 0.057091787 -0.033585038 -0.046267517
-0.01869307 0.008478921 0.088639416 -0.015793951 -0.17013556 0.027078051 0.08692765 0.11215868
0.15539439 0.13461436 -0.15150085 -0.052643042 -0.11974182 -0.15516287 -0.19201016 0.07500407
-0.08527871 0.1565281 0.41077834 -0.034809165 0.051578615 0.05827716 -0.02258776 0.11175198
-0.0050898683 -0.115194485 -0.008375677 0.022547225 -0.023894288 -0.037355855 0.2378141 0.005530055
0.019451998 0.008021406 0.065855145 -0.065904565 0.21913858 -0.038138606 0.03156934 -0.06970349
-0.08115259 -0.04198915 0.011420019 0.05127547 -0.021398634 0.07108607 -0.34302068 -0.23756887
-0.09787152 0.049603853 -0.019926967 -0.024770731 -0.10308229 0.35916093 0.037751082 0.00013131827
0.07771261 -0.011843266 -0.038402647 0.076255865 0.27122733 -0.08736253 -0.07239063 0.12457772
-0.03922187 0.0290405 -0.019863004 0.06137201 -0.035911098 -0.18064453 0.07060111 -0.0676459
-0.030407093 -0.17633955 -0.04388914 0.013373486 -0.00690529 -0.06606256 0.08345824 0.10061724
0.00014731052 0.061658554 -0.010949301 -0.04584143 0.054692894 0.20469694 -0.1295866 -0.036775548
0.020233516 0.005381568 -0.14598127 0.08217418 0.010484486 -0.12451823 0.03530483 0.046756156
0.13852428 -0.027167447 0.047218174 0.04407759 0.058702733 -0.014916542 0.09848086 0.121122286
-0.0329802 -0.09674248 0.06570323 0.055300802 -0.11232148 0.045670282 0.011832349 0.23870896
-0.18827938 -0.01140128 -0.20954719 0.009975098 -0.060652316 0.070236616 -0.040631168 0.42807665
0.037135154 -0.2640042 -0.054176215 0.20144227 -0.19329673 -0.07845212 0.12063327 -0.0070326887
-0.12371904 -0.02069532 0.035157863 0.08620157 0.019312618 -0.08368768 -0.028073309 0.076332144
-0.02746233 0.05345797 0.08108259 -0.09721324 0.043593507 0.038520083 0.02730605 0.06042951
0.17643073 0.2806444 0.12162482 -0.028340617 -0.010779847 0.034580212 -0.029987447 -0.0173207
0.04407995 -0.13609742 -0.06930212 -0.07902589 0.063382424 0.00021100063 -0.07753659 0.041491155
0.12554604 0.01528727 0.053053394 0.036860414 -0.0240577 -0.04232854 -0.0030920915 0.10790615
-0.11097165 0.030906653 0.027823944 0.052771315 0.06821145 0.056581598 -0.0035566126 0.12649056
-0.18284811 0.0437632 0.01227985 -0.18504655 0.22493102 -0.13340342 0.06565887 -0.12942204
-0.14581884 0.07375994 0.112923615 0.18301952 -0.00060973066 0.26317936 0.007743634 0.026274486
0.10238956 0.09333022 -0.099208854 -0.17172325 -0.027128696 -0.100054696 -0.057094164 0.07956535
0.14626959 0.2684755 -0.037369803 0.09180535 0.055132445 -0.13090324 0.050496165 -0.18313436
0.0003276358 -0.004130055 0.17285714 0.18810104 0.032324504 0.031690594 -0.054368705 -0.11945533
0.19280028 0.05613694 -0.07271576 -0.045025002 0.036593888 -0.01766485 0.014539308 -0.05564883
-0.0018440897 0.030018361 -0.03542984 6.4712185e-05 0.09570349 0.085388035 -0.05859787 0.06122836
00000000: dac5 1cbb 0131 843d 31fe dbbd e9c4 303e
00000010: 9f36 3a3e 926a 8abe a72c a7be daf5 56bb
00000020: 7e6b 22bd 3fbd dfbd 1ca8 a6bd cb8c 90be
00000030: 50a7 fe3d 5cc1 dbbd 5d0c 043d 6566 4b3d
00000040: 5053 2dbe 8fb6 193d 0240 283e 9c7b b0bd
00000050: 6031 1c3d 14d9 693d 7790 09bd 0283 3dbd
00000060: 3622 99bc 2ceb 0a3c 9588 b53d 5162 81bc
00000070: 0438 2ebe cad2 dd3c 2007 b23d 73b3 e53d
00000080: b51f 1f3e 59d8 093e 0a23 1bbe 3ba0 57bd
00000090: 333b f5bd 04e3 1ebe 509e 44be bc9b 993d
000000a0: 9ba6 aebd e748 203e 8a51 d23e 0e94 0ebd
000000b0: 1944 533d 08b4 6e3d f709 b9bc 39de e43d
000000c0: e9c8 a6bb 16eb ebbd 233a 09bc f5b4 b83c
000000d0: f4bd c3bc 7402 19bd 8a85 733e 7735 b53b
000000e0: cc59 9f3c 376c 033c 10df 863d f9f8 86bd
000000f0: dd65 603e 3a37 1cbd da4e 013d b4c0 8ebd
00000100: 5433 a6bd d1fc 2bbd 081b 3b3c 3a06 523d
00000110: 304c afbc 9395 913d 68a0 afbe 4145 73be
00000120: dd70 c8bd 692d 4b3d e13d a3bc fdeb cabc
00000130: cf1c d3bd f1e3 b73e e1a0 1a3d 7bb2 0939
00000140: ca27 9f3d 420a 42bc 184c 1dbd 092c 9c3d
00000150: 4fde 8a3e 20eb b2bd 8a41 94bd 9b22 ff3d
00000160: 1da7 20bd 58e6 ed3c bdb7 a2bc 3761 7b3d
00000170: 8417 13bd e1fa 38be 5197 903d ef89 8abd
00000180: 4c18 f9bc 5b92 34be 19c5 33bd 771c 5b3c
00000190: c545 e2bb cf4b 87bd 27ec aa3d 6910 ce3d
000001a0: 5e77 1a39 ae8d 7c3d b264 33bc 39c4 3bbd
000001b0: a805 603d 139c 513e 5ab2 04be f5a1 16bd
000001c0: c2c0 a53c dd57 b03b 1d7c 15be f04a a83d
000001d0: 1fc7 2b3c 6a03 ffbd cc9b 103d 6283 3f3d
000001e0: 4fd9 0d3e 448e debc d867 413d b48a 343d
000001f0: 4772 703d 8364 74bc 55b0 c93d f60e f83d
00000200: 3f16 07bd ec20 c6bd 6a8f 863d 1883 623d
00000210: ce08 e6bd c310 3b3d 78dc 413c 1f70 743e
00000220: 4fcc 40be 6fcc 3abc 8a93 56be 986e 233c
00000230: 906e 78bd 37d8 8f3d de6c 26bd dd2c db3e
00000240: 081b 183d 8f2b 87be e1e7 5dbd e246 4e3e
00000250: 94ef 45be 81ab a0bd 930e f73d 7872 e6bb
00000260: 6860 fdbd 3b89 a9bc b101 103d 738a b03d
00000270: 7f35 9e3c 7264 abbd fff9 e5bc 0754 9c3d
00000280: aef8 e0bc bff6 5a3d a10e a63d bc17 c7bd
00000290: 1b8f 323d 3cc7 1d3d f0b0 df3c ef84 773d
000002a0: 42aa 343e 9fb0 8f3e 6f16 f93d 952a e8bc
000002b0: f59d 30bc fba3 0d3d 3ca8 f5bc 24e4 8dbc
000002c0: 2d8d 343d 1f5d 0bbe 45ee 8dbd 53d8 a1bd
000002d0: a5ce 813d 0d40 5d39 81cb 9ebd a1f2 293d
000002e0: 248f 003e 7577 7a3c 844e 593d f2fa 163d
000002f0: a714 c5bc b160 2dbd b0a4 4abb e6fd dc3d
00000300: 1b45 e3bd f32f fd3c 0aef e33c bc26 583d
00000310: 72b2 8b3d 1bc2 673d 0f16 69bb be86 013e
00000320: 893c 3bbe 0b41 333d 6d31 493c d87c 3dbe
00000330: 5154 663e e89a 08be 2878 863d 3687 04be
00000340: 8951 15be 740f 973d 7f44 e73d 7869 3b3e
00000350: 55d6 1fba 72bf 863e 4fbe fd3b 973d d73c
00000360: 9eb1 d13d ea23 bf3d 032e cbbd 38d8 2fbe
00000370: 003d debc 7ae9 ccbd 92db 69bd 29f3 a23d
00000380: b2c7 153e 9f75 893e 1411 19bd 7104 bc3d
00000390: 8fd2 613d 800b 06be 11d5 4e3d 9387 3bbe
000003a0: 88c6 ab39 6a55 87bb 7601 313e 8f9d 403e
000003b0: b366 043d ffcd 013d b8b1 5ebd ffa4 f4bd
000003c0: 706d 453e d9ef 653d 00ec 94bd 236c 38bd
000003d0: 79e3 153d e0b5 90bc 4736 6e3c 07f0 63bd
000003e0: 62b5 f1ba 11e9 f53c e11e 11bd 17b6 8738
000003f0: 3100 c43d ecdf ae3d 5204 70bd 97ca 7a3d

bias f4 [512]
-0.0031119294 0.015936343 0.039628312 -0.0032449625 -0.0013881401 -0.01758455 0.009891799 0.016566867
-0.008407939 -0.007436167 0.015748622 -0.014746821 -0.004083829 -0.002301185 0.020750986 -0.007616721
-0.017857013 -0.03763669 -0.0038102681 -0.03433333 -0.007159101 0.016877254 0.029508878 -0.020903425
-0.04117276 -0.0065785553 -0.008900216 -0.0013714841 -0.0207591 0.0016244064 -0.010337201 0.012853915
0.00040746317 -0.007116718 -0.008785029 -0.0035543325 0.03721593 0.01215828 -0.0060546286 -0.028008703
0.02000013 -0.012213099 -0.0076071965 0.025256464 0.0065559335 -0.014070713 -0.0024728582 -0.03544205
-0.013488099 -0.0029142897 0.0032609543 -0.00078283367 -0.030090641 0.026018487 -0.03287552 -0.012547808
0.006674298 0.01280088 -0.0005811771 -0.0322689 0.014807756 -0.003002034 -0.00017755269 -0.04591813
-0.019082299 -0.0023714073 -0.02304186 0.017151518 -0.0032534422 0.020155784 -0.02246823 -0.017691193
0.0093239155 0.03332379 0.0019266249 0.023353519 -0.012283234 -0.015054731 0.005306516 0.010562641
-0.013354501 0.001079272 0.0085022785 0.0135871405 -0.02326204 -0.0012922189 0.011002282 0.01309262
-0.018671283 0.00018329942 -0.0126458565 0.044659052 0.025929745 -0.015921986 -0.0010043079 0.01100602
-0.02952757 -0.010636095 -0.02296491 0.016578438 0.020026859 0.0002612857 -0.009665562 0.03517288
0.018546276 -0.02907697 -0.007412957 -0.024756301 -0.03833988 0.013127993 -0.030274691 0.004529125
-0.012595092 -0.023777632 -0.0024112645 -0.011404303 0.018879358 0.035059206 -0.044147506 0.02436328
-0.0051093134 -0.00061918626 -0.009444132 -0.000839386 0.002869459 -0.012504478 0.0036527715 -0.007929236
-0.010073361 -0.010058459 -0.041249637 0.00080050854 0.03083812 -0.00034188328 -0.0069527924 -0.039545305
-0.007940835 0.023893336 0.0071883537 0.011601929 -0.01402923 -0.009534428 0.019197805 -0.037276104
-0.006938984 -0.011891112 0.008237581 -0.026371416 -0.026034642 -0.007915342 0.004271092 -0.007818491
0.0042444244 0.016257135 -0.0047923047 0.018096864 0.008255723 -0.0043246276 -0.024296414 -0.04083538
0.010908947 -0.010898247 0.009485869 -0.015158117 0.00727902 0.016899565 0.00087646465 0.026492504
-0.039711956 0.0008574871 0.009841439 0.021383192 -0.0068824943 0.02161658 0.0045801005 -0.016120665
0.025226478 -0.012301733 -0.007875843 0.0028801751 -0.017594958 -0.03739647 -0.0159387 0.0129383085
0.009926857 -0.0034889271 0.025089473 -0.02501902 0.020901028 0.052527245 0.0009541424 -0.01858151
-0.022179177 -0.023496587 0.012450944 -0.003059584 -0.0044884332 0.029759258 0.046576615 -0.0037098522
-0.00053396926 -0.0038522943 -0.019927215 0.005603127 0.02571164 -0.0323702 0.01063436 0.018302403
-0.015790747 0.017247504 0.0079136435 -0.015341027 0.021493228 0.011457653 0.0054804957 -0.0065570273
0.015926277 0.017788291 -0.0121396165 0.0027461313 -0.0139445765 0.015902009 -0.027949309 -0.032445084
-0.03168005 -0.017520096 -0.01074362 -0.0016562085 0.032827727 -0.012421838 -0.02055976 0.004587521
-0.023917072 -0.0067398185 -0.006871336 0.0022621164 -0.017625663 0.023059847 -0.007415665 0.007035168
0.003157392 -0.020660678 0.00093273056 0.00459079 -0.004604489 -0.012638103 -0.007806136 0.016938355
0.015355361 -0.00084670685 0.021326276 0.00062319 0.0343843 0.0026444488 -0.025883306 0.01793419
00000000: 83f1 4bbb ef8c 823c 4c51 223d 70a9 54bb
00000010: 41f2 b5ba 790d 90bc 3611 223c 3db7 873c
00000020: 74c1 09bc 17ab f3bb 4103 813c a69c 71bc
00000030: a4d1 85bb 7acf 16bb f9fd a93c b095 f9bb
00000040: df48 92bc ee28 1abd b1b5 79bb 1ba1 0cbd
00000050: e496 eabb 2b42 8a3c 9abc f13c a93d abbc
00000060: c5a4 28bd ec90 d7bb 36d2 11bc 5fc3 b3ba
00000070: fd0e aabc 09ea d43a 5d5d 29bc 3a99 523c
00000080: c8a0 d539 5c33 e9bb 15ef 0fbc ceef 68bb
00000090: bb6f 183d 8633 473c e865 c6bb 8272 e5bc
000000a0: 50d7 a33c 7319 48bc ca45 f9bb a5e6 ce3c
000000b0: 28d3 d63b d988 66bc ad0f 22bb af2b 11bd
000000c0: 30fd 5cbc abfd 3ebb bcb5 553b 1437 4dba
000000d0: a680 f6bc b924 d53c 7ba8 06bd 5295 4dbc
000000e0: 12b4 da3b c8ba 513c 235a 18ba 652c 04bd
000000f0: 3b9c 723c c6bd 44bb 702d 3ab9 a614 3cbd
00000100: 7b52 9cbc 9d69 1bbb 48c2 bcbc 5781 8c3c
00000110: b437 55bb be1d a53c 4b0f b8bc 1fed 90bc
00000120: 56c3 183c 877e 083d ce86 fc3a e14f bf3c
00000130: 9e3f 49bc 1ea8 76bc 48e2 ad3b ed0e 2d3c
00000140: d6cc 5abc 5c76 8d3a 244d 0b3c 999c 5e3c
00000150: 0990 bebc ac5f a9ba ea42 343c 6e82 563c
00000160: 85f4 98bc 1034 4039 9130 4fbc 69ec 363d
00000170: 9e6a d43c d36e 82bc fba2 83ba 9852 343c
00000180: cde3 f1bc 0443 2ebc e820 bcbc 81cf 873c
00000190: 5e0f a43c 2cfd 8839 4e5c 1ebc 7011 103d
000001a0: 5cee 973c d332 eebc 64e8 f2bb bacd cabc
000001b0: 470a 1dbd cb16 573c a102 f8bc 0e69 943b
000001c0: a55b 4ebc 4fc9 c2bc 4e06 1ebb 1dd9 3abc
000001d0: e2a8 9a3c 3e9a 0f3d 04d4 34bd 8095 c73c
000001e0: 076c a7bb e350 22ba 90bb 1abc 3e0a 5cba
000001f0: 890d 3c3b 95df 4cbc 5663 6f3b a0e9 01bc
00000200: bd0a 25bc 3ccc 24bc 61f5 28bd 38d9 513a
00000210: 3aa0 fc3c cc3e b3b9 40d4 e3bb 42fa 21bd
00000220: 471a 02bc f5bb c33c 488c eb3b 0416 3e3c
00000230: dbda 65bc 4a36 1cbc b744 9d3c d4ae 18bd
00000240: 6b60 e3bb f0d2 42bc ebf6 063c de08 d8bc
00000250: 9a46 d5bc 5aaf 01bc 84f4 8b3b 2119 00bc
00000260: d014 8b3b af2d 853c c408 9dbb e03f 943c
00000270: 0343 073c 9bb5 8dbb 4609 c7bc 0043 27bd
00000280: 71bb 323c 908e 32bc 9e6a 1b3c c059 78bc
00000290: d884 ee3b f570 8a3c 8cc2 653a cf06 d93c
000002a0: 01a9 22bd fcc8 603a fd3d 213c ce2b af3c
000002b0: 8c86 e1bb 4115 b13c ab14 963b 7c0f 84bc
000002c0: c2a7 ce3c 358d 49bc ae09 01bc 52c1 3c3b
000002d0: 4d23 90bc 0a2d 19bd e091 82bc 33fb 533c
000002e0: 42a4 223c 7ca6 64bb 7088 cd3c b0f4 ccbc
000002f0: a238 ab3c cf26 573d 6a1f 7a3a 4038 98bc
00000300: 1bb1 b5bc ea7b c0bc 0bff 4b3c 4d83 48bb
00000310: b513 93bb b0c9 f33c 1fc7 3e3d fe20 73bb
00000320: 12fa 0bba c676 7cbb 663e a3bc 709a b73b
00000330: 38a1 d23c 9d96 04bd bd3b 2e3c ecee 953c
00000340: 995b 81bc a34a 8d3c 3aa8 013c ee58 7bbc
00000350: 9112 b03c e1b8 3b3c bb95 b33b 55dc d6bb
00000360: d377 823c c0b8 913c 3ee5 46bc 70f8 333b
00000370: cb77 64bc ee44 823c f3f5 e4bc 23e5 04bd
00000380: f1c2 01bd 4e86 8fbc 0206 30bc 2315 d9ba
00000390: 5e76 063d f784 4bbc f16c a8bc ea52 963b
000003a0: bced c3bc b2d9 dcbb f228 e1bb 0440 143b
000003b0: b263 90bc 01e8 bc3c 1bff f2bb 4487 e63b
000003c0: 3fec 4e3b 9540 a9bc 7d82 743a 566e 963b
000003d0: 41e1 96bb 0c10 4fbc 9dca ffbb 4ec2 8a3c
000003e0: 0d95 7b3c 89f5 5dba 71b4 ae3c 935d 233a
000003f0: 8dd6 0c3d 7d4e 2d3b 3a09 d4bc b9ea 923c

weight f4 [256, 512]
0.014089271 -0.01658236 -0.1403424 0.04793917 -0.047925867 0.0015354826 -0.033483777 -0.03110644
0.12152799 -0.079552725 -0.084552504 -0.090779014 -0.1352364 -0.006579473 -0.050770182 -0.04841747
0.024020245 -0.11373499 -0.044116594 -0.037797876 0.12551652 0.1213022 -0.018410709 0.030939229
-0.039770182 0.10724431 -0.052407045 -0.10742189 0.0009523148 -0.1546432 -0.08148653 0.10729468
0.12172528 -0.062356003 0.046683732 -0.075965695 -0.17163503 0.07628072 -0.011989525 -0.07699949
0.11397584 -0.070871525 0.079189226 -0.00799578 0.028515996 -0.036799893 -0.00664455 -0.06821278
-0.021804953 -0.049013533 0.047142033 -0.14371747 -0.07371362 -0.20750444 0.109860234 0.06663068
-0.030343106 -0.0076508955 -0.16686186 0.008843084 -0.029305698 0.001063528 0.15453015 -0.061647363
0.013270824 -0.032526463 0.11581532 -0.08253775 -0.03284577 -0.022036385 0.0072378763 0.066156305
0.0016467843 0.049610503 0.07990256 -0.0548051 -0.10191193 -0.065817036 0.0006207688 -0.028118966
-0.08679517 -0.06606802 0.03904527 0.024192333 -0.18994258 -0.05527178 0.104806475 0.13941953
0.087010905 -0.07807501 -0.06673887 0.06743489 0.057719562 0.15072972 0.034882717 -0.13907993
0.046421178 0.055199925 -0.050303638 -0.020234447 -0.242444 -0.011150446 0.18101452 -0.2684683
-0.059795294 -0.025599083 -0.054701563 0.06822384 0.018022547 0.013302369 0.065344095 0.06290742
-0.055566527 0.0278516 -0.10179725 0.056671035 -0.022064516 -0.06420579 -0.07984866 0.057203427
0.019976836 0.058270026 0.008330652 -0.08602035 0.0866046 -0.08200946 0.087762706 -0.08438045
0.07735449 0.13976341 0.0039432677 -0.031830188 0.047267772 -0.017461097 -0.029728804 0.0135425385
-0.027590318 0.124457076 0.10502203 -0.018026806 -0.016556285 -0.04670009 -0.110296816 -0.027571648
0.14386018 -0.06524509 0.10363136 0.035691876 0.06219676 0.064619005 0.047438 0.08247775
-0.100197494 0.01995919 0.038750827 0.0028835256 0.1019421 0.027716624 -0.09413897 -0.121092774
-0.051729195 -0.12727253 -0.0029865964 -0.031700984 -0.043710086 0.06783194 0.14414352 -0.3880634
0.017820783 0.032620724 0.0010680478 0.14827241 0.043479905 -0.040660024 0.00974306 0.19037262
0.12707858 -0.03197597 -0.0025755854 -0.027831351 0.041890573 -0.03442566 0.020652039 0.060289685
-0.094446704 0.11043313 -0.044602722 -0.034223765 0.07097413 -0.13593113 0.06588121 -0.08750834
-0.15674941 0.1789757 -0.049977932 -0.0323315 0.022595348 -0.108460836 0.23431607 -0.068210125
0.07357548 -0.00689101 0.06734548 0.056330964 -0.035863448 -0.00988349 -0.051377043 0.14146328
-0.037826583 -0.03040812 -0.17720047 0.0024632507 0.08879767 -0.07484122 -0.07912212 0.046021402
0.04536976 -0.09877636 0.0004357032 -0.26494223 9.3954746e-05 -0.017995123 -0.030440241 -0.082708865
-0.016697187 -0.043779418 -0.055454347 -0.01145554 -0.007854166 0.073353544 -0.004984684 -0.02800082
-0.0550048 0.0010054728 -0.108978726 -0.018234855 0.08045194 -0.09443427 0.009500532 -0.1441068
0.04109278 -0.16691795 0.05057924 0.08374716 -0.0020475748 -0.21518058 0.042360418 0.055784963
-0.10338103 0.013310722 0.023273885 -0.072263956 -0.2016368 0.04569738 -0.008539493 -0.086123474
00000000: b0d6 663c bbd7 87bc ebb5 0fbe dd5b 443d
00000010: ea4d 44bd 3f42 c93a 4926 09bd efd2 febc
00000020: abe3 f83d 8aec a2bd dd29 adbd 59ea b9bd
00000030: 697b 0abe 9f98 d7bb 65f4 4fbd 6651 46bd
00000040: 1bc6 c43c e4ed e8bd 9ab3 34bd f2d1 1abd
00000050: 6787 003e 4a6d f83d 0ed2 96bc 4474 fd3c
00000060: 0fe6 22bd e8a2 db3d c5a8 56bd 0200 dcbd
00000070: c4a4 793a c95a 1ebe 69e2 a6bd 50bd db3d
00000080: 1b4b f93d 0269 7fbd 7137 3f3d e793 9bbd
00000090: 18c1 2fbe 1139 9c3d b66f 44bc e9b1 9dbd
000000a0: 2a6c e93d 1725 91bd f62d a23d bb00 03bc
000000b0: 619a e93c 7cbb 16bd 86ba d9bb 24b3 8bbd
000000c0: 4da0 b2bc 6ac2 48bd 0118 413d ac2a 13be
000000d0: 2bf7 96bd 0b7c 54be 67fe e03d aa75 883d
000000e0: 1b92 f8bc 5db4 fabb d6dd 2abe 95e2 103c
000000f0: 8112 f0bc 1466 8b3a 273d 1e3e f281 7cbd
00000100: df6d 593c 783a 05bd 9530 ed3d 8d09 a9bd
00000110: 4989 06bd a685 b4bc b52b ed3b f57c 873d
00000120: e9d8 d73a 6234 4b3d f4a3 a33d 507b 60bd
00000130: 34b7 d0bd 15cb 86bd 17bb 223a bf59 e6bc
00000140: abc1 b1bd ac4e 87bd efed 1f3d 002f c63c
00000150: 4f80 42be a964 62bd c7a4 d63d fec3 0e3e
00000160: c632 b23d cae5 9fbd 64ae 88bd 4e1b 8a3d
00000170: 596b 6c3d e458 1a3e 2ee1 0e3d f86a 0ebe
00000180: 2224 3e3d 5119 623d 300b 4ebd b6c2 a5bc
00000190: 3d43 78be 5cb0 36bc df5b 393e ad74 89be
000001a0: e9eb 74bd 2bb5 d1bc bf0e 60bd f1b8 8b3d
000001b0: 05a4 933c 2ef2 593c 20d3 853d 9bd5 803d
000001c0: ba99 63bd 0a29 e43c 147b d0bd e31f 683d
000001d0: a5c0 b4bc 537e 83bd b287 a3bd 244e 6a3d
000001e0: 76a6 a33c 8dac 6e3d 497d 083c 702b b0bd
000001f0: c15d b13d 93f4 a7bd efbc b33d a8cf acbd
00000200: 086c 9e3d 241e 0f3e 8736 813b 5f60 02bd
00000210: da9b 413d 930a 8fbc d289 f3bc 86e1 5d3c
00000220: 1705 e2bc 5ae3 fe3d ca15 d73d f4ac 93bc
00000230: 0ca1 87bc 9848 3fbd 4ce3 e1bd f0dd e1bc
00000240: 1550 133e 389f 85bd ae3c d43d a531 123d
00000250: 08c2 7e3d f856 843d 594e 423d 18ea a83d
00000260: 5834 cdbd 7581 a33c 30b9 1e3d 88f9 3c3b
00000270: 05c7 d03d f90d e33c efcb c0bd 7dff f7bd
00000280: fee1 53bd bb53 02be c6ba 43bb e4d8 01bd
00000290: 5909 33bd 79eb 8a3d 5c9a 133e 3fb0 c6be
000002a0: e4fc 913c 4f9d 053d bdfd 8b3a b9d4 173e
000002b0: fc17 323d 208b 26bd 5ba1 1f3c 0af1 423e
000002c0: e320 023e 3cf9 02bd 27cb 28bb 93fe e3bc
000002d0: 7395 2b3d ec01 0dbd 772e a93c 51f2 763d
000002e0: 466d c1bd c42a e23d 58b1 36bd 382e 0cbd
000002f0: e25a 913d 8831 0bbe baec 863d 9337 b3bd
00000300: eb82 20be 6845 373e a9b5 4cbd 096e 04bd
00000310: e119 b93c b720 debd 8df0 6f3e c0b1 8bbd
00000320: beae 963d fbcd e1bb 6dec 893d 4cbb 663d
00000330: 8de5 12bd 5dee 21bc bc70 52bd c0db 103e
00000340: 0cf0 1abd 731a f9bc 0a74 35be 7d6e 213b
00000350: 8edb b53d 5b46 99bd c70a a2bd f080 3c3d
00000360: a4d5 393d 434b cabd 186f e439 82a6 87be
00000370: 9209 c538 826a 93bc d05d f9bc 4463 a9bd
00000380: 8ac8 88bc 0c52 33bd 1924 63bd 04b0 3bbc
00000390: c3ae 00bc 623a 963d 8f56 a3bb fa61 e5bc
000003a0: b74c 61bd 12ca 833a 3d30 dfbd 4361 95bc
000003b0: fdc3 a43d c166 c1bd 1fa8 1b3c bc90 13be
000003c0: e750 283d 8aec 2abe 2d2c 4f3d a283 ab3d
000003d0: 9b30 06bb 4c58 5cbe 1e82 2d3d c67e 643d
000003e0: 6fb9 d3bd 3715 5a3c e0a8 be3c 20ff 93bd
000003f0: e179 4ebe 2d2d 3b3d 3be9 0bbc 8161 b0bd

bias f4 [256]
0.018863883 0.05131467 -0.021555798 0.033011988 -0.015248653 0.023392627 0.016950399 0.04044107
-0.03596356 0.04366808 0.039738968 0.015441353 0.026538048 0.015837293 0.011278323 0.017249128
0.05233768 -0.0037426716 -0.032051194 -0.03468451 0.017582672 0.08201757 0.026683941 0.028061157
0.03557286 -0.014101684 0.0014892779 -0.021225363 0.026031116 0.04036849 0.037420686 -0.02508174
-0.035473615 -0.059203055 0.010053101 0.024016377 0.059448503 0.007437301 0.0127285635 -0.044191748
0.006792199 0.003774534 -0.013837685 -0.022982081 0.01875372 0.023899175 0.015872072 0.035555545
0.008883172 -0.0018391196 0.009569397 -0.0027159883 0.07498217 0.01883711 0.010545388 -0.022263166
-0.023349145 -0.022451257 0.005825344 0.03053162 0.008977898 0.036771458 0.061987888 0.009575612
0.03350887 0.016712517 0.0012058351 0.028707491 -0.01654751 0.06036637 0.01061272 -0.024188206
0.04109236 0.028056733 0.01861897 -0.024523998 -0.06699224 0.0022579771 -0.0070382543 -0.010317759
0.0034806665 -0.031023324 0.010186211 -0.03437982 0.019753175 -0.032006707 0.06522157 -0.027315944
-0.029981136 0.050188825 0.0071287034 0.015180098 0.02425762 -0.019385185 -0.020891163 0.024012847
0.032580093 -0.012808299 -0.014774105 -0.059246562 -0.023002 0.021994494 -0.039396662 0.018794382
0.010259412 0.03158638 0.026993668 0.0043830005 -0.0057728086 0.04015263 0.048768293 0.03125809
0.008626689 -0.042259805 0.007169544 -0.008344971 -0.03121753 0.035624925 -0.012106223 -0.03753045
0.0074497773 -0.021010876 0.014990793 0.06441726 0.016818244 -0.013186285 0.032277625 0.040299226
-0.016827337 -0.018709656 0.020859018 0.038495813 0.022623183 -0.032049894 -0.02015225 -0.016683659
-0.024671363 -0.015457524 0.052759 0.004417566 -0.018870572 0.013455259 -0.010592072 -0.025657717
-0.02968361 -0.044670872 0.054393165 0.004983067 -0.022154225 -0.003815071 -0.0026133296 0.033972926
0.04226736 -0.045185845 0.0007276075 0.027402524 0.027073095 0.023965474 0.04169983 0.017161028
0.019884992 0.05591351 0.037645496 0.011317099 -0.0011345417 0.012062771 0.016397655 0.0010456212
0.01667465 0.014509491 0.028159847 -0.02676979 -0.006017012 0.015013301 -0.03469687 -0.0202786
0.0132901175 -0.020780658 0.021735363 0.04214826 -0.010525936 -0.046400003 0.037332483 0.0017316872
-0.03248359 -0.008360268 0.0415815 -0.007986317 0.013026227 0.014243591 0.025443235 -0.002051232
0.00737311 -0.02051588 0.03654347 -0.03191603 0.028708054 0.032732688 0.023453273 0.038884047
0.03506959 0.03968 0.027486905 0.0073979967 0.0064715166 0.005328535 -0.0076039387 0.0050964993
-0.00456157 0.03472695 -0.0026465051 0.0062602363 0.016198419 -0.048469957 0.013722613 -0.04730315
0.020324983 -0.019465463 0.024057515 -0.01482424 0.03530555 -0.0023048744 0.007451643 0.033978514
0.0038374914 -0.03700229 -0.056133986 0.01633356 0.012770242 -0.018027203 0.0064214016 -0.042297944
-0.020234238 -0.00019627348 0.028699953 -0.032854207 -0.058873326 0.019492999 0.026799886 0.023525959
0.017546788 0.051727373 -0.007986635 0.007885006 0.0063690436 0.0016989581 0.02369229 -0.02653148
-0.012977879 -0.03034684 0.038813442 0.022242993 0.0154659515 0.053494778 -0.016902594 -0.0031606283
00000000: 6e88 9a3c 552f 523d c995 b0bc 9437 073d
00000010: 7cd5 79bc e5a1 bf3c 90db 8a3c 89a5 253d
00000020: 874e 13bd 4ddd 323d 54c5 223d bbfd 7c3c
00000030: 5266 d93c 36bd 813c b7c8 383c 0b4e 8d3c
00000040: 0960 563d 9c47 75bb 1d48 03bd 5811 0ebd
00000050: 8909 903c d4f8 a73d 4898 da3c 83e0 e53c
00000060: d9b4 113d c00a 67bc e033 c33a d0e0 adbc
00000070: 353f d53c 6e59 253d 6f46 193d 3978 cdbc
00000080: c84c 11bd e77e 72bd c3b5 243c febd c43c
00000090: 4680 733d 9ab4 f33b 778b 503c 6802 35bd
000000a0: 1891 de3b 2c5e 773b 75b7 62bc eb44 bcbc
000000b0: 67a1 993c 34c8 c33c 2606 823c b1a2 113d
000000c0: b98a 113c 9d0e f1ba f6c8 1c3c b9fe 31bb
000000d0: 4090 993d 4850 9a3c 90c6 2c3c 3e61 b6bc
000000e0: b546 bfbc b3eb b7bc 87e2 be3b 731d fa3c
000000f0: 0918 133c ab9d 163d 03e7 7d3d 07e3 1c3c
00000100: 9940 093d b0e8 883c 1d0d 9e3a f92b eb3c
00000110: a58e 87bc ba42 773d f9e0 2d3c 5826 c6bc
00000120: 7650 283d 3cd7 e53c cf86 983c 8de6 c8bc
00000130: 3a33 89bd 92fa 133b 28a1 e6bb d10b 29bc
00000140: e51b 643b a024 febc 11e4 263c dbd1 0cbd
00000150: 69d1 a13c 7719 03bd e392 853d b0c5 dfbc
00000160: 009b f5bc cc92 4d3d e697 e93b f2b5 783c
00000170: ebb7 c63c aecd 9ebc f223 abbc 97b6 c43c
00000180: b472 053d e6d9 51bc 160f 72bc 86ac 72bd
00000190: b16e bcbc cc2d b43c 655e 21bd adf6 993c
000001a0: 1817 283c b860 013d d321 dd3c 469f 8f3b
000001b0: d429 bdbb 1677 243d 43c1 473d 7c08 003d
000001c0: f556 0d3c 9e18 2dbd 7fee ea3b 58b9 08bc
000001d0: e8bb ffbc 71eb 113d 2e59 46bc 87b9 19bd
000001e0: 431d f43b 001f acbc f19b 753c 32ed 833d
000001f0: 6ac6 893c 4a0b 58bc 8b35 043d cd10 253d
00000200: 7cd9 89bc fe44 99bc 88e0 aa3c c9ad 1d3d
00000210: 4154 b93c c046 03bd 5516 a5bc 2bac 88bc
00000220: 991b cabc 8e41 7dbc d219 583d 3bc1 903b
00000230: 7596 9abc 7273 5c3c 5f8a 2dbc 2230 d2bc
00000240: 0b2b f3bc cef8 36bd 5ecb 5e3d ff48 a33b
00000250: c77c b5bc 4506 7abb 6544 2bbb 3227 0b3d
00000260: 8a20 2d3d cb14 39bd eabc 3e3a 427b e03c
00000270: 65c8 dd3c 3e53 c43c 71cd 2a3d 4995 8c3c
00000280: dae5 a23c 9105 653d 2a32 1a3d 5b6b 393c
00000290: e7b4 94ba eea2 453c 6054 863c 3a0d 893a
000002a0: 4799 883c 37b9 6d3c 7baf e63c 524c dbbc
000002b0: 5b2a c5bb 59fa 753c 4e1e 0ebd 4e1f a6bc
000002c0: cbbe 593c 333c aabc 5c0e b23c a7a3 2c3d
000002d0: fa74 2cbc ee0d 3ebd f2e9 183d c8f9 e23a
000002e0: 830d 05bd 81f9 08bc 5d51 2a3d 0bd9 02bc
000002f0: f56b 553c f35d 693c 556e d03c f66d 06bb
00000300: 219a f13b eb10 a8bc 9bae 153d 62ba 02bd
00000310: 272d eb3c b612 063d 1421 c03c e144 1f3d
00000320: 21a5 0f3d 7f87 223d 382c e13c e56a f23b
00000330: 040f d43b fe9a ae3b 762a f9bb 8900 a73b
00000340: 3979 95bb d93d 0e3d fd70 2dbb ab22 cd3b
00000350: 8cb2 843c 6f88 46bd d0d4 603c f3c0 41bd
00000360: 9480 a63c 0976 9fbc 4414 c53c 5ee1 72bc
00000370: 8d9c 103d 600d 17bb e92c f43b 0e2d 0b3d
00000380: 6c7e 7b3b b78f 17bd c0ec 65bd f5cd 853c
00000390: 473a 513c c9ad 93bc 9f6a d23b 9c40 2dbd
000003a0: 46c2 a5bc c3ce 4db9 2a1c eb3c 2292 06bd
000003b0: 2825 71bd c8af 9f3c 6f8b db3c 83b9 c03c
000003c0: 48be 8f3c 15e0 533d 60da 02bc 1d30 013c
000003d0: 69b3 d03b 93af de3a 5516 c23c 8c58 d9bc
000003e0: 2ba1 54bc f099 f8bc d8fa 1e3d f036 b63c
000003f0: e764 7d3c 571d 5b3d 4f77 8abc 8b22 4fbb

weight f4 [128, 256]
-0.07454139 -0.32172978 0.031014172 -0.010699812 -0.01710593 -0.06040543 -0.023488315 0.020238021
-0.005492224 0.030734869 0.04302897 0.014012559 -0.08516857 -0.10215757 0.06804864 -0.20660105
-0.07549748 -0.038595837 -0.055081572 0.07425591 -0.04114575 -0.17740382 -0.017760042 -0.04932686
0.046957403 -0.21186997 0.06246823 -0.1298624 0.07956428 0.135895 0.07396986 -0.087506615
0.054209393 -0.16640349 -0.26231086 0.12627006 -0.015132083 -0.15532008 -0.09325077 0.13980633
0.05840584 -0.018208042 0.11573721 -0.0049437033 0.06768174 0.09505286 -0.17360383 -0.059679363
-0.078349456 -0.04880714 -0.024550565 0.14212641 0.08256878 -0.1360975 -0.16252893 0.09261346
-0.073780894 -0.05073398 0.07149747 -0.0773634 -0.13203408 -0.09980149 -0.13542983 0.025282279
-0.15535691 0.101434864 0.092831895 0.060534734 -0.2485135 -0.05693399 -0.02581245 -0.050884478
-0.016352713 0.11011036 -0.061633606 0.080505095 -0.22383013 0.012274888 -0.0693499 0.16138174
0.09255335 0.11948836 0.22923401 -0.21616448 -0.0066086524 -0.07810309 -0.23571265 0.10162458
-0.27379084 0.046950504 0.051359177 0.019569926 0.105029054 0.104912594 -0.020967664 -0.1270129
0.060511414 0.08578961 0.14849567 -0.13757977 -0.021692885 0.083497934 0.037607823 -0.08384727
0.18911773 0.097800165 0.10535128 0.14978771 -0.03271752 0.017947808 -0.019918833 -0.019616911
0.013380616 -0.0013992732 0.017163634 0.063551314 -0.11825644 -0.016412066 -0.112973176 -0.054438632
-0.026165985 -0.09341778 0.005246983 -0.14450553 0.21770567 0.0045139235 0.14219144 -0.08527113
-0.14235477 -0.0022331965 -0.05028077 0.008920927 0.02492171 -0.041978814 -0.035693385 0.15260774
0.08812334 0.0056346464 -0.09914916 0.107239105 0.016386459 0.03331288 -0.0325883 0.08162553
-0.047304295 0.0609374 -0.011512233 -0.16756989 -0.20415448 -0.04607686 0.10723982 -0.10984911
0.012643165 -0.24615365 -0.03677902 0.0037893353 -0.06663872 0.0326123 -0.114072815 -0.13122277
0.023640174 0.12198288 -0.056661304 -0.031813215 -0.055459563 0.07334937 -0.07740573 0.05720543
0.14331748 -0.10575552 0.09312063 -0.09596444 -0.1326733 -0.013835716 0.028835928 -0.07168116
0.046425898 -0.03842787 0.05689684 0.098284185 0.037103783 -0.14610317 -0.17299996 0.20237438
0.054060414 -0.20963767 -0.053680256 0.04446749 -0.10581148 -0.19761638 0.031563915 0.12694652
-0.075345695 0.17784172 -0.010852855 0.0723416 -0.13570589 -0.042001516 0.114195436 -0.07593931
0.015605233 -0.046677824 -0.17361477 0.09373047 -0.08710379 -0.12821865 -0.044367407 -0.36557934
0.097147785 -0.1855802 0.18290024 -0.05885447 -0.07460006 0.18748003 -0.110351495 -0.038282637
0.081246845 -0.007287067 -0.17204852 -0.07352509 -0.17439017 -0.10079978 0.08014666 0.08944376
-0.01503465 0.27353337 0.0818284 0.015148992 -0.10082542 0.044248182 0.10442167 0.06637343
0.08852456 -0.061690956 -0.05222086 0.037027195 -0.05394917 0.045815602 0.068044975 0.18888426
0.10435609 0.13344061 0.08720724 -0.06958375 -0.06679867 0.13420469 0.06918647 0.003916097
-0.19208215 -0.086782396 -0.067366876 -0.14224775 -0.13481717 0.19756724 -0.04806274 -0.0423909
00000000: 28a9 98bd c4b9 a4be 6f11 fe3c 444e 2fbc
00000010: bc21 8cbc af6b 77bd 916a c0bc 35ca a53c
00000020: 1df8 b3bb b1c7 fb3c 253f 303d ef94 653c
00000030: dc6c aebd fd37 d1bd 165d 8b3d 3a8f 53be
00000040: 6c9e 9abd ab16 1ebd 379d 61bd 7c13 983d
00000050: 7288 28bd 59a9 35be 827d 91bc f60a 4abd
00000060: 6856 403d 71f4 58be b0de 7f3d a6fa 04be
00000070: 99f2 a23d 0f28 0b3e 837d 973d ab36 b3bd
00000080: ab0a 5e3d ad65 2abe 9c4d 86be f04c 013e
00000090: 8eec 77bc 3a0c 1fbe 42fa bebd 6429 0f3e
000000a0: f63a 6f3d 0829 95bc a107 ed3d cafe a1bb
000000b0: b99c 8a3d 13ab c23d 34c5 31be 5972 74bd
000000c0: ae75 a0bd ffe9 47bd 441e c9bc 9689 113e
000000d0: d219 a93d 255d 0bbe fc6d 26be 20ac bd3d
000000e0: 701a 97bd 6fce 4fbd 446d 923d b470 9ebd
000000f0: f133 07be b964 ccbd 1eae 0abe c81c cf3c
00000100: e215 1fbe 15bd cf3d a61e be3d 45f3 773d
00000110: 537a 7ebe 9e33 69bd a274 d3bc 3e6c 50bd
00000120: 20f6 85bc 8a81 e13d 8573 7cbd dbdf a43d
00000130: ba33 65be 9d1c 493c 5207 8ebd 4141 253e
00000140: 9c8c bd3d 50b6 f43d 52bc 6a3e 395a 5dbe
00000150: 658d d8bb 83f4 9fbd a85e 71be 8c20 d03d
00000160: 502e 8cbe 2c4f 403d 005e 523d 1c51 a03c
00000170: 7919 d73d 6adc d63d 61c4 abbc ab0f 02be
00000180: d1da 773d 77b2 af3d 400f 183e b6e1 0cbe
00000190: 47b5 b1bc f700 ab3d a90a 1a3d 1eb8 abbd
000001a0: 14a8 413e 744b c83d 69c2 d73d f361 193e
000001b0: ce02 06bd 4807 933c d22c a3bc a5b3 a0bc
000001c0: 5f3a 5b3c d167 b7ba c09a 8c3c 3127 823d
000001d0: 6f30 f2bd 9972 86bc 7b5e e7bd 0bfb 5ebd
000001e0: 0c5a d6bc d251 bfbd e2ee ab3b 42f9 13be
000001f0: 3cee 5e3e 89e9 933b a29a 113e a1a2 aebd
00000200: 73c5 11be d25a 12bb 35f3 4dbd 1429 123c
00000210: 9d28 cc3c faf1 2bbd 3a33 12bd 3445 1c3e
00000220: 027a b43d d7a2 b83b b70e cbbd 2da0 db3d
00000230: e53c 863c 1673 083d 4f7b 05bd 492b a73d
00000240: 26c2 41bd 7f99 793d ce9d 3cbc 7197 2bbe
00000250: df0d 51be 17bb 3cbd 8da0 db3d 92f8 e0bd
00000260: 4725 4f3c b40f 7cbe 99a5 16bd 7f56 783b
00000270: e279 88bd 7a94 053d 029f e9bd 435f 06be
00000280: 0aa9 c13c 29d2 f93d af15 68bd 934e 02bd
00000290: 9129 63bd 3238 963d e586 9ebd 3e50 6a3d
000002a0: d1c1 123e 5a96 d8bd 07b6 be3d 0189 c4bd
000002b0: 82db 07be 33af 62bc 5339 ec3c 92cd 92bd
000002c0: 1529 3e3d 8b66 1dbd a90c 693d 3849 c93d
000002d0: 23fa 173d 129c 15be e726 31be 3b3b 4f3e
000002e0: 746e 5d3d 42ab 56be d4df 5bbd 8b23 363d
000002f0: b0b3 d8bd f35b 4abe 2a49 013d 45fe 013e
00000300: d84e 9abd 241c 363e 2cd0 31bc d527 943d
00000310: 7cf6 0abe c809 2cbd 4cdf e93d 1286 9bbd
00000320: 17ad 7f3c 3f31 3fbd 12c8 31be c3f5 bf3d
00000330: 7963 b2bd c04b 03be 99ba 35bd 372d bbbe
00000340: 6bf5 c63d bc08 3ebe 334a 3b3e 6211 71bd
00000350: ebc7 98bd c4fa 3f3e f7ff e1bd 41ce 1cbd
00000360: bf64 a63d 59c8 eebb 7d2d 30be 5394 96bd
00000370: 5693 32be 1d70 cebd ef23 a43d 4a2e b73d
00000380: e553 76bc 910c 8c3e a695 a73d 7a33 783c
00000390: 8f7d cebd 953d 353d 07db d53d cbee 873d
000003a0: 5d4c b53d a8af 7cbd 8ae5 55bd d4a9 173d
000003b0: cef9 5cbd 24a9 3b3d 2a5b 8b3d e06a 413e
000003c0: a5b8 d53d a8a4 083e b699 b23d ed81 8ebd
000003d0: becd 88bd f46c 093e a3b1 8d3d 9a52 803b
000003e0: 2fb1 44be f8ba b1bd a5f7 89bd 65a9 11be
000003f0: 830d 0abe 114f 4a3e 70dd 44bd 15a2 2dbd

bias f4 [128]
-0.0041482365 0.023314426 -0.034892898 -0.048143316 -0.036673483 0.0044962876 0.028367026 0.041357525
0.020699956 0.035985474 0.02497098 0.036207493 0.0434343 0.021319177 0.014819663 0.034251574
0.019319544 0.042204566 0.020544516 0.08498996 0.04369722 -0.026882757 0.023067884 0.035103735
0.0031521828 0.0018631816 0.004773026 0.027754819 -0.048677962 0.03403569 0.06331338 0.017581403
0.030092357 0.03835173 0.024002798 0.020018483 0.0070729395 0.037281055 -0.009964275 -0.031185273
0.027439388 0.06954734 -0.047451198 0.046564765 -0.0060860794 -0.0034456325 0.021690294 0.016859658
0.03470278 0.020305406 0.015849644 0.020836333 0.035222903 0.0429065 0.028474405 -0.043319188
0.03836887 0.0018799965 -0.0212011 0.020889742 0.015001143 -0.025853824 -0.01316892 -0.07673982
0.05924527 -0.059711404 0.044609662 0.029497584 0.028286843 0.013178532 0.026411036 -0.014740726
0.011573089 0.030976422 0.015231788 0.030649 -0.054465916 0.02157028 0.028164653 0.03946111
-0.0029775235 -0.02538092 0.032346535 0.050109897 0.032736436 0.024283525 0.007581983 -0.03979547
0.0108803315 0.03545022 0.006625789 0.028907843 0.03630183 0.032529406 0.04545502 -0.010267103
0.009206796 0.0050303387 0.03139578 0.021200495 0.0051538534 0.03632181 -0.032817468 0.021064825
-0.014786894 0.051025294 -0.05364921 0.041249733 0.02583073 0.031253703 -0.0507765 0.055423494
-0.0037489277 0.033068873 0.009165275 0.012400665 -0.03585682 0.03159262 0.013258581 0.010824831
-0.027861206 0.026116267 0.021637725 0.06021466 -0.05733338 -0.016824288 0.03460658 0.034503967
00000000: eeed 87bb e5fd be3c dbeb 0ebd ed31 45bd
00000010: ef36 16bd 9855 933b f761 e83c 8266 293d
00000020: f492 a93c 8165 133d f18f cc3c 4f4e 143d
00000030: 2ae8 313d 8ea5 ae3c 2cce 723c 614b 0c3d
00000040: 0544 9e3c b2de 2c3d f94c a83c 370f ae3d
00000050: dbfb 323d 3a39 dcbc dcf8 bc3c efc8 0f3d
00000060: da94 4e3b 0036 f43a 0b67 9c3b 135e e33c
00000070: 8b62 47bd 0269 0b3d 72aa 813d e006 903c
00000080: 3f84 f63c b416 1d3d 84a1 c43c cdfd a33c
00000090: 1ec4 e73b 05b4 183d 3341 23bc 4278 ffbc
000000a0: 91c8 e03c d66e 8e3d 305c 42bd b2ba 3e3d
000000b0: bc6d c7bb 1fd0 61bb d8af b13c 441d 8a3c
000000c0: 8124 0e3d 8657 a63c 1dd7 813c f5b0 aa3c
000000d0: e445 103d babe 2f3d 2843 e93c 766f 31bd
000000e0: ad28 1d3d 376a f63a eead adbc f720 ab3c
000000f0: 5bc7 753c 66cb d3bc 74c2 57bc c429 9dbd
00000100: 2bab 723d f293 74bd 9fb8 363d eba4 f13c
00000110: cfb9 e73c c5ea 573c f55b d83c 1683 71bc
00000120: 0e9d 3d3c 44c2 fd3c c08e 793c 9d13 fb3c
00000130: a717 5fbd 28b4 b03c 8fb9 e63c f9a1 213d
00000140: 8e22 43bb a6eb cfbc cd7d 043d 0940 4d3d
00000150: a416 063d 3eee c63c 4972 f83b 9300 23bd
00000160: 6b43 323c 4034 113d 261d d93b 24d0 ec3c
00000170: 3ab1 143d 8e3d 053d 0b2f 3a3d 5a37 28bc
00000180: 1ad8 163c 8ad5 a43b dd98 003d a9ac ad3c
00000190: a8e1 a83b 2ec6 143d 9c6b 06bd 2490 ac3c
000001a0: bb44 72bc e6ff 503d 46bf 5bbd 7bf5 283d
000001b0: f89a d33c e203 003d 05fb 4fbd bf03 633d
000001c0: 92b0 75bb 3a73 073d f329 163c 292c 4b3c
000001d0: 9ade 12bd 4367 013d 853a 593c a25a 313c
000001e0: 2f3d e4bc c8f1 d53c 9941 b13c a6a3 763d
000001f0: 68d6 6abd 17d3 89bc a1bf 0d3d 0854 0d3d

weight f4 [24, 128]
0.22603902 0.01593623 -0.039240543 -0.039293375 -0.18014015 0.08144572 -0.10576411 0.06569315
-0.19819029 0.0030766856 -0.04892501 -0.19156516 0.0055167503 -0.14534444 0.18359683 -0.25843564
0.05681325 0.11256087 0.004172653 0.19889791 -0.0060231 0.16600528 0.20722117 0.3746362
0.26597965 0.16929255 0.1385622 0.24707843 0.022118067 0.10253575 -0.19146812 0.19001384
-0.0051556705 0.026618842 -0.0053984676 0.05385367 0.18801883 -0.1083485 -0.2049556 0.119628124
-0.023649627 -0.2847526 0.05296085 -0.07357025 -0.1999261 -0.035252273 0.104063235 0.15820077
-0.2435995 -0.34090653 0.279004 -0.11397375 0.01137663 0.09678336 0.19786483 0.13120285
0.015595844 -0.26139143 -0.20950854 0.021620877 -0.15503083 -0.09116862 0.10689296 0.107840344
0.052038535 0.00913257 -0.21736272 -0.15476361 0.16966195 0.19045012 0.08243432 -0.18217956
-0.19315481 -0.15774056 -0.33183366 0.3621117 -0.106959835 0.18985745 0.08197146 0.065723605
0.06987253 -0.09854614 -0.09960048 -0.2266858 -0.061556447 0.22409555 -0.12104271 0.22055982
0.081299774 -0.07430182 -0.19000223 0.0024748303 0.14263989 0.18544638 0.009463083 0.08641089
-0.20489185 -0.0064514484 -0.51254314 0.2688605 0.121131234 -0.060826905 0.026979074 0.034927785
-0.0564542 -0.28077212 -0.005587238 -0.041731354 -0.010924923 -0.15393691 -0.046772163 -0.49466065
0.14297882 -0.019560175 -0.12060131 0.011140787 0.0123209 -0.27084094 0.6242767 -0.022525499
-0.021907639 0.21526986 0.02938773 -0.3113276 0.028625732 0.08175281 -0.19105437 -0.16325714
0.11937884 0.26867786 0.16939215 -0.22356205 -0.026183322 0.16427991 0.031052295 0.10268458
-0.35141423 -0.016002893 0.058125596 0.005998638 -0.21289231 -0.07192885 -0.36182687 0.03191926
0.10700557 -0.01227867 0.08159871 0.17503141 -0.16134311 0.13007426 0.2568462 0.1550751
0.19780052 0.11204791 0.27905962 0.114375874 0.12150169 -0.11771324 -0.1398629 -0.19929147
-0.18393123 0.15177023 -0.12022254 -0.035284296 -0.01626495 0.01828816 -0.07325353 0.0488083
0.06728817 -0.2348873 0.041241463 -0.1218356 -0.23952493 -0.09391991 -0.16981436 0.17591241
-0.21934363 -0.33685997 0.02830041 -0.055151165 -0.06787806 0.14148016 0.07917615 -0.04914979
0.19384675 0.21002352 0.28278938 0.15501729 0.021102933 -0.027755423 0.38424632 -0.0058241803
0.024905493 0.039257303 0.20984055 0.1563481 0.24551445 0.27130586 0.20071112 -0.021444667
-0.109913185 0.25649586 -0.027145404 0.27578515 0.074592315 0.021590801 0.06359401 -0.14065108
-0.13120018 0.04042017 0.00022986969 0.1825485 -0.026903166 -0.046102952 0.028033126 -0.022035582
0.10480516 0.060644004 -0.1272134 0.110518634 -0.006015686 0.16568829 0.0012318828 -0.0399794
-0.12650152 -0.08390923 -0.32438415 0.11563526 0.081741445 -0.12594314 -0.19844781 -0.031394422
-0.4326035 -0.06670275 -0.122236475 -0.04476051 -0.02582532 -0.015617234 0.020259533 -0.65391827
-0.10940139 -0.075906426 0.05677962 -0.09668734 -0.05083214 0.16703957 -0.41359475 -0.10712336
0.06347952 0.2567537 0.17714682 -0.23890595 -0.034346946 0.2695401 -0.0069845296 -0.1117237
00000000: c676 673e b28c 823c b1ba 20bd 17f2 20bd
00000010: a976 38be 03cd a63d db9a d8bd 218a 863d
00000020: 65f2 4abe 38a2 493b 9765 48bd a829 44be
00000030: dbc5 b43b 2cd5 14be cf00 3c3e ad51 84be
00000040: 03b5 683d 5086 e63d c0ba 883b e5ab 4b3e
00000050: 6d5d c5bb 4afd 293e c931 543e 51d0 bf3e
00000060: 7c2e 883e 075b 2d3e 40e3 0d3e 2102 7d3e
00000070: f330 b53c 43fe d13d 3810 44be fd92 423e
00000080: e6f0 a8bb c20f da3c a1e5 b0bb aa95 5c3d
00000090: 0288 403e d2e5 ddbd e1df 51be 97ff f43d
000000a0: ddbc c1bc 18cb 91be 7aed 583d 00ac 96bd
000000b0: 6db9 4cbe b064 10bd 1b1f d53d 62ff 213e
000000c0: 2672 79be 4d8b aebe 9dd9 8e3e 126b e9bd
000000d0: 0b65 3a3c 5b36 c63d 149d 4a3e 0a5a 063e
000000e0: b685 7f3c 19d5 85be 6889 56be 441e b13c
000000f0: 67c0 1ebe 9db6 babd b2ea da3d 66db dc3d
00000100: 5c26 553d c6a0 153c 5594 5ebe 5a7a 1ebe
00000110: ddbb 2d3e 5b05 433e 53d3 a83d 478d 3abe
00000120: 60ca 45be be86 21be 1ae6 a9be b466 b93e
00000130: c20d dbbd fe69 423e a7e0 a73d 199a 863d
00000140: 5419 8f3d 8fd2 c9bd 56fb cbbd 5320 68be
00000150: 9d22 7cbd 4e79 653e 3ee5 f7bd 6fda 613e
00000160: 7f80 a63d 8d2b 98bd f28f 42be c330 223b
00000170: 3110 123e a8e5 3d3e 0c0b 1b3c 31f8 b03d
00000180: 2bcf 51be ac66 d3bb 0736 03bf 15a8 893e
00000190: a713 f83d a225 79bd 3803 dd3c 7010 0f3d
000001a0: 853c 67bd 5dc1 8fbe 2615 b7bb 7fee 2abd
000001b0: 73fe 32bc a3a1 1dbe 2b94 3fbd 2944 fdbe
000001c0: 0a69 123e a93c a0bc d2fd f6bd d987 363c
000001d0: 9add 493c aaab 8abe 99d0 1f3f 6587 b8bc
000001e0: a677 b3bc b46f 5c3e 89be f03c 5566 9fbe
000001f0: 8380 ea3c 046e a73d c2a3 43be e12c 27be
00000200: e57c f43d 2590 893e 2375 2d3e 73ed 64be
00000210: 687e d6bc fe38 283e 6261 fe3c 4b4c d23d
00000220: 91ec b3be 8018 83bc 1b15 6e3d 3990 c43b
00000230: 7100 5abe 6f4f 93bd 5f41 b9be c5bd 023d
00000240: bc25 db3d 7a2c 49bc 391d a73d 6f3b 333e
00000250: 2137 25be 3032 053e 5881 833e 02cc 1e3e
00000260: 388c 4a3e 6079 e53d e7e0 8e3e e63d ea3d
00000270: e1d5 f83d a413 f1bd 3838 0fbe 1013 4cbe
00000280: 7858 3cbe a869 1b3e 3c37 f6bd 4486 10bd
00000290: 133e 85bc 0dd1 953c f205 96bd 36eb 473d
000002a0: 61ce 893d 4c86 70be cfec 283d f184 f9bd
000002b0: 0646 75be 1559 c0bd d1e3 2dbe 6222 343e
000002c0: 9e9b 60be e978 acbe 43d6 e73c 30e6 61bd
000002d0: a703 8bbd 2de0 103e 1b27 a23d 4a51 49bd
000002e0: c37f 463e 6810 573e c5c9 903e dabc 1e3e
000002f0: 0fe0 ac3c 575f e3bc efbb c43e c4d8 bebb
00000300: 9b06 cc3c 44cc 203d 71e0 563e b719 203e
00000310: 2468 7b3e 9ae8 8a3e 3787 4d3e baac afbc
00000320: 2a1a e1bd 6d53 833e 0a60 debc b633 8d3e
00000330: dbc3 983d 31df b03c 943d 823d d606 10be
00000340: 5759 06be 9f8f 253d 2d09 7139 feed 3a3e
00000350: 0764 dcbc 73d6 3cbd baa5 e53c f783 b4bc
00000360: 16a4 d63d d965 783d 3b44 02be 9857 e23d
00000370: 3b1f c5bb 31aa 293e 2177 a13a 70c1 23bd
00000380: 9d89 01be 9ad8 abbd ae15 a6be 2ed2 ec3d
00000390: 0f68 a73d 3df7 00be e735 4bbe 7097 00bd
000003a0: 357e ddbe 749b 88bd 1e57 fabd cc56 37bd
000003b0: 9f8f d3bc 6ddf 7fbc 52f7 a53c 3067 27bf
000003c0: d60d e0bd d474 9bbd bf91 683d 0304 c6bd
000003d0: 5d35 50bd 6c0c 2b3e b1c2 d3be 7e63 dbbd
000003e0: 8d01 823d 3975 833e fa65 353e c3a3 74be
000003f0: 62af 0cbd 2901 8a3e 7bde e4bb 65cf e4bd

bias f4 [24]
0.01193835 0.03477509 0.021692472 0.002608539 0.029413702 -0.00348666 0.005704473 0.015837528
0.005264632 -0.013398972 0.004584226 0.00424375 0.029719159 0.02369183 0.0064390046 0.030963633
0.0040363413 0.008176411 0.0037283404 0.017348582 0.0051188455 0.009351284 0.028676374 -0.006611714
00000000: 1299 433c 5370 0e3d 69b4 b13c 06f4 2a3b
00000010: 01f5 f03c 7380 64bb 96ec ba3b b4bd 813c
00000020: ef82 ac3b 5d87 5bbc 4637 963b 280f 8b3b
00000030: 9875 f33c 5e15 c23c 49fe d23b 72a7 fd3c
00000040: 4943 843b 5af6 053c 2c57 743b 9d1e 8e3c
00000050: fdbb a73b 2136 193c b7ea ea3c 14a7 d8bb
